src/bidmc_generation/models/ha_cnn_bilstm_withWST/20260205_171458/lightweight_hybrid_final.pth (torch, 430116 bytes, 23 tensors)

cnn_encoder.0.weight f4 [32, 16, 7]
000000 97 63 13 bc 49 96 86 bd cc 8a ba 3d 59 66 08 3b
       -0.008995912 -0.06571633 0.09108505 0.0020812957
000010 da 63 9f bc 8c d1 9c bd f4 5d e9 3c 8b 35 5e bd
       -0.019456793 -0.076571554 0.028487183 -0.05425028
000020 25 be 91 3d c2 43 50 3d d6 91 cf 3d 1c 87 70 bd
       0.07116345 0.05084587 0.10135238 -0.0587226
000030 3f 06 23 3b ba 9a 06 3d 4e 12 0f 3d c9 23 7f 3d
       0.002487555 0.032862402 0.034929566 0.062289987
000040 46 e3 30 3c 0e 54 e6 bc bd 69 8f 3d c5 29 8d bd
       0.010796374 -0.028116252 0.0700259 -0.068927325
000050 eb 8a 47 bd f2 e5 90 3d 6e bd 2e bc d7 11 c4 3d
       -0.048716467 0.070751086 -0.010665281 0.09573715
000060 f2 83 72 bd 29 c3 85 3d a0 28 a8 3b 62 63 04 3c
       -0.059207864 0.065313645 0.005131796 0.008080335
000070 4c af c5 3d 7f d6 a1 bc ef ad 12 3d c1 a9 cf bc
       0.09652576 -0.0197556 0.035810407 -0.0253495
000080 f9 2c fe 3c a7 26 f1 3c 20 97 d2 3d 4a bb b5 bc
       0.031027304 0.029437376 0.10282731 -0.022184033
000090 e6 06 39 3d 92 65 39 3c 50 c3 95 3d 97 ce 8b bd
       0.045172594 0.01131572 0.073126435 -0.06826513
0000a0 6c 96 33 bd fe 93 bb 3d 7c 41 85 3d 20 ef 90 bb
       -0.043844625 0.09159087 0.06506631 -0.004423037
0000b0 16 97 3f 3d 04 a2 15 3d 62 08 18 bd 7f 0c b7 bd
       0.046774946 0.036531463 -0.03711737 -0.0893793
0000c0 24 37 52 bd 75 0b ae 3d fc 71 37 3c e1 46 86 3d
       -0.051322117 0.08498279 0.01119661 0.06556488
0000d0 ad 0f 93 bd 23 fa 94 3d a0 14 7b 3c d1 49 7a 3c
       -0.07180724 0.07274272 0.015324742 0.015276388
0000e0 c3 c1 09 be 05 69 0e be be e2 3d be 10 c8 44 be
       -0.1345282 -0.1390725 -0.18543527 -0.19216943
0000f0 79 41 01 be d8 84 ec 3b e1 ad 85 bd c3 09 53 3b
       -0.12622632 0.0072179846 -0.065273054 0.0032201863
000100 0f 68 96 3d 2a 00 12 3d 6f 64 57 3e d4 36 f3 3d
       0.07344066 0.035644688 0.21034406 0.11875692
000110 8d ab 2f bd f4 c8 99 bd c3 af 5c bd cc 71 a9 3d
       -0.042888213 -0.07509032 -0.053878557 0.08273658
000120 11 4e 4c 3e db 65 26 3e 37 be b5 3d 97 52 a0 bc
       0.19951655 0.16249792 0.08874171 -0.019570632
000130 b5 40 83 bd a3 1d ec bd a6 c6 75 bc 0a 87 8b 3c
       -0.06408826 -0.1152909 -0.015000975 0.017032165
000140 d7 1d 6d 3e 03 a9 6b 3d 88 9a 1c bd cf 2d 31 be
       0.23155914 0.05753423 -0.03823331 -0.17302631
000150 8f cd c4 bd 55 dd c5 3d ee 91 05 3d ea 37 3f 3e
       -0.0960952 0.09661356 0.032609873 0.18673673
000160 53 26 42 3e 23 33 fa bd 55 50 b4 bd 7a 97 65 bd
       0.18959932 -0.12216785 -0.088043846 -0.056052662
000170 87 7a 12 3d e0 16 f5 3d 78 b9 74 3e 3f 77 42 3e
       0.035761382 0.11967254 0.23898876 0.18990801
000180 cf 3a ed bc 7a c0 70 bd f5 e2 ea bd 2e ed 40 bc
       -0.028958706 -0.05877731 -0.1146907 -0.011775298
000190 dd 9f bd 3d 96 81 62 3e 57 4c 42 3e 93 5b eb 3c
       0.09259007 0.22119746 0.18974434 0.02873019
0001a0 49 67 c7 bd 3d 80 66 bd d6 db 58 bc 5e be e2 3d
       -0.09736497 -0.05627464 -0.013236007 0.11071466
0001b0 6d b0 b4 3d 75 9b 17 3e bf d8 bd bd ae 1f 56 bc
       0.08822713 0.14805396 -0.09269857 -0.013069076
0001c0 10 19 34 3d 0a ba 49 3d f8 ee b9 bc b7 5c aa 3c
       0.043969214 0.049249686 -0.022696957 0.020796163
0001d0 ac 17 b4 bd b6 69 df bd c5 5d c9 bd d8 07 64 3e
       -0.087935776 -0.10908835 -0.09832338 0.22268617
0001e0 2f 58 13 3e 05 a3 d9 3d 3b d9 ce 3d 5a 76 e3 3c
       0.14389108 0.10626797 0.10100027 0.027766395
0001f0 e5 7c 80 bc 66 ef 8e bd c5 50 b9 3d 51 64 24 3e
       -0.015684554 -0.069792554 0.09048609 0.16053893
000200 af af 0b 3e 40 85 50 bd 60 6a d0 3c 00 69 8c bd
       0.13641237 -0.050908327 0.025441349 -0.06855965
000210 73 33 78 3d fb 36 d7 3d 62 7f 97 3d 36 3c 4a 3d
       0.06059594 0.105085336 0.07397343 0.049373828
000220 88 06 5b 3b 1c 08 9b 3d 8f 06 a0 bd df 43 4a 3c
       0.003342064 0.07569906 -0.07813751 0.012345283
000230 06 03 f5 3d 82 ba 28 3e 36 d6 ec 3d 32 d8 28 bd
       0.11963467 0.16477397 0.11564295 -0.041221805
000240 16 f9 8d bc 4e f1 24 bd 0a 2c 48 bd ab ab 2f 3e
       -0.017330687 -0.04026919 -0.048870124 0.1715533
000250 10 b0 36 3e 82 4b 9f bc 49 09 68 bc 6a a1 b7 3d
       0.178406 -0.019445185 -0.01416237 0.08966334
000260 56 66 99 bc bb af 3a bd 5b 14 29 3e ad 85 97 3d
       -0.018725555 -0.045577746 0.16511671 0.073985435
000270 37 08 ce 3c 3b 01 6e bd b9 36 87 3d d1 64 54 bd
       0.025150402 -0.058106642 0.066022344 -0.05185396
000280 a6 e3 9c bd b0 6c e8 3c 68 f9 89 3c dd 89 b7 3d
       -0.07660608 0.028372139 0.016842559 0.08961842
000290 58 c0 71 3d 0f 8b ae 3c ba 42 b0 bd 2b 67 cd bd
       0.059021324 0.021306543 -0.08606477 -0.10029443
0002a0 68 c6 0f bd a1 23 94 bd 8a c3 2e 3d b3 ee c0 3d
       -0.035101324 -0.07233358 0.04266695 0.09420528
0002b0 ef 9a 2d 3d a8 6e 19 bd cf 2f e4 3d 35 0b f2 bc
       0.042384084 -0.037459046 0.11141931 -0.02954636
0002c0 4f 37 f3 bd 79 21 bd bd 30 d7 8a bc 6d 2b 06 3c
       -0.11875784 -0.092349 -0.016948313 0.008189064
0002d0 c4 f8 28 3e 91 66 40 3e 10 c4 f5 bd 7a b8 1f be
       0.16501147 0.18789126 -0.120002866 -0.15597716
0002e0 bc e5 c1 bd 07 49 c3 bd a5 2a ac 3c f0 5a 9b 3d
       -0.094676465 -0.09535413 0.021016428 0.07585704
0002f0 9c 58 d9 3d f9 bb 3f bd db 8d ef bd b8 4a ba bb
       0.10612604 -0.046810124 -0.11696979 -0.0056851767
000300 09 06 f1 3c 51 c2 9f 3b 8c 78 1e 3d 19 51 14 3d
       0.029421823 0.0048754592 0.03868918 0.036210153
000310 06 9b 6f bd 04 6f 18 be 51 b4 ae 3c 1a 27 8b 3c
       -0.05849745 -0.14886099 0.021326216 0.016986419
000320 0e f2 5f 3c 27 75 59 3d 14 8a c8 3d ee 78 08 3d
       0.01366855 0.05309024 0.09791961 0.033318453
000330 60 e1 a9 bd bd 4f 3a bd 64 31 8f 3c 4f b1 78 3d
       -0.0829494 -0.0454862 0.017479606 0.06071597
000340 53 84 5c 3d 82 f8 23 3e 53 20 ec bd 1b 51 34 bd
       0.05383713 0.16012767 -0.11529603 -0.04402266
000350 95 da 1a be 58 8b ae 3c 9c 70 a7 3d 2d dc cb 3c
       -0.15122445 0.021306679 0.081757754 0.024885261
000360 71 0e 63 bb 64 0f ba bd f1 81 1f bd 6b be 08 be
       -0.003464606 -0.09084967 -0.03894228 -0.13353889
000370 6d fa 82 bd 72 45 d3 bc 75 52 f2 bb 08 de f9 3d
       -0.06395421 -0.02578995 -0.0073950836 0.12200552
000380 e6 1c 84 bd 37 a2 25 3d 77 1d d3 bc da 53 53 3d
       -0.064508244 0.040437903 -0.025770886 0.05159364
000390 84 9e ca 3d 59 05 cb bd 43 c5 10 be c5 ce c5 bc
       0.09893516 -0.09913129 -0.1413775 -0.024146447
0003a0 3e 27 3d 3d ae 6f 8c bd 99 59 8f 3b 83 d8 f0 bd
       0.046180002 -0.06857239 0.0043746945 -0.11760046
0003b0 35 2f 04 be 4e 35 4f bd 79 7a 6b bc 25 fe 51 3c
       -0.12908633 -0.050587945 -0.0143724615 0.01281694
0003c0 f7 32 cc 3d 04 e6 b0 3c 40 68 66 bd 9c 93 39 3d
       0.09970658 0.021594055 -0.056251764 0.045306787
0003d0 7d 3f 23 3d 29 af 2f bd ea 86 97 bd 63 63 24 bd
       0.03985547 -0.042891655 -0.0739878 -0.040133845
0003e0 1b 5f 88 3d 02 2d 7e 3d ec 42 e7 3a 96 1b 5d 3d
       0.06658765 0.06205464 0.0017643846 0.053981386
0003f0 d4 f2 0f be 4e 67 be ba 60 d5 e1 3c fe 77 16 bd
       -0.14057475 -0.0014526637 0.027567565 -0.036735527

cnn_encoder.0.bias f4 [32]
000000 9f ac 49 be e4 dc ce bd 2f e6 43 be 5f 2d 0a be
       -0.19694756 -0.10100725 -0.19130777 -0.1349387
000010 9c 7b 5b 3d fc da ad bc 58 3f 12 bb 15 9f 02 3d
       0.05358468 -0.021222584 -0.0022315588 0.031889994
000020 b0 c4 ca 3c 14 94 4f 3d d4 5f b0 bc 86 59 52 bd
       0.024751991 0.050678328 -0.02153007 -0.051354907
000030 e9 fe 54 be bf 0e 2f bd ae f3 36 bd eb bc 0f be
       -0.20800366 -0.042738672 -0.044665985 -0.1403691
000040 75 0e 6b bc f9 7a 9a 3c 88 d2 63 3d d0 29 89 3d
       -0.014346709 0.018857466 0.0556207 0.06697428
000050 4e 2b 8c bd 4b 90 6d 3c 1e 92 c7 3d 6c f1 0c 3e
       -0.06844197 0.014499734 0.097446665 0.1376397
000060 47 c3 2a 3e 9d c3 d6 bd 82 78 e1 3c 43 1d 22 be
       0.16676055 -0.10486529 0.027523283 -0.15831475
000070 ee cc 12 bd b5 5e 22 be a8 bf a9 bd dc 2f 2a 3d
       -0.035839967 -0.1585644 -0.08288509 0.04154955

cnn_encoder.1.weight f4 [32]
000000 c8 ba 65 3f d4 c4 82 3f 76 2d 75 3f ac 3c 64 3f
       0.8973813 1.0216317 0.9577249 0.8915508
000010 cd 77 62 3f 6a aa 79 3f de 0c 79 3f 2e af 87 3f
       0.8846405 0.97525656 0.9728526 1.0600336
000020 3c 0b 9c 3f 21 b5 90 3f 28 60 3c 3f 77 de 67 3f
       1.2190928 1.1305276 0.7358422 0.9057383
000030 43 06 5e 3f b2 d8 6d 3f de cc 84 3f d4 d2 81 3f
       0.86728305 0.92908776 1.037502 1.0142465
000040 7a 0d 95 3f e0 de 8b 3f ae b6 69 3f a4 7b 94 3f
       1.1644738 1.0927391 0.9129437 1.1600232
000050 54 ac 89 3f 09 53 67 3f 2f 1b 6f 3f 65 83 51 3f
       1.0755715 0.90361077 0.93400854 0.8184112
000060 12 a7 6d 3f e2 1b 91 3f a9 07 8b 3f 99 bb 5f 3f
       0.92833054 1.1336634 1.0861713 0.87395626
000070 b2 b0 7e 3f 5a 53 79 3f 2b 54 85 3f 1e 9a 6f 3f
       0.99488366 0.9739281 1.0416311 0.9359454

cnn_encoder.1.bias f4 [32]
000000 5c 91 d0 be 3c 73 98 3c 0a ec 63 be 38 3d 29 be
       -0.407359 0.018609636 -0.2225801 -0.1652726
000010 c6 70 62 bd 95 32 81 be 14 de e6 bc dc 7d b7 bd
       -0.05528333 -0.25233904 -0.028182067 -0.08959553
000020 91 e3 3c 3e 6e 29 9a 3d d9 b3 b6 bd b2 7d 31 be
       0.18446185 0.07527433 -0.08921022 -0.17333105
000030 68 c2 3f be 3b 23 98 bc 01 91 ab bd bd 88 14 bd
       -0.18726504 -0.018571487 -0.08377267 -0.036263216
000040 93 19 49 be fa e3 01 be 04 3e af bd 8e 0a e7 bd
       -0.19638662 -0.12684622 -0.085567504 -0.1128131
000050 33 18 31 be c6 b4 1d be e8 b9 61 be 52 32 55 be
       -0.17294388 -0.15400991 -0.22043574 -0.20819977
000060 5b 71 41 be af f0 35 be 87 2f 8d bd 05 c5 87 be
       -0.18890898 -0.17767595 -0.06893831 -0.265175
000070 55 57 d7 bd ce d1 85 3c 39 3e 06 3c d7 d8 87 be
       -0.10514704 0.016335394 0.008193546 -0.26532623

cnn_encoder.1.running_mean f4 [32]
000000 3e 5c ea be 06 70 b8 bd 57 ab 2f be 99 cc 92 be
       -0.457735 -0.09005742 -0.17155205 -0.2867172
000010 78 5d df 3d c2 39 de bd cd 10 8f bd 70 6f ed bc
       0.109064996 -0.1085086 -0.06985626 -0.028983802
000020 a8 0c d0 bb c8 de 99 3d 83 d3 35 3e 37 ec 7d be
       -0.006349165 0.07513195 0.17756467 -0.2479714
000030 0c 73 a0 be f1 bc 42 3d ba 4e 55 3d 04 c0 47 be
       -0.31337774 0.04754347 0.052077033 -0.19506842
000040 bd 88 e1 bd 38 22 2a be a6 8f 07 3e 93 71 c5 b9
       -0.11012409 -0.16614616 0.13238391 -0.00037659387
000050 af fa b0 bd 71 3b f9 bd 7e 0c 72 3d c1 d5 28 3e
       -0.08641564 -0.12169541 0.059093945 0.1648779
000060 1d 5a 73 3e c4 00 cc bd d0 db e3 bc e5 84 f5 be
       0.23764844 -0.099610835 -0.027814776 -0.47952953
000070 e4 db 01 be 0f 72 36 bd 82 93 d1 bd f6 33 ca bd
       -0.12681538 -0.04454237 -0.10233213 -0.09873192

cnn_encoder.1.running_var f4 [32]
000000 e3 f4 5f 3c 08 33 82 3b d9 a9 9b 3a 55 86 24 3c
       0.013669225 0.0039733686 0.001187618 0.010041793
000010 f6 8f 2f 3b 83 bc 61 3b 63 70 7b 3b ab 24 9d 3b
       0.0026788688 0.0034444637 0.0038366548 0.004795631
000020 88 9c 3c 3a 04 10 7c 3b 16 08 86 3b bc 14 36 3b
       0.0007194956 0.0038461694 0.0040903194 0.0027783355
000030 32 44 2d 3b e9 95 0d 3b a3 74 08 3b b9 6c 79 3b
       0.0026438353 0.0021604246 0.0020821474 0.0038059189
000040 68 b6 0c 3b 99 09 26 3b b5 96 88 3b b9 4f 5c 3b
       0.0021471027 0.002533531 0.0041683563 0.0033616854
000050 aa 46 5c 3b ff 41 52 3b 14 df a0 3b 63 bd bf 3b
       0.0033611455 0.0032082794 0.0049094055 0.005851434
000060 cf ba bf 3b 44 08 cb 3a bf 59 c2 3a 39 16 ff 3b
       0.0058511267 0.0015490134 0.0014827772 0.0077846316
000070 cc 20 80 3a ea 97 44 3b dc a0 a8 3b b1 36 75 3b
       0.0009775399 0.0029997774 0.005146129 0.0037416632

cnn_encoder.4.weight f4 [64, 32, 5]
000000 ce 9e 0e bd 37 4f f0 bd 4e 2c 1d bd 41 04 28 be
       -0.034819417 -0.11733859 -0.03837233 -0.16407873
000010 7f 6a 85 bd d5 a2 e6 3d 29 d3 27 3d d2 f6 89 bd
       -0.06514453 0.112615265 0.040972862 -0.0673653
000020 2a 7a f4 bd 19 56 79 bd 92 e9 8b bd f4 b4 cd ba
       -0.119373634 -0.060873125 -0.068316594 -0.0015694187
000030 ac 36 79 bd 82 a5 8f 3d 9a 34 8d 3c 52 32 91 bb
       -0.060843155 0.0701399 0.017236996 -0.0044310475
000040 cd b8 26 bd b8 9f d2 bd 89 27 c8 bd 20 f5 b3 3d
       -0.040703584 -0.1028437 -0.09773166 0.08786988
000050 dc c3 d9 bd 5d e1 45 3d b2 57 87 3d 4b 25 12 3c
       -0.1063306 0.048310626 0.066085234 0.008920024
000060 95 b6 29 bc 03 52 70 3d 13 1d 91 bd c6 d7 06 be
       -0.010358472 0.058671962 -0.070856236 -0.13168249
000070 7e b9 6d bd 65 0d 80 bd 01 cf 09 bd a1 86 88 3d
       -0.058038227 -0.06252555 -0.03364468 0.066663034
000080 08 0a 09 bd f3 a5 97 bd c7 55 94 bd 51 52 7e 3c
       -0.033456832 -0.07404699 -0.07242923 0.015522555
000090 77 0e 6a bd 3b ac 0f bd 88 aa 84 3d c9 35 f0 3c
       -0.0571427 -0.03507636 0.06477839 0.029322522
0000a0 19 b0 dd bd f6 cd a4 3c 89 57 ae 3d e4 2e b2 3d
       -0.108246036 0.020117741 0.0851279 0.0870035
0000b0 a6 d7 d8 3d c9 54 7e bb e2 82 5f 3d 95 36 9a bc
       0.10588007 -0.003880786 0.05456818 -0.018824855
0000c0 7a 44 87 bd 3d 00 2d 3c 60 f8 8d 3c a7 43 32 3e
       -0.06604858 0.010559139 0.017330348 0.1740862
0000d0 c7 7d 30 3e 8c 19 bf 3d 0c 1e 31 3e c0 aa 0e bd
       0.1723548 0.093310446 0.17296618 -0.03483081
0000e0 43 53 1d 3d 4d 2d 99 3d 53 ae b4 bc 59 8a 56 3d
       0.038409483 0.074793436 -0.02205578 0.052378032
0000f0 24 f5 85 bc 05 21 84 3d 00 d6 9e bd 3f 8f a7 3b
       -0.016352244 0.064516105 -0.07755661 0.005113512
000100 e5 8f ae 3c b8 83 01 be 74 f7 73 bd 5b 48 a1 3c
       0.021308849 -0.12647903 -0.05956216 0.019687822
000110 77 7a 49 bc 3c 0c 6c 3b 38 1b 92 bc a1 ff 96 bc
       -0.012297264 0.0036018034 -0.017835245 -0.01843244
000120 62 5e bf bb 8a 4f 99 bd d1 7c e6 3c 1b fd ab 3d
       -0.0058401087 -0.07485874 0.028135689 0.083978854
000130 a2 e3 c1 bd 93 2f 33 be 47 7a 40 bd 54 1b 8d bd
       -0.09467246 -0.17498617 -0.046991613 -0.06889978
000140 b6 22 09 3e eb a5 11 3d e3 ac 16 3d fd 47 d5 bd
       0.13392147 0.035558622 0.03678597 -0.10414121
000150 75 14 c9 3d a9 73 1e 3d d9 76 92 bb e1 fb 70 3d
       0.09818355 0.03868452 -0.004469734 0.05883396
000160 63 b7 36 bd c3 ab 42 bd 51 78 8d 3d 0b 58 ec 3d
       -0.044608485 -0.047527086 0.06907714 0.1154023
000170 ea e4 35 3d 6f ef 3c 3c 3c 46 4a bd a4 08 2c 3d
       0.044407763 0.011531695 -0.049383387 0.042000428
000180 a2 cd ad 3c fd c0 1f bd 39 1e 8a bc cf 74 75 bd
       0.021216217 -0.039002407 -0.016860114 -0.05992585
000190 f0 09 02 3e 17 e9 1e bd 5e 8d 94 3d 4c 42 07 3e
       0.12699103 -0.03879651 0.07253526 0.13208884
0001a0 a2 65 32 3e 5b 32 97 bd f1 62 7a 3d 85 ae 2c bd
       0.17421582 -0.073826514 0.061129514 -0.042158622
0001b0 fa bd 58 3d f3 2b b8 bd 91 65 b3 3d 69 cb d3 3d
       0.05291555 -0.08992758 0.08759607 0.10341532
0001c0 1e 7e 89 3c b4 1b f7 3b 45 a8 97 3d 2f a1 8e bd
       0.01678377 0.0075411443 0.07405142 -0.06964337
0001d0 53 ab ab bc 07 23 30 bd ab a5 91 bc 36 9d a9 bd
       -0.020955717 -0.043002155 -0.017779192 -0.08281939
0001e0 ea 84 bc 3d 3e 26 3e 3c 5d 8a 34 bc e5 41 97 3d
       0.09205039 0.011605797 -0.0110193165 0.07385615
0001f0 57 c2 98 3d 1a f7 24 bd 57 c1 02 bd fb ed 59 3c
       0.074589424 -0.040274717 -0.031922664 0.013301368
000200 43 f4 5f bd 44 ab 62 be ab a7 ae bd b6 40 e6 3c
       -0.054676306 -0.22135645 -0.08528074 0.028107028
000210 78 ca eb 3c 15 6b ee 3d 56 83 e5 3d 71 f8 d3 3d
       0.028783068 0.11641518 0.11206691 0.10350121
000220 3d 99 0d 3c 85 25 84 3d 1e 14 91 bd 7b 2d 13 bd
       0.008642492 0.06452469 -0.07083915 -0.035932045
000230 bf c8 3f 3d 02 0e d4 bc c8 d9 69 bd 7d 88 69 3d
       0.046822306 -0.025885586 -0.057092458 0.05701493
000240 87 a4 6a bd 11 1a 8d bd 07 45 ac 3d f1 58 58 3d
       -0.05728581 -0.068897374 0.084116034 0.052819196
000250 25 64 2f bd 7d 90 91 bd c6 e6 c6 3c fc ee ec 3d
       -0.042820115 -0.07107637 0.024279963 0.1156902
000260 85 43 80 bd e9 e1 1c bd 3e cc a3 bc 7b 6d 0f bd
       -0.06262878 -0.038301382 -0.019994851 -0.035016518
000270 d1 2e 97 bd 67 a7 42 bb 67 47 47 bd cb ec 04 bd
       -0.073819764 -0.002970183 -0.04865208 -0.032452386
000280 86 c3 72 bc 2b 74 b1 3d ad 32 08 3e 4e f3 62 3d
       -0.014817124 0.086647354 0.13300581 0.055407815
000290 e8 a1 96 3d 26 a1 85 3d ec 7f a9 3d 92 1b 8e 3c
       0.073551 0.06524877 0.08276352 0.01734713
0002a0 6d 0c 17 bd ec 66 65 bd f1 03 21 be 01 8e b0 bc
       -0.036877085 -0.056006357 -0.1572416 -0.021552088
0002b0 02 65 cd bc 17 45 7a 3b bb b0 30 3d f6 7a 10 be
       -0.025072578 0.0038188153 0.043137293 -0.14109406
0002c0 d3 82 ba 3c 03 b1 4f bc e4 b2 1d bd 53 48 91 bd
       0.02276746 -0.01267648 -0.03850068 -0.07093873
0002d0 01 bb bc 3b 07 7d b7 bd 0e 09 03 bb 15 b3 ff 3c
       0.0057595973 -0.08959394 -0.001999441 0.031213323
0002e0 ed de fd bd a0 f2 54 3d 9c 75 a6 3d e0 75 9b bc
       -0.12396035 0.051989198 0.08127901 -0.018977106
0002f0 ba fa 88 bd 55 20 ae 3d e3 44 ce bd fc 7d 65 3d
       -0.06688447 0.085022606 -0.10071733 0.05602835
000300 71 90 71 3d 5e 36 d3 bd bb aa b0 3d 9b 0c 9e 3d
       0.05897564 -0.10313104 0.08626314 0.07717248
000310 a4 42 e7 bd ef 70 ac bc 81 2f 80 bd b9 91 b6 3d
       -0.112920076 -0.021049945 -0.06259061 0.08914513
000320 24 36 2a 3d 3e 77 28 3d 7f 06 21 be 40 33 96 bd
       0.04155554 0.041129343 -0.15725134 -0.07333994
000330 65 ac da 3c eb fd f4 bd a3 87 ea bc a3 7e 15 bc
       0.026693532 -0.119624935 -0.02862913 -0.009124431
000340 d7 b3 8d bd 8b fc ce 3c 0f 79 96 3d f3 4c a7 bc
       -0.06919067 0.025266906 0.07347309 -0.020422434
000350 a4 6e aa 3c 04 1d 1a be d2 2c 5d bc c0 b0 a0 bc
       0.02080471 -0.15050131 -0.0134994555 -0.019615531
000360 97 88 d3 bb 42 48 1d bd 13 99 e5 bd bf 03 91 3d
       -0.0064554918 -0.03839899 -0.11210837 0.07080793
000370 12 84 79 3d 4e c3 7d 3d ab e7 11 bb ca 5d 5c be
       0.060916968 0.061953835 -0.002226333 -0.21520153
000380 62 73 83 ba bb 30 46 bc 07 e0 14 bc c8 81 ae bd
       -0.0010028894 -0.012096579 -0.009086615 -0.085208476
000390 bd 0d 66 bd f5 2a a0 bd 0a 73 90 3c 5c 45 42 3b
       -0.056165446 -0.078206934 0.01763298 0.0029643392
0003a0 d3 d8 44 bd 4d 10 b6 bd 7c 20 da bd 67 36 19 3d
       -0.048058342 -0.08889828 -0.10650727 0.037405398
0003b0 3e 94 ee bd 53 95 1f bc 17 d3 9e ba d1 b6 f1 3d
       -0.11649369 -0.0097401915 -0.0012117353 0.118024476
0003c0 d8 eb 2e 3d 42 77 32 3c 70 a6 3a bd fc 82 02 be
       0.042705387 0.010892691 -0.045568883 -0.12745279
0003d0 9c 28 91 bd 35 c0 57 3c 58 b4 39 bd 41 17 98 bc
       -0.07087824 0.013168384 -0.045338005 -0.018565776
0003e0 2f 3d a1 bd 94 e2 56 3d 5c 5e 3b bd 0a e2 80 bd
       -0.07872998 0.052462175 -0.045744285 -0.062931135
0003f0 cc 6f 16 bd 96 df 8d 3d e5 67 88 bd 00 cd 70 3a
       -0.03672771 0.06927411 -0.06660441 0.0009185821

cnn_encoder.4.bias f4 [64]
000000 72 8e 8a 3d 51 6b b7 bc c4 be 2a 3b 9e 20 5a bc
       0.067654505 -0.02239004 0.0026053647 -0.013313441
000010 51 75 29 bd dc 60 7a bc 45 95 66 3c 67 88 8b bc
       -0.041371647 -0.015281882 0.014073675 -0.017032815
000020 d6 b6 21 3c 69 91 dd 3c 58 9f 74 3d 44 18 02 bd
       0.009870252 0.027046876 0.059722275 -0.031761423
000030 50 29 49 3d d9 1e 2f bd b8 f6 92 bd 3b 0c 8b 3d
       0.049111664 -0.042754028 -0.07175964 0.06789442
000040 8e 10 55 3c 12 79 82 3d a5 88 b9 3a 84 aa 3e bd
       0.013004435 0.063707486 0.0014155103 -0.046549335
000050 50 ed a0 bc 86 92 5d bd 34 f6 4e bd 26 12 78 3d
       -0.01964441 -0.054094814 -0.050527766 0.060564183
000060 26 d3 b7 bc 74 99 5d bd 50 48 26 3d 29 92 3b 3d
       -0.02243955 -0.054101422 0.040596306 0.045793686
000070 3a b1 0a bc ef 50 c6 3c e5 ed b5 3c 3f 0c 96 3c
       -0.008465106 0.024208514 0.022208164 0.018316386
000080 cf 14 55 bd 38 9d 98 3d f1 63 4d bd ce 17 34 bd
       -0.052021798 0.07451862 -0.05014414 -0.043968014
000090 6f ae 2b bb f9 1d e3 bc 05 a0 8d bc 89 67 b4 3c
       -0.00261965 -0.027724253 -0.017288217 0.022022026
0000a0 c5 83 a7 bd 37 a1 50 bd 27 23 05 3d 7c 57 82 3d
       -0.0817943 -0.050934996 0.032504227 0.063643426
0000b0 6b 7a 26 bc 95 84 58 3d 9a 1b a2 3d 11 07 5a bd
       -0.010161023 0.052860815 0.07915421 -0.053229395
0000c0 60 1e 5e bd 56 79 48 3d 3b 42 5b bd 69 34 a2 3c
       -0.054228187 0.04894384 -0.05352996 0.019800382
0000d0 a1 11 85 3d e8 0a bc bc 91 65 12 bd 2a 7e 43 bd
       0.06497503 -0.02295442 -0.035741393 -0.04772774
0000e0 39 e6 80 bd 53 47 74 3d 9f 28 58 bd 7c 7f 22 3d
       -0.062939115 0.059638333 -0.052773114 0.03967236
0000f0 56 9f 4f 3b 5a 09 8b bd 86 fc 3c bd ae 04 6c bd
       0.0031680665 -0.06788893 -0.046139263 -0.05762165

cnn_encoder.5.weight f4 [64]
000000 17 5d 77 3f 06 5d 81 3f 6d 5c 6b 3f 25 73 7e 3f
       0.9662642 1.0106514 0.91937906 0.99394447
000010 0f 07 7d 3f a3 82 69 3f dd 97 81 3f 2d fe 72 3f
       0.98838896 0.9121496 1.012447 0.9491909
000020 d8 4d 73 3f d0 22 79 3f 4b e0 7e 3f b2 89 73 3f
       0.95040655 0.97318745 0.99560994 0.9513198
000030 90 fa 80 3f 7e 30 83 3f 34 d1 6b 3f 42 45 7f 3f
       1.0076466 1.0249174 0.92116094 0.99715054
000040 7b 33 7d 3f 10 90 7d 3f 0f 5c 6f 3f 9d dd 7a 3f
       0.9890668 0.99047947 0.93499845 0.97994405
000050 c6 6e 80 3f 73 58 7e 3f ab 56 68 3f 25 f8 8a 3f
       1.0033805 0.9935371 0.90757245 1.0856978
000060 e6 cf 84 3f 97 27 80 3f f1 0e 81 3f e0 a4 89 3f
       1.0375946 1.0012082 1.0082685 1.0753441
000070 96 ac 7e 3f 69 ff 70 3f ba bc 7f 3f f5 e4 67 3f
       0.99482095 0.94139725 0.9989735 0.90583736
000080 d4 14 60 3f 45 8f 72 3f 46 01 7b 3f e9 e0 60 3f
       0.8753178 0.9474986 0.9804882 0.87843186
000090 96 03 90 3f bc 95 87 3f 4b 4e 81 3f fa de 80 3f
       1.1251094 1.059257 1.0102018 1.0068047
0000a0 9c c2 6c 3f 22 c8 7b 3f d0 65 84 3f b4 0a 76 3f
       0.9248445 0.98352253 1.0343571 0.9611008
0000b0 5b 06 83 3f 5d bc 7f 3f b1 9c 82 3f f9 fa 73 3f
       1.0236315 0.99896795 1.0204068 0.9530483
0000c0 84 f9 71 3f e6 38 7f 3f e2 ec 81 3f 40 a8 82 3f
       0.94521356 0.99696195 1.0150416 1.0207596
0000d0 ad 83 7c 3f f5 04 7c 3f 60 07 7f 3f 15 e1 72 3f
       0.9863842 0.98445064 0.9962063 0.948747
0000e0 04 c2 73 3f 0b 10 7e 3f 2e a5 86 3f 70 4a 5a 3f
       0.9521792 0.9924323 1.0519159 0.8526983
0000f0 cc 5a 79 3f 81 ee 6f 3f d8 61 7a 3f 9b 1f 7f 3f
       0.9740417 0.93723303 0.9780555 0.996576

cnn_encoder.5.bias f4 [64]
000000 98 c8 0e bd a8 f5 6b bd a6 ea 1f be 12 7e 08 be
       -0.03485927 -0.057607323 -0.15616855 -0.13329342
000010 c0 45 d9 bc b1 fc 1f bd f5 c1 96 bd 8e ce 5d bd
       -0.026522517 -0.039059345 -0.07361213 -0.054152064
000020 99 7b 4b bd 4f 23 e1 bd 58 10 21 be c6 34 34 be
       -0.04967842 -0.10993063 -0.15728891 -0.17598256
000030 e9 40 99 bc d6 21 ad bd 48 ec 06 be 94 fc 19 be
       -0.01870771 -0.08453719 -0.13176072 -0.15037757
000040 cd 0c 1e be 41 cc f6 bd bd f1 d6 bc 28 f3 9f bd
       -0.1543457 -0.12050677 -0.026238317 -0.0781005
000050 b4 39 3f bd a8 d2 13 bd 30 8d 9e bd 57 60 8d bd
       -0.04668589 -0.03608957 -0.07741773 -0.06903141
000060 e0 10 b4 bd 5b a1 56 bd aa 0e 9d bd 0d 2b 07 be
       -0.08792281 -0.052399974 -0.076688126 -0.13200016
000070 11 b1 32 bd 9c 32 32 be 7c f3 53 be 73 88 4f be
       -0.043625895 -0.17402118 -0.2069835 -0.20266895
000080 65 93 f7 bd 06 26 d0 bd fa d5 69 bd 3d 61 17 be
       -0.1208866 -0.101635024 -0.05708883 -0.14783187
000090 55 6a 56 be 2a bc 1b be d3 34 3d bd df 8d 20 be
       -0.20939 -0.15208498 -0.046192955 -0.1567912
0000a0 34 56 48 be 5f 44 0a bd 14 45 e0 bd 43 3e 20 bd
       -0.19564134 -0.03375661 -0.109506756 -0.039121877
0000b0 df 3a 3c bd 77 f8 b6 bd 61 2c b4 bd ed e2 08 be
       -0.04595458 -0.0893411 -0.08797527 -0.13367815
0000c0 ab 63 48 bd 0d 09 96 bd f4 53 05 be ae fe 29 bd
       -0.048923176 -0.07325945 -0.13020307 -0.041502647
0000d0 19 3a f0 bd 8b 72 27 be c8 fc 6f bd 0d 07 12 3c
       -0.11729831 -0.16352288 -0.05859068 0.008912814
0000e0 50 41 ff bd a9 c2 31 be 8d e0 32 be 37 63 21 be
       -0.12463629 -0.17359413 -0.17468472 -0.15760504
0000f0 e3 d9 a0 bd 8b 90 bd bd 1f 4b f0 bc 51 46 8b bd
       -0.078540586 -0.09256085 -0.029332696 -0.06800521

cnn_encoder.5.running_mean f4 [64]
000000 4c 04 f0 3d 06 8a 27 bf 32 89 4d be 7e ce e2 bd
       0.117195696 -0.6544498 -0.20071867 -0.110745415
000010 ee 34 5b bf b7 6f 6d bf 3a 36 90 bf 60 ef 1d bf
       -0.8562764 -0.9274859 -1.1266549 -0.6169338
000020 0b 0a 17 be b9 45 08 bf e8 ee ba be 87 99 73 3e
       -0.14749925 -0.5323139 -0.36510396 0.23789035
000030 4a 3e d0 be 93 c4 fe be 04 9f 8b bf 4e f4 c2 3e
       -0.40672523 -0.4975935 -1.0907903 0.38077015
000040 50 56 ec be 31 21 1d be 25 f6 e0 be 49 de 05 3e
       -0.461596 -0.15344693 -0.43937793 0.13073076
000050 c0 d8 77 bf 07 72 ef be 64 8f 02 3f 94 2b a9 be
       -0.9681511 -0.46766683 0.51000047 -0.3304106
000060 da 63 ce 3e 5a c4 e5 be e3 e9 c2 3e da d1 79 be
       0.40310556 -0.44876367 0.38069066 -0.24396458
000070 c9 91 39 3f ec 26 95 3e 85 e4 9d be f4 a5 96 be
       0.72488075 0.29131258 -0.3083841 -0.29423487
000080 d3 ab d9 be 37 48 16 be 75 90 5c be de 41 56 bd
       -0.42513904 -0.14675985 -0.21539481 -0.05230891
000090 1e 3f a0 3e ee a1 83 be b3 8b e5 bd 46 c1 11 3f
       0.31298155 -0.2570948 -0.11208286 0.56935537
0000a0 a6 73 af bf 92 b8 19 bf e6 56 ba 3d b8 d6 2e bd
       -1.3707168 -0.60047257 0.09098606 -0.04268524
0000b0 d1 da 5b bd 92 d0 da be b1 2c e7 be db 50 93 3e
       -0.053675476 -0.42737252 -0.45151284 0.28772625
0000c0 3d d6 47 bf 2c 25 83 3e 43 74 10 be b1 23 7e 3e
       -0.78061277 0.25614297 -0.1410685 0.24818303
0000d0 2e f3 db bd 2b 0c fd be 4b e6 58 bf e0 e0 da 3e
       -0.10739742 -0.49423346 -0.847264 0.4274969
0000e0 99 f3 34 bf 65 f7 01 bc 9a 94 84 bf e2 75 6f bf
       -0.706842 -0.007932519 -1.035785 -0.9353925
0000f0 12 7e 88 be 37 00 56 3e f5 88 b5 38 4b b1 fe be
       -0.26658684 0.2089852 8.656263e-05 -0.4974464

cnn_encoder.5.running_var f4 [64]
000000 db 38 0e 3f 73 4e 3f 3f a2 e9 1e 3f 59 ce 12 3f
       0.55555505 0.7472908 0.62075245 0.5734611
000010 cf aa 61 3f f6 e8 a7 3f 63 8b 06 3f 7b 90 83 3f
       0.8815126 1.3117969 0.5255644 1.0278467
000020 84 5f 7e 3f a4 5e a8 3f 2a 04 1f 3f 6a d1 47 3f
       0.99364495 1.3153882 0.6211573 0.78053916
000030 81 5a 54 3f 34 dd 81 3f b7 b4 83 3f 7a 91 1c 3f
       0.829506 1.0145631 1.0289525 0.6115948
000040 f1 d9 2c 3f 2d 54 8a 3f e7 aa 63 3f e5 78 27 3f
       0.6752005 1.0806938 0.8893265 0.65418845
000050 75 fa c2 3f f3 d4 5b 3f f5 14 6f 3f 4c b7 17 3f
       1.5232683 0.8587181 0.9339135 0.59264064
000060 95 77 8c 3f e1 34 9e 3f d6 e4 3d 3f 9c af 0d 3f
       1.0973994 1.2359887 0.741773 0.55346084
000070 68 78 19 3f 8d 18 0e 3f 61 f5 12 3f ae 3c 0e 3f
       0.5994935 0.5550621 0.5740567 0.5556134
000080 bf 4a 27 3f 74 ce 50 3f aa 61 54 3f 57 43 07 40
       0.6534843 0.8156502 0.82961524 2.113485
000090 62 42 3f 3e e5 a3 28 3f f4 40 01 3f 9d 67 85 3e
       0.18677667 0.65875083 0.50489736 0.26055613
0000a0 6a ad 1d 3f df f2 6a 3f da b1 d8 3e eb 99 95 3f
       0.61592734 0.9177684 0.4232319 1.1687597
0000b0 ba 33 0d 3f 22 bb 65 3f 57 4b 62 3f 09 26 08 3f
       0.55157053 0.89738667 0.8839621 0.5318304
0000c0 0f 6f 9e 3f 1a d8 19 3f 42 75 24 3f af 36 a9 3f
       1.2377642 0.6009537 0.6424142 1.3219813
0000d0 18 57 b3 3f b9 08 31 3f 28 99 ef 3e f4 be aa 3f
       1.4010954 0.69153935 0.46796536 1.3339524
0000e0 35 77 19 3f e0 c5 67 3f 2a b4 dc 3e 9d bb 61 3f
       0.5994752 0.9053631 0.43106204 0.881769
0000f0 43 7d 34 3f 81 e3 95 3f 92 e3 a7 3f 2a a3 26 3f
       0.70503634 1.1710054 1.3116324 0.6509272

lstm.weight_ih_l0 f4 [256, 64]
000000 fa 48 49 be 20 e4 93 3d 07 0f 12 3d ab ba 91 3e
       -0.19656745 0.07221246 0.035658862 0.2846273
000010 e1 5d 5b 3d 4e f7 2b be fa b1 ab 3c fd cd e5 bd
       0.053556327 -0.16793558 0.02095889 -0.1122093
000020 c7 4c 4c be fd 42 24 3e e2 9f 02 bd 01 34 2d 3e
       -0.19951163 0.16041179 -0.031890757 0.16914369
000030 c9 4c cd bd 77 ec 00 3e a5 ba d1 ba 60 ca 93 3d
       -0.10024411 0.12590204 -0.0016001059 0.07216334
000040 58 20 d8 3d b4 87 07 be c6 c9 1b be ac 0a 8e 3d
       0.10553044 -0.1323536 -0.15213689 0.06935629
000050 82 5e 8f be c3 94 4a 3d 66 75 7e 3e 6b 32 42 be
       -0.2800179 0.049458276 0.24849471 -0.18964545
000060 f6 97 fe 3d 53 82 61 3d 48 c7 bf 3c 9d dc c0 bd
       0.12431328 0.055055927 0.023410454 -0.09417079
000070 2d f0 f8 3d 85 75 ee 3d 49 08 a1 3d 3c 2d 95 bd
       0.12155185 0.11643509 0.078629084 -0.072840184
000080 98 01 bb 3d 87 b9 64 bd b6 d3 f8 bd dc d8 c8 3e
       0.09131163 -0.055840995 -0.12149756 0.3922795
000090 4b a3 d2 3d 02 01 a2 3d 4f c5 82 bd 16 ee 96 3d
       0.10285052 0.079103485 -0.0638529 0.0736963
0000a0 27 95 e8 3c 60 c7 45 3d f4 63 da 3d c8 5d 6b 3d
       0.028391434 0.048285842 0.10663596 0.057462484
0000b0 ac d2 5f 3e eb 2b 01 be 1d 9c a7 bd 9d 64 2f be
       0.21857709 -0.1261441 -0.08184073 -0.17128225
0000c0 ac 08 49 3d 05 79 14 bd 44 46 e4 3d db a0 3c bd
       0.049080536 -0.036248226 0.111462146 -0.04605184
0000d0 4a 10 ce bc 13 7c a2 3d 9a 95 28 3c 27 5c 3c be
       -0.025154252 0.079338215 0.010289574 -0.18394528
0000e0 7c 73 9f bc c7 16 8e be a9 e9 80 3d fe 1e df 3d
       -0.019464247 -0.27751753 0.06294567 0.10894583
0000f0 e0 d5 0f be 24 29 38 3d a1 5b 60 bd 7b 8e 8f bd
       -0.1404643 0.04496111 -0.054774884 -0.07009598
000100 a8 aa 7f 38 f4 77 86 bd 21 4c 99 be ef 5a 1b bd
       6.0955674e-05 -0.06565848 -0.29940894 -0.037928518
000110 83 68 95 bd 46 1a 8e bd 48 56 23 be 54 47 f7 bd
       -0.07295325 -0.06938605 -0.15950882 -0.12074152
000120 25 da 1c be 56 03 54 be c6 64 69 3d 92 f5 6a 3e
       -0.1531759 -0.20704398 0.05698087 0.2294524
000130 db d3 41 be 41 e3 37 be 56 26 41 3d c3 0b 76 bb
       -0.18928473 -0.17957784 0.0471557 -0.0037543632
000140 ed d8 e1 bd 37 23 19 bd fd 03 6e 3d fb 3c ee 3c
       -0.110277034 -0.0373871 0.058109272 0.029081812
000150 b1 88 0e bd 42 c2 bd bd f4 74 0d bd ed 73 68 3d
       -0.034798328 -0.09265567 -0.034535363 0.05675118
000160 70 87 2a 3d b6 58 57 3d 47 df cb 3c f0 11 40 3e
       0.04163307 0.052574836 0.02488674 0.18756843
000170 bc 86 9e bc 15 9a 08 3d 8b fa e1 bc f7 11 2a 3e
       -0.019351356 0.03335007 -0.027585289 0.16608416
000180 6b 82 b9 be 9c f0 4a 3d ed b3 21 3e cd b6 18 3e
       -0.36232314 0.04954587 0.15791292 0.14913483
000190 4c 41 a5 3e 68 f8 13 be f0 90 9d 3d a0 df 3f 3d
       0.3227638 -0.14450228 0.0769366 0.046844125
0001a0 49 47 2b bd 00 da 03 be 3e 48 f9 bb 2c 15 30 bc
       -0.04181603 -0.12876129 -0.007607489 -0.010747235
0001b0 3e 15 c9 3d 42 e3 5f bd 74 38 ce bd a8 1e 8b 3e
       0.09818505 -0.05466009 -0.10069361 0.27171826
0001c0 29 66 da 3d 89 c4 0f 3e 73 55 2c be ab c0 90 3d
       0.10664017 0.14039816 -0.16829471 0.070679985
0001d0 50 ec 20 3e dc 56 b0 3c 2d a6 65 3e 05 06 6b bd
       0.15715146 0.021525793 0.22426672 -0.057378788
0001e0 9d f1 0e bc ce ee fd 3d 60 6f ad bd b9 8a 1e 3d
       -0.008724597 0.12399064 -0.08468509 0.038706515
0001f0 d4 4b 26 be 5b 96 c3 3d d1 7e 83 bc d1 a8 eb bd
       -0.16239864 0.095501624 -0.016051682 -0.115068085
000200 74 6d d2 bc 24 72 e0 bb 90 7b bb 3d 45 76 8c 3d
       -0.025686957 -0.006849544 0.09154427 0.068584956
000210 53 d8 ad bc 47 6b a5 bd ad 64 6d be 0d 9a e7 3b
       -0.021221315 -0.08077102 -0.23182936 0.007067925
000220 b5 31 02 3c 16 52 ac bd 5c fc 15 3e 24 91 7a 3e
       0.007946421 -0.08414094 0.14647049 0.24469429
000230 49 93 e9 bd 70 98 bb bd d9 6c 93 3d 9a 45 5e 3e
       -0.114050455 -0.091599345 0.071984954 0.21706238
000240 ca 3f 21 3d 6d 72 19 be 00 4a 84 3d 36 e7 55 bc
       0.039367475 -0.14985056 0.06459427 -0.013055613
000250 31 bd 8c 3d 14 eb 96 bd 85 74 05 3e 81 a3 91 bc
       0.06872023 -0.07369056 0.1303273 -0.01777816
000260 8e 67 9c bd da d7 12 be f0 0d bc bc a5 14 05 be
       -0.07636939 -0.14340153 -0.022955865 -0.12996157
000270 bb 39 1b 3e db 3a 67 3d 25 c8 91 bd 7d 10 f3 ba
       0.15158741 0.056452613 -0.07118253 -0.0018544343
000280 19 3d 0c 3d 3c a8 b1 bd 18 3c a6 bd ed 9c 3f bd
       0.034237955 -0.08674666 -0.08116931 -0.046780515
000290 4a ef c9 3e ed d9 3d 3d 40 2b 8f bc f8 37 38 3e
       0.39440376 0.04635041 -0.017476678 0.179901
0002a0 5e 7d 32 be 7b c6 36 be 5e 60 65 be 28 84 07 bd
       -0.17430636 -0.17849152 -0.22400042 -0.03308502
0002b0 a9 79 30 bd 40 ef 08 3c 72 4d 0e bc 52 61 7b 3e
       -0.043084774 0.008357823 -0.008685457 0.24548844
0002c0 dd 42 87 bc d5 38 45 3d 3f d9 15 bd 60 1d 8b 3d
       -0.016511375 0.048149902 -0.036584135 0.06792712
0002d0 11 39 7f 3d 29 ca c4 3c dd 79 98 3d ed b7 4a 3d
       0.062310282 0.024022179 0.074451186 0.04949181
0002e0 79 96 47 3d 0e 10 31 3e e3 bf 1b be 8a d0 77 be
       0.048727486 0.1729128 -0.15209918 -0.24200645
0002f0 bc 72 2b be 81 c3 3f 3e fd 45 c9 bd 85 0e 02 be
       -0.16742986 0.18726923 -0.09827802 -0.12700851
000300 80 9e 03 bd db f9 66 be 4d 1b e3 bd dd 73 59 3c
       -0.03213358 -0.2255625 -0.110891916 0.013272253
000310 31 95 21 bc 10 16 c7 3d 71 82 8d bc 80 8e 2d 3e
       -0.00986223 0.09721005 -0.017274113 0.1694889
000320 9b b4 f3 bc 16 b8 27 bd 90 d4 b3 3c 62 35 ed 3d
       -0.029749205 -0.040947042 0.021951944 0.115824476
000330 54 7e 10 3e 6b 97 25 3e 0a 4e b5 bd ce 79 0e be
       0.1411069 0.16171043 -0.088527754 -0.13913652
000340 cb b2 aa 3b c1 4e 13 bd 63 d3 26 3c a5 a8 4f 3b
       0.005209302 -0.035963777 0.010182234 0.0031686213
000350 f6 70 c9 3d ae ce 89 3d b6 4d f1 bc 98 b5 53 3d
       0.09835999 0.06728874 -0.029456 0.051686853
000360 36 92 8b 3c 4c 05 17 3d ec 1c 45 bd 10 66 18 bd
       0.017037492 0.036870286 -0.048123285 -0.03720671
000370 26 68 cc bd 6f 6b fe 3b 91 49 29 3e 00 c1 db bd
       -0.09980802 0.007764272 0.1653197 -0.10730171
000380 5f 23 ba bd 5e 5a cb bc d8 cd 56 3b a6 9c b1 bc
       -0.09088778 -0.024823364 0.00327765 -0.021681141
000390 0e 77 d5 bc f9 b2 04 3e ea a8 61 3d dd 0d fe bd
       -0.026057746 0.12958898 0.05509273 -0.12404988
0003a0 87 db 7e bd 0f 23 e7 bc e6 42 75 bd 85 11 00 be
       -0.062221076 -0.02821496 -0.059878252 -0.12506683
0003b0 05 ae d7 bd 12 0c 21 bd 84 50 7d bd 57 7c 91 3d
       -0.105312385 -0.03931815 -0.061844364 0.07103794
0003c0 ee 8c f9 3d b3 2c 1a bd a7 5c 9b bd d0 5e 03 3e
       0.12185083 -0.037640285 -0.075860314 0.12829137
0003d0 6f 2c 1f bd 70 ad b6 bd 77 ae fa 3c 9f a1 b6 b9
       -0.038860735 -0.08919799 0.03060077 -0.00034834162
0003e0 0f 8c f8 bd 7f c2 18 bc a3 95 8a bd ea ca 15 3e
       -0.12136089 -0.009323715 -0.06766822 0.14628187
0003f0 78 a0 29 3e de cf 22 bd 28 45 9c bd 06 fa 51 3e
       0.1656512 -0.03974902 -0.07630378 0.20505533

lstm.weight_hh_l0 f4 [256, 64]
000000 06 36 be 3c ff c0 2e 3e 96 87 4e 3e 48 be bf 3d
       0.02321912 0.1706581 0.2016891 0.09362465
000010 a3 ff a8 bd aa 5e 98 be 0d a7 eb bc e3 b4 80 be
       -0.08251884 -0.29759723 -0.02876618 -0.25138006
000020 e7 fc bb 3e d4 8d 5f be b6 8f 31 be a9 b8 c2 bc
       0.36716387 -0.21831447 -0.17339978 -0.023769693
000030 0b 56 cf bd 36 85 d6 3e 82 49 38 3d c8 db 57 b8
       -0.10123833 0.41898507 0.044991978 -5.146468e-05
000040 f0 be af 3c 70 7e 3c bd 8b b2 84 3c 7f 2e 3c 3e
       0.02145335 -0.046019018 0.016198417 0.18377112
000050 ac 4b 99 3c 1f be 41 bd 8a da a2 3e 1e 18 4b be
       0.018712841 -0.047300454 0.31807357 -0.19833419
000060 27 28 37 be 6c 61 9b 3c 37 de eb 3d fe 13 2a 3e
       -0.1788641 0.018967353 0.115169935 0.16609189
000070 40 0f 61 3d d8 d3 db bb 95 89 71 3e 30 f2 71 3a
       0.054946184 -0.0067086034 0.2358764 0.0009229509
000080 bf 87 bf bd ac ed 62 3e 56 db 62 3e ef 95 06 be
       -0.093520634 0.22160977 0.22153983 -0.13143133
000090 04 85 aa 3e e8 c4 09 3e 5b 93 d4 bd 73 39 1d be
       0.33304608 0.1345402 -0.10379668 -0.15353946
0000a0 53 87 ef bd 31 1c c6 be c9 5a 77 3d eb 17 ae bd
       -0.11695733 -0.38693383 0.060389314 -0.08500656
0000b0 79 54 46 bd f2 eb c4 ba 40 fe 2b 3d 93 87 67 3d
       -0.048420403 -0.001502393 0.04199052 0.056525778
0000c0 28 24 31 bc 95 40 b5 b9 3e c5 18 3e 82 48 85 3c
       -0.010811843 -0.00034571128 0.14918992 0.016269926
0000d0 2a 93 40 be c9 5b 16 bc 66 49 c4 3e d4 fe 7d bd
       -0.18806139 -0.009177157 0.3833725 -0.0620106
0000e0 99 57 b3 bd 6e 82 bd bd 53 41 54 3e 72 98 93 3d
       -0.08756942 -0.09253393 0.20728044 0.07206811
0000f0 4c a7 b3 be bf a3 79 be fe a5 75 3e 86 e8 13 3e
       -0.35088575 -0.2437887 0.23989102 0.1444417
000100 eb 64 aa bd 5c 0f 60 bc ed ab f5 3d fa 96 57 3d
       -0.0832003 -0.013675537 0.11995683 0.052634217
000110 7b 04 f9 bd b1 8a 8b be 43 7d 3a be 79 aa 83 3d
       -0.12159058 -0.2725425 -0.18211846 0.064289995
000120 73 f7 b1 bd be 75 11 3c 9a 1d 19 3e 57 b2 0e 3d
       -0.08689775 0.00887817 0.14952698 0.034838047
000130 6f a1 93 3e 0a 25 6a be 7c 74 c9 3d af 27 a6 bd
       0.28834102 -0.22865692 0.09836671 -0.08113038
000140 a8 86 40 be b5 17 4d be ab 61 60 bd fa 1d aa 3d
       -0.18801367 -0.20028575 -0.054780643 0.08306499
000150 25 de f9 ba 42 b2 9b bd 5e d4 b7 bd c1 11 14 3e
       -0.0019063397 -0.07602359 -0.08976053 0.14459898
000160 61 90 0e bd 62 b3 c4 3d 40 a3 13 3d c1 dd 30 3e
       -0.03480566 0.09604527 0.03604436 0.17272092
000170 96 a8 32 3e ac b3 8d 3d d9 19 60 3b 6d 03 0f bd
       0.17447123 0.06919035 0.0034195094 -0.034915376
000180 c3 58 18 3d 48 df fc 3c f6 4d 9f 3d 4e 6a 93 3e
       0.037194025 0.030868188 0.07778542 0.28792042
000190 0a b6 38 be 36 0e 37 3c 5a 7f 8b 3e 43 67 cd 3d
       -0.18038192 0.011172822 0.272456 0.10029461
0001a0 0a 85 93 3d 52 5f ce bd e8 e0 66 be 7b ac 23 3e
       0.072031096 -0.10076775 -0.22546732 0.15983765
0001b0 52 14 14 3e 62 6d e7 3c 51 66 86 be 28 7d 50 bd
       0.14460877 0.0282504 -0.26249936 -0.05090061
0001c0 c4 30 91 bc c1 7e 8d 3e df bb 15 3d 50 45 7a 3e
       -0.017723449 0.27635768 0.03655612 0.24440503
0001d0 70 c0 5c bd 3a 30 49 3d 9f be 52 3d 0b e9 08 3e
       -0.05389446 0.049118258 0.05145132 0.13370149
0001e0 9b cd 13 be 06 00 88 3d 39 c7 46 3d 94 c7 fe bd
       -0.14433901 0.066406295 0.048529837 -0.1244041
0001f0 1a 15 3b be af fa 19 be 40 7a 7a bd 1a 1b 28 bc
       -0.18269768 -0.15037034 -0.061151743 -0.010260368
000200 27 d4 71 3d f6 dc 89 3d a9 b2 f3 bd 54 10 ab bd
       0.059040215 0.06731598 -0.11899311 -0.08352724
000210 59 03 e3 bd 37 c2 37 be e6 78 9a 3d 95 3d 8a bc
       -0.11084623 -0.17945181 0.07542591 -0.016875068
000220 8e 19 c0 3e dc a2 cd 3b fa 75 d4 3d ac 1c 85 3e
       0.37519497 0.006275518 0.10374065 0.25998437
000230 f8 27 79 be 09 25 82 be 43 ee 4d 3d d8 82 23 be
       -0.24331653 -0.2541888 0.050276052 -0.15967882
000240 d5 26 c1 bd ae 8d 7e bd 3c 11 02 3d 29 10 f6 3c
       -0.09431235 -0.062146835 0.031754717 0.030037003
000250 77 13 3d bd 4a ba 83 3d 3f 8d 79 3e f2 79 48 3e
       -0.04616114 0.06432016 0.24370287 0.19577768
000260 e1 41 cb bc 51 72 bd be b5 3e eb bd 57 22 b8 bd
       -0.024811687 -0.3700128 -0.1148657 -0.08990925
000270 8b 70 7d 3d 47 8a 97 bd e3 63 c9 bc 1b b0 43 3e
       0.061874907 -0.07399421 -0.024583763 0.19110148
000280 42 2a 12 3e 2a 6f 8c bd fb 7b ef 3c 51 42 37 be
       0.14273933 -0.0685714 0.029233923 -0.17896391
000290 8c d3 ee bd 2d 8a 4c be d8 c7 14 3d 8e fa 2a be
       -0.11661443 -0.19974585 0.0363234 -0.16697142
0002a0 af bd 9e bc e9 fd 82 3e 95 a5 8f bd 00 14 94 3d
       -0.019377558 0.25584343 -0.07014004 0.07230377
0002b0 d6 50 8b 3e 2a ac a9 3d 7c 06 08 be 56 2b a1 be
       0.2721011 0.08284791 -0.13283724 -0.31478375
0002c0 57 04 7d 3d 30 76 4f be ee 27 b3 bd 38 51 b6 bd
       0.061771717 -0.20259929 -0.0874785 -0.0890221
0002d0 0b a0 2e 3e 63 22 26 bc 4d 67 0d 3e b3 f3 c5 3d
       0.17053239 -0.010140034 0.13808937 0.096656226
0002e0 b6 c2 8a 3d b4 32 62 3e a9 d8 0a be 6a 24 84 be
       0.067754194 0.22089654 -0.13559212 -0.25809032
0002f0 14 ba 42 bd 40 3a 65 bd 04 b1 a6 bd a3 28 a0 3d
       -0.04754074 -0.055963755 -0.08139232 0.07820251
000300 65 ef 01 3c 8c e7 8d bd 97 c8 8f 3e 29 9c a6 bd
       0.007930611 -0.0692893 0.28082725 -0.08135254
000310 67 f7 11 be 8e b8 47 3d 7a 53 50 3d e3 d8 68 3e
       -0.14254533 0.04875999 0.05086086 0.22738986
000320 4a fb 2b be cb 4e d1 3d 1b 56 98 bd 59 bf b7 3e
       -0.16795078 0.10220107 -0.07438298 0.35888174
000330 10 d0 6d 3d c3 57 47 3c 36 f5 34 3e 86 ba ff ba
       0.058059752 0.01216692 0.17671666 -0.0019510544
000340 90 9f 82 bd 63 bc d0 3c 26 e4 18 bd 30 bf 2b 3e
       -0.063780904 0.025480455 -0.037326954 0.16772151
000350 49 df f1 3d f1 7e c6 3d 96 ec 17 3d 72 21 87 bd
       0.118101664 0.09692181 0.03709086 -0.06598176
000360 71 f1 12 3e 77 df 04 be 7f 4d b1 bd 51 87 a0 3e
       0.14349915 -0.1297587 -0.08657359 0.31353238
000370 98 3a 82 be 27 3e 82 3d 8a 1f 0c bc 5a ed d1 3d
       -0.25435328 0.06359511 -0.008552441 0.10250349
000380 8a 3e bd bc 3a 6c bb bc 33 ef 6b be 02 82 31 3e
       -0.02310111 -0.022878755 -0.23040466 0.1733475
000390 bb bc 49 be 9e f2 eb 3d 77 0c 0c 3e 6c 62 57 bd
       -0.19700901 0.11520885 0.1367663 -0.052584097
0003a0 1b 63 a5 3a 62 73 87 3d 09 29 0f be 29 ac 94 bd
       0.0012618037 0.066138044 -0.13980497 -0.072593994
0003b0 8a c1 01 ba 84 dc 86 3d 81 30 65 3e 6e 94 92 3e
       -0.0004949799 0.06585029 0.22381784 0.28628868
0003c0 5d ce 84 3e 53 1e b6 3d 0f e8 2c 3e 8a d2 2e 3d
       0.25938693 0.08892503 0.16885398 0.042681254
0003d0 29 4c 62 bd ee a4 26 be e5 f1 a5 bd ac f7 c2 bd
       -0.055248413 -0.16273853 -0.08102778 -0.09519896
0003e0 55 01 30 3e 38 7f 87 be 1b 29 5d be 86 f3 82 3d
       0.17188008 -0.26464248 -0.21597712 0.06394105
0003f0 e3 87 17 be 54 d7 7b bd 76 4b 8b bd 3e 26 69 39
       -0.1479793 -0.06148465 -0.068015024 0.00022234858

lstm.bias_ih_l0 f4 [256]
000000 12 02 59 bd 63 7e 32 be fc 94 1a be 8a 33 06 3d
       -0.05298049 -0.17431025 -0.15095896 0.032763995
000010 a8 02 00 be ed 71 c2 3c 99 17 3a bc e5 41 79 be
       -0.12501013 0.023735965 -0.011358165 -0.24341543
000020 63 09 08 3d e2 a0 1d bc 51 a0 94 bc 1a 7e d2 bc
       0.033212077 -0.009620877 -0.018142851 -0.025694896
000030 52 43 11 be b6 a9 3f be c4 48 ce bd 5c dd c3 bd
       -0.14185837 -0.18717083 -0.10072473 -0.09563705
000040 14 ed e0 bd 14 7c c4 bd 35 2c 3b 3c a4 c2 e6 3b
       -0.10982719 -0.095939785 0.011424114 0.007042246
000050 f7 fd 0e be 8b 01 05 be b4 3e 60 bd 0e 5a 14 bd
       -0.13964067 -0.1298887 -0.0547473 -0.036218695
000060 5e 88 2f 3d c6 8a 3c bd b2 46 9e bc 26 d2 aa 3d
       0.04285466 -0.046030782 -0.01932082 0.08340864
000070 db a6 a0 bb 94 52 c9 bb aa 49 ad 3b 7a c0 c4 3c
       -0.004902703 -0.0061438773 0.0052883225 0.024017561
000080 57 d8 b6 bc df f6 22 3d f3 c4 9b 3d 7a 1c dc 3d
       -0.022319956 0.039786216 0.076059245 0.10747619
000090 23 52 12 be 6e 7d ef bd af 91 e8 bc d1 48 23 be
       -0.14289145 -0.11693846 -0.02838978 -0.15945746
0000a0 72 af 8a bd 4d 94 4e bd 28 cd aa bd 23 d2 e7 3d
       -0.06771745 -0.0504344 -0.08339912 0.11319377
0000b0 af 49 6b bc dd 17 13 bd f6 92 08 be 45 0b b1 3d
       -0.014360829 -0.03591143 -0.13337311 0.086447276
0000c0 f5 ff 86 bd bb 71 a6 bd 8a ee 1f be e6 c9 e2 3c
       -0.06591789 -0.08127161 -0.15618339 0.027684163
0000d0 e9 34 e3 bd 08 ea 8b 3d fb 45 32 be aa db 60 be
       -0.11094076 0.06831747 -0.17409508 -0.21958795
0000e0 54 89 e6 3b 1b 80 22 3d 28 2b c2 3d 2e d2 1d be
       0.0070354138 0.039672952 0.09480888 -0.15412208
0000f0 97 ff 1e 3e c4 48 b9 3c f8 15 05 3d 10 d7 b0 bc
       0.15527187 0.022617705 0.032491654 -0.021586925
000100 44 58 34 3e d0 c5 e3 3c 2d 3a c6 3d e2 dd 71 3d
       0.17611796 0.027804285 0.09679065 0.059049495
000110 c8 1d 9a 3d 0b 3a 8d bd f2 ca 26 3e 8d 41 22 3e
       0.075252116 -0.068958364 0.16288355 0.15845318
000120 f3 67 c0 bc 27 b6 d5 bc 57 d9 d1 bd ca 8b 21 3e
       -0.023487067 -0.026087834 -0.102465324 0.15775982
000130 06 8d 7d 3d 90 b2 a1 3d 01 00 f6 3d 5c 05 f2 3d
       0.06190207 0.07895386 0.120117195 0.118174285
000140 fc 2c bd 3d 20 19 17 3e dd 4f af 3d 3f cf 8c 3b
       0.09237096 0.14755678 0.085601546 0.0042971666
000150 3d 9a f1 bc 71 f1 f4 3b 37 09 07 bd a7 e3 9f 3d
       -0.029492492 0.007475071 -0.032967772 0.07807093
000160 de 66 a3 3d 3a 18 34 3e 16 69 25 bc 75 20 17 bd
       0.07978605 0.17587367 -0.010095855 -0.036896188
000170 50 e5 86 3c bf b0 57 3d 2c 5e 2c 3b ae 6a 40 3d
       0.016466767 0.052658793 0.0026301248 0.046976738
000180 f0 2d d1 3d 5f 12 3b bd ff 4f 7c 3c 25 c5 44 3d
       0.1021384 -0.045671817 0.015399932 0.048039574
000190 e7 b2 f6 3d f3 56 d0 3a 66 78 f2 3d 8c 08 b2 bc
       0.12045842 0.0015895054 0.118393704 -0.021732591
0001a0 80 31 03 3e 3e c8 0d 3d 6f 39 fa bc 5e f2 c4 3b
       0.12811852 0.034614794 -0.030544965 0.0060103377
0001b0 68 b9 f1 3d 52 ec d5 bc 50 9e 21 3d 90 d8 e0 3d
       0.118029416 -0.026113663 0.03945762 0.10978806
0001c0 34 68 56 bd 28 4c 37 bd 77 e9 07 bd 22 e3 11 bc
       -0.05234547 -0.044750363 -0.033181634 -0.00890425
0001d0 ff 65 b0 3d 83 19 86 3d 08 e3 98 bd 4c 8b 3f 3d
       0.08613204 0.06547835 -0.07465178 0.046763703
0001e0 59 31 f9 3d 5f 56 42 3e 0e 7f 07 3e 3b 72 d9 3d
       0.121676154 0.1897826 0.13232061 0.10617491
0001f0 dc af 1f 3e 13 fb 09 3e bd c9 7e 3d f3 78 74 3d
       0.15594429 0.13474683 0.06220411 0.05968566
000200 e3 fc 62 bd ca 2f d9 bd 1f 78 f6 3d ab ec 99 3c
       -0.055416953 -0.10604818 0.1203463 0.01878961
000210 03 a3 b8 3c 55 ef de bb 0d 1b f5 bd 77 ad b0 bd
       0.022538668 -0.006803433 -0.1196805 -0.08626836
000220 9d dc 5b 3d ec 3c f3 3d 1b 1e d0 3d 40 11 ac 3d
       0.05367719 0.11876854 0.10161992 0.08401728
000230 be 24 ca 3d aa d0 bc 3d 04 f9 f3 3d 5e c5 ba bc
       0.09870289 0.09219487 0.1191273 -0.02279919
000240 a8 c1 49 bd e6 38 eb bd f1 4a 9f 3d bb 97 92 3d
       -0.04925695 -0.11485462 0.07777966 0.071578465
000250 aa 06 ba bd 87 9f fc 3c 3e 6c b5 bd 9c c3 0a bc
       -0.09083302 0.030837787 -0.08858536 -0.0084694885
000260 9a bc 4a bc a2 0e aa 3c 1d 84 c9 3d 70 12 7e 3c
       -0.012374068 0.02075893 0.09839652 0.0155073255
000270 b1 02 00 be cd d7 f0 3c ae 8f 96 3c 7a ef 96 bd
       -0.12501027 0.029399777 0.018379059 -0.07369895
000280 b7 02 c3 bd 40 bd 65 bd 57 82 da 3d ac c7 ae bd
       -0.09522002 -0.056088686 0.106693916 -0.08534178
000290 37 42 39 3d d1 b3 dd 3d 78 d7 06 3d 13 09 64 3c
       0.045229163 0.10825313 0.03292033 0.013918179
0002a0 55 a0 88 bc 5e 16 e3 bd ff 11 aa 3d cd b9 98 3d
       -0.016678015 -0.110882506 0.08304214 0.07457314
0002b0 12 8e 7b bd 15 82 7f 3b a9 e5 8e 3c 91 5e 99 3d
       -0.061414786 0.0038987447 0.017443495 0.0748874
0002c0 35 58 52 3d 5d c2 24 3d a1 10 e4 3d bc fe aa bd
       0.051353652 0.04022442 0.11135984 -0.08349368
0002d0 a5 8b 35 3c 59 1a 9c 3d 29 89 d7 3d 76 03 0a 3d
       0.011080657 0.07622213 0.10524208 0.033694707
0002e0 22 59 bc 3d 0f 02 cd bd ae bb ab 3d ab 46 9c bb
       0.09196688 -0.10010158 0.083854064 -0.0047691665
0002f0 dd 45 4c 3d 9e 7b 0b bd 61 52 c9 3d d6 1c 86 bc
       0.049871314 -0.034053437 0.09830166 -0.016371172
000300 47 28 0e bd 3d 06 b8 3d 22 37 c6 bd 5e 99 db bc
       -0.03470638 0.08985565 -0.096784845 -0.02680653
000310 e5 f4 f8 bd 5d 34 a7 3d 31 84 07 bd 7b 9e 1a bc
       -0.12156085 0.081642844 -0.033085052 -0.009437199
000320 f7 13 cd 3d d1 54 75 bc 4a 68 cf bb e8 b8 08 bc
       0.100135736 -0.014973835 -0.006329571 -0.008344866
000330 d3 0c f6 3d 54 bc 0a 3e 29 0c 1a bd 5d bb c0 bd
       0.12014165 0.13548404 -0.037609253 -0.09410737
000340 53 db da 3d 7c 7c 99 bd 04 b2 94 bd d7 6f 66 3d
       0.10686364 -0.07494447 -0.07260516 0.056259003
000350 f0 36 31 bd e7 d2 ae 3c c7 77 89 bc b7 a8 95 3c
       -0.043265283 0.0213408 -0.016780747 0.018268926
000360 dc 21 3d 3d 0a 85 d3 3c d3 dc 84 3d 57 98 77 bd
       0.04617487 0.025820274 0.064874314 -0.060448017
000370 5e 12 b7 3c ca 09 91 bd 75 51 66 3d c8 73 af bb
       0.022347625 -0.07081945 0.056230027 -0.0053543784
000380 b9 6c d5 3c 5b 21 a9 3d 32 df fd 3d 2f e0 ec 3d
       0.02605282 0.08258315 0.12396087 0.11566197
000390 1b d2 1c bc 40 45 03 bd 1a fc 7c bd b0 1f 1d 3d
       -0.009571577 -0.032048464 -0.06176386 0.038360298
0003a0 d1 56 4b 3e b7 02 da 3d 0f 96 c0 3d ef c6 36 bc
       0.19857337 0.10645049 0.094036214 -0.011155828
0003b0 f5 bc 3e bd 9e 19 19 3d 7b 8d 37 3d d6 7c b2 3c
       -0.046566922 0.037377946 0.04481266 0.021788042
0003c0 54 99 b6 3d c0 c7 bf bc 5b 2b 6d 3d 86 2e 4b 3d
       0.08915964 -0.023410678 0.057902675 0.049604915
0003d0 7a 84 0d 3e f8 4e de bd f4 7e 7b 3d 57 c9 8a 3d
       0.13820067 -0.10854906 0.06140037 0.06776684
0003e0 cd 51 d7 3d 1f db af 3c eb 93 29 bd 8b 15 99 bd
       0.10513649 0.02146679 -0.04140083 -0.07474812
0003f0 6f bc 2f 3c 89 a6 f4 3d 98 bb 42 3d 7e d3 56 3b
       0.010726078 0.119458266 0.047542185 0.0032779868
