src/bidmc_generation/models/ha_cnn_bilstm_withWST/20260207_114110/fold_5/best_lightweight_hybrid.pth (torch, 430093 bytes, 23 tensors)

cnn_encoder.0.weight f4 [32, 16, 7]
0.055533685 -0.11213281 -0.054971986 0.042841066 0.100411594 0.10692198 -0.098363794 -0.099681
-0.05019988 0.017993484 0.06474222 0.16750248 0.21369095 -0.04254049 0.036342833 -0.07553755
-0.10981922 0.074871376 0.09632214 0.07440961 -0.094519034 -0.055325378 0.008140317 -0.09255053
0.010149201 0.013707229 0.06661434 -0.01824232 -0.08815605 -0.14597902 -0.08785788 -0.08230512
0.08519351 0.10298879 0.028367536 -0.07858201 -0.044952605 -0.0063596144 -0.03527345 0.05985441
0.15914781 -0.023192951 -0.007078266 -0.10183147 -0.047816478 -0.090919174 0.058071364 0.12346312
-0.114816315 0.00014971309 -0.1371164 -0.12523541 -0.078287005 -0.06922629 0.13664691 -0.021923974
0.24673146 -0.04526402 -0.089891076 -0.02786676 -0.093529776 -0.048687965 -0.042738866 0.13995858
0.020807793 -0.053550903 -0.09954411 -0.19745775 -0.28006506 -0.1763173 0.10178963 0.08720127
-0.009937996 -0.113219194 -0.18176489 -0.24294285 -0.104453325 0.07769825 0.10147819 -0.05298148
-0.09658618 -0.1667077 -0.20948903 -0.09620997 0.123686545 -0.0070881504 0.03523203 -0.15261132
-0.078461096 -0.030553043 -0.057283126 0.056750357 0.06449501 -0.06700056 -0.12210788 -0.1466866
-0.15018673 -0.0037940638 0.09436729 0.029090602 -0.007655152 0.020746393 -0.08348127 0.0373129
-0.022496343 -0.03829009 0.008257217 -0.09597401 -0.0077467295 0.036215376 -0.04133858 0.040910732
0.014351193 0.01925467 -0.09126521 -0.12604403 0.013464156 -0.0010518549 0.118651584 0.07368607
0.13419165 -0.08676683 -0.15886255 -0.23878804 -0.22515957 -0.15705617 0.09002275 0.098943904
-0.064372696 -0.032105073 -0.10480385 -0.24819072 -0.1088493 0.1338707 0.11033378 0.07907945
-0.06876001 -0.19546366 -0.13631357 -0.15312733 0.17933261 0.121272355 0.051004022 0.00026148558
-0.10588682 -0.055454824 -0.16883472 0.22147647 0.20322144 0.09115595 -0.0041398825 -0.004458307
-0.16347307 -0.1470183 0.13135006 0.20010985 -0.015618249 0.07773017 -0.056366753 -0.065707386
-0.09395087 0.10654288 0.089610904 0.13800533 0.095931835 -0.07648413 -0.1534346 -0.06544965
-0.040886007 0.021437291 -0.006335628 0.066179015 -0.15756996 -0.010726954 0.0024518494 -0.0011011056
0.05445746 0.003448439 0.07642685 0.055372927 -0.035699084 -0.048188105 -0.04322608 -0.053371366
0.08152089 0.03600236 0.013485478 -0.15508364 -0.15371436 -0.07212781 -0.053019885 0.02884904
-0.025581291 -0.084987424 -0.111304946 -0.14309244 0.0012680073 0.12300098 -0.035504397 0.013276716
0.06389622 -0.11461311 -0.1063787 0.036397416 0.10732649 -0.0439908 -0.035017475 0.023110818
-0.09970364 -0.04114266 0.06527809 0.08414157 0.019972017 0.10637615 -0.07209646 -0.065858945
0.05330147 0.018299507 0.026681868 0.100892164 0.10411444 0.0957203 -0.1009676 -0.094921544
-0.040018775 0.0536885 0.016397845 -0.1279823 -0.07147536 0.051415246 0.16094546 0.105441056
0.09913493 -0.017139668 -0.09498907 -0.09260103 -0.06418402 -0.08935882 0.092323706 0.13004118
0.0354712 -0.09520966 0.008239811 -0.08280567 0.0099641625 0.17523348 0.08626834 -0.03708229
-0.03497414 -0.02354483 0.026055876 -0.04141261 0.113556154 0.10708648 0.034402512 -0.07648579
00000000: 4a77 633d e3a5 e5bd 4e2a 61bd 1d7a 2f3d
00000010: 98a4 cd3d e9f9 da3d f572 c9bd 8d25 ccbd
00000020: 649e 4dbd 1267 933c 9297 843d c585 2b3e
00000030: cdd1 5a3e f03e 2ebd 39dc 143d 6eb3 9abd
00000040: e6e8 e0bd 2a56 993d 8b44 c53d 1164 983d
00000050: 3293 c1bd dd9c 62bd f75e 053c 228b bdbd
00000060: d648 263c 4994 603c 196d 883d eb70 95bc
00000070: 298b b4bd 867b 15be d5ee b3bd 968f a8bd
00000080: ef79 ae3d c9eb d23d 0963 e83c 9bef a0bd
00000090: 3920 38bd 5064 d0bb e57a 10bd e629 753d
000000a0: a5f7 223e 25ff bdbc ccf0 e7bb 058d d0bd
000000b0: 36db 43bd d533 babd 3ddc 6d3d 3bda fc3d
000000c0: d124 ebbd 4dfc 1c39 3e68 0cbe b63d 00be
000000d0: f054 a0bd 83c6 8dbd 2bed 0b3e e899 b3bc
000000e0: 2ca7 7c3e c466 39bd d018 b8bd d548 e4bc
000000f0: 8a8c bfbd 086d 47bd f30e 2fbd 4d51 0f3e
00000100: 1b75 aa3c 3158 5bbd c8dd cbbd 5d32 4abe
00000110: b064 8fbe 868c 34be 1577 d03d 9496 b23d
00000120: fad2 22bc 77df e7bd 9320 3abe 03c6 78be
00000130: a0eb d5bd 4320 9f3d ccd3 cf3d 1c03 59bd
00000140: face c5bd 6cb5 2abe 4b84 56be bc09 c5bd
00000150: 5f4f fd3d b743 e8bb 764f 103d 2446 1cbe
00000160: 36b0 a0bd 604a fabc b6a1 6abd 1073 683d
00000170: f615 843d 9737 89bd b213 fabd 0335 16be
00000180: 8dca 19be d4a5 78bb a343 c13d 6a4f ee3c
00000190: 12d8 fabb 57f4 a93c 3af8 aabd 69d5 183d
000001a0: 404a b8bc 12d6 1cbd 4749 073c 068e c4bd
000001b0: 47d8 fdbb 9356 143d a552 29bd 0392 273d
000001c0: 4421 6b3c f8bb 9d3c 41e9 babd b011 01be
000001d0: c398 5c3c 65de 89ba 9aff f23d b9e8 963d
000001e0: 8969 093e cfb2 b1bd ddac 22be da84 74be
000001f0: 3b90 66be 55d3 20be d95d b83d 1aa3 ca3d
00000200: d5d5 83bd 9c80 03bd 67a3 d6bd b525 7ebe
00000210: 62ec debd 6715 093e adf6 e13d 68f4 a13d
00000220: 0cd2 8cbd a027 48be c995 0bbe 69cd 1cbe
00000230: f8a2 373e a45d f83d 98e9 503d 0018 8939
00000240: 30db d8bd 9924 63bd 02e3 2cbe baca 623e
00000250: 4819 503e f9af ba3d daa7 87bb fd16 92bb
00000260: 7c65 27be f78b 16be a180 063e 99e9 4c3e
00000270: afe3 7fbc ff30 9f3d d3e0 66bd 9891 86bd
00000280: 5069 c0bd 2733 da3d ec85 b73d 4551 0d3e
00000290: e977 c43d b6a3 9cbd f61d 1dbe 770a 86bd
000002a0: 1678 27bd 429d af3c 1a9b cfbb dd88 873d
000002b0: 055a 21be 1bc0 2fbc 35af 203b f952 90ba
000002c0: c90e 5f3d 35ff 613b ae85 9c3d b9ce 623d
000002d0: 3439 12bd e460 45bd d40d 31bd ef9b 5abd
000002e0: 6df4 a63d 3677 133d 32f2 5c3c 3fce 1ebe
000002f0: 4c67 1dbe bfb7 93bd 612b 59bd d254 ec3c
00000300: db8f d1bc e30d aebd d9f3 e3bd d386 12be
00000310: 4433 a63a f0e7 fb3d 0f6d 11bd 9586 593c
00000320: 05dc 823d 47ba eabd 13dd d9bd 7515 153d
00000330: fecd db3d b22f 34bd 7c6e 0fbd e652 bd3c
00000340: 6c31 ccbd 3585 28bd 85b0 853d 6a52 ac3d
00000350: 5b9c a33c bddb d93d 4fa7 93bd 0ee1 86bd
00000360: a452 5a3d d9e8 953c ef93 da3c 8da0 ce3d
00000370: f439 d53d 0109 c43d 1ac8 cebd 3a66 c2bd
00000380: baea 23bd 79e8 5b3d c654 863c cb0d 03be
00000390: ac61 92bd cb98 523d e3ce 243e 7bf1 d73d
000003a0: 4107 cb3d 7d68 8cbc a189 c2bd 9ca5 bdbd
000003b0: e972 83bd c201 b7bd 3614 bd3d 8429 053e
000003c0: 404a 113d 48fd c2bd 4600 073c 0596 a9bd
000003d0: ba40 233c 6870 333e 75ad b03d 99e3 17bd
000003e0: 0b41 0fbd 16e1 c0bc 2273 d53c 45a0 29bd
000003f0: 2190 e83d 2850 db3d a6e9 0c3d 95a4 9cbd

cnn_encoder.0.bias f4 [32]
0.037598822 0.05007187 -0.00045886994 -0.049220324 0.0066913986 -0.09076668 -0.044323027 -0.07945885
0.090005584 0.0041095195 0.033596836 0.08379916 0.085316174 -0.0343062 -0.04124613 0.12651177
0.2533846 -0.1225154 -0.06494675 0.09298633 -0.11746188 0.08530249 -0.03351749 -0.081565365
-0.0545187 0.15273668 0.13358545 -0.037181396 -0.021074694 0.035030756 -0.020056663 -0.16867094
00000000: 3901 1a3d 2918 4d3d 7b94 f0b9 409b 49bd
00000010: 8543 db3b e2e3 b9bd 108c 35bd 52bb a2bd
00000020: d954 b83d 26a9 863b d69c 093d e59e ab3d
00000030: 3fba ae3d a884 0cbd b4f1 28bd 4d8c 013e
00000040: a0bb 813e 5be9 fabd cd02 85bd 9e6f be3d
00000050: db8f f0bd 12b3 ae3d a349 09bd be0b a7bd
00000060: 004f 5fbd 0167 1c3e a0ca 083e 854b 18bd
00000070: d6a4 acbc 697c 0f3d df4d a4bc 13b8 2cbe

cnn_encoder.1.weight f4 [32]
0.97962457 0.96692055 1.1144352 0.83298796 1.0438346 0.96260107 1.0391729 1.0883219
1.110344 1.0467794 1.0034525 1.028618 1.0643686 0.97740877 0.8993997 0.965338
1.0686488 1.0612848 0.714694 0.8886152 1.0662642 1.1718411 0.9782198 1.0342784
1.1788081 0.84434813 0.9767135 0.9382139 0.84072775 0.87005496 0.868002 0.7645343
00000000: adc8 7a3f 1b88 773f d0a5 8e3f b33e 553f
00000010: 5f9c 853f 066d 763f 9e03 853f 224e 8b3f
00000020: c11f 8e3f defc 853f 2271 803f c1a9 833f
00000030: 3b3d 883f 7637 7a3f 0f3f 663f 6420 773f
00000040: 7cc9 883f 2ed8 873f 30f6 363f 497c 633f
00000050: 587b 883f e4fe 953f 9d6c 7a3f 3c63 843f
00000060: 2fe3 963f 3327 583f e509 7a3f c92e 703f
00000070: ef39 573f ecbb 5e3f 6135 5e3f 85b8 433f

cnn_encoder.1.bias f4 [32]
-0.15674461 -0.2816646 -0.1645882 -0.34851992 -0.28882286 -0.2002239 -0.16085604 -0.13346216
-0.17779203 -0.05387276 -0.0087840995 -0.21051574 -0.07953114 -0.09531635 -0.20032384 -0.3027775
-0.23166005 -0.23741664 -0.027829042 -0.3471595 -0.2635454 -0.22150593 -0.07139334 -0.20859775
-0.15504238 -0.20713903 -0.17096952 -0.05820191 -0.255353 0.04809335 -0.07524665 -0.14386328
00000000: a981 20be 5836 90be cf89 28be 3471 b2be
00000010: 97e0 93be 7e07 4dbe 72b7 24be 4eaa 08be
00000020: 1d0f 36be afa9 5cbd 2feb 0fbc 7091 57be
00000030: 39e1 a2bd 3835 c3bd b121 4dbe a705 9bbe
00000040: 4b38 6dbe 591d 73be bbf9 e3bc e4be b1be
00000050: 6cef 86be 73d2 62be ac36 92bd a69a 55be
00000060: 6ec3 1ebe 411c 54be a212 2fbe 2065 6ebd
00000070: a1bd 82be 88fd 443d ea1a 9abd e550 13be

cnn_encoder.1.running_mean f4 [32]
-0.03402125 -0.05091574 -0.039019648 -0.18085122 -0.12020778 -0.21054061 0.020203726 0.033114605
0.0941617 0.030496938 0.002190342 -0.03974713 -0.107279494 -0.01056349 -0.0567787 -0.15886436
0.11523383 -0.23092696 0.17898905 -0.12576732 -0.24984737 0.009106721 -0.22019204 0.0015521686
-0.11987223 0.11244727 0.20031291 0.011974645 0.32108307 -0.07763333 0.16281958 -0.23312134
00000000: de59 0bbd 068d 50bd 11d3 1fbd 1031 39be
00000010: 7f2f f6bd f597 57be 4982 a53c 2ea3 073d
00000020: d9d7 c03d b7d4 f93c d78b 0f3b e3cd 22bd
00000030: 5ab5 dbbd 7d12 2dbc c890 68bd 57ad 22be
00000040: b7ff eb3d 1e78 6cbe e848 373e 26c9 00be
00000050: fdd7 7fbe 5b34 153c 067a 61be 2372 cb3a
00000060: 927f f5bd c14a e63d d41e 4d3e 4d31 443c
00000070: 0065 a43e 39fe 9ebd 2dba 263e 5cb7 6ebe

cnn_encoder.1.running_var f4 [32]
0.001778906 0.0025763593 0.0036856222 0.0033843385 0.0013124122 0.004347594 0.005656151 0.0010673404
0.0033688426 0.0022038885 0.002338649 0.0022362114 0.0028066372 0.0042813723 0.0010810365 0.008015133
0.0048441733 0.0067577907 0.0042657563 0.0051906006 0.010203436 0.006064437 0.0035989638 0.0035206615
0.0050835395 0.013128133 0.004222435 0.005385048 0.0096581895 0.0024004958 0.008974765 0.00480384
00000000: 2e2a e93a 23d8 283b 7b8a 713b c7cb 5d3b
00000010: 3f05 ac3a 4376 8e3b 3c57 b93b 00e6 8b3a
00000020: cdc7 5c3b 1d6f 103b 0544 193b 678d 123b
00000030: 8fef 373b c14a 8c3b 91b1 8d3a e851 033c
00000040: dfbb 9e3b 7570 dd3b c2c7 8b3b ea15 aa3b
00000050: 502c 273c 2fb8 c63b 98dc 6b3b e6ba 663b
00000060: d293 a63b 6117 573c 5a5c 8a3b 0f75 b03b
00000070: 623d 1e3c a351 1d3b e50a 133c 8869 9d3b

cnn_encoder.4.weight f4 [64, 32, 5]
-0.054216303 -0.10704629 -0.041101005 -0.08072044 -0.032334026 0.09915302 0.016667267 0.021954186
-0.06960444 -0.16455261 0.19856156 0.10654092 0.048218057 0.028687974 0.02592705 0.019613942
0.070745505 -0.044548932 0.06427276 -0.045710236 -0.013527399 0.022117611 0.1777623 -0.11355093
-0.066069305 0.2121632 0.111825235 0.030469686 -0.0065186396 -0.23107989 0.16151538 0.008924631
0.032253828 -0.13002908 -0.055861924 0.06553161 0.042556018 0.1447133 -0.07406612 0.033955496
0.07694447 0.019568726 -0.010492741 -0.123382 -0.0060627586 -0.023355039 -0.06182832 0.042072896
0.09638651 0.060187727 0.032014146 0.03940465 -0.041674268 -0.117116645 -0.41183287 0.031614263
0.03924686 -0.038784422 -0.04603564 0.06745282 -0.00024654018 0.029269872 0.09535625 0.06424301
-0.02592761 0.0032019233 0.04957952 0.14958033 0.08204621 0.18388063 0.01657252 -0.057127688
-0.105303556 0.076635376 0.1533522 -0.14867154 -0.12542796 0.06630428 -0.064841725 -0.10536511
0.20486432 0.10809862 0.021967134 -0.099618636 -0.058378257 0.05600691 0.004489729 0.014333852
0.026051372 0.09312457 -0.0059351847 -0.04869232 -0.028194195 -0.012524361 -0.11747953 0.07889669
-0.039494596 0.050485987 -0.082964584 0.0030817853 0.035786476 -0.01128953 -0.0048289075 0.060224667
0.010734037 0.03307262 -0.14135815 -0.15484406 0.030580606 0.023343718 -0.033808295 0.07888075
-0.023069369 0.036709227 0.13343894 0.039803244 -0.012948439 -0.1966568 0.050550267 0.020602116
0.19347447 0.053882405 -0.037619933 0.018501338 -0.07324216 0.10701053 0.050694037 0.074038215
-0.016004784 0.06535717 0.08722172 0.047722206 0.06026252 0.04364788 -0.050980873 0.020441968
0.046450477 0.013844091 0.111246675 0.013816563 -0.032708813 0.07597197 0.008792291 0.07029124
-0.03642382 -0.05943284 0.03264763 0.009260864 0.07059681 -0.08051594 -0.13439038 -0.026246699
-0.111038886 -0.06860392 0.024106164 -0.075779095 -0.027955236 -0.08408867 0.01534449 0.12404754
0.047398765 0.042218916 0.04077029 -0.15701023 0.05593247 -0.03706504 -0.012693332 0.08438828
0.18909408 0.046638355 0.05283239 0.015088187 -0.04177092 0.10981592 0.017077327 0.038023934
-0.17565311 -0.227952 -0.120063916 -0.03826639 0.08605371 0.1028233 -0.0394163 0.102358006
0.08497836 -0.08627675 -0.019087719 0.027255364 0.048969086 0.09298265 0.15417743 0.10577761
-0.002585197 0.10892284 0.035350088 -0.031857826 -0.05530332 0.088186875 0.07882335 -0.1453858
0.13678668 0.1171778 0.14398059 -0.036072563 -0.033553593 0.052513234 -0.020384833 0.08985174
0.0077634524 0.1659878 0.1347605 0.010414251 -0.080363125 0.036194563 0.13604936 0.018855555
-0.08081099 0.018624222 0.086700305 -0.06697917 0.035178334 -0.009215666 -0.07828631 -0.1359122
0.041491333 0.031006735 0.06555531 0.044449504 0.06442017 0.0049524223 0.1083289 0.062469915
0.02243578 0.045286667 0.1754113 0.1477898 0.08350704 -0.06988749 -0.09118491 0.006357406
0.16410886 0.06327918 0.04887975 -0.007363254 -0.007953469 -0.1910713 0.024590138 0.02950683
0.015758714 0.013366369 0.07194535 0.019969245 -0.11556688 0.04858548 -0.0907339 -0.013545437
00000000: ea11 5ebd 163b dbbd 8759 28bd c250 a5bd
00000010: af70 04bd bd10 cb3d cb89 883c 44d9 b33c
00000020: c68c 8ebd 7b80 28be b953 4b3e 2032 da3d
00000030: 4c80 453d 0b03 eb3c f764 d43c 6bad a03c
00000040: 05e3 903d f178 36bd 70a1 833d a83a 3bbd
00000050: 06a2 5dbc fe2f b53c 5207 363e 648d e8bd
00000060: 584f 87bd 4f41 593e a104 e53d 909b f93c
00000070: 509a d5bb 35a0 6cbe 4a64 253e 9e38 123c
00000080: 971c 043d 5826 05be 79cf 64bd 7035 863d
00000090: 384f 2e3d b92f 143e faaf 97bd eb14 0b3d
000000a0: 1095 9d3d 984e a03c bfe9 2bbc b4af fcbd
000000b0: 1baa c6bb 1153 bfbc b13f 7dbd a154 2c3d
000000c0: 4a66 c53d 6887 763d 4421 033d c566 213d
000000d0: a3b2 2abd dada efbd c2db d2be f57d 013d
000000e0: 51c1 203d 6adc 1ebd de8f 3cbd b424 8a3d
000000f0: 1042 81b9 5fc7 ef3c 234a c33d d791 833d
00000100: 2466 d4bc 5cd7 513b e513 4b3d 962b 193e
00000110: d807 a83d 344b 3c3e 18c3 873c b9fe 69bd
00000120: 64a9 d7bd 02f3 9c3d 5c08 1d3e 5a3d 18be
00000130: 3070 00be 8aca 873d bdcb 84bd aac9 d7bd
00000140: f4c7 513e cf62 dd3d 6bf4 b33c db04 ccbd
00000150: 0a1e 6fbd 8067 653d 941e 933b 88d8 6a3c
00000160: b069 d53c 18b8 be3d f07b c2bb 9971 47bd
00000170: 83f7 e6bc fa32 4dbc 1c99 f0bd 9694 a13d
00000180: 16c5 21bd 65ca 4e3d 56e9 a9bd c7f7 493b
00000190: d794 123d b9f7 38bc d03b 9ebb 24ae 763d
000001a0: d0dd 2f3c 2877 073d 31c0 10be 718f 1ebe
000001b0: 2e84 fa3c 533b bf3c 917a 0abd 3b8c a13d
000001c0: f9fb bcbc 6a5c 163d 38a4 083e ba08 233d
000001d0: b125 54bc 6660 49be cc0d 4f3d c5c5 a83c
000001e0: 2c1e 463e ccb3 5c3d 5c17 1abd 1e90 973c
000001f0: fcff 95bd 5628 db3d 8da4 4f3d 59a1 973d
00000200: 771c 83bc fbd9 853d 4da1 b23d 5c78 433d
00000210: d5d5 763d 1fc8 323d 52d1 50bd ea75 a73c
00000220: db42 3e3d 54d2 623c 4cd5 e33d de5e 623c
00000230: adf9 05bd 3197 9b3d 8b0d 103c dbf4 8f3d
00000240: 2531 15bd da6f 73bd 85b9 053d e1ba 173c
00000250: 0f95 903d 8be5 a4bd a29d 09be 5103 d7bc
00000260: 5b68 e3bd 3680 8cbd 4a7a c53c 1232 9bbd
00000270: 6102 e5bc ae36 acbd 7567 7b3c a30c fe3d
00000280: 3525 423d beed 2c3d bffe 263d 4ac7 20be
00000290: 7219 653d 83d1 17bd b1f7 4fbc c3d3 ac3d
000002a0: e1a1 413e dc07 3f3d c766 583d 7134 773c
000002b0: fc17 2bbd 2be7 e03d c0e5 8b3c fcbe 1b3d
000002c0: 69de 33be 406c 69be 12e4 f5bd 38bd 1cbd
000002d0: ed3c b03d 0695 d23d fc72 21bd 13a1 d13d
000002e0: 2209 ae3d ddb1 b0bd d95d 9cbc a446 df3c
000002f0: cf93 483d b06d be3d b0e0 1d3e eea1 d83d
00000300: 696c 29bb f012 df3d 41cb 103d 5a7d 02bd
00000310: bc85 62bd 529b b43d 236e a13d 04e0 14be
00000320: cf11 0c3e eafa ef3d a66f 133e d3c0 13bd
00000330: 7e6f 09bd 1e18 573d 18fe a6bc 3004 b83d
00000340: 8f64 fe3b b5f8 293e a8fe 093e 89a0 2a3c
00000350: 6c95 a4bd c040 143d 8650 0b3e f776 9a3c
00000360: 3b80 a5bd d391 983c ee8f b13d 602c 89bd
00000370: 2817 103d 4efd 16bc 9354 a0bd 912c 0bbe
00000380: d1f2 293d d601 fe3c dd41 863d af10 363d
00000390: b9ee 833d ee47 a23b 8bdb dd3d 74e0 7f3d
000003a0: 3ecb b73c 837e 393d 059f 333e 3656 173e
000003b0: bd05 ab3d 2c21 8fbd 27bf babd c951 d03b
000003c0: 270c 283e 8498 813d 2236 483d 7447 f1bb
000003d0: 444f 02bc 32a8 43be 4271 c93c 4fb8 f13c
000003e0: 6b18 813c 9dfe 5a3c 1558 933d 8b96 a33c
000003f0: 54ae ecbd 9101 473d b2d2 b9bd aeed 5dbc

cnn_encoder.4.bias f4 [64]
-0.0125239575 -0.077646464 -0.02636862 0.071292825 0.00056809967 0.017466567 0.008554942 -0.020774039
0.051186 0.030478591 -0.003954801 0.0253759 0.009999703 -0.01383262 -0.05519157 -0.060284548
-0.04670264 -0.036711086 -0.059425768 -0.004282073 0.034987338 0.066263735 0.039883826 0.037767604
-0.06575536 -0.01784849 -0.059492394 -0.055446792 0.057177983 0.06970677 -0.012820409 0.0072681345
0.027708374 -0.038244877 0.07966331 -0.09334115 -0.0053309924 -0.03859376 -0.017473215 -0.02403011
-0.021921132 -0.0050806184 -0.041683726 0.006429366 0.044251103 -0.022511989 -0.07423245 0.045343433
0.07222129 -0.09972204 -0.07396876 0.0006194105 -0.0044932817 0.014414801 -0.054238286 -0.01987325
0.01752279 -0.08344452 0.053269606 -0.039718077 0.02295833 -0.070089966 0.01841038 -0.019378139
00000000: 4931 4dbc 1c05 9fbd 0103 d8bc f901 923d
00000010: 86ec 143a 0c16 8f3c 072a 0c3c 512e aabc
00000020: 69a8 513d 3dae f93c 4697 81bb 1fe1 cf3c
00000030: cbd5 233c 37a2 62bc 8e10 62bd eeec 76bd
00000040: 444b 3fbd 5d5e 16bd 6f68 73bd a250 8cbb
00000050: e24e 0f3d 48b5 873d 395d 233d 34b2 1a3d
00000060: bfaa 86bd ff36 92bc 4cae 73bd 2d1c 63bd
00000070: 7633 6a3d 6cc2 8e3d b10c 52bc 8829 ee3b
00000080: acfc e23c a9a6 1cbd 8426 a33d a529 bfbd
00000090: 9baf aebb 7e14 1ebd fd23 8fbc cbda c4bc
000000a0: f293 b3bc 517b a6bb 8ebc 2abd 6ead d23b
000000b0: a540 353d 106b b8bc 2f07 98bd 09ba 393d
000000c0: c1e8 933d 123b ccbd ef7c 97bd ef5f 223a
000000d0: 613c 93bb 0f2c 6c3c f728 5ebd 3acd a2bc
000000e0: f48b 8f3c f6e4 aabd 3b31 5a3d 6caf 22bd
000000f0: 1c13 bc3c 548b 8fbd 5ed1 963c e7be 9ebc

cnn_encoder.5.weight f4 [64]
1.0076345 0.92788833 1.0102309 0.89529973 0.9670105 0.96092314 0.9601221 0.9392007
0.9446859 1.0262452 1.0675397 1.0476555 1.0293084 0.94325155 1.0492594 1.0001819
0.9932555 1.0327634 1.009325 0.9975803 1.0301223 0.97610974 1.0058054 0.8894432
0.97828996 1.032094 0.9527458 1.1804885 0.9476545 0.94040626 0.9812442 0.9841296
1.0053288 0.96562606 1.0164201 1.059438 0.97756565 0.9579145 1.0001595 1.0086536
1.0091666 0.92761385 0.91364026 0.9924693 1.0085139 0.922169 0.9975253 0.9266849
0.93076 0.99855715 0.97861165 1.028948 0.96768486 0.94633496 0.97594666 1.0934305
0.99778885 0.9363821 1.0050187 0.99528176 1.0019389 0.9292647 0.98000175 0.8922885
00000000: 2bfa 803f 178a 6d3f 3f4f 813f 5d32 653f
00000010: 008e 773f 0fff 753f 90ca 753f 756f 703f
00000020: efd6 713f 015c 833f 24a5 883f 9319 863f
00000030: 61c0 833f ef78 713f 224e 863f f605 803f
00000040: fe45 7e3f 9731 843f 9031 813f 6c61 7f3f
00000050: 0cdb 833f 54e2 793f 3bbe 803f 8db2 633f
00000060: 3671 7a3f a81b 843f 26e7 733f 3f1a 973f
00000070: 7c99 723f 77be 703f d232 7b3f ebef 7b3f
00000080: 9dae 803f 4533 773f 0e1a 823f aa9b 873f
00000090: be41 7a3f e239 753f 3a05 803f 901b 813f
000000a0: 5f2c 813f 1a78 6d3f 54e4 693f 7812 7e3f
000000b0: fc16 813f 4513 6c3f d15d 7f3f 393b 6d3f
000000c0: 4a46 6e3f 71a1 7f3f 4b86 7a3f 91b4 833f
000000d0: 32ba 773f 0243 723f a4d7 793f 88f5 8b3f
000000e0: 176f 7f3f bdb6 6f3f 74a4 803f c9ca 7e3f
000000f0: 893f 803f 4be4 6d3f 65e1 7a3f 056d 643f

cnn_encoder.5.bias f4 [64]
-0.07684117 -0.27906033 -0.06356547 -0.103813946 -0.26689297 -0.12212332 -0.1499906 -0.1891783
-0.20896882 -0.1216058 -0.09808371 -0.10937844 -0.018350195 -0.181116 -0.1588032 -0.17625542
-0.11076692 -0.23766077 -0.23046137 -0.114399076 -0.26795477 -0.21087319 -0.25837338 -0.16972843
-0.124132276 -0.34981763 -0.10329063 -0.17792782 -0.10721531 -0.15155679 -0.15418544 -0.14852074
-0.2561233 -0.16217627 -0.23347963 -0.054644756 -0.22281687 -0.07717544 -0.16612215 -0.16480874
-0.11504658 -0.11731658 -0.24943276 -0.07880156 -0.19824132 -0.117548205 -0.191264 -0.16511828
-0.07785793 -0.04508336 -0.1485993 -0.2182934 -0.13963497 -0.11821361 -0.10267918 -0.1741795
-0.13202251 -0.20122176 -0.13018675 -0.15389651 -0.12076848 -0.100332566 -0.0410917 -0.15525368
00000000: e75e 9dbd ffe0 8ebe 9d2e 82bd 689c d4bd
00000010: 32a6 88be cb1b fabd 2397 19be f5b7 41be
00000020: ecfb 55be 760c f9bd 1de0 c8bd ce01 e0bd
00000030: 2653 96bc 7976 39be 4e9d 22be 4d7c 34be
00000040: c4d9 e2bd 585d 73be 11fe 6bbe 104a eabd
00000050: 5e31 89be 24ef 57be 8449 84be 4acd 2dbe
00000060: 1039 febd 4c1b b3be 0a8a d3bd b632 36be
00000070: b393 dbbd b431 1bbe cae2 1dbe d215 18be
00000080: 9822 83be 8911 26be 4915 6fbe 2ed3 5fbd
00000090: 1b2a 64be 280e 9ebd ed1b 2abe 9fc3 28be
000000a0: 8b9d ebbd ad43 f0bd 4d6b 7fbe b662 a1bd
000000b0: c6ff 4abe 1dbd f0bd b6da 43be c414 29be
000000c0: fa73 9fbd 54a9 38bd 6a2a 18be 4e88 5fbe
000000d0: 78fc 0ebe fa19 f2bd 7649 d2bd 1c5c 32be
000000e0: e930 07be 140d 4ebe ad4f 05be 0c97 1dbe
000000f0: 7755 f7bd 297b cdbd c54f 28bd d2fa 1ebe

cnn_encoder.5.running_mean f4 [64]
0.3106858 1.0573063 -0.98780924 -0.17827733 0.031414434 -0.24109258 -0.121625334 0.6056218
-0.34926394 0.4670343 -0.6845371 -0.7616396 -0.76306444 0.4885752 0.6021259 -0.29829636
-1.09219 0.16080615 -0.008543212 -0.52638763 -0.46871576 0.37572813 0.02655102 0.354888
-0.32847342 -0.08410797 -0.565577 -0.32386672 0.6475582 0.029382924 -0.35945547 -0.43564487
0.5340137 0.61381173 -0.25800705 -0.74775696 -0.9477938 -1.1269441 0.17488292 0.60685486
0.15904139 0.4070991 0.240432 -0.45405048 -0.3374164 0.6156484 -0.7587694 0.15338394
0.1443892 -0.80617744 -0.5438015 0.030714126 0.7811961 -0.014479035 -0.26313126 -0.12375255
-0.66187704 -0.61304945 0.20608878 -1.2300614 -1.1215931 -0.6555967 -0.35299224 0.18531314
00000000: 3612 9f3e d055 873f 11e1 7cbf 558e 36be
00000010: 6cac 003d f9e0 76be b416 f9bd 080a 1b3f
00000020: b9d2 b2be 1f1f ef3e d33d 2fbf d0fa 42bf
00000030: 3158 43bf 8726 fa3e ec24 1a3f 4dba 98be
00000040: e2cc 8bbf 5eaa 243e d4f8 0bbc 57c1 06bf
00000050: 83fb efbe 705f c03e 8681 d93c e1b3 b53e
00000060: ab2d a8be cd40 acbd a7c9 10bf dcd1 a5be
00000070: 60c6 253f 75b4 f03c 8c0a b8be d80c dfbe
00000080: 1fb5 083f c422 1d3f 8019 84be 006d 3fbf
00000090: 9da2 72bf b43f 90bf 8214 333e d75a 1b3f
000000a0: bfdb 223e 4b6f d03e ce33 763e 4e79 e8be
000000b0: d8c1 acbe 229b 1d3f b63e 42bf ae10 1d3e
000000c0: c3da 133e a561 4ebf 9336 0bbf 319c fb3c
000000d0: 78fc 473f 7939 6dbc 24b9 86be fa71 fdbd
000000e0: c670 29bf cff0 1cbf f008 533e a772 9dbf
000000f0: 5d90 8fbf 2fd5 27bf 66bb b4be bac2 3d3e

cnn_encoder.5.running_var f4 [64]
0.6413139 0.38721463 0.62048143 0.94425714 0.61669266 0.78970724 0.5996317 0.49642956
0.67264533 0.5481469 0.800165 0.9140055 1.49694 0.7026862 1.0444797 0.6972565
0.53752166 0.56563514 0.7491794 0.41621938 0.2322929 0.7220054 0.5631849 1.3178598
0.43983424 0.3940729 0.7388985 0.41709986 1.1258714 0.77491224 0.3036292 0.72100115
0.57135797 0.6466113 0.38304862 0.9079546 1.2046974 0.6265554 0.58964294 0.8557571
0.4863477 0.4743915 0.5539697 0.757023 0.73684597 0.8743285 0.8599966 0.84567434
1.1650257 0.75055295 0.50421935 0.5360246 0.8296435 0.38572732 1.2659642 0.57062054
0.87839854 0.7042161 0.361653 0.64907783 0.5343081 0.6464378 1.053799 0.51119876
00000000: 262d 243f ff40 c63e dfd7 1e3f d6ba 713f
00000010: 92df 1d3f 412a 4a3f 7781 193f 042c fe3e
00000020: 7c32 2c3f 5b53 0c3f 9dd7 4c3f 44fc 693f
00000030: bb9b bf3f 3ee3 333f 83b1 853f 677f 323f
00000040: 059b 093f 77cd 103f 39ca 3f3f b51a d53e
00000050: 31de 6d3e 59d5 383f e32c 103f a1af a83f
00000060: f431 e13e ecc3 c93e 7428 3d3f 1d8e d53e
00000070: 8e1c 903f a660 463f 4975 9b3e 8893 383f
00000080: 8444 123f 5188 253f f31e c43e b66f 683f
00000090: 8633 9a3f ef65 203f d7f2 163f e612 5b3f
000000a0: 9102 f93e 71e3 f23e f5d0 0d3f 42cc 413f
000000b0: f0a1 3c3f fed3 5f3f bd28 5c3f 1d7e 583f
000000c0: 901f 953f 3d24 403f 8514 013f e838 093f
000000d0: 8463 543f 0d7e c53e 1d0b a23f 3014 123f
000000e0: bade 603f 8247 343f 952a b93e f729 263f
000000f0: 6ac8 083f f37c 253f e3e2 863f ecdd 023f

lstm.weight_ih_l0 f4 [256, 64]
-0.26453042 0.14049703 -0.29046094 0.0675467 0.013965276 0.10009724 -0.09835792 0.006225651
-0.21045014 0.10112762 -0.06687748 -0.27833483 0.094615944 -0.022087935 0.24739234 -0.08485311
-0.017674826 0.16474614 0.1894197 -0.030347973 -0.2923044 -0.06946219 -0.021480815 -0.049953528
0.054636735 -0.04668245 -0.19644356 0.23576887 -0.0533303 -0.11016098 -0.0032743383 0.105367266
0.11322207 0.06853492 -0.14130485 -0.025187077 -0.13726822 0.028992807 -0.18454272 0.2628284
-0.18649347 0.024518704 -0.11915818 -0.18476662 -0.11833268 0.06711347 0.31622922 -0.051039685
0.16202907 -0.09844643 -0.18396163 0.063424185 0.01627693 -0.07198181 0.061599806 -0.044211663
0.05458273 -0.16365783 0.11656028 -0.0151546495 -0.22221966 -0.19067155 -0.03331908 -0.1920754
0.44486615 -0.05724668 0.20496039 -0.0706766 -0.23717274 0.1921404 0.12877627 -0.018821398
-0.2833452 0.21744226 -0.4400114 -0.27443084 0.0019564487 -0.05244429 -0.17760155 -0.23723193
0.088385075 0.0049075405 0.18970594 -0.22860749 -0.3102591 0.06638397 -0.31955755 -0.013837927
0.038346 0.10415705 -0.029807827 0.077139944 -0.010188409 -0.1830914 0.016842946 0.34921378
-0.20293324 -0.1037892 -0.16829681 -0.16393022 -0.11118347 -0.00615145 0.004003829 -0.2698561
0.047653127 -0.20012093 0.07289621 -0.18362029 0.07458167 -0.14827004 -0.11026468 0.15617852
0.11185043 -0.050471988 -0.00053967006 0.04253401 -0.122464806 0.010949892 0.016885797 -0.009862343
-0.24787089 -0.050178267 -0.38374785 -0.033880726 -0.2649487 0.35204607 0.13480927 -0.21315478
0.062936135 -0.032097444 -0.06817761 -0.27016026 0.168522 0.15244082 0.32604086 -0.0008701699
-0.15928064 -0.13443069 -0.13312781 -0.12721062 -0.049340855 -0.0023572627 -0.07137794 -0.05020681
-0.09175534 -0.30623958 0.10425131 0.18414935 0.099051885 -0.016705586 0.087846324 -0.1654022
0.16287418 0.46481016 0.20807685 0.017277405 -0.15342347 -0.14271453 0.18823178 0.18640397
-0.0067041228 0.054439195 0.23926197 -0.12437454 -0.18231931 0.08389171 0.24640632 0.044480216
0.15753143 -0.12215457 -0.21582673 0.04788113 0.069353946 0.06637823 -0.13731693 0.08202779
0.078534424 -0.12510248 -0.24022618 0.039057128 -0.12268054 0.033681475 -0.057411604 -0.17110114
0.017613025 -0.1056118 -0.025223153 -0.11553719 -0.09964438 0.21183585 -0.2590102 -0.16712943
0.07624303 -0.037950613 0.18502034 0.060411252 0.25035548 -0.21909563 -0.047589358 0.104142316
-0.25674257 0.015340492 -0.15909722 0.31630138 0.16790524 0.09047841 -0.12499575 0.09950771
0.07210987 -0.018427923 0.15013441 0.06560182 0.31107843 0.0637753 0.1266624 0.06680113
-0.17241515 0.15889129 -0.058014084 -0.08160898 -0.03710414 0.017570063 0.008114232 -0.11037065
-0.029322702 -0.121263176 0.058301453 -0.23534101 0.15798685 0.36605844 0.066506006 -0.17645194
-0.12317323 -0.08876068 -0.15221334 0.054084804 -0.14114296 -0.008022986 0.13930124 -0.030509679
-0.06873869 -0.005039282 0.21345474 0.06798624 -0.15375493 0.10631315 0.012081965 -0.10739895
-0.12758723 -0.004703547 0.031946503 -0.013969008 0.25580737 -0.17409113 0.0019980704 -0.13782266
00000000: 8870 87be 74de 0f3e 4cb7 94be ed55 8a3d
00000010: 9dce 643c c8ff cc3d e16f c9bd 8c00 cc3b
00000020: 3e80 57be ff1b cf3d 0ff7 88bd e781 8ebe
00000030: 01c6 c13d c2f1 b4bc 6b54 7d3e 78c7 adbd
00000040: ccca 90bc 36b3 283e 3df7 413e 509c f8bc
00000050: eca8 95be 3142 8ebd 89f8 afbc 129c 4cbd
00000060: c5ca 5f3d 1936 3fbd 8028 49be 656d 713e
00000070: df70 5abd 149c e1bd 4896 56bb cbca d73d
00000080: f9e0 e73d 095c 8c3d 38b2 10be 2155 cebc
00000090: 0a90 0cbe 5382 ed3c c4f8 3cbe 7291 863e
000000a0: 25f8 3ebe 73db c83c 3409 f4bd 7633 3dbe
000000b0: 6758 f2bd c972 893d cce8 a13e fd0e 51bd
000000c0: f3ea 253e 489e c9bd 7060 3cbe 8ae4 813d
000000d0: 3257 853c 336b 93bd 1450 7c3d 4a17 35bd
000000e0: 2492 5f3d eb95 27be 28b7 ee3d 354b 78bc
000000f0: 8d8d 63be 673f 43be 9679 08bd 6aaf 44be
00000100: 7fc5 e33e 7f7b 6abd 23e1 513e e5be 90bd
00000110: 69dd 72be 74c0 443e eddd 033e 552f 9abc
00000120: 9f12 91be 2fa9 5e3e 2d49 e1be 3382 8cbe
00000130: c337 003b d3cf 56bd 2edd 35be edec 72be
00000140: 3c03 b53d 6fcf a03b 4642 423e 1518 6abe
00000150: 48da 9ebe 52f4 873d 0c9d a3be 79b8 62bc
00000160: b210 1d3d 4b50 d53d 8b2f f4bc 8cfb 9d3d
00000170: 49ed 26bc 507c 3bbe 38fa 893c 26cc b23e
00000180: bbcd 4fbe 6f8f d4bd 0056 2cbe 53dd 27be
00000190: 29b4 e3bd 1a92 c9bb 8d32 833b 942a 8abe
000001a0: ed2f 433d 80ec 4cbe 9c4a 953d f506 3cbe
000001b0: 46be 983d 1ad4 17be 73d2 e1bd 43ed 1f3e
000001c0: d711 e53d b7bb 4ebd a578 0dba 2438 2e3d
000001d0: d4ce fabd 2d67 333c 1554 8a3c aa95 21bc
000001e0: ded1 7dbe ba87 4dbd 997a c4be 84c6 0abd
000001f0: 5ba7 87be 623f b43e 710b 0a3e 3f45 5abe
00000200: a9e4 803d 9c78 03bd b4a0 8bbd 7252 8abe
00000210: 0891 2c3e 7219 1c3e d4ee a63e 1d1c 64ba
00000220: 771a 23be 33a8 09be a852 08be 8043 02be
00000230: a319 4abd 4e7c 1abb 992e 92bd a8a5 4dbd
00000240: 39ea bbbd 6fcb 9cbe b681 d53d a691 3c3e
00000250: b7db ca3d 27da 88bc c6e8 b33d 325f 29be
00000260: 7dc8 263e 99fb ed3e 1912 553e 5889 8d3c
00000270: 0b1b 1dbe c223 12be d5bf 403e afe0 3e3e
00000280: 42ae dbbb a2fb 5e3d 1701 753e 14b8 febd
00000290: eab1 3abe 6bcf ab3d f051 7c3e e330 363d
000002a0: eb4f 213e 2d2c fabd af01 5dbe 011f 443d
000002b0: 7109 8e3d 4ff1 873d cf9c 0cbe 30fe a73d
000002c0: a8d6 a03d dd1a 00be dafd 75be 5efa 1f3d
000002d0: ef3f fbbd 96f5 093d 6e28 6bbd 2335 2fbe
000002e0: 3149 903c 004b d8bd c9a0 cebc c39e ecbd
000002f0: 5a12 ccbd 7feb 583e fc9c 84be fa23 2bbe
00000300: 4e25 9c3d 1a72 1bbd f975 3d3e ca71 773d
00000310: 982e 803e 9b5a 60be 0fed 42bd 9148 d53d
00000320: c373 83be b056 7b3c 62ea 22be 41f2 a13e
00000330: 5aef 2b3e bf4c b93d c6fd ffbd b3ca cb3d
00000340: 57ae 933d 28f6 96bc d6bc 193e 3f5a 863d
00000350: ac45 9f3e a09c 823d cab3 013e 08cf 883d
00000360: 998d 30be 66b4 223e 2da0 6dbd 9c22 a7bd
00000370: 83fa 17bd 18ef 8f3c 8ef1 043c 020a e2bd
00000380: 2a36 f0bc d458 f8bd 81cd 6e3d 3cfd 70be
00000390: 4ec7 213e 036c bb3e 4d34 883d d1af 34be
000003a0: 3f42 fcbd 29c8 b5bd d0dd 1bbe 0788 5d3d
000003b0: c887 10be d872 03bc fca4 0e3e 6fef f9bc
000003c0: dfc6 8cbd 9020 a5bb e193 5a3e 5f3c 8b3d
000003d0: ef71 1dbe b5ba d93d 6ff3 453c fbf3 dbbd
000003e0: 3aa6 02be 3620 9abb 56da 023d 44de 64bc
000003f0: 2ff9 823e f244 32be 0ff2 023b 6221 0dbe

lstm.weight_hh_l0 f4 [256, 64]
-0.09915969 0.12936558 0.19621979 -0.121474326 0.029483637 -0.15148346 -0.08182057 0.05695606
0.2696121 0.1830422 0.016436173 -0.07177279 0.3650104 0.14499189 -0.20768586 -0.04140478
0.44632703 0.4796822 0.07465041 0.019537129 0.21106789 -0.119613245 -0.24227944 -0.1492991
0.48495707 0.15514508 0.27498224 -0.030135507 -0.0839677 0.112044126 0.07643657 -0.6115015
0.019700726 -0.31683135 0.089513324 0.032688342 -0.6336856 -0.13141048 0.042331435 0.037892412
-0.0091988575 0.106770016 -0.25206965 0.042686045 -0.04096417 0.035038136 -0.32748532 -0.043785974
0.110908784 0.24841052 0.3496266 -0.021660741 -0.41065222 -0.11857763 -0.25436392 -0.112232886
-0.021917365 -0.15190104 0.11948438 -0.2859362 -0.069548674 -0.16112278 0.018577576 -0.073878475
-0.212682 0.12174714 -0.08243147 -0.30301532 0.18349303 0.04007548 0.064613454 -0.06509773
-0.17805009 -0.24369615 -0.05244941 0.103635326 0.24564314 -0.36148718 -0.31619483 0.12259299
0.04734999 -0.017774293 -0.0408653 -0.27593964 0.016274994 -0.0878999 0.26928905 -0.09946744
0.05334864 -0.054206662 0.103354014 0.1776114 0.20564131 -0.016055472 -0.09726896 -0.119996175
0.38724038 -0.20139052 0.025320675 0.22031678 -0.3046095 -0.013953894 0.09469447 -0.320795
0.22638649 -0.118785605 -0.19786221 0.36319765 -0.19031358 0.23793638 0.21426386 -0.13468856
-0.12611757 -0.005498987 -0.29213673 -0.15389636 0.30100092 0.06487473 -0.13058415 -0.4559398
-0.085841924 -0.08874255 0.06913898 0.20710318 -0.073523074 -0.043250162 -0.08252414 0.017434122
-0.026019722 0.2710824 0.2209561 -0.27551576 0.17135715 -0.04057384 -0.11748088 0.30443016
-0.0011686998 -0.3794123 0.049425676 0.14722553 -0.13315341 0.008577036 0.07291257 0.31900957
-0.2930736 0.3000951 0.06797791 0.13084301 -0.1719433 -0.15133655 0.004675569 -0.10683976
-0.45144758 -0.12788703 -0.083773404 -0.12510398 0.18536687 -0.23212248 -0.017691137 0.10993
-0.21338134 -0.11571975 0.15787898 0.110738896 -0.049268298 -0.3185264 -0.122405834 -0.162098
-0.08141487 -0.16783921 0.024213681 -0.029684985 0.15681759 0.1782302 -0.09441314 0.25381014
0.12401871 -0.027993279 -0.19274683 0.31425443 -0.2314445 0.11426813 0.1473446 -0.16099714
-0.75916433 -0.008235377 0.09624496 0.38031965 0.022457331 0.19969013 -0.16580084 0.02707627
0.11644061 0.1414405 -0.0033648445 -0.15234599 0.06370865 0.08990803 0.15595129 0.2315695
0.12761393 -0.19158591 0.021622952 0.2981505 0.08425946 0.13645452 -0.1258849 0.19558822
0.24178304 0.3357278 0.066783875 0.42954603 0.2358785 0.119991 -0.1845519 0.056862403
0.07608972 0.077485554 -0.07340956 0.25148526 0.1043523 -0.08242275 -0.4569207 0.11237258
0.099566884 0.1244138 0.056149874 0.005436968 0.14891002 -0.07156072 0.23193446 0.036796078
-0.00027019935 0.05794398 0.12367042 0.42593732 -0.021757806 0.077600695 0.047774274 0.05430619
-0.14513652 -0.2560749 -0.109637655 -0.12516844 -0.019452525 -0.02246048 -0.12337162 -0.21258642
-0.20151857 0.038718715 0.028987769 -0.2796575 0.26222438 -0.16676538 0.05433672 0.21879302
00000000: 3c14 cbbd 6978 043e d7ed 483e 88c7 f8bd
00000010: ab87 f13c 7b1e 1bbe 8b91 a7bd c24a 693d
00000020: 990a 8a3e 6a6f 3b3e 27a5 863c 9dfd 92bd
00000030: a5e2 ba3e c178 143e 9aab 54be 0f98 29bd
00000040: fa84 e43e e898 f53e 50e2 983d 540c a03c
00000050: 2e22 583e caf7 f4bd 1a18 78be dde1 18be
00000060: 4b4c f83e 5ade 1e3e 79ca 8c3e bdde f6bc
00000070: 42f7 abbd 6477 e53d c78a 9c3d 5d8b 1cbf
00000080: 6b63 a13c b837 a2be c352 b73d 36e4 053d
00000090: 3839 22bf 7890 06be ba63 2d3d 1335 1b3d
000000a0: ceb6 16bc 3daa da3d 460f 81be 90d7 2e3d
000000b0: 0cca 27bd 2684 0f3d 28ac a7be ec58 33bd
000000c0: 2524 e33d 545f 7e3e 4202 b33e de71 b1bc
000000d0: 0241 d2be d4d8 f2bd fd3b 82be 5bda e5bd
000000e0: 0c8c b3bc f28b 1bbe 3ab4 f43d 3b66 92be
000000f0: 896f 8ebd 5ffd 24be 0030 983c 994d 97bd
00000100: 4fc9 59be 9156 f93d d5d1 a8bd d324 9bbe
00000110: 99e5 3b3e 3026 243d 0f54 843d f551 85bd
00000120: c352 36be 7c8b 79be 31d5 56bd c23e d43d
00000130: e089 7b3e d914 b9be 4ae4 a1be 0912 fb3d
00000140: 10f2 413d 659b 91bc 5f62 27bd f647 8dbe
00000150: 2353 853c dd04 b4bd 41e0 893e 96b5 cbbd
00000160: 1b84 5a3d ce07 5ebd 45ab d33d c3df 353e
00000170: a393 523e c486 83bc f334 c7bd 8ec0 f5bd
00000180: 5f44 c63e 5139 4ebe 4e6d cf3c b99a 613e
00000190: c7f5 9bbe e09e 64bc 2def c13d 3e3f a4be
000001a0: dcd1 673e de45 f3bd 649c 4abe 0bf5 b93e
000001b0: 90e1 42be 98a5 733e fc67 5b3e cceb 09be
000001c0: f724 01be d930 b4bb f292 95be 0297 1dbe
000001d0: cb1c 9a3e 0bdd 843d dab7 05be f170 e9be
000001e0: e4cd afbd a7be b5bd bd98 8d3d db12 543e
000001f0: 4493 96bd 1527 31bd 6b02 a9bd 01d2 8e3c
00000200: 5027 d5bc 50cb 8a3e 5142 623e 6710 8dbe
00000210: 4078 2f3e c130 26bd d199 f0bd 45de 9b3e
00000220: 0f2f 99ba 5442 c2be 9472 4a3d 4ac2 163e
00000230: 5e59 08be b286 0c3c 2f53 953d 3955 a33e
00000240: be0d 96be 11a6 993e 0138 8b3d b6fb 053e
00000250: e811 30be f8f7 1abe 8435 993b cece dabd
00000260: 2324 e7be d1f4 02be 6491 abbd 421b 00be
00000270: d0d0 3d3e 84b1 6dbe 01ed 90bc fb22 e13d
00000280: a380 5abe 7afe ecbd 07ab 213e 13cb e23d
00000290: 8ecd 49bd e415 a3be e9af fabd 05fd 25be
000002a0: d7bc a6bd 0bde 2bbe c55b c63c ed2d f3bc
000002b0: ca94 203e fa81 363e ad5b c1bd 67f3 813e
000002c0: 85fd fd3d 2952 e5bc 6d5f 45be f5e5 a03e
000002d0: c9ff 6cbe 6905 ea3d 81e1 163e 6fdc 24be
000002e0: 9858 42bf aded 06bc 141c c53d 42b9 c23e
000002f0: 70f8 b73c 927b 4c3e b2c7 29be 0ecf dd3c
00000300: 6a78 ee3d c7d5 103e b984 5cbb 9600 1cbe
00000310: ae79 823d b421 b83d b2b1 1f3e 8e20 6d3e
00000320: 3aad 023e 192f 44be 9e22 b13c 2fa7 983e
00000330: 3990 ac3d bcba 0b3e f9e7 00be 4748 483e
00000340: f995 773e 84e4 ab3e fcc5 883d 75ed db3e
00000350: 228a 713e d7bd f53d 2cfb 3cbe 8de8 683d
00000360: edd4 9b3d bfb0 9e3d c057 96bd adc2 803e
00000370: a9b6 d53d 42cd a8bd 83f1 e9be 9823 e63d
00000380: b9e9 cb3d aacc fe3d 69fd 653d 9828 b23b
00000390: de7b 183e 6d8e 92bd 3a80 6d3e 7cb7 163d
000003a0: 8ba9 8db9 ab56 6d3d eb46 fd3d 7514 da3e
000003b0: 6d3d b2bc 1ded 9e3d f5ae 433d 2b70 5e3d
000003c0: ab9e 14be 401c 83be b589 e0bd 282c 00be
000003d0: e75a 9fbc 0aff b7bc 43aa fcbd 41b0 59be
000003e0: e25a 4ebe 8497 1e3d c277 ed3c 452f 8fbe
000003f0: 4642 863e 8bc4 2abe 2e90 5e3d 470b 603e

lstm.bias_ih_l0 f4 [256]
-0.13358968 -0.10179447 0.060234126 0.0150985485 -0.010341476 -0.14413361 0.12233147 -0.1592444
-0.12984122 -0.112008154 0.041264966 -0.044374466 0.00017723032 -0.040366396 0.0067924047 -0.12435941
-0.014253035 0.0040660035 -0.058875415 0.043760918 -0.10624935 -0.13929033 -0.15938091 -0.15099135
-0.06205234 -0.12034688 -0.06454375 -0.09548421 -0.11477392 0.023117745 0.06591216 -0.12064369
-0.10631999 -0.1170312 -0.043863803 -0.22147083 -0.046007585 -0.11038935 -0.13921587 -0.045937307
0.00024297903 -0.03714111 -0.06589165 0.05417189 -0.1431525 -0.07816356 0.14742698 -0.07178488
-0.07482665 0.106275305 -0.11398028 -0.116043635 -0.10853527 0.026996175 -0.07629725 -0.114904486
0.08168182 0.013104737 -0.13749157 0.15250055 -0.06516626 -0.06318553 -0.21580562 0.037226968
-0.033908002 0.014829052 0.077755675 0.09338965 0.06811529 0.05674222 0.15986131 0.03186671
-0.031814713 -0.044198323 0.030419342 0.024415467 0.14942397 0.15413724 0.13885617 0.08732249
0.03157648 0.19624409 0.11770737 0.057982456 0.14607482 0.03263048 -0.044644874 0.019600546
0.033686318 0.10737612 0.0067302557 0.0074733156 0.02580098 0.097235754 0.14063217 0.09388472
-0.028474055 0.050439276 -0.010981985 -0.00045762982 0.15531412 0.1615195 0.12737036 0.041650876
0.17074068 -0.06963022 0.116832055 0.10367499 0.03363752 0.029849308 0.06339732 0.12830968
0.08851962 0.14820474 0.15563528 0.048554584 0.036870938 0.0054660547 0.051821962 0.0811333
-0.0010999372 0.15868962 0.009969345 0.10161074 0.18898968 0.17540178 0.098671176 0.093154505
0.017932758 0.09314755 -0.033613514 -0.057704125 -0.117338866 -0.1044113 0.03600289 -0.10041277
0.01901258 0.0076022726 0.042968594 -0.077559635 -0.0813659 -0.11925768 -0.07968187 0.03602234
0.024974803 0.054740764 -0.041490626 0.08689111 -0.036470953 -0.06185297 -0.05361195 -0.011475666
0.071104184 0.04780778 -0.007856625 -0.106658414 0.012711177 -0.08318653 0.108540244 -0.019581042
0.0515689 -0.040770672 -0.1485536 0.04589933 0.0533463 0.097496495 0.050448906 -0.117996156
0.09887471 -0.012451665 0.049393192 -0.012537456 0.15224218 -0.16222642 0.11789675 -0.0765325
0.050846662 0.03114344 -0.070424505 -0.0706123 0.019431744 -0.053270154 -0.029524619 -0.0056638075
-0.0047304453 -0.031047178 0.06626286 -0.071632005 -0.011162938 0.045595754 -0.037889477 0.04486701
0.070749156 0.0744475 0.063690305 -0.041719496 -0.20793709 -0.09366864 0.021356814 -0.1018395
0.057346255 0.057361122 0.11763218 0.025982058 0.01236829 -0.011058734 -0.14662652 0.0034070674
-0.0709093 0.0640978 0.06927066 -0.0009117475 0.074227415 0.021057291 -0.02209147 0.084511355
-0.02848491 0.007228582 0.02515754 -0.081798784 -0.013801642 -0.10752568 -0.023779063 0.10064961
0.04981496 0.031830925 -0.050016847 -0.105965875 0.045627847 -0.0014610237 0.06846888 0.09879558
-0.07501074 0.11875124 0.17639875 0.15534572 0.064541504 -0.01967218 0.15464292 0.003274234
-0.13093628 0.039715387 0.081014656 0.09150773 0.009096674 -0.00031083782 -0.12317868 -0.009660942
0.110532515 0.015442502 0.01287236 0.00037877652 0.15519626 0.105411805 0.17176476 -0.025702648
00000000: bccb 08be 9e79 d0bd 0fb8 763d e75f 773c
00000010: 4b6f 29bc c397 13be ec88 fa3d f710 23be
00000020: 19f5 04be 8864 e5bd 7405 293d 00c2 35bd
00000030: e7d6 3939 3c57 25bd d292 de3b 25b0 febd
00000040: 9085 69bc 1c3c 853b 5927 71bd a63e 333d
00000050: 4299 d9bd 20a2 0ebe c034 23be 7a9d 1abe
00000060: 982a 7ebd 6d78 f6bd 832f 84bd 3a8d c3bd
00000070: 970e ebbd 6d61 bd3c f4fc 863d 0a14 f7bd
00000080: 4bbe d9bd 0eae efbd 88aa 33bd 40c9 62be
00000090: 7372 3cbd d013 e2bd 9b8e 0ebe c228 3cbd
000000a0: 30c8 7e39 4721 18bd 34f2 86bd 58e3 5d3d
000000b0: 9296 12be 3714 a0bd 19f7 163e f303 93bd
000000c0: b73e 99bd dea6 d93d 7e6e e9bd 49a8 edbd
000000d0: bd47 debd 1527 dd3c bc41 9cbd 0b53 ebbd
000000e0: cc48 a73d 40b5 563c 97ca 0cbe 1b29 1c3e
000000f0: e375 85bd 6a67 81bd 26fc 5cbe 4e7b 183d
00000100: 1ee3 0abd 8df5 723c 5e3e 9f3d 1343 bf3d
00000110: 0780 8b3d 886a 683d afb2 233e ab86 023d
00000120: 2550 02bd 4d09 35bd fc31 f93c f202 c83c
00000130: 9902 193e 27d6 1d3e 5030 0e3e 22d6 b23d
00000140: 5756 013d 36f4 483e 9010 f13d 037f 6d3d
00000150: a394 153e 8aa7 053d 8bdd 36bd 5391 a03c
00000160: aafa 093d 03e8 db3d 7a89 dc3b b7e2 f43b
00000170: 945c d33c 8a23 c73d e101 103e a246 c03d
00000180: 6c42 e9bc 6a99 4e3d c9ed 33bc 09ee efb9
00000190: aa0a 1f3e 5e65 253e 606d 023e 1c9a 2a3d
000001a0: a5d6 2e3e 4a9a 8ebd a545 ef3d 8e53 d43d
000001b0: 7fc7 093d 8986 f43c 74d6 813d 9d63 033e
000001c0: c649 b53d fcc2 173e db5e 1f3e 2ce1 463d
000001d0: fb05 173d 971c b33b 4443 543d 3729 a63d
000001e0: c52b 90ba 887f 223e 7756 233c 4b19 d03d
000001f0: 8386 413e 869c 333e 1d14 ca3d cac7 be3d
00000200: b8e7 923c 25c4 be3d 53ae 09bd 295b 6cbd
00000210: 5c4f f0bd 97d5 d5bd c477 133d 36a5 cdbd
00000220: 45c0 9b3c 7c1c f93b d6ff 2f3d 96d7 9ebd
00000230: 2aa3 a6bd 5f3d f4bd 4030 a3bd 298c 133d
00000240: f597 cc3c da37 603d 13f2 29bd f7f3 b13d
00000250: 9162 15bd 8a59 7dbd 3498 5bbd 6f04 3cbc
00000260: 129f 913d 17d2 433d 13b9 00bc ba6f dabd
00000270: 8a42 503c b35d aabd 594a de3d 6c68 a0bc
00000280: e939 533d 26ff 26bd 6f1e 18be f000 3c3d
00000290: a681 5a3d 3eac c73d 83a3 4e3d f8a7 f1bd
000002a0: d37e ca3d 1102 4cbc 8450 4a3d e769 4dbc
000002b0: 60e5 1b3e af1e 26be da73 f13d 12bd 9cbd
000002c0: 9744 503d 8720 ff3c b93a 90bd 2e9d 90bd
000002d0: 522f 9f3c ce31 5abd 9ddd f1bc 7697 b9bb
000002e0: da01 9bbb a756 febc d3b4 873d cdb3 92bd
000002f0: c1e4 36bc 9dc2 3a3d ff31 1bbd 78c6 373d
00000300: efe4 903d ee77 983d 1070 823d 10e2 2abd
00000310: 76ed 54be 58d5 bfbd 7cf4 ae3c 3a91 d0bd
00000320: e8e3 6a3d 7ff3 6a3d 24e9 f03d 53d8 d43c
00000330: 5ea4 4a3c b12f 35bc 4325 16be 1b49 5f3b
00000340: e538 91bd b545 833d c7dd 8d3d 5702 6fba
00000350: 8b04 983d 5780 ac3c 2cf9 b4bc 4a14 ad3d
00000360: 3059 e9bc bedd ec3b 2f17 ce3c 1f86 a7bd
00000370: 4820 62bc 6c36 dcbd 4fcc c2bc 6221 ce3d
00000380: c60a 4c3d 2561 023d 77de 4cbd a304 d9bd
00000390: 44e4 3a3d d27f bfba 6a39 8c3d 5655 ca3d
000003a0: 3b9f 99bd da33 f33d e0a1 343e f312 1f3e
000003b0: 562e 843d 8d27 a1bc b75a 1e3e 8894 563b
000003c0: 2914 06be 9aac 223d 03eb a53d 6868 bb3d
000003d0: 370a 153c f2f7 a2b9 1b45 fcbd ed48 1ebc
000003e0: df5e e23d 8c02 7d3c 97e6 523c 8696 c639
000003f0: c5eb 1e3e 25e2 d73d 1ae3 2f3e 5c8e d2bc

lstm.bias_hh_l0 f4 [256]
0.048798516 0.0312549 -0.13432449 -0.08036458 0.035158966 -0.16652517 0.13970324 -0.117739335
-0.00979324 -0.04832238 -0.09774121 0.008438413 -0.121324636 -0.036508765 -0.13812913 -0.13430387
-0.06798219 -0.12873681 0.052271903 -0.035744946 0.07179512 -0.16881526 -0.043146037 -0.043357767
-0.07112831 -0.08052437 -0.1575635 0.11409711 -0.10395879 -0.0180279 0.052264616 -0.13820085
-0.15453306 -0.10735403 -0.115627155 -0.16097212 -0.0498655 -0.12699834 -0.08171994 -0.13940029
-0.10812047 -0.13325562 0.051407114 -0.06929616 -0.06703066 0.028704429 0.0153479315 -0.030158946
-0.1544708 -0.029498173 0.1098282 -0.112752594 -0.025121279 0.024973914 -0.14750682 -0.025343355
0.15223207 0.0058796615 -0.17643385 -0.05315746 0.032673515 -0.21655616 -0.14978093 0.07804941
0.13184862 -0.042834077 0.08221137 0.11685041 0.082939364 -0.111056745 0.16130379 0.07798074
0.10285985 0.17511393 0.006578976 0.16491838 0.02784715 0.14620645 0.09302768 0.011685866
0.04174581 0.100080565 -0.039665908 0.08089847 0.19614698 -0.0904791 0.05870806 0.066249795
0.058191832 -0.040607378 -0.026180424 0.16824843 -0.0014933668 -0.046382006 0.121361926 0.028777616
0.1312781 0.12990208 -0.017483214 0.037715513 0.13837372 0.15791154 0.15811782 0.016272146
0.023366341 -0.07181101 0.03904371 0.034276895 0.19656035 0.14722838 0.13381906 0.09664504
-0.00092645973 0.10190243 0.17141123 0.17988445 0.18390352 0.14973849 -0.06548738 0.015984178
0.00028288024 -0.008013645 0.01983974 0.11361674 0.12785771 0.23095834 0.18651865 0.1027795
0.12640956 0.062264588 0.07469942 -0.00063238194 -0.03670539 -3.367475e-05 -0.03958403 -0.053084116
-0.06336492 0.104186304 0.063172325 -0.11479457 -0.01715479 -0.109178595 -0.09916789 -0.09475122
-0.07628943 -0.023063278 0.1567523 -0.0935855 -0.065404244 -0.094256304 0.007868095 0.05956793
-0.11773671 -0.029344188 0.057646815 -0.009908326 0.010101189 0.07004108 0.017310146 0.07261037
0.093375385 0.10489304 -0.020037003 -0.027693827 0.006068587 0.095366776 -0.111392245 0.014274335
-0.04469848 -0.08465994 -0.09290719 -0.08361452 -0.018643683 0.018936016 0.09856784 0.11549777
-0.026845317 0.007814981 0.05794637 0.08564678 0.11039245 0.038230654 -0.011302307 -0.059504032
-0.069041744 0.016613964 -0.06533997 0.1377646 -0.07140383 0.06000782 0.06478482 0.06375678
-0.038978696 0.021451812 0.023990808 -0.0949302 0.011052522 0.071427554 0.09907105 -0.13178134
0.026643496 -0.13525319 -0.12192491 -0.024728732 0.013844361 0.06534453 0.055994693 0.03747523
-0.029461874 -0.024776516 0.1676089 0.031967442 -0.03893676 -0.095315285 0.0061370414 -0.070979096
0.01448781 0.04097543 -0.049409475 0.112342544 0.04456458 0.101716414 0.029371906 0.048114333
-0.02837408 -0.061009254 0.10419484 -0.12295621 0.0732219 0.045037076 -0.036319762 -0.03686663
0.028276056 0.019381387 0.123490974 0.07693994 -0.05119643 0.0074940915 0.20870098 0.04737378
0.033454906 0.0028871957 -0.00684508 -0.0752745 0.0611394 0.07839374 0.076894306 -0.097851455
-0.026533524 -0.09499083 0.020393388 -0.03761061 0.087098055 0.06837809 -0.002477907 0.07094021
00000000: f4e0 473d 2305 003d 5c8c 09be 2f96 a4bd
00000010: d902 103d 9385 2abe 5e0e 0f3e 5221 f1bd
00000020: d373 20bc b0ed 45bd 8b2c c8bd 4541 0a3c
00000030: 0d79 f8bd 378a 15bd b971 0dbe f486 09be
00000040: 3f3a 8bbd 95d3 03be 101b 563d 4b69 12bd
00000050: 5209 933d e8dd 2cbe e6b9 30bd ea97 31bd
00000060: b8ab 91bd f6e9 a4bd 5358 21be bfab e93d
00000070: 59e8 d4bd 3faf 93bc 6c13 563d 8684 0dbe
00000080: ea3d 1ebe 6edc dbbd eecd ecbd e0d5 24be
00000090: c43f 4cbd da0b 02be c95c a7bd f3be 0ebe
000000a0: 446e ddbd 2974 08be 4490 523d 25eb 8dbd
000000b0: 5f47 89bd 8d25 eb3c e475 7b3c e50f f7bc
000000c0: 982d 1ebe 27a6 f1bc 9bed e03d d5ea e6bd
000000d0: 24cb cdbc 1896 cc3c 070c 17be de9c cfbc
000000e0: b9e2 1b3e 2daa c03b 13ab 34be a3bb 59bd
000000f0: aad4 053d e6c0 5dbe 2c60 19be 5ed8 9f3d
00000100: 5303 073e c972 2fbd 6f5e a83d 454f ef3d
00000110: 1ddc a93d b871 e3bd d22c 253e 5eb4 9f3d
00000120: 2fa8 d23d 1151 333e 7394 d73b 5de0 283e
00000130: b51f e43c 25b7 153e 4c85 be3d 1376 3f3c
00000140: a8fd 2a3d 0af7 cc3d b878 22bd 19ae a53d
00000150: c1da 483e 1b4d b9bd dd77 703d f9ad 873d
00000160: 8f5a 6e3d ec53 26bd 5478 d6bc 5149 2c3e
00000170: 13bd c3ba 0ffb 3dbd 9a8c f83d 09bf eb3c
00000180: c46d 063e 0d05 053e f538 8fbc 957b 1a3d
00000190: d7b1 0d3e 90b3 213e a3e9 213e 2a4d 853c
000001a0: c56a bf3c a711 93bd 4cec 1f3d ee65 0c3d
000001b0: 1e47 493e 09c3 163e dd07 093e d6ed c53d
000001c0: a9dd 72ba 39b2 d03d 6d86 2f3e a133 383e
000001d0: 3451 3c3e 0c55 193e 3f1e 86bd 40f1 823c
000001e0: 8b4f 9439 aa4b 03bc f386 a23c e5af e83d
000001f0: 22ed 023e 5880 6c3e bffe 3e3e 0f7e d23d
00000200: 8271 013e 2709 7f3d 02fc 983d 6fc6 25ba
00000210: 6458 16bd fd3d 0db8 dd22 22bd bb6e 59bd
00000220: 78c5 81bd a15f d53d 7e60 813d 6a19 ebbd
00000230: 3488 8cbc 0799 dfbd 8918 cbbd ed0c c2bd
00000240: a23d 9cbd 33ef bcbc ad83 203e c1a9 bfbd
00000250: a9f2 85bd 7309 c1bd 2fe9 003c 80fd 733d
00000260: f21f f1bd 3963 f0bc 111f 6c3d 8856 22bc
00000270: 757f 253c b371 8f3d 02ce 8d3c bfb4 943d
00000280: 983b bf3d 2ad2 d63d a424 a4bc 2ade e2bc
00000290: ffda c63b a84f c33d 9e21 e4bd e6de 693c
000002a0: c115 37bd 3162 adbd 2046 bebd 173e abbd
000002b0: a3ba 98bc b41f 9b3c f0dd c93d 188a ec3d
000002c0: b6ea dbbc 680a 003c 2c59 6d3d 9467 af3d
000002d0: 7015 e23d bf97 1c3d 502d 39bc 80ba 73bd
000002e0: c265 8dbd 021a 883c f6d0 85bd 2a12 0d3e
000002f0: 2c3c 92bd c3ca 753d e7ad 843d ea92 823d
00000300: 20a8 1fbd b6bb af3c 5f88 c43c c46a c2bd
00000310: a315 353c 9c48 923d c3e5 ca3d b0f1 06be
00000320: 7643 da3c d07f 0abe c4b3 f9bd e993 cabc
00000330: 75d3 623c 5ad3 853d b15a 653d a07f 193d
00000340: 075a f1bc 1ff8 cabc aba1 2b3e 4bf0 023d
00000350: 277c 1fbd a934 c3bd 3c19 c93b 7d5d 91bd
00000360: 485e 6d3c dad5 273d 9761 4abd d913 e63d
00000370: 5989 363d b250 d03d 5a9d f03c 8913 453d
00000380: c270 e8bc d7e4 79bd 1b64 d53d 77d0 fbbd
00000390: 5df5 953d cc78 383d 08c4 14bd 7701 17bd
000003a0: 30a3 e73c b7c5 9e3c d6e8 fc3d b092 9d3d
000003b0: 59b3 51bd ff90 f53b b6b5 553e 020b 423d
000003c0: 0308 093d 1b37 3d3b b14c e0bb 8429 9abd
000003d0: 4f6d 7a3d e68c a03d c37a 9d3d 5866 c8bd
000003e0: d55c d9bc 8d8a c2bd 0910 a73c 950d 1abd
000003f0: 7760 b23d d009 8c3d 6264 22bb 1a49 913d
