src/bidmc_generation/models/ha_cnn_bilstm_withWST/20260205_171903/best_lightweight_hybrid.pth (torch, 430093 bytes, 23 tensors)

cnn_encoder.0.weight f4 [32, 16, 7]
0	0x3d389f34	0.045073703
1	0xbcd98437	-0.026552303
2	0x3d96e49b	0.07367822
3	0xbd024bfb	-0.031810742
4	0xbdaf8336	-0.085699484
5	0xbd900a47	-0.0703321
6	0xba9182d5	-0.0011101613
7	0xbe30d6b1	-0.17269398
8	0xbcb5c0bf	-0.022186635
9	0xbd0b5763	-0.034018885
10	0x3d9df8a5	0.07713441
11	0xbd2e1809	-0.04250339
12	0x3d092518	0.03348264
13	0x3d237a51	0.039911572
14	0xbd9f4fef	-0.07778918
15	0xbccce8c2	-0.025013331
16	0xbd8b5e22	-0.06805064
17	0xbd427270	-0.047472417
18	0x3dbb77b5	0.09153692
19	0xbd087221	-0.033311967
20	0xbd1b597e	-0.037927143
21	0xbd16e40c	-0.036838576
22	0xbdbdaaa6	-0.09261064
23	0x3cb57891	0.022152217
24	0xbd976320	-0.073919535
25	0x3dbc2c4d	0.09188137
26	0x3d3a5366	0.04548969
27	0x3cb9798a	0.022640962
28	0xbbd0a971	-0.0063678552
29	0xbdc693f0	-0.096961856
30	0xbd068e3c	-0.03285049
31	0xbd130ea2	-0.035902627
32	0x3d7fc6e6	0.062445544
33	0x3d981f87	0.07427888
34	0x3df7b702	0.12095453
35	0xbdf7b921	-0.120958574
36	0xbce44d9c	-0.027869038
37	0xbd5a3978	-0.053277463
38	0x3d87a2e7	0.06622868
39	0xbd05c01b	-0.03265391
40	0x3ba1860a	0.004929309
41	0x3de78ad5	0.11305777
42	0xbcfa4d32	-0.030554388
43	0xbd982318	-0.074285686
44	0xbc716052	-0.014732437
45	0x3d04ee55	0.032453854
46	0x3afa237c	0.0019084061
47	0xbd1903e4	-0.037357226
48	0xbce03c3a	-0.027372468
49	0xbc05927f	-0.008152603
50	0xbd664711	-0.056220118
51	0x3bd162d9	0.0063899574
52	0xbd975a41	-0.073902614
53	0x3de9c8a8	0.11415225
54	0x3d8e2dcf	0.06942331
55	0x3d28062f	0.041021522
56	0xbdb8bc8a	-0.09020336
57	0xbe0b6dad	-0.13616057
58	0xbe8cbbc8	-0.27487016
59	0xbe7bf1c9	-0.24603952
60	0xbe176924	-0.14786202
61	0x3d90810a	0.07055862
62	0xbdf55aae	-0.119801864
63	0x3d696a0b	0.056985896
64	0x3cd6b18c	0.026207708
65	0xbdfb1bce	-0.12261163
66	0x3d2e56ed	0.042563368
67	0x3cccde70	0.02500841
68	0xbd06f63e	-0.03294968
69	0xbca40129	-0.020020084
70	0x3c12d633	0.008962202
71	0x3d1de078	0.03854415
72	0x3d167643	0.036733877
73	0xbc4c66cd	-0.0124756815
74	0xbc376c2c	-0.011195224
75	0xbc473391	-0.0121582905
76	0xbc671ead	-0.014106435
77	0xbd3da689	-0.0463014
78	0xbd6d245c	-0.057896003
79	0xbe1bc2cc	-0.15211028
80	0x3d4a9f39	0.049468253
81	0xbd430ba3	-0.04761852
82	0xbd02be8c	-0.03192
83	0xbe01b184	-0.12665373
84	0xbcbe4b13	-0.023229158
85	0x3d59594b	0.053063672
86	0xbe11a185	-0.14221771
87	0xbb1d26c6	-0.002397941
88	0x3da3f309	0.0800534
89	0xbded731d	-0.11594222
90	0xbd33e93e	-0.04392361
91	0x3c98593c	0.018597238
92	0xbc3438d8	-0.010999881
93	0xbd7c2032	-0.06155414
94	0x3d2eb4ec	0.04265301
95	0x3d9bf3f5	0.076148905
96	0xbcb9f17d	-0.022698158
97	0xbc853a4c	-0.01626315
98	0xbd242e48	-0.0400832
99	0xbd7c5a67	-0.061609652
100	0xbdc2d3cf	-0.095130555
101	0x3c886cf4	0.016653515
102	0x3d924e76	0.071438715
103	0x3d0df134	0.034653857
104	0xbd6794c9	-0.056538377
105	0x3c8d8427	0.01727493
106	0xbd8882d2	-0.06665577
107	0xbdaa0e20	-0.083034754
108	0xbdfbfd83	-0.12304213
109	0x3ccda324	0.025102206
110	0xbdb4e74e	-0.0883318
111	0x3cd33f78	0.0257871
112	0x3de64cbb	0.11245104
113	0x3ddec1b3	0.10876789
114	0x3c7752bd	0.01509541
115	0x3cc5e83f	0.024158595
116	0xbe10a61c	-0.14125866
117	0xbd865b16	-0.06560342
118	0xbddece75	-0.10879222
119	0x3d686de5	0.05674543
120	0xbb8f3777	-0.0043706256
121	0xbcb0db0a	-0.021588821
122	0xbc2add5b	-0.010428752
123	0xbdbf26d7	-0.0933358
124	0xbda13837	-0.0787205
125	0xbe0c1914	-0.13681442
126	0xbd4f12c4	-0.050555006
127	0x3d1496d1	0.036276642
128	0x3d037cf9	0.032101605
129	0xbe0fd0cc	-0.14044493
130	0xbd9dc92b	-0.07704385
131	0xbe06896a	-0.13138357
132	0xbc92b293	-0.017907416
133	0xbc535105	-0.0128977345
134	0xbce7809b	-0.028259566
135	0xbd0bc84d	-0.03412657
136	0xbd890b6d	-0.066916324
137	0xbc3016ad	-0.010747594
138	0xbe10232c	-0.14075917
139	0xbd9a78d9	-0.07542581
140	0x3cb911ab	0.022591433
141	0x3da7fec4	0.082028896
142	0x3d520d5e	0.05128228
143	0xbdc2709e	-0.09494136
144	0xbdb87908	-0.0900746
145	0xbdd1e87e	-0.102494225
146	0xbe13d626	-0.1443716
147	0x3dbe5ab1	0.09294642
148	0x3de5fff7	0.11230462
149	0xbd8cac04	-0.06868747
150	0xbd5e0ecd	-0.054213334
151	0x3ce7c40c	0.028291725
152	0xbda5b935	-0.08091966
153	0xbe16da31	-0.14731671
154	0x3dce94c1	0.10086966
155	0x3caa8c4f	0.020818857
156	0xbc45e4f8	-0.012078516
157	0xbdb3c045	-0.08776907
158	0x3c5a1b2a	0.0133121405
159	0xbde8d56b	-0.11368831
160	0xbe3b6fd7	-0.18304382
161	0xbcd3f000	-0.025871277
162	0xbcde8889	-0.027164714
163	0x3d77506e	0.060379438
164	0x3d1665df	0.036718246
165	0xbccc4c50	-0.024938732
166	0xbe173917	-0.14767872
167	0xbe56a409	-0.20961012
168	0xbd50a0b1	-0.050934497
169	0xbcfff4a7	-0.031244589
170	0x3d824bd5	0.0636212
171	0x3d4f1bd0	0.050563633
172	0xbd5f84ba	-0.054569937
173	0xbd64cba2	-0.055858262
174	0x3dde0712	0.10841192
175	0x3ce9862a	0.028506357
176	0xbbf812f0	-0.007570617
177	0x3ccac842	0.024753693
178	0x3d894a44	0.06703618
179	0x3ca536f9	0.020167815
180	0x3d733e62	0.059385665
181	0x3d367887	0.044548538
182	0xbda329dd	-0.07966969
183	0xbd858f58	-0.06521481
184	0x3b81acc1	0.0039573614
185	0xbcd0baa2	-0.025479618
186	0x3cc02fbd	0.023460263
187	0xbcbdb528	-0.023157671
188	0xbcce79d9	-0.025204586
189	0xbcabcef6	-0.02097271
190	0xbd31add2	-0.04337866
191	0x3d9e7ce7	0.07738667
192	0x3db2d2dc	0.087316245
193	0xba9021d6	-0.0010996412
194	0xbd5d2809	-0.05399326
195	0xbdab65d3	-0.08369031
196	0xbd374901	-0.044747356
197	0xbdb7faa4	-0.08983353
198	0x3dbac934	0.09120408
199	0x3d840435	0.06446115
200	0x3a0a5bac	0.00052779424
201	0xbd0a3462	-0.033741362
202	0xbc38c7d2	-0.01127811
203	0x3d1ad010	0.03779608
204	0xbd145a09	-0.036218677
205	0x3c52fc9f	0.012877612
206	0x3d656d3f	0.05601239
207	0x3d29f9c4	0.04149796
208	0xbce428d3	-0.027851498
209	0x3d789b3d	0.06069492
210	0xbdf3b113	-0.118990086
211	0xbbe2bfbc	-0.006919829
212	0xbdd0d65a	-0.10197134
213	0x3d57dc8e	0.05270057
214	0x3d6c8317	0.057742205
215	0xbd56d158	-0.05244574
216	0xbdc1e216	-0.094669506
217	0xbdcca506	-0.09992413
218	0xbc091bfc	-0.008368488
219	0xbdb8435e	-0.08997224
220	0xbd180e2b	-0.037122887
221	0xbd588f99	-0.05287132
222	0xbda6c561	-0.08143116
223	0x3d188d7c	0.037244305
224	0xbdd377bf	-0.10325574
225	0x3c1c1d38	0.009528451
226	0xbcc28ca3	-0.023748701
227	0x3daeb0ee	0.085298404
228	0x3e21ad1d	0.15788694
229	0xbd7849ee	-0.06061738
230	0xbe018a8b	-0.12650506
231	0x3d78a2d3	0.060702156
232	0x3d5f70b9	0.05455086
233	0xbda28f21	-0.07937456
234	0xbbe9d016	-0.0071354015
235	0xbe1673f9	-0.14692678
236	0xbe1b12aa	-0.15143839
237	0xbd133edb	-0.035948616
238	0x3d7f1d3a	0.062283732
239	0x3c2ee61f	0.010674982
240	0x3da27232	0.07931937
241	0x3b981212	0.004640826
242	0xbdae41af	-0.08508622
243	0x3cd9bc03	0.026578909
244	0x3d5655ed	0.05232804
245	0x3cdb95b7	0.026804788
246	0xbdaf70bf	-0.085664265
247	0xbd8dd52a	-0.069254234
248	0x3d375590	0.044759333
249	0x3d0896c7	0.033346917
250	0xbc68bfd1	-0.014205889
251	0x3d82f9fa	0.063953355
252	0xbd9eb794	-0.077498585
253	0xbcb301d1	-0.021851452
254	0xbc1b378c	-0.009473693
255	0xbd80ef4d	-0.06295643

cnn_encoder.0.bias f4 [32]
0	0xbd26f5cc	-0.040761754
1	0xbd587d7d	-0.05285405
2	0xbd651f0d	-0.055937815
3	0xbd65fbea	-0.056148447
4	0x3d6cc50e	0.057805113
5	0xbdbe2830	-0.09285009
6	0x3e149af6	0.14512238
7	0xbd39d222	-0.045366414
8	0xbdcb3dfd	-0.09923933
9	0x3dce6802	0.10078432
10	0xbdd2f651	-0.103008874
11	0x3dd6010f	0.10449421
12	0xbdc8946c	-0.09793934
13	0xbdb31833	-0.0874485
14	0xbd18824d	-0.03723364
15	0xbd8bd7fa	-0.06828304
16	0xbe33725a	-0.1752409
17	0xbc625642	-0.013814511
18	0x3d896a59	0.06709737
19	0x3d82b1dc	0.0638158
20	0xbc977b8b	-0.018491527
21	0x3d561a23	0.05227102
22	0x3d4fe356	0.050753914
23	0xbb96e1e1	-0.0046045636
24	0x3d94e684	0.0727053
25	0xbcfba7ee	-0.030719724
26	0xbdb5262a	-0.0884517
27	0xbd858879	-0.06520171
28	0xbd3e36a1	-0.046438817
29	0xbcd14112	-0.025543723
30	0xbd3fcea5	-0.04682793
31	0x3d6fe382	0.058566578

cnn_encoder.1.weight f4 [32]
0	0x3f4ae3f8	0.792541
1	0x3f7d303c	0.98901725
2	0x3f7e5ab3	0.99357146
3	0x3f68e17c	0.9096906
4	0x3f6123eb	0.8794543
5	0x3f8693c6	1.0513847
6	0x3f8e51f3	1.1118759
7	0x3f85ec1e	1.0462682
8	0x3f9b7a05	1.2146612
9	0x3f82b437	1.0211247
10	0x3f6c89ae	0.9239758
11	0x3f6e8083	0.93164843
12	0x3f543226	0.8288902
13	0x3f91a3bd	1.1378094
14	0x3f84763d	1.0348583
15	0x3f95f050	1.1713963
16	0x3f937032	1.1518614
17	0x3f852684	1.0402379
18	0x3f52eba1	0.8239079
19	0x3f932360	1.149517
20	0x3f7f51c4	0.9973414
21	0x3f659f28	0.8969598
22	0x3f646b84	0.89226556
23	0x3f7fa0c5	0.9985469
24	0x3f61b2c8	0.88163424
25	0x3f8c685b	1.0969347
26	0x3f8a8ddf	1.0824546
27	0x3f4e9c5a	0.80707324
28	0x3f76c2ac	0.96390796
29	0x3f92c617	1.1466702
30	0x3f7299bf	0.9476585
31	0x3f57a58d	0.84236985

cnn_encoder.1.bias f4 [32]
0	0xbe1fa3c5	-0.15589817
1	0xbe0b96de	-0.1363177
2	0xbd90cb35	-0.07070009
3	0xbe02417f	-0.12720297
4	0xbe1519ed	-0.14560671
5	0xbd95a2ad	-0.073064186
6	0xbde880de	-0.113527045
7	0xbd8c29a0	-0.06843877
8	0x3dbb4fcd	0.0914608
9	0xbe13c3bb	-0.14430134
10	0xbe7bb103	-0.24579243
11	0xbe24176d	-0.16024561
12	0xbe519b94	-0.20469505
13	0x3c777011	0.015102402
14	0x3cc1deaa	0.023665745
15	0xbe02dcf1	-0.12779595
16	0xbd514bbc	-0.051097617
17	0xbe19dd2b	-0.15025775
18	0xbe393918	-0.18088186
19	0xbe617c45	-0.22020061
20	0xbe26c020	-0.16284227
21	0xbdcd63df	-0.100288145
22	0xbe6256cb	-0.22103421
23	0xbe5ad7b0	-0.21371341
24	0x3b703d17	0.0036657506
25	0xbd95b8e8	-0.07310659
26	0xbe22a07c	-0.15881532
27	0xbe0206b3	-0.12697868
28	0xbe033457	-0.12812935
29	0xbdc8d7cc	-0.09806785
30	0xbde2e8e0	-0.11079574
31	0xbe867d56	-0.262675

cnn_encoder.1.running_mean f4 [32]
0	0xbee883d6	-0.45413083
1	0xbe0ed44c	-0.13948172
2	0xbd17ef72	-0.037093587
3	0xbe0ddac9	-0.13852991
4	0x3e0dad4e	0.13835642
5	0xbe2b3906	-0.16720971
6	0x3da991eb	0.08279785
7	0xbd18dd70	-0.037320554
8	0xbdc31b7e	-0.09526728
9	0x3d975fdc	0.073913306
10	0xbe71b513	-0.2360423
11	0xbd34aaa7	-0.04410806
12	0xbc41421a	-0.011795545
13	0xbde795a7	-0.11307841
14	0x39914198	0.00027705426
15	0xbdab3e7a	-0.08361526
16	0xbe87bc85	-0.26511016
17	0xbdc923c8	-0.09821278
18	0x3d0be294	0.03415163
19	0xbcb02ac5	-0.02150477
20	0xbcb27ed9	-0.021789001
21	0xbce8f039	-0.02843486
22	0x3e0396d5	0.12850507
23	0xbdfab8f0	-0.12242305
24	0x3e0f22bc	0.13978094
25	0xbcf6c95e	-0.030125316
26	0xbe6041a4	-0.2190004
27	0xbe3ba213	-0.18323545
28	0xbd8162f3	-0.06317701
29	0xbd004d8f	-0.031323966
30	0x3d729d48	0.059232026
31	0xbd409c1d	-0.04702388

cnn_encoder.1.running_var f4 [32]
0	0x3c751932	0.01495962
1	0x3be4325d	0.0069640116
2	0x3a4a6f90	0.00077223126
3	0x3b51e9b5	0.003203017
4	0x3b0124cd	0.0019705773
5	0x3b311388	0.0027019698
6	0x3ad7096a	0.0016406004
7	0x3a8cc3e7	0.0010739536
8	0x3a096ef1	0.0005242667
9	0x3af6044b	0.001876959
10	0x3b2f7472	0.0026772288
11	0x3b3d3a8e	0.0028874013
12	0x3b818c04	0.0039534587
13	0x3a8b8d09	0.001064689
14	0x3b4629fa	0.0030237422
15	0x3b584eb1	0.0033005888
16	0x3a993608	0.0011689076
17	0x3b038c3b	0.0020072598
18	0x3b69226a	0.003557349
19	0x3b0e72b6	0.0021735854
20	0x3b234848	0.002491491
21	0x3aebae30	0.0017980989
22	0x3b3fb0fd	0.002924978
23	0x3b122b85	0.0022303772
24	0x3a674bf5	0.0008823269
25	0x3ac615f1	0.001511274
26	0x3ae1e60f	0.00172347
27	0x3b283d36	0.002567125
28	0x3a5501d8	0.000812558
29	0x3ab37399	0.0013691067
30	0x3ad69811	0.0016372224
31	0x3b931ce8	0.00448953

cnn_encoder.4.weight f4 [64, 32, 5]
0	0x3d8d09c5	0.06886629
1	0xbcd6f84a	-0.02624144
2	0x3d11d449	0.03560284
3	0xbde86f69	-0.11349375
4	0x3d85034a	0.06494768
5	0x3e0863a8	0.13319266
6	0x3db33ecb	0.08752211
7	0xbc430f33	-0.011905479
8	0xbd5cd5a6	-0.05391469
9	0x3dc8092b	0.09767374
10	0xbdc8b6ca	-0.09800489
11	0xbc7707d6	-0.015077552
12	0xbda1f898	-0.079087436
13	0x3d14cb5b	0.036326747
14	0x3d85fcfe	0.06542395
15	0x3d6a5a7c	0.0572152
16	0x3c0221cf	0.007942631
17	0x3c1984ac	0.00937001
18	0xbdd22ce2	-0.10262467
19	0x3d7f052a	0.062260784
20	0x3b8556ba	0.0040691765
21	0x3d376369	0.04477254
22	0xbe023de5	-0.12718923
23	0xbd9fde4e	-0.07806073
24	0xbd83dde4	-0.06438807
25	0x3deed947	0.11662536
26	0x3d7d7a91	0.061884467
27	0xbcc6510a	-0.024208564
28	0x3a5b163a	0.0008357499
29	0x3d98f7a0	0.07469106
30	0x3af7f374	0.0018917159
31	0xbb59aaf2	-0.0033213464
32	0xbd6096a1	-0.05483115
33	0xbd8dd9ad	-0.06926284
34	0xbc3395ef	-0.01096104
35	0x3e2f595f	0.17123936
36	0x3d2f8dda	0.04285989
37	0x3ceeb0ab	0.029136976
38	0xbde3bfdd	-0.111205794
39	0xbd16f787	-0.036857154
40	0xbd9d42a1	-0.07678724
41	0xbb20ecbe	-0.0024555172
42	0x3d9b86f6	0.07594101
43	0xbbe31ee6	-0.0069311736
44	0x3e24df76	0.16100869
45	0xbdf206da	-0.11817713
46	0xbd4863cd	-0.048923302
47	0xbd19c8d3	-0.037545037
48	0x3cbae30b	0.02281334
49	0x3d5dc595	0.054143507
50	0xbdbb8ba9	-0.091574974
51	0x3d087147	0.033311155
52	0x3d3c0b87	0.04590943
53	0xbde30a92	-0.110860005
54	0xbc8b3158	-0.016991302
55	0xbd3626a6	-0.04447045
56	0xbd0c5441	-0.03426004
57	0xbb8bb335	-0.0042633065
58	0xbd0603cd	-0.03271847
59	0x3dd905fa	0.10596843
60	0x3d3f24c7	0.046665933
61	0x3c4ef734	0.01263218
62	0xbe2ec8b7	-0.17068754
63	0xbd7881af	-0.06067055
64	0xbdc0eae3	-0.09419801
65	0x3de34b9c	0.11098406
66	0xbdb24eb8	-0.08706421
67	0xbd1d6c16	-0.038433157
68	0xbd3eaa0e	-0.046548896
69	0x3da80322	0.082037225
70	0x3dc4b8dc	0.09605572
71	0x3dd7cb97	0.105368786
72	0x3d1aee48	0.0378249
73	0xbd228701	-0.03967953
74	0xbcc2f022	-0.023796145
75	0x3dae1be4	0.085014135
76	0xbdcaff11	-0.09911931
77	0xbe2a76ab	-0.1664683
78	0xbd7c49ea	-0.061593927
79	0xbce94375	-0.028474549
80	0x3d0a56b9	0.03377411
81	0x3c888d7a	0.016669024
82	0xbdce52cc	-0.10074386
83	0xbddc37ed	-0.107528545
84	0x3e1d4a1c	0.15360302
85	0x3c961f26	0.0183254
86	0xbd48aabc	-0.04899095
87	0xbcba3b10	-0.022733241
88	0xbdf14086	-0.11779885
89	0xbbd194cd	-0.0063959123
90	0x3d9d24b9	0.0767302
91	0x3dd922d7	0.10602348
92	0x3d627874	0.055290654
93	0x3d882011	0.06646741
94	0x3ca93b97	0.020658297
95	0x3dfe5b8b	0.12419804
96	0xbd0263f6	-0.03183361
97	0xbd3e3f7c	-0.046447262
98	0xbbf41287	-0.0074484977
99	0x3d25dce1	0.04049385
100	0x3e357357	0.1771978
101	0xbcadb2e9	-0.021203475
102	0x3d95ec22	0.073204294
103	0xbd604c91	-0.05476052
104	0x3da30d5d	0.07961533
105	0xbd481f8a	-0.048858203
106	0x3cd9d4c5	0.026590714
107	0xbd98e99a	-0.07466431
108	0x3d7dee36	0.061994754
109	0xbcd0decd	-0.025496865
110	0x3d375ce3	0.044766318
111	0x3d346146	0.04403808
112	0xbc9d63e7	-0.019212676
113	0xbd589cd7	-0.05288395
114	0xbc5de414	-0.013543148
115	0x3cac7604	0.021052368
116	0x3d5880bf	0.052857157
117	0xbda877ac	-0.082259506
118	0xbdd8ce53	-0.10586228
119	0xbd673179	-0.056443665
120	0x3dc10bd0	0.09426081
121	0x3d3a9308	0.045550376
122	0xbd3d9d05	-0.046292324
123	0xbb4095ce	-0.0029386166
124	0xbdc46e95	-0.09591404
125	0x3bc4a0cd	0.0060006143
126	0x3c30e687	0.0107971495
127	0x3d11f6d0	0.03563577
128	0x3debeeec	0.1152018
129	0xbc7f9884	-0.015600327
130	0xbce6bb89	-0.028165596
131	0xbcbd33ff	-0.023096083
132	0x3d7a97f4	0.06118007
133	0x3da7dbfb	0.08196255
134	0xbd073b3b	-0.03301547
135	0x3dff68b3	0.12471142
136	0xbce37892	-0.027767453
137	0x3d85599a	0.06511231
138	0x3d2312ff	0.039813038
139	0xbb510089	-0.0031891188
140	0x3e3634e0	0.17793608
141	0xbc8a14d9	-0.016855644
142	0xbd8a9e27	-0.067684464
143	0x3d4aff42	0.04955984
144	0xbde1c0eb	-0.11023124
145	0xbda500f8	-0.080568254
146	0x3cebf1f2	0.028801892
147	0x3deed08b	0.1166087
148	0x3e099e59	0.13439311
149	0xbda72e86	-0.081631705
150	0xbce76e1f	-0.028250752
151	0xbd590d04	-0.05299093
152	0xbd88fe91	-0.0668918
153	0xbad7f27a	-0.0016475462
154	0xbda5df8a	-0.08099277
155	0x3da04ed1	0.07827533
156	0xbd154e3c	-0.036451563
157	0x3c17aaf4	0.009257067
158	0xbd7c5e0a	-0.06161312
159	0xbca84b7c	-0.020543806
160	0x3cae136a	0.021249492
161	0x3d5b30eb	0.05351345
162	0x3da383fe	0.0798416
163	0xbb536866	-0.0032258271
164	0x3d6b746e	0.057484083
165	0x3ddd9ed7	0.10821312
166	0x3d1a2788	0.037635356
167	0xbd410aef	-0.047129568
168	0xbd63d244	-0.055620447
169	0x3d7873f3	0.060657453
170	0xbda04f12	-0.078275815
171	0xbd34b8bb	-0.044121485
172	0xbd1d5204	-0.038408294
173	0x3d121e6e	0.03567355
174	0x3d36f664	0.04466857
175	0xbc933ec8	-0.017974272
176	0x3a922f8f	0.001115309
177	0x3d658fb7	0.05604526
178	0x3d8a3a97	0.067494564
179	0xbd7d153b	-0.061787825
180	0xbd788cc5	-0.060681123
181	0xbdaed46e	-0.085366115
182	0xbd41f6d9	-0.047354553
183	0x3c966932	0.018360708
184	0xbd65b23e	-0.056078188
185	0x3d965ff8	0.07342523
186	0x3dafac5a	0.08577795
187	0x3c389f2a	0.011268416
188	0xbd33233e	-0.04373478
189	0x3df49dd6	0.11944167
190	0xbdc549e7	-0.096332364
191	0x3dce72a4	0.1008046
192	0x3dbd59d3	0.09245648
193	0xbdfa2fcc	-0.12216148
194	0xbcc79653	-0.024363672
195	0x3e1be29a	0.1522316
196	0xbda5603b	-0.08074995
197	0x3d8a0367	0.0673893
198	0x3d0da63d	0.034582365
199	0x3d9986a9	0.074963875
200	0x3dd33e22	0.10314585
201	0x3d640cbc	0.055676207
202	0xbdb2e010	-0.08734143
203	0xbd24130c	-0.040057227
204	0xbe4e2031	-0.20129468
205	0xbda2577c	-0.079268426
206	0x3cd0f55f	0.025507627
207	0x3dc9c860	0.098526716
208	0xbd8e888d	-0.06959639
209	0xbd3337f6	-0.04375454
210	0x3d42109e	0.04737913
211	0xbc89cc79	-0.016821133
212	0x3d9d3441	0.07675982
213	0xbd0fd706	-0.03511717
214	0xbcabd08f	-0.020973472
215	0x3c1617da	0.00916096
216	0xbbe07acf	-0.0068505774
217	0x3aebf836	0.001800305
218	0xbde1fb93	-0.11034312
219	0xbd98b60b	-0.07456597
220	0x3d397fc1	0.04528785
221	0x3d7a41ed	0.061098028
222	0x3d8ea5ee	0.06965242
223	0xbd5e47cd	-0.054267693
224	0xbd19978a	-0.037498035
225	0xbce45bba	-0.02787577
226	0xbd16b091	-0.03678948
227	0xbd1a2947	-0.03763702
228	0x3cbe088c	0.023197435
229	0xbda7c9fc	-0.08192822
230	0x3d97ae86	0.074063346
231	0x3d112ff7	0.035446133
232	0xbd8e3ae5	-0.06944827
233	0xbcefa010	-0.029251128
234	0x3dd649c1	0.10463286
235	0x3df16a44	0.11787847
236	0xbdbd3800	-0.09239197
237	0xbe0154b8	-0.12629974
238	0xbd11d3ec	-0.035602495
239	0x3e112e15	0.14177735
240	0x3d283e09	0.041074786
241	0x3d6dc933	0.058053207
242	0x3d885d0d	0.06658373
243	0xbde3969c	-0.11112711
244	0xbdb18e72	-0.086697474
245	0x3c9a13f8	0.01880835
246	0xbd95a6b2	-0.07307185
247	0xbd90810d	-0.070558645
248	0xbd1d76d8	-0.038443416
249	0x3d9f6b41	0.07784129
250	0xbd4d8762	-0.05017794
251	0xbc9d0bb7	-0.019170625
252	0x3cfd303f	0.030906795
253	0x3c2da734	0.010598946
254	0xbcb5f870	-0.02221319
255	0x3daba41f	0.08380913

cnn_encoder.4.bias f4 [64]
0	0x3de27d93	0.11059108
1	0xbcb14fd2	-0.021644507
2	0x396a14f5	0.00022323786
3	0xbb3eaddc	-0.0029095327
4	0xbd10cfb4	-0.03535433
5	0xbab2d544	-0.001364388
6	0x3c589228	0.01321844
7	0xbcc065bb	-0.023486009
8	0x3c86aa37	0.016438587
9	0x3d65c8da	0.05609975
10	0x3d91d9c3	0.07121613
11	0xbca2568c	-0.01981666
12	0x3d90f862	0.07078625
13	0xbd62a9e4	-0.0553378
14	0xbd9692b8	-0.07352203
15	0x3db37a49	0.087635584
16	0x3cfd511e	0.030922469
17	0x3db104c7	0.08643489
18	0xbb416765	-0.002951109
19	0xbd34f3dc	-0.044177875
20	0xbb90f057	-0.004423182
21	0xbd23d1ae	-0.039994888
22	0xbd312c0e	-0.043254904
23	0x3d6e82e2	0.05823029
24	0xbcbca592	-0.023028169
25	0xbcb26811	-0.021778138
26	0x3d9b4555	0.075815834
27	0x3d89827c	0.06714341
28	0x3bafc0f1	0.0053635766
29	0x3c832db7	0.01601301
30	0x3cd63a85	0.026150951
31	0x3d27a4e8	0.04092875
32	0xbcb409f0	-0.021977395
33	0x3d932686	0.07185082
34	0xbd5e04d1	-0.054203812
35	0xbd359024	-0.044326916
36	0x3d1cb7fb	0.038261395
37	0xbd1adb5e	-0.03780686
38	0xbc9242ad	-0.01785406
39	0x3ced7c6a	0.02898999
40	0xbd6c948a	-0.057758845
41	0xbda80f2a	-0.08206017
42	0x3d8e9e63	0.069638036
43	0x3d82e8fc	0.063920945
44	0xbcce43be	-0.025178786
45	0x3da0315c	0.078219146
46	0x3da0072a	0.078138664
47	0xbd36b5f2	-0.04460711
48	0xbc31e317	-0.010857365
49	0x3d33fbd3	0.04394133
50	0xbd93d953	-0.07219186
51	0x3d10027d	0.035158623
52	0x3d5175e7	0.05113783
53	0xbd222169	-0.039582644
54	0x3bee5b83	0.0072740926
55	0xbda26586	-0.0792952
56	0xbd5130c7	-0.05107191
57	0x3d9563ae	0.07294403
58	0xbca190b0	-0.019722313
59	0x3d5a0466	0.05322685
60	0x3cd8ab91	0.026448997
61	0xbd38fee0	-0.045164943
62	0xbcbb4950	-0.022862107
63	0xbd7353a4	-0.059405938

cnn_encoder.5.weight f4 [64]
0	0x3f815358	1.010356
1	0x3f863a20	1.0486488
2	0x3f822324	1.0166974
3	0x3f6a4c10	0.9152231
4	0x3f70489e	0.93860805
5	0x3f840ed9	1.0317031
6	0x3f7a8ae3	0.97868174
7	0x3f71f36a	0.94512045
8	0x3f6dbd66	0.92867124
9	0x3f7fb115	0.9987958
10	0x3f83a7d9	1.0285598
11	0x3f7fc5bf	0.9991111
12	0x3f842da0	1.0326424
13	0x3f753f2b	0.9579951
14	0x3f70e2ef	0.94096273
15	0x3f6f285a	0.93420947
16	0x3f80b8f7	1.0056447
17	0x3f80e3ca	1.0069516
18	0x3f7d0825	0.9884055
19	0x3f74dc72	0.9564887
20	0x3f7310d6	0.94947565
21	0x3f784766	0.96983945
22	0x3f868215	1.0508448
23	0x3f812cfb	1.0091852
24	0x3f711f9b	0.9418885
25	0x3f86d1bb	1.0532755
26	0x3f7e125f	0.9924678
27	0x3f7545e3	0.95809764
28	0x3f7af99d	0.9803713
29	0x3f7fb8b8	0.99891233
30	0x3f80723e	1.0034864
31	0x3f79c8e2	0.9757215
32	0x3f7864e6	0.9702896
33	0x3f6c56a9	0.9231973
34	0x3f7a82b5	0.97855693
35	0x3f8539e6	1.0408294
36	0x3f868c13	1.0511497
37	0x3f707c24	0.93939424
38	0x3f7a85ca	0.97860396
39	0x3f754c15	0.95819217
40	0x3f806404	1.0030522
41	0x3f7f50b9	0.9973255
42	0x3f7bb2fd	0.9831999
43	0x3f7c422c	0.9853847
44	0x3f7330fb	0.94996613
45	0x3f79005a	0.9726616
46	0x3f7bc3a1	0.9834538
47	0x3f68db8a	0.9095999
48	0x3f7f1d52	0.99654114
49	0x3f816b3f	1.0110854
50	0x3f75ffa7	0.9609322
51	0x3f7d474c	0.98936915
52	0x3f729239	0.9475437
53	0x3f713b5b	0.94231194
54	0x3f7605b1	0.96102434
55	0x3f7e8288	0.99417925
56	0x3f7c3ed9	0.985334
57	0x3f6f32b7	0.9343676
58	0x3f84ad0e	1.0365312
59	0x3f7b3d00	0.98139954
60	0x3f77115a	0.9651085
61	0x3f78d0cf	0.97193617
62	0x3f61d784	0.88219476
63	0x3f8202b8	1.015708

cnn_encoder.5.bias f4 [64]
0	0xbd2fe997	-0.042947378
1	0xbde71e8f	-0.112851255
2	0xbde22060	-0.11041331
3	0xbdd138c9	-0.10215909
4	0xbdbc996d	-0.09208951
5	0xbdacc5e2	-0.08436181
6	0xbd074d80	-0.033032894
7	0xbdcd994b	-0.10039004
8	0xbd7a446c	-0.06110041
9	0xbda1ffc9	-0.07910115
10	0xbda1c3a3	-0.07898643
11	0xbdfb9a92	-0.12285341
12	0xbd385eb4	-0.04501219
13	0xbe165df1	-0.14684273
14	0xbe03adcb	-0.12859266
15	0xbe1e906f	-0.15484785
16	0xbde304c5	-0.11084894
17	0xbc375667	-0.0111900335
18	0xbd621dbf	-0.05520415
19	0xbe4d1161	-0.20026161
20	0xbe1895bd	-0.1490087
21	0xbe4939b1	-0.19650914
22	0xbe44e5b4	-0.1922825
23	0xbde5d173	-0.1122159
24	0xbe0482af	-0.12940477
25	0xbe0a80a5	-0.13525636
26	0xbdd3fed2	-0.103513375
27	0xbda45b80	-0.08025265
28	0xbd8e86d7	-0.069593124
29	0xbdaf671c	-0.085645884
30	0xbdfa026c	-0.12207493
31	0xbdeedb54	-0.11662927
32	0xbdd0bb1d	-0.10191939
33	0xbdfd01b0	-0.123538375
34	0xbd3969c4	-0.04526688
35	0xbe491b9f	-0.19639443
36	0xbe2bc7ec	-0.16775483
37	0xbdaef880	-0.08543491
38	0xbcbffdda	-0.023436476
39	0xbd7caeb2	-0.06169004
40	0xbd2291c8	-0.03968981
41	0xbd379554	-0.044820145
42	0xbccef068	-0.025261119
43	0xbe1431a0	-0.14472055
44	0xbd6533d2	-0.055957623
45	0xbd161cca	-0.03664855
46	0xbe81d83e	-0.25360292
47	0xbe0d32d8	-0.13788927
48	0xbda3bfd9	-0.079955764
49	0xbe03ab9c	-0.12858433
50	0xbdc55714	-0.096357495
51	0xbe1d94ac	-0.15388745
52	0xbdaf2822	-0.085525766
53	0xbe26a1ca	-0.16272655
54	0xbd9d004b	-0.076660715
55	0xbe18e1ea	-0.1492993
56	0xbcccd95d	-0.02500599
57	0xbe1fb7be	-0.15597436
58	0xbe39b77d	-0.18136401
59	0xbc8b1030	-0.016975492
60	0xbdadd8f2	-0.08488645
61	0xbc805933	-0.015667534
62	0xbe2468b6	-0.16055569
63	0xbe01b2bc	-0.12665838

cnn_encoder.5.running_mean f4 [64]
0	0x3e83a5e8	0.25712514
1	0xbb1eeb7f	-0.0024249253
2	0x3ce2f0b9	0.027702676
3	0xbe1f37dc	-0.15548652
4	0x3ea1ac52	0.31576782
5	0xbefbfb97	-0.49215385
6	0xbed71485	-0.42007843
7	0xbfa9d577	-1.3268269
8	0xbec26e19	-0.37974623
9	0x3e9edd71	0.3102832
10	0xbf44531a	-0.766893
11	0x3ec1f49a	0.3788193
12	0x3e8b7f2f	0.2724547
13	0xbf2bc3fa	-0.6709591
14	0xbd7f08f0	-0.062264383
15	0x3f1558b0	0.5833845
16	0x3ea9597f	0.33076093
17	0x3e2aaabf	0.16666697
18	0xbe82f184	-0.25574887
19	0xbecde82b	-0.40216193
20	0xbef5032f	-0.4785399
21	0x3ef0d22a	0.47035342
22	0xbe3eb278	-0.18622768
23	0xbe12428b	-0.14283197
24	0xbebc61c7	-0.36793348
25	0x3e97ad12	0.2962423
26	0x3ec51b3b	0.38497338
27	0xbe92fd43	-0.28708848
28	0xbdb306b8	-0.08741516
29	0x3e6354e9	0.2220036
30	0xbc504fa3	-0.012714299
31	0xbdace0b7	-0.084412985
32	0xbfa07760	-1.253643
33	0x3d4f40db	0.05059896
34	0x3eba5682	0.36394125
35	0xbd6bf679	-0.0576081
36	0x3ebf2570	0.3733325
37	0xbe83d22b	-0.25746283
38	0xbecb75ff	-0.3973846
39	0x3eb70924	0.3574916
40	0xbebf5c8a	-0.3737529
41	0xbf70e95a	-0.94106066
42	0x3f375132	0.7160827
43	0x3decfa56	0.11571185
44	0xbd2579ff	-0.040399548
45	0xbf53660b	-0.8257758
46	0x3f01666c	0.5054691
47	0x3eca572a	0.39519626
48	0xbf48b183	-0.7839586
49	0x3f110a0f	0.56655973
50	0x3ea292fb	0.31752762
51	0x3f51bb19	0.81926113
52	0xbe8f0106	-0.27930468
53	0x3e9c23d1	0.30496076
54	0xbf8e04a9	-1.1095172
55	0xbdd776ab	-0.10520681
56	0xbea83fdc	-0.3286122
57	0x3da4ae2e	0.08041035
58	0xbe97a60e	-0.29618877
59	0x3c3a192a	0.011358539
60	0xbdb07e5d	-0.08617852
61	0xbf30b74c	-0.6902969
62	0xbed6ea66	-0.41975707
63	0xbd875b0f	-0.06609165

cnn_encoder.5.running_var f4 [64]
0	0x3edcb042	0.43103224
1	0x3f0231c2	0.50857174
2	0x3f99f2b7	1.2027196
3	0x3f1171fd	0.5681456
4	0x3f6b91ac	0.9201915
5	0x3e960c29	0.29306152
6	0x3f3cc93d	0.73744565
7	0x3f27a3d9	0.65484387
8	0x3f42f7ee	0.7615956
9	0x3f05e1d2	0.522977
10	0x3f1d8853	0.6153614
11	0x3f59400f	0.8486337
12	0x3eec770c	0.46184576
13	0x3ee6db42	0.45089155
14	0x3f4b6e1a	0.79464877
15	0x3ee77f6d	0.45214406
16	0x3ed1c1d0	0.4096818
17	0x3ebde557	0.37089035
18	0x3f37eb86	0.71843755
19	0x3f161529	0.5862604
20	0x3ef83e4a	0.48485023
21	0x3f17c802	0.5928956
22	0x3f1316df	0.57456774
23	0x3f22bec2	0.63572323
24	0x3f004e8b	0.5011985
25	0x3e9c04df	0.30472466
26	0x3f61e0fa	0.8823391
27	0x3f50396a	0.81337607
28	0x3f1e8132	0.61915886
29	0x3f062827	0.5240502
30	0x3eaeb78a	0.34124404
31	0x3f257b71	0.6464148
32	0x3f047ae6	0.5175003
33	0x3f5c7f6a	0.8613192
34	0x3f0393de	0.513975
35	0x3e4fbde0	0.20287275
36	0x3ea5db61	0.32393935
37	0x3ebbdf19	0.36693648
38	0x3ec80c8a	0.39072067
39	0x3ec284d4	0.37991965
40	0x3f2e262d	0.68027
41	0x3ec240c1	0.37940028
42	0x3ede0d4b	0.43369517
43	0x3f22b964	0.63564134
44	0x3edb7e0d	0.42869607
45	0x3f7dfdbf	0.9921531
46	0x3f060cde	0.52363384
47	0x3f859f7d	1.0439297
48	0x3f2d8f2c	0.6779659
49	0x3e9ea8b0	0.30988073
50	0x3f4264ee	0.75935256
51	0x3eabcd84	0.33555233
52	0x3f2b57bf	0.66930765
53	0x3eff4fd2	0.49865586
54	0x3eb50c3e	0.35360903
55	0x3f2364d2	0.63825715
56	0x3f351813	0.7073986
57	0x3f0fb7b2	0.5613967
58	0x3ed44941	0.41462138
59	0x3f3fafcd	0.74877626
60	0x3fb17fd3	1.3867134
61	0x3f40ebe9	0.7535997
62	0x3ec1d04c	0.3785423
63	0x3ea99585	0.33121887

lstm.weight_ih_l0 f4 [256, 64]
0	0xbc752423	-0.014962229
1	0x3e76cb39	0.24100961
2	0x3e8025e4	0.25028908
3	0x3e9a3ac9	0.30122975
4	0x3e154a40	0.14579105
5	0x3da3a77c	0.079909295
6	0x3c408a28	0.011751689
7	0x3da7d246	0.08194403
8	0xbd23e7b9	-0.04001591
9	0xbd51c391	-0.051211897
10	0x3e34b6f5	0.17647918
11	0xbe0bd7ec	-0.13656586
12	0xbbf25b8f	-0.0073961685
13	0x3d798c0c	0.060924575
14	0x3cb72daa	0.022360642
15	0x3d191126	0.03736987
16	0x3d13c19d	0.036073316
17	0xbeb03151	-0.34412625
18	0xbdd07767	-0.10179024
19	0xbcad978f	-0.021190433
20	0xbe6164c4	-0.22011095
21	0xbd0b2e58	-0.033979744
22	0x3ecb6272	0.39723545
23	0xbe01fda9	-0.1269442
24	0xbdcdfda5	-0.100581445
25	0x3c8e367f	0.01735997
26	0x3d3e219e	0.04641878
27	0x3da926f7	0.08259385
28	0x3e76f7e9	0.24118008
29	0x3dc0d94f	0.09416448
30	0x3e8ec59d	0.27885142
31	0xbd5ce7a8	-0.053931862
32	0xbd55c246	-0.052187227
33	0xbe0564c5	-0.13026722
34	0x3d257e38	0.040403575
35	0x3cedc737	0.029025657
36	0x3dcb1331	0.0991577
37	0xbdc4b039	-0.09603924
38	0x3d6b9f08	0.05752471
39	0xbe589ba9	-0.2115313
40	0x3e589009	0.21148695
41	0x3e99fd64	0.30076134
42	0xbb213925	-0.0024600711
43	0x3dcdc74c	0.100477785
44	0x3e291168	0.16510546
45	0xbca3a859	-0.019977735
46	0xbda18102	-0.078859344
47	0xbd884f89	-0.06655795
48	0xbcdefcc4	-0.027220137
49	0xbc1aa316	-0.009438297
50	0xbd2c0fce	-0.04200726
51	0xbdd161b8	-0.102237165
52	0xbcaf69ce	-0.021412756
53	0x3d77acae	0.060467415
54	0x3e2f1698	0.17098463
55	0xbe184e33	-0.1487358
56	0x3dcef3a0	0.101050615
57	0xbe25349d	-0.16133352
58	0x3e2e4388	0.17017949
59	0x3c9fb3ae	0.019494858
60	0x3d13d008	0.036087066
61	0x3e2437c9	0.16036905
62	0xbdb31fc2	-0.08746292
63	0x3e06f292	0.1317847
64	0x3e3c9e94	0.18419868
65	0x3e21370f	0.1574366
66	0xbd9f8c44	-0.077904254
67	0xbd74fda7	-0.059812214
68	0xbdf121af	-0.11774003
69	0xbe1205b3	-0.14259987
70	0xbd44aa40	-0.048013926
71	0x3d920cb9	0.07131333
72	0x3ceb70b2	0.02874026
73	0xbe4e036c	-0.20118493
74	0x3e123096	0.14276347
75	0x3dd0132a	0.10159905
76	0xbe142551	-0.1446736
77	0x3cd7db62	0.026349727
78	0x3d2cf997	0.042230215
79	0xbdcae48a	-0.099068716
80	0x3d640da8	0.055677086
81	0x3c0bb679	0.008527392
82	0x3de01f0f	0.10943424
83	0x3c6f7619	0.014615559
84	0xbcf992ab	-0.030465445
85	0x3d3fd83b	0.046837073
86	0xbde8f1b6	-0.11374228
87	0x3d1a016f	0.037599023
88	0x3d61f534	0.055165485
89	0x3d0285a8	0.031865746
90	0xbd5b24bf	-0.05350184
91	0x3de66f1f	0.112516634
92	0xbd0d8d1a	-0.034558393
93	0x3d9a4772	0.07533158
94	0xbdf83955	-0.1212031
95	0x3e0fb9ac	0.14035672
96	0xbdb5f887	-0.088852935
97	0x3e4cd00c	0.20001239
98	0x3d4a15f1	0.04933733
99	0x3e8e01c9	0.27735737
100	0x3d79e001	0.061004642
101	0xbdca61ae	-0.09881912
102	0x3e5c6c01	0.21525575
103	0x3dd07098	0.101777256
104	0x3df64138	0.12024158
105	0xbdfbcc92	-0.12294878
106	0x3d3c4ae5	0.045969862
107	0x3da50bc7	0.08058887
108	0x3d28ac1c	0.04117976
109	0x3da9af5e	0.08285402
110	0xbd320be4	-0.04346837
111	0x3e1648b5	0.14676173
112	0xbc7545d1	-0.014970259
113	0x3d83a27f	0.06427478
114	0xbb442c17	-0.0029933506
115	0x3dca5c20	0.09880853
116	0x3db92855	0.09040896
117	0x3d8d8d4d	0.069117166
118	0x3c9e85c8	0.019350901
119	0x3cb0e712	0.021594558
120	0x3d422b80	0.047404766
121	0xbddd4a56	-0.10805194
122	0x3cb55dc4	0.022139437
123	0x3e0ad714	0.13558608
124	0x3d221b82	0.039577015
125	0xbd77c4e3	-0.0604905
126	0x3c67b260	0.014141649
127	0xbde68e65	-0.11257628
128	0x3ce68d31	0.028143497
129	0x3cfc0eed	0.030768836
130	0xbd0059ef	-0.031335767
131	0x3dfbf7cd	0.123031236
132	0xbb2d4f75	-0.0026445065
133	0x3cfccbfd	0.030858988
134	0xbdf90678	-0.12159437
135	0x3c818896	0.0158122
136	0xbc89d0ce	-0.016823199
137	0xbe231686	-0.15926561
138	0x3db85330	0.09000242
139	0xbd2b24ad	-0.041783024
140	0x3e60f08a	0.21966758
141	0x3d9c8a16	0.07643525
142	0x3e1db73a	0.15401927
143	0x3d269741	0.04067159
144	0xbd9a44e4	-0.07532671
145	0xbd787ad3	-0.06066401
146	0x3dc7fc31	0.097648986
147	0xbd871b7d	-0.0659704
148	0x3e1249f8	0.1428603
149	0xbe302443	-0.17201333
150	0x3e8476e2	0.2587195
151	0x3e71b0b0	0.23602557
152	0xbe69a67b	-0.22817414
153	0xbcd1e191	-0.025620254
154	0x3d9f7c1b	0.07787343
155	0xbb256e19	-0.0025242625
156	0x3d45f193	0.048326086
157	0xbc34d140	-0.011036217
158	0xbe6925e6	-0.22768363
159	0xbeaabe10	-0.3334813
160	0x3e663286	0.2248021
161	0xbbabc663	-0.0052421554
162	0xbe13a157	-0.14417015
163	0xba98c0d2	-0.0011654145
164	0x3e2c1031	0.16803052
165	0x3dfd078f	0.12354957
166	0x3d61a6e7	0.05509081
167	0xbd937d77	-0.07201665
168	0x3d52f9dc	0.051507816
169	0xbe3168c6	-0.17325124
170	0x3e0a01d2	0.13477257
171	0x3eac5cd4	0.33664572
172	0x3dafb331	0.085791
173	0xbdd47d3a	-0.103754476
174	0xbe0d586a	-0.13803259
175	0x3e1716fd	0.14754863
176	0x3e453fc6	0.19262609
177	0x3c4fe7b8	0.012689523
178	0x3d6f8c57	0.058483448
179	0x3e79a51f	0.24379395
180	0x3e702897	0.23452984
181	0x3d8ed625	0.069744386
182	0x3d608059	0.054809902
183	0x3dbd7f1e	0.09252761
184	0x3e903c92	0.2817121
185	0x3cbeba1c	0.023282103
186	0x3d642785	0.05570175
187	0xbd83362c	-0.06406817
188	0x3d58f7fe	0.05297088
189	0x3e06b5e7	0.13155328
190	0x3ce5ab28	0.028035715
191	0xbe5565ac	-0.20839566
192	0x3d7d8456	0.061893784
193	0xbda32a97	-0.07967108
194	0xbe381b92	-0.17979267
195	0xbd942724	-0.07234028
196	0x3cc5249b	0.024065306
197	0x3e419010	0.18902612
198	0x3dbb4f33	0.091459654
199	0x3e0a76cf	0.13521884
200	0x3b9684e8	0.0045934804
201	0x3ae921fd	0.0017786619
202	0xbc92bb42	-0.017911557
203	0x3e744114	0.2385295
204	0x3e057642	0.13033393
205	0x3d6f5020	0.058426023
206	0xbdce79d6	-0.10081832
207	0xbd4fc338	-0.050723284
208	0x3e1f3abe	0.15549752
209	0x3ddb7913	0.107164524
210	0x3dda005e	0.10644601
211	0x3df39a6b	0.11894687
212	0xbcbe54b1	-0.023233743
213	0xbdd3719d	-0.103244044
214	0xbe13138d	-0.14362927
215	0x3df6c56b	0.12049373
216	0x3ad7f203	0.0016475323
217	0xbe2c6d79	-0.16838636
218	0x3dc205a9	0.09473736
219	0x3da8b4d1	0.08237613
220	0xbeb8f60c	-0.3612522
221	0x3e334911	0.17508341
222	0x3c801c6d	0.015638554
223	0x3d495465	0.04915275
224	0xbdcb8693	-0.09937777
225	0xbd56c258	-0.052431434
226	0x3be7c121	0.0070725833
227	0xbec28f0d	-0.37999764
228	0x3d8e8a1c	0.06959936
229	0x3c9219c7	0.017834557
230	0x3cd0373e	0.025416967
231	0xbd5d6b4d	-0.054057408
232	0xbe079a6e	-0.13242504
233	0xbdc3c226	-0.09558515
234	0xbe217c62	-0.15770105
235	0xbe4cb92d	-0.19992514
236	0xbde75819	-0.112961
237	0x3eb426ce	0.35185856
238	0x3b8fb934	0.0043860916
239	0x3e14455b	0.14479582
240	0x3d9aa5cb	0.07551154
241	0xbe5ac744	-0.21365076
242	0xbdfdb1cb	-0.12387427
243	0x3d30ec68	0.043194205
244	0x3d9ec1a6	0.07751779
245	0x3c6b1a8c	0.014349591
246	0xbe0456da	-0.12923756
247	0xbd5e3248	-0.05424717
248	0xbd983bbe	-0.0743327
249	0x3d0d6a91	0.034525458
250	0xbe84d766	-0.25945586
251	0x3e3aaba1	0.18229534
252	0xbdac6feb	-0.08419784
253	0xbd027495	-0.031849463
254	0x3d6efd4b	0.058347028
255	0x3c96a97f	0.018391369

lstm.weight_hh_l0 f4 [256, 64]
0	0x3db0e301	0.086370476
1	0x3dc0f955	0.09422556
2	0x3c349673	0.011022198
3	0xbd8f2780	-0.06989956
4	0xbe18e297	-0.14930187
5	0xbdb389f5	-0.087665476
6	0xbd71ed23	-0.05906404
7	0x3d480faf	0.048843082
8	0x3df3191f	0.11870026
9	0xbdc843fc	-0.09778592
10	0xbda796b4	-0.08183041
11	0xbdd4312c	-0.10360941
12	0x3e5a857b	0.21339981
13	0x3d442581	0.04788733
14	0xbd14fbda	-0.036372997
15	0x3de50bbc	0.11183879
16	0x3dd2db53	0.10295739
17	0x3bbf0e37	0.005830552
18	0x3a7bbcb8	0.00096030114
19	0x3d82d075	0.06387416
20	0x3ed70e87	0.4200327
21	0x3ca3b0e2	0.019981805
22	0x3e9b7853	0.30365238
23	0xbe88eed2	-0.26744705
24	0x3cb2e23e	0.021836396
25	0x3dbbba05	0.0916634
26	0xbca4e3df	-0.020128189
27	0xbcb43757	-0.021999044
28	0x3dd8bbb2	0.10582675
29	0x3e38cd04	0.18046957
30	0x3ecd7500	0.40128326
31	0x3d8273b2	0.063697234
32	0xbe1ad63e	-0.1512079
33	0x3ed1a7f3	0.40948448
34	0xbcbef408	-0.023309723
35	0x3dc3cd86	0.09560685
36	0xbdb4d64b	-0.08829936
37	0x3e353ed7	0.17699753
38	0xbe8f8fc5	-0.28039375
39	0x3ac35d54	0.0014905133
40	0xbd8af6f1	-0.067853816
41	0x3e33d13c	0.17560285
42	0x3ccecded	0.025244677
43	0x3dd544d0	0.104135156
44	0xbec3176e	-0.38103813
45	0x3d26c8c5	0.040718812
46	0xbe11a434	-0.14222795
47	0x3e7a2f05	0.24431999
48	0xbd999747	-0.07499557
49	0xbe083955	-0.1330312
50	0xbe46323b	-0.19355099
51	0xbe815263	-0.2525817
52	0x3e0d4178	0.13794506
53	0xbe6d991c	-0.23202938
54	0x3e717338	0.23579109
55	0x3e88fb99	0.26754454
56	0x3e86d473	0.2633396
57	0xbdc02e21	-0.093837984
58	0x3e2b8015	0.16748078
59	0x3df109d8	0.11769456
60	0xbea16744	-0.31524098
61	0xbc27bd6c	-0.010238033
62	0xbe029986	-0.12753877
63	0xbc283550	-0.010266617
64	0xbe91714a	-0.28406745
65	0x3e022a98	0.1271156
66	0xbda3e3eb	-0.08002456
67	0x3e479c03	0.19493107
68	0xbe245f7f	-0.16052054
69	0xbcfc2442	-0.030779008
70	0x3ec5908d	0.38586846
71	0x3e0b0598	0.13576353
72	0x3e6130ba	0.21991244
73	0x3e7e20dc	0.24817222
74	0xbdf95495	-0.12174336
75	0x3d52fd3e	0.05151104
76	0x3d3a219d	0.045442212
77	0x3d850f52	0.06497063
78	0x3e09bbb1	0.13450505
79	0x3e0769da	0.13223973
80	0x3d58d2ea	0.05293552
81	0xbdd780a5	-0.10522584
82	0x3da9325a	0.08261557
83	0xbda0e27e	-0.078557
84	0xbc644265	-0.013931845
85	0x3cc4d206	0.024025928
86	0x3b4727ce	0.0030388716
87	0xbe5f20c8	-0.21789849
88	0xbcf79f44	-0.030227311
89	0x3e9e71f7	0.30946323
90	0x3d6f9121	0.058488015
91	0x3dacd08b	0.08438214
92	0x3e15dfbc	0.14636129
93	0x3da3c1b1	0.07995928
94	0x3d8e89cf	0.06959879
95	0x3d42286b	0.047401827
96	0xbe61ad26	-0.22038707
97	0xbdbcfeb8	-0.09228271
98	0xbdebf64e	-0.11521588
99	0x3dbcc758	0.09217709
100	0xbc9236ab	-0.017848333
101	0x3dd585ee	0.10425936
102	0xbe4f20aa	-0.20227304
103	0x3bdf4c5b	0.006814522
104	0x3c0db81f	0.008649855
105	0xbe3ff998	-0.18747556
106	0x3d3fe0be	0.04684519
107	0xbe19581a	-0.14975014
108	0xbe6d94e2	-0.23201326
109	0xbda21af2	-0.07915296
110	0x3d7af6c7	0.0612705
111	0x3e0d1661	0.13778068
112	0x3e77d737	0.24203192
113	0x3e656bfc	0.22404474
114	0x3c82b92b	0.015957436
115	0x3e1bce7b	0.15215485
116	0xbd8f09a1	-0.069842584
117	0x3e6dd4dd	0.23225732
118	0x3cf680f9	0.030090796
119	0x3e163669	0.14669193
120	0xbbfa7485	-0.0076432847
121	0xbe3108d1	-0.1728852
122	0x3bfd7069	0.0077343476
123	0x3e914a89	0.28377178
124	0xbdd184ba	-0.10230394
125	0x3d8817d4	0.0664517
126	0xbded47e2	-0.11585976
127	0xbe0084c6	-0.12550649
128	0xbebcedcf	-0.36900184
129	0xbddc8a15	-0.107685246
130	0xbde65b4b	-0.112478815
131	0xbdc201ab	-0.094729744
132	0x3da09245	0.07840399
133	0x3dc89636	0.097942755
134	0x3e6f6208	0.2337724
135	0xbd727ab0	-0.059199035
136	0x3eb7c523	0.3589259
137	0x3e684735	0.22683413
138	0x3d8b8fbb	0.06814524
139	0x3e13d166	0.14435348
140	0x3dbef5d0	0.09324229
141	0x3baf2998	0.0053455345
142	0x3e453ea9	0.19262184
143	0xbd4943f1	-0.04913706
144	0x3cf95100	0.030434132
145	0xbc5e5141	-0.013569177
146	0x3e5f9f41	0.21838094
147	0x3e2493e0	0.16072035
148	0x3dbf654d	0.093454935
149	0x3e1ffa32	0.15622786
150	0x3e8bdbae	0.2731604
151	0xbd9e136d	-0.07718549
152	0x3e3a86d5	0.18215497
153	0x3d52e5d7	0.051488724
154	0xbe44a643	-0.19204049
155	0xbd06e960	-0.032937407
156	0xbd1c4d09	-0.038159404
157	0xbe927120	-0.28601933
158	0x3e382438	0.17982566
159	0xbc623f66	-0.013809061
160	0x3cb713df	0.022348342
161	0xbc4ec7e7	-0.012620903
162	0xbcd40a08	-0.02588369
163	0xbc77d86c	-0.015127283
164	0xbdeb66f7	-0.11494248
165	0x3c09d33f	0.008412181
166	0xbe4c8e95	-0.19976266
167	0xbd259a9f	-0.04043066
168	0xbdab2c1b	-0.08358022
169	0x3da488e5	0.08033923
170	0x3c815374	0.015786864
171	0xbda35c48	-0.079765856
172	0x3d5ef360	0.05443132
173	0xbc1bd836	-0.009511998
174	0xbea5540c	-0.32290685
175	0xbe0b86c1	-0.13625623
176	0xbeb68b1c	-0.35653007
177	0x3d67bb7e	0.05657529
178	0xbe430d9b	-0.19048159
179	0xbd677c11	-0.056514803
180	0x3dcbdc3d	0.099541165
181	0xbd013ca8	-0.031551987
182	0x3e7b716b	0.24554984
183	0xbc08288a	-0.0083104465
184	0x3dd1272b	0.10212549
185	0x3eac2271	0.33620027
186	0xbdc2b587	-0.0950728
187	0xbe139a9b	-0.14414446
188	0x3e035344	0.12824732
189	0xbe6e0e2c	-0.23247594
190	0x3ae542d2	0.0017491227
191	0x3e059a10	0.13047051
192	0xbde5b017	-0.11215227
193	0x3df45b2c	0.11931452
194	0x3e029ee5	0.12755926
195	0xbdba37b2	-0.09092654
196	0xbe6163ca	-0.22010723
197	0x3d262bf9	0.04056928
198	0x3ea93ca7	0.33054087
199	0xbb00cabe	-0.0019652094
200	0x3d2c773b	0.042105895
201	0x3d42056e	0.04736846
202	0xbd64842e	-0.05579012
203	0x3d33067e	0.043707363
204	0xbe4092db	-0.18806021
205	0xbb5faddb	-0.0034130726
206	0x3e4a92fa	0.1978263
207	0xbe7c436f	-0.24635099
208	0x3da1ad4a	0.078943804
209	0x3d1eff4e	0.038817696
210	0x3d057ded	0.032590795
211	0x3d7a9399	0.061175916
212	0xbde48db6	-0.11159842
213	0x3e56927d	0.20954318
214	0x3e52d487	0.20588885
215	0xbe06bfe2	-0.13159135
216	0xbd0ee9cb	-0.03489093
217	0x3c28f70e	0.010312809
218	0x3dfd5426	0.12369566
219	0x3f366109	0.71241814
220	0x3e0e9140	0.13922596
221	0xbe674081	-0.225832
222	0x3ddf4247	0.10901313
223	0xbdcaa246	-0.098942325
224	0xbc0d4fcb	-0.008624981
225	0xbe4e72ab	-0.2016093
226	0xbe218294	-0.15772468
227	0x3dad010d	0.08447466
228	0xbc274cb0	-0.010211155
229	0xbdfc918c	-0.12332448
230	0x3dcc8668	0.099865735
231	0xbcfe5a39	-0.03104888
232	0xbe667a6f	-0.22507642
233	0x3dc0d730	0.09416044
234	0xbe85acde	-0.2610845
235	0xbe5dea42	-0.21671394
236	0xbde5b591	-0.11216272
237	0x3e25259a	0.16127625
238	0x3e350053	0.17675905
239	0xbd3b8f1b	-0.045790773
240	0x3e30042b	0.1718909
241	0x3e3f6157	0.18689476
242	0x3e240e7e	0.16021153
243	0x3e2f2279	0.17102994
244	0x3ddcd91d	0.107835986
245	0xbdcedc66	-0.101006314
246	0xbd49045d	-0.049076427
247	0xbdbae5b1	-0.091258414
248	0x3df144a4	0.1178067
249	0x3d070c8f	0.03297096
250	0xbe94a37b	-0.29030976
251	0xbe069283	-0.13141827
252	0xbed52f16	-0.41637486
253	0xbe95e0d7	-0.29273102
254	0x3dbddd5e	0.09270738
255	0x3e54df7f	0.20788382

lstm.bias_ih_l0 f4 [256]
0	0x3ce2b220	0.027672827
1	0xbdf0ae2a	-0.11751969
2	0xbd17c964	-0.037057295
3	0xbd1a5cbf	-0.037686106
4	0xbe2e403b	-0.1701669
5	0xbd193699	-0.037405584
6	0xbb6b0b57	-0.0035864913
7	0xbe40d7ea	-0.18832365
8	0x3dcaf43d	0.09909866
9	0x3c11ebf2	0.008906351
10	0xbd311e0d	-0.04324155
11	0x3ba0182e	0.004885695
12	0xbe01501d	-0.12628217
13	0xbe4c5ef1	-0.19958092
14	0xbd53084f	-0.051521596
15	0x3c08bfcc	0.008346509
16	0xbe083565	-0.13301618
17	0xbc8c7bc5	-0.017148862
18	0x3d5d14b5	0.053974826
19	0x3cacd3a7	0.021097017
20	0xbe147edd	-0.1450152
21	0xbdbcd4c6	-0.09220271
22	0xbcf632a0	-0.030053437
23	0xbd99df24	-0.07513264
24	0x3d723054	0.05912812
25	0xbb9da32c	-0.0048107114
26	0xbde07904	-0.10960582
27	0x3e0f60d1	0.14001776
28	0xbd847166	-0.064669415
29	0x3ce06831	0.027393432
30	0x3d0f9bdc	0.03506075
31	0x3d03ac53	0.032146763
32	0xbd892b45	-0.06697706
33	0xbbc0b734	-0.0058812145
34	0xbd995b57	-0.07488125
35	0x3dc77f14	0.09741035
36	0xbe20b84f	-0.15695308
37	0xbddfaca2	-0.10921599
38	0x3bbdef15	0.005796323
39	0xbe3b0f83	-0.18267636
40	0xbe004f5a	-0.1253027
41	0x3baa167d	0.005190669
42	0xbdd7d6fe	-0.105390534
43	0x3ccb4bc8	0.024816409
44	0xbd786366	-0.06064167
45	0x3caa8a82	0.020817999
46	0xbe17f592	-0.14839771
47	0x3da1591d	0.07878325
48	0x3d284769	0.041083727
49	0xbd6e9382	-0.058246143
50	0xbe141b2d	-0.14463492
51	0x3ddb1dde	0.10699056
52	0xbdab6ddb	-0.08370563
53	0x3d281397	0.041034307
54	0xbe321e65	-0.17394407
55	0xbdca927d	-0.09891222
56	0x3d447bcb	0.04796962
57	0x3d4c5eb0	0.04989499
58	0x3cb59d38	0.022169694
59	0xbddb8e82	-0.107205406
60	0x3d339995	0.04384764
61	0x3de84bec	0.11342606
62	0x3c10993c	0.008825596
63	0x3d25059f	0.040288564
64	0x3e1600ed	0.1464879
65	0x3dcedf6b	0.10101207
66	0x3df836c3	0.1211982
67	0x3d32699f	0.04355776
68	0x3dbb0090	0.09130967
69	0xbde9cbcb	-0.114158235
70	0x3e7bbfbd	0.24584861
71	0x3db020c6	0.08600001
72	0xbc7266f2	-0.014795052
73	0xbcfd0ea9	-0.03089078
74	0xbd77914c	-0.0604413
75	0x3e2f225d	0.17102952
76	0x3ce914b2	0.028452251
77	0x3d7547db	0.05988298
78	0x3e0bd4e2	0.13655427
79	0x3dd0b726	0.10191183
80	0x3d535218	0.051591963
81	0x3e0788c6	0.13235769
82	0x3dd8195e	0.105517134
83	0x3d4faba1	0.050700787
84	0xbd01c3dd	-0.03168093
85	0xbc830e5f	-0.015998064
86	0xbcfd7357	-0.030938787
87	0x3d2577a5	0.040397305
88	0x3db0d2bc	0.086339444
89	0x3e21b2f8	0.15790927
90	0xbd40cc61	-0.04706991
91	0xbda5f7a1	-0.08103872
92	0xbc0458ff	-0.008077859
93	0x3d7fbe7a	0.062437512
94	0xbbac808c	-0.0052643474
95	0x3d5bb46a	0.053638853
96	0x3dc52d0d	0.096277334
97	0xbd355ff2	-0.044280954
98	0xbc7cf83e	-0.015440045
99	0x3d81c4e2	0.063363805
100	0x3db02162	0.08600117
101	0xbd606d8d	-0.054791976
102	0x3dfaaa3f	0.12239503
103	0x3d1faf49	0.038985524
104	0x3d68ba6b	0.056818407
105	0x3dad39c4	0.084582835
106	0xbd5c73c3	-0.053821336
107	0x3c0070b3	0.00783937
108	0x3dddd06b	0.10830768
109	0xbd581c64	-0.05276145
110	0x3b52d68b	0.0032171335
111	0x3d2bce38	0.041944712
112	0xbbc5cad6	-0.006036143
113	0xbda02090	-0.07818711
114	0xbd9c496f	-0.07631194
115	0xbbcd9506	-0.0062738685
116	0x3db82a60	0.089924574
117	0x3d8893c3	0.06668808
118	0xbde8a569	-0.113596745
119	0x3dbb865e	0.09156488
120	0x3dc06b6d	0.0939549
121	0x3e09ca0f	0.13455985
122	0x3d8a6f25	0.067594804
123	0x3e138ce8	0.1440922
124	0x3e2107b8	0.157256
125	0x3e264dd4	0.16240627
126	0x3dc11407	0.09427648
127	0x3e0fff5f	0.1406226
128	0xbd29974c	-0.041404054
129	0xbddeb8d3	-0.10875096
130	0x3de95fe1	0.113952406
131	0xbcb4067b	-0.021975746
132	0x3d01a1ae	0.03164833
133	0xbaafa1e0	-0.0013399683
134	0xbd97a9ac	-0.07405409
135	0xbdbd16ac	-0.0923284
136	0x3cedf3e9	0.02904697
137	0x3dec3785	0.11534027
138	0x3db726a0	0.08942914
139	0x3dd790cc	0.10525665
140	0x3e02e589	0.12782873
141	0x3dd21406	0.102577254
142	0x3ded6f98	0.115935504
143	0x39e48aef	0.00043591062
144	0xbd950361	-0.07276035
145	0xbdb7c7ea	-0.089736775
146	0x3da7ce5a	0.08193655
147	0x3db387cf	0.08766138
148	0xbd889044	-0.066681415
149	0x3b1f69f2	0.0024324623
150	0xbd727f95	-0.059203703
151	0x3d2a1619	0.04152498
152	0xbc80ab66	-0.01570673
153	0x3cb1e45d	0.021715337
154	0x3db34287	0.087529235
155	0xbad1b00f	-0.0015997904
156	0xbe052216	-0.13001284
157	0xbb4daac5	-0.0031382304
158	0x3d219584	0.03944923
159	0xbb258cb9	-0.002526088
160	0xbdaddae1	-0.084890135
161	0xbccd581e	-0.025066432
162	0x3dd2e7c3	0.10298111
163	0xbdd0a4de	-0.10187696
164	0x3b2591c0	0.0025263876
165	0x3d733f55	0.05938657
166	0x3ca3080c	0.019901298
167	0xbc6cd60a	-0.014455328
168	0xbc2d4b88	-0.01057709
169	0xbdbd5dfa	-0.0924644
170	0x3db0a0fc	0.08624455
171	0x3d8045b0	0.06263292
172	0xbdb9c0f7	-0.09070008
173	0x3c45e5a7	0.012078679
174	0x3bbde480	0.0057950616
175	0x3d8105b9	0.0629992
176	0x3d8e6161	0.06952167
177	0xbd201563	-0.039082896
178	0x3dcceab8	0.100057065
179	0xbdf5c490	-0.12000382
180	0x3d699faf	0.05703705
181	0x3d37e54c	0.04489641
182	0x3e079902	0.13241962
183	0x3cb059aa	0.02152713
184	0x3db1c8f3	0.08680906
185	0xbdbf7de2	-0.09350182
186	0x3d6ff9c8	0.05858782
187	0x3c706a5b	0.014673795
188	0x3cc1f68f	0.023677139
189	0xbce91c9b	-0.028456023
190	0x3dbaabce	0.091148004
191	0xbcf8e7b9	-0.030383931
192	0xbd0b57ce	-0.034019284
193	0x3d94b110	0.072603345
194	0xbd43649c	-0.04770337
195	0xbc8e5b64	-0.017377563
196	0xbe110305	-0.14161308
197	0x3d403971	0.04692978
198	0xbcf56193	-0.029953754
199	0xbd2a53ac	-0.041583702
200	0x3df912d3	0.121617936
201	0x3cdba2cc	0.026811026
202	0x3d3fce0d	0.046827365
203	0xbd247cc8	-0.040158063
204	0x3d3ea81a	0.046547033
205	0x3d839e05	0.06426624
206	0xbd96c593	-0.07361903
207	0xbdc9e649	-0.098583765
208	0x3d47978a	0.048728503
209	0xbd46560d	-0.04842191
210	0xbdb2f142	-0.087374225
211	0x3dd425c4	0.10358766
212	0xbcaa8ae7	-0.020818187
213	0xbbe7db62	-0.007075713
214	0xbc17a4c4	-0.009255592
215	0x3d28dff8	0.04122922
216	0x3d41a22f	0.04727381
217	0x3d54284c	0.051796243
218	0xbc865556	-0.016398113
219	0xbd76efcb	-0.06028728
220	0x3d5233a2	0.051318772
221	0xbdc60b1d	-0.096700884
222	0x3d8d75ee	0.06907259
223	0x3c220baf	0.009890481
224	0x3d86cc93	0.06581988
225	0x3d97a4cb	0.07404479
226	0x3da96531	0.08271254
227	0x3dd64670	0.10462654
228	0xbc62e0aa	-0.013847509
229	0xbcb2f86b	-0.02184697
230	0xbdbf1043	-0.093292736
231	0x3d1f3de2	0.038877375
232	0x3e23788d	0.15963955
233	0x3e4e93d6	0.20173582
234	0x3d8cda0a	0.06877525
235	0xbd24b4b6	-0.040211402
236	0xbd18ea7f	-0.037333008
237	0x3d026353	0.031833004
238	0x3ceed14b	0.029152533
239	0x3b6190dd	0.003441862
240	0x3de8914a	0.11355837
241	0xbce9ddcd	-0.028548146
242	0x3d404268	0.04693833
243	0x3deb0f0f	0.114774816
244	0x3e2dd837	0.1697701
245	0xbdb0b648	-0.086285174
246	0x3d8eddb2	0.06975879
247	0x3dcc7373	0.09982958
248	0x3dc2f524	0.09519413
249	0x3c6feb54	0.014643509
250	0xbd88253e	-0.066477284
251	0xbd6c57d3	-0.057700943
252	0x3c6bb735	0.014386942
253	0x3decde2f	0.11565816
254	0x3d3a431c	0.045474157
255	0x3c3109c4	0.010805551
