src/bidmc_generation/models/ha_cnn_bilstm_withWST/20260205_171903/lightweight_hybrid_final.pth (torch, 430116 bytes, 23 tensors)

cnn_encoder.0.weight f4 [32, 16, 7]
0	0x3d93f1c4	0.072238475
1	0xbc39f68c	-0.011350285
2	0x3da132f5	0.078710474
3	0xbcdfacc4	-0.02730406
4	0xbdb08fe4	-0.08621195
5	0xbd8cd5ac	-0.06876692
6	0xbb6ffd9f	-0.0036619676
7	0xbe3e9802	-0.18612674
8	0xbd0e0977	-0.034676995
9	0xbd56e020	-0.052459836
10	0x3d838a94	0.06422916
11	0xbd2ce5d8	-0.042211384
12	0x3ce9e8f5	0.028553465
13	0x3d5f94bc	0.054585204
14	0xbdb85466	-0.09000473
15	0xbd14d31f	-0.036334153
16	0xbdafdd5d	-0.085871436
17	0xbd7860f3	-0.060639333
18	0x3dbad76b	0.09123119
19	0xbd19a856	-0.037514053
20	0xbcb6b58e	-0.022303369
21	0xbd450586	-0.04810097
22	0xbdd2f64a	-0.10300882
23	0x3b9b42ba	0.004738179
24	0xbdb30798	-0.08741683
25	0x3dba888b	0.09108075
26	0x3d2c4070	0.04205364
27	0x3d203d12	0.03912074
28	0xbc89798b	-0.016781589
29	0xbdda4a14	-0.106586605
30	0xbd4c5a01	-0.049890522
31	0xbd4b7c5f	-0.049679156
32	0x3d7a9056	0.061172806
33	0x3d927e20	0.07152963
34	0x3e0d9c97	0.13829266
35	0xbe05e0be	-0.13074014
36	0xbd171480	-0.036884785
37	0xbd8f71b1	-0.07004107
38	0x3d557542	0.05211378
39	0xbd0c6ca7	-0.034283306
40	0x3b3c19e8	0.0028701965
41	0x3e065e98	0.13122022
42	0xbd2347bd	-0.039863337
43	0xbda9b12d	-0.08285747
44	0xbd007b4a	-0.031367578
45	0x3c93e7ca	0.018054862
46	0xb8aba851	-8.185267e-05
47	0xbd1f59ab	-0.038903873
48	0xbc0cec1f	-0.0086012175
49	0xbc8d3eeb	-0.017241916
50	0xbd83f9a6	-0.06444101
51	0xbc269873	-0.010168183
52	0xbdb55bfe	-0.08855437
53	0x3de52978	0.1118955
54	0x3d8b9d24	0.068170816
55	0x3d76aabd	0.060221422
56	0xbdafde52	-0.08587326
57	0xbe17391b	-0.14767878
58	0xbeab2650	-0.33427668
59	0xbe9b91b7	-0.3038461
60	0xbe271899	-0.16317977
61	0x3db8c9e3	0.09022882
62	0xbdfbba9a	-0.12291451
63	0x3d8c0535	0.06836931
64	0x3d197eea	0.03747455
65	0xbde91c14	-0.113823086
66	0x3d697858	0.056999534
67	0x3d290106	0.04126074
68	0xbd1b4405	-0.037906665
69	0xbd0290d3	-0.031876396
70	0x3caf3834	0.021389104
71	0x3d49950e	0.049214415
72	0x3d33006e	0.04370158
73	0xb9d704f1	-0.00041011677
74	0x3ab10ad9	0.0013507261
75	0xbcaf6c95	-0.02141408
76	0xbd020af4	-0.031748727
77	0xbd082471	-0.03323788
78	0xbd442d93	-0.047895025
79	0xbe164bb6	-0.14677319
80	0x3d73fe3f	0.05956864
81	0xbd1c3840	-0.03813958
82	0xbd37f118	-0.04490766
83	0xbe192532	-0.14955595
84	0xbc1f1a43	-0.009710851
85	0x3d7f5eaa	0.062346138
86	0xbe0d8c31	-0.1382301
87	0x3bca6433	0.0061764955
88	0x3db250b3	0.087067984
89	0xbe07363e	-0.13204286
90	0xbd925572	-0.07145204
91	0x3d04d892	0.0324331
92	0xbb24ea55	-0.0025164087
93	0xbd70f728	-0.058829457
94	0x3d4cf235	0.050035674
95	0x3da634d8	0.08115548
96	0xbd2a0319	-0.04150686
97	0xbd43f643	-0.047842275
98	0xbcd7eb5e	-0.026357349
99	0xbd5d456e	-0.05402129
100	0xbdbf8d54	-0.09353128
101	0x3cbc82ac	0.023011528
102	0x3d994567	0.074839406
103	0x3c60a5b7	0.0137113845
104	0xbdbb7de2	-0.091548696
105	0x3cfaaed5	0.030600945
106	0xbd760b73	-0.060069513
107	0xbda93d8d	-0.08263693
108	0xbdf0f1fb	-0.11764904
109	0x3cdf5b4c	0.027265213
110	0xbde32b6f	-0.11092269
111	0xbc3ff3db	-0.0117158545
112	0x3e00fc59	0.12596263
113	0x3dec2b95	0.1153175
114	0x3c94085c	0.018070392
115	0x3cc209d4	0.023686327
116	0xbe1abe51	-0.15111662
117	0xbd6ffc68	-0.058590323
118	0xbdfbc055	-0.12292544
119	0x3d42a098	0.047516435
120	0xbc9bc07d	-0.019012684
121	0xbd267767	-0.040641215
122	0xbd123578	-0.035695523
123	0xbe034220	-0.12818193
124	0xbdccb5f2	-0.09995641
125	0xbe22d15b	-0.15900175
126	0xbd663979	-0.056207154
127	0x3ce34c16	0.027746242
128	0x3cb157d1	0.02164832
129	0xbe1f42f9	-0.15552892
130	0xbdcf50b9	-0.101228185
131	0xbe185db9	-0.14879502
132	0xbd272c2b	-0.040813606
133	0xbc7ce43e	-0.015435277
134	0xbd004a53	-0.03132088
135	0xbd179dfe	-0.037015907
136	0xbd9595d0	-0.07303965
137	0xbcd2f410	-0.025751144
138	0xbe1e8a87	-0.15482531
139	0xbdca1a58	-0.09868306
140	0x3cba4a45	0.022740493
141	0x3dab5f91	0.08367837
142	0x3d60d110	0.054886878
143	0xbdbf3123	-0.09335544
144	0xbdc73af4	-0.09728041
145	0xbde8a627	-0.11359816
146	0xbe2bfa23	-0.16794638
147	0x3dc31abb	0.09526583
148	0x3df181e5	0.117923535
149	0xbd746084	-0.059662357
150	0xbd3d8af3	-0.04627509
151	0x3ce0deb2	0.02744994
152	0xbdb79a2a	-0.08964951
153	0xbe2f2ea0	-0.1710763
154	0x3dd6cd53	0.10488381
155	0x3cf1ccd8	0.029516622
156	0x3a9e5d94	0.0012082332
157	0xbd99706a	-0.074921444
158	0x3c8ed3c6	0.017434966
159	0xbdf6cac1	-0.12050391
160	0xbe53f47c	-0.20698732
161	0xbcab70cf	-0.020927815
162	0xbc85f799	-0.016353415
163	0x3d9cb024	0.07650784
164	0x3d58edb0	0.05296105
165	0xbc8edab7	-0.017438276
166	0xbe1cffc6	-0.15331945
167	0xbe6f3e39	-0.2336358
168	0xbd63b3bf	-0.05559134
169	0xbcc9dde1	-0.024641933
170	0x3d95a2d0	0.07306445
171	0x3d4ccf4f	0.050002392
172	0xbd89eed1	-0.06735004
173	0xbd503591	-0.050832335
174	0x3dfedbc8	0.12444264
175	0x3ce93813	0.028469121
176	0xbbe2217c	-0.0069009643
177	0x3cf528de	0.029926714
178	0x3da30aa5	0.07961015
179	0x3d1182da	0.03552518
180	0x3d841ce2	0.064508215
181	0x3d44fb98	0.0480915
182	0xbda5124c	-0.080601305
183	0xbd899c7f	-0.067193024
184	0x3bab864c	0.0052345153
185	0xbc8e9307	-0.017404092
186	0x3d094716	0.03351506
187	0xbcb6449e	-0.022249516
188	0xbcdeab63	-0.027181333
189	0xbcb91eb5	-0.02259765
190	0xbd432c60	-0.04764974
191	0x3d99f989	0.07518298
192	0x3dbb2453	0.09137788
193	0x3b8b13f7	0.0042443234
194	0xbd681ec1	-0.056669954
195	0xbdb929f2	-0.090412036
196	0xbd40584c	-0.046959206
197	0xbdc4f7d7	-0.09617584
198	0x3db02948	0.08601624
199	0x3d85246b	0.06501087
200	0x3af10e5e	0.0018391123
201	0xbd21ab58	-0.039470047
202	0xbcb4ab8c	-0.022054456
203	0x3d0f6dd0	0.035016835
204	0xbd354de8	-0.04426375
205	0x3ba68b19	0.0050824997
206	0x3d5b83f3	0.053592633
207	0x3d213538	0.039357394
208	0xbd140888	-0.03614095
209	0x3d3eeb8b	0.04661135
210	0xbdfa7353	-0.122290276
211	0xbc868772	-0.016422007
212	0xbde542a9	-0.11194355
213	0x3d43eff3	0.047836255
214	0x3d58aa83	0.052896988
215	0xbd809451	-0.06278289
216	0xbde414cd	-0.1113678
217	0xbdd4289f	-0.1035931
218	0xbc9a49cd	-0.01883402
219	0xbdcfb25e	-0.10141443
220	0xbd32cc08	-0.04365161
221	0xbd7421d2	-0.059602566
222	0xbdbeadb6	-0.093104765
223	0x3c9a60c3	0.018844968
224	0xbddcd5a9	-0.1078294
225	0xbb016853	-0.001974602
226	0xbcffa1b1	-0.03120503
227	0x3dbbc862	0.09169079
228	0x3e2f4115	0.1711467
229	0xbd6dc0aa	-0.058045067
230	0xbe0fcd48	-0.14043152
231	0x3d96f814	0.07371536
232	0x3d81e0b6	0.06341688
233	0xbd9dc691	-0.07703889
234	0xbc714e05	-0.014728074
235	0xbe2adbe9	-0.16685452
236	0xbe3235a5	-0.17403276
237	0xbd3b9fdd	-0.045806754
238	0x3d9007a7	0.070327096
239	0x3c858d2f	0.016302673
240	0x3da742a3	0.08167007
241	0x3a3c4f7e	0.0007183476
242	0xbdc83b36	-0.097769186
243	0x3c56f99b	0.013121034
244	0x3d452974	0.048135236
245	0x3cfa2741	0.030536296
246	0xbda9ccb6	-0.08290999
247	0xbd88ef27	-0.0668624
248	0x3d3526a2	0.044226296
249	0x3cde66df	0.027148662
250	0xbca1706a	-0.019706924
251	0x3d842f2c	0.0645431
252	0xbd9f5a4e	-0.07780896
253	0xbcb14f71	-0.021644326
254	0xbbe8bb9a	-0.007102442
255	0xbd77921d	-0.06044208

cnn_encoder.0.bias f4 [32]
0	0xbd074ba4	-0.03303112
1	0xbdd24881	-0.10267735
2	0xbca5093c	-0.020146005
3	0xbd85e0a6	-0.06536989
4	0x3e0c74a6	0.13716373
5	0xbdd2a55a	-0.102854446
6	0x3e1df47f	0.15425299
7	0xbdc7a376	-0.097479746
8	0xbdc5552a	-0.096353844
9	0x3dc5646f	0.09638297
10	0xbd9af8e8	-0.07567006
11	0x3db705f2	0.08936681
12	0xbda71809	-0.08158881
13	0xbdcaeca6	-0.09908418
14	0xbb9e66de	-0.00483404
15	0xbcb76ffc	-0.022392265
16	0xbe5bdee9	-0.21471752
17	0xb9b14b03	-0.0003381596
18	0x3d8abca0	0.067742586
19	0x3d43467c	0.04767464
20	0x3ab701ae	0.0013962293
21	0x3d97bdf6	0.07409279
22	0x3d56d1b8	0.052446097
23	0xbcbea131	-0.023270221
24	0x3d81a529	0.0633033
25	0xbd79f108	-0.06102088
26	0xbdf17ebc	-0.11791751
27	0xbdec768f	-0.11546051
28	0xbd3b18b8	-0.04567787
29	0x3b9e9306	0.004839304
30	0xbd92e2a7	-0.07172137
31	0x3d72185b	0.05910526

cnn_encoder.1.weight f4 [32]
0	0x3f41887a	0.7559887
1	0x3f7f7440	0.9978676
2	0x3f77f747	0.9686169
3	0x3f6b7e9b	0.9199006
4	0x3f5dbd41	0.86616904
5	0x3f86790a	1.0505688
6	0x3f8f1f94	1.1181512
7	0x3f870d5c	1.0550952
8	0x3f9e921b	1.2388338
9	0x3f83438d	1.025499
10	0x3f6b51e2	0.9192182
11	0x3f67e51c	0.9058397
12	0x3f4ecb95	0.8077939
13	0x3f93bd2c	1.1542106
14	0x3f858ddb	1.0433916
15	0x3f970ab8	1.1800146
16	0x3f9660fd	1.1748348
17	0x3f82ea1f	1.0227698
18	0x3f4c615a	0.79836047
19	0x3f95ca82	1.1702425
20	0x3f7bdc9a	0.98383486
21	0x3f600327	0.8750481
22	0x3f5c9795	0.86168796
23	0x3f839ce3	1.0282253
24	0x3f5b3953	0.85634345
25	0x3f901190	1.125536
26	0x3f8af870	1.0857067
27	0x3f485306	0.78251684
28	0x3f7a2241	0.9770852
29	0x3f949a2f	1.1609553
30	0x3f728918	0.9474044
31	0x3f554a74	0.8331673

cnn_encoder.1.bias f4 [32]
0	0xbe2a5b74	-0.16636449
1	0xbe226aaf	-0.15861009
2	0xbd524233	-0.051332664
3	0xbe19ef8b	-0.15032785
4	0xbe1ec85a	-0.15506116
5	0xbd95fc6a	-0.07323535
6	0xbe0ad7d0	-0.13558888
7	0xbd98548c	-0.07438001
8	0x3db185c5	0.08668093
9	0xbe3ed262	-0.18634942
10	0xbe8c7957	-0.27436325
11	0xbe482c6d	-0.19548197
12	0xbe7a6158	-0.24451196
13	0x3d166198	0.036714166
14	0x3c2e93d3	0.010655361
15	0xbe03e683	-0.12880902
16	0xbd88558e	-0.06656943
17	0xbe362d4d	-0.17790718
18	0xbe4d38c0	-0.2004118
19	0xbe80c421	-0.25149634
20	0xbe3d769d	-0.18502279
21	0xbdf5c682	-0.12000753
22	0xbe888e4b	-0.2667106
23	0xbe563531	-0.20918728
24	0x3c903349	0.01760258
25	0xbd832bb9	-0.06404824
26	0xbe722aef	-0.2364919
27	0xbe1d107c	-0.1533832
28	0xbe338c16	-0.17533907
29	0xbdd38b76	-0.103293344
30	0xbde6bb0d	-0.11266146
31	0xbe8d23e3	-0.27566442

cnn_encoder.1.running_mean f4 [32]
0	0xbeeea352	-0.4660898
1	0xbe46eaab	-0.19425456
2	0xbb76e0ff	-0.003767073
3	0xbe283bfb	-0.1642913
4	0x3e62756b	0.22115104
5	0xbe41d5c9	-0.18929209
6	0x3dad240d	0.08454142
7	0xbdc53d6f	-0.09630858
8	0xbdcbe867	-0.099564366
9	0x3d444ce7	0.047924902
10	0xbe67a70a	-0.22622314
11	0xbd8c9c6b	-0.06865772
12	0x3ca8b2c1	0.020593049
13	0xbe0a1577	-0.1348475
14	0x3d4977d0	0.049186528
15	0xbd38b3bf	-0.045093294
16	0xbe9e1851	-0.30877927
17	0xbdd8f03e	-0.105926976
18	0x3d5dd63d	0.05415939
19	0xbd3e10e3	-0.046402823
20	0xbc3efe2d	-0.01165728
21	0xbc5ccc17	-0.013476393
22	0x3dff60ec	0.12469658
23	0xbe130a2c	-0.14359349
24	0x3e0cb2f4	0.1374014
25	0xbd7e0c29	-0.062023316
26	0xbe8c9dfa	-0.27464277
27	0xbe747ca6	-0.23875675
28	0xbd8d36a6	-0.06895189
29	0xbc640edf	-0.013919561
30	0x3d179d59	0.037015293
31	0xbd36a977	-0.044595208

cnn_encoder.1.running_var f4 [32]
0	0x3ca10638	0.019656286
1	0x3c17e337	0.009270481
2	0x3a763af1	0.0009392938
3	0x3b8e5120	0.004343167
4	0x3b1ac255	0.0023614366
5	0x3b755722	0.0037435968
6	0x3b027578	0.0019906443
7	0x3ab2a460	0.001362931
8	0x3a2d1d83	0.0006603824
9	0x3b15c841	0.0022854956
10	0x3b619bd2	0.0034425152
11	0x3b69d3ea	0.003567929
12	0x3bb029dc	0.005376084
13	0x3a9620ca	0.0011453864
14	0x3b7e28ec	0.0038781716
15	0x3b935ba8	0.0044970103
16	0x3ac14b47	0.0014747166
17	0x3b3d8467	0.002891803
18	0x3b744375	0.0037271653
19	0x3b3d6d42	0.0028904234
20	0x3b7c1164	0.0038462514
21	0x3b1a3e86	0.0023535802
22	0x3b636b81	0.0034701528
23	0x3b43c519	0.0029872118
24	0x3aa180be	0.0012321693
25	0x3b020a9a	0.0019842745
26	0x3b1dfeb9	0.0024108125
27	0x3b3993d5	0.0028316875
28	0x3a750a21	0.00093475176
29	0x3af076ae	0.0018345916
30	0x3b00c413	0.001964812
31	0x3bad8fd1	0.0052966853

cnn_encoder.4.weight f4 [64, 32, 5]
0	0x3da645cd	0.08118782
1	0xbc996257	-0.01872365
2	0x3d41e01c	0.047332868
3	0xbdf72ccb	-0.120690905
4	0x3d880942	0.06642391
5	0x3e09bc00	0.13450623
6	0x3de637d7	0.11241119
7	0xbc4eaddd	-0.012614694
8	0xbd2af279	-0.041735146
9	0x3de29ad3	0.110646866
10	0xbdc308bc	-0.0952315
11	0xb9719590	-0.00023039267
12	0xbd8ce100	-0.06878853
13	0x3d619dac	0.05508201
14	0x3d9d0308	0.07666594
15	0x3d9db6bf	0.07700872
16	0x3cecef10	0.028922588
17	0x3c95b852	0.018276367
18	0xbdd4cdf7	-0.10390847
19	0x3d14b949	0.036309514
20	0x3c136390	0.0089959055
21	0x3da57614	0.08079162
22	0xbe05e09c	-0.13073963
23	0xbd99e550	-0.07514441
24	0xbd8fb966	-0.07017784
25	0x3e05a235	0.13050158
26	0x3d7f4d6b	0.06232969
27	0xbc93b461	-0.018030347
28	0xbb94b608	-0.0045383014
29	0x3da2813b	0.07934805
30	0x3d0610e4	0.032730952
31	0xbb5c10d7	-0.0033579373
32	0xbd40ee40	-0.047102213
33	0xbd9fba0a	-0.07799156
34	0xbbbe5988	-0.005809013
35	0x3e3902a1	0.18067409
36	0x3d032459	0.032017086
37	0x3d32d0b9	0.043656085
38	0xbe121b0e	-0.14268133
39	0xbd4d1866	-0.050072096
40	0xbd59f520	-0.053212285
41	0xbc1dc514	-0.009629507
42	0x3dc50372	0.09619798
43	0xbd25d5d7	-0.040487137
44	0x3e3ce802	0.18447879
45	0xbdfb2468	-0.12262803
46	0xbd60bb20	-0.054865956
47	0xbd400e50	-0.04688865
48	0x3caffdde	0.021483358
49	0x3da64791	0.08119119
50	0xbdada599	-0.08478851
51	0x3d3c2179	0.04593036
52	0x3d938398	0.07202834
53	0xbdeaec7a	-0.114708856
54	0xbc7cbdf9	-0.015426152
55	0xbd304de6	-0.04304304
56	0xbd1d1cc1	-0.0383575
57	0xbce459f6	-0.027874928
58	0xbd19eb95	-0.037578184
59	0x3dc7991f	0.097460024
60	0x3d52880f	0.051399287
61	0x3b6f991a	0.0036559762
62	0xbe42bbb1	-0.19016911
63	0xbd637b40	-0.055537462
64	0xbda22ffb	-0.07919308
65	0x3de60cf3	0.112329386
66	0xbdde3f32	-0.10851897
67	0xbd20989c	-0.03920804
68	0xbd3148a4	-0.043282166
69	0x3ddc30c1	0.107514866
70	0x3de0688b	0.1095744
71	0x3dd8914c	0.10574588
72	0x3ce4c91b	0.027927926
73	0xbc005d0d	-0.007834685
74	0xbd46dd48	-0.048550874
75	0x3dadb714	0.08482185
76	0xbdb60f20	-0.088896036
77	0xbe2d713c	-0.16937727
78	0xbd65734f	-0.05601817
79	0xbd010254	-0.03149636
80	0x3b8f5a16	0.0043747528
81	0x3c973327	0.018457009
82	0xbe046be0	-0.12931776
83	0xbdf80896	-0.12111013
84	0x3e38c670	0.18044448
85	0x3ca7577d	0.02042746
86	0xbd71c441	-0.059025053
87	0xbd3afd7a	-0.04565189
88	0xbe14b3cc	-0.14521712
89	0xbba03b9d	-0.004889919
90	0x3da38171	0.07983673
91	0x3de1f6a8	0.11033374
92	0x3d6651db	0.056230407
93	0x3d974e3d	0.0738797
94	0x3c1dc551	0.009629563
95	0x3df2cccd	0.11855469
96	0xbd811bc3	-0.06304123
97	0xbd1f2f1f	-0.038863298
98	0xbcb03dd1	-0.021513851
99	0x3cdcb5f1	0.026942225
100	0x3e2e3abd	0.17014594
101	0xbcbc17e9	-0.02296062
102	0x3db327f3	0.08747854
103	0xbd9b6275	-0.075871386
104	0x3de0a6c8	0.10969311
105	0xbd5112e1	-0.051043395
106	0x3c805746	0.015666615
107	0xbdc83c52	-0.0977713
108	0x3d773283	0.060350906
109	0xbc73beef	-0.014877065
110	0x3d6eeac7	0.05832937
111	0x3d28c58c	0.04120402
112	0xbcc6a817	-0.024250073
113	0xbd881b4c	-0.066458315
114	0xbca9409c	-0.020660691
115	0x3d621a2c	0.05520074
116	0x3da664a5	0.08124665
117	0xbdb0de09	-0.086361
118	0xbde946d3	-0.11390462
119	0xbd710973	-0.058846902
120	0x3dc24cab	0.094872795
121	0x3d4d9c5e	0.05019795
122	0xbd857785	-0.06516937
123	0xbc30c579	-0.010789269
124	0xbdbf2586	-0.09333329
125	0xbb9fa9fa	-0.0048725577
126	0x3cac531c	0.021035723
127	0x3d4596a9	0.048239384
128	0x3e023939	0.12717141
129	0xbc9a0e5b	-0.018805673
130	0xbc878cc3	-0.016546613
131	0xbce668f9	-0.028126227
132	0x3d8b515c	0.068026274
133	0x3d946d58	0.07247418
134	0xbd4eb189	-0.05046228
135	0x3e04608a	0.12927452
136	0xbced41dd	-0.02896207
137	0x3d8d699f	0.06904911
138	0x3d6594f0	0.05605024
139	0xbc8cd767	-0.017192556
140	0x3e5d1fc8	0.21594155
141	0xbd41da65	-0.047327418
142	0xbd86384d	-0.06553707
143	0x3d4d889a	0.0501791
144	0xbe265754	-0.1624425
145	0xbda7dd78	-0.08196539
146	0x3ccb524b	0.024819514
147	0x3e0d9687	0.13826953
148	0x3e180de2	0.14849046
149	0xbd993298	-0.07480353
150	0xbce389ab	-0.027775606
151	0xbda8faf4	-0.082509905
152	0xbd5e91b5	-0.054338176
153	0x3c9ea4f8	0.019365773
154	0xbdbee2e8	-0.09320623
155	0x3db6da47	0.08928352
156	0xbd738a65	-0.059458155
157	0x3c861bd4	0.016370691
158	0xbd8c4801	-0.06849671
159	0xbd234cc1	-0.03986812
160	0x3c8f4fef	0.01749417
161	0x3d41ebe7	0.047344115
162	0x3d9e9c87	0.07744699
163	0xbc178160	-0.009247154
164	0x3d6f6404	0.05844499
165	0x3de5a49c	0.11213037
166	0x3d0dcc14	0.034618452
167	0xbd338d68	-0.043836027
168	0xbd76397f	-0.060113426
169	0x3da3efa3	0.080046915
170	0xbd9b521e	-0.07584022
171	0xbd869c85	-0.065728225
172	0xbc8eee95	-0.01744775
173	0x3d102284	0.035189167
174	0x3d501839	0.05080435
175	0xbbeb7d14	-0.0071865413
176	0xbbcec3bb	-0.006309954
177	0x3d66605e	0.056244247
178	0x3d92fa19	0.071766086
179	0xbd8b86db	-0.06812831
180	0xbd3c7471	-0.046009485
181	0xbdc371c6	-0.09543185
182	0xbd661a09	-0.056177173
183	0x3cb73573	0.022364354
184	0xbd76b620	-0.06023228
185	0x3d9a9f20	0.07549882
186	0x3db8b56b	0.09018978
187	0x3cb674d7	0.02227251
188	0xbd7f6dc2	-0.062360533
189	0x3e044efc	0.12920755
190	0xbdc48686	-0.09595971
191	0x3dd36355	0.103216805
192	0x3dd3cf0e	0.10342227
193	0xbdf2d8e5	-0.118577756
194	0xbcc0a05f	-0.02351397
195	0x3e1b0343	0.15137963
196	0xbdbf9718	-0.09354991
197	0x3dac08f8	0.08400148
198	0x3d4bfa08	0.049798995
199	0x3daebb28	0.08531791
200	0x3dd81a89	0.10551936
201	0x3d3beede	0.0458821
202	0xbda792e5	-0.08182315
203	0xbd3fb400	-0.04680252
204	0xbe816446	-0.25271815
205	0xbd9aa6f2	-0.075513735
206	0x3d06aac1	0.032877687
207	0x3dd308e7	0.10304432
208	0xbdc099d1	-0.09404338
209	0xbd9c527d	-0.07632921
210	0x3d0ac6f3	0.03388114
211	0xbc97318d	-0.018456245
212	0x3d7c9c9e	0.0616728
213	0xbcd89e1e	-0.026442584
214	0xbd27200d	-0.04080205
215	0x3b94d0f0	0.004541509
216	0x3a2c65be	0.000657644
217	0xbc0f15d8	-0.008733235
218	0xbdf91812	-0.12162794
219	0xbd8aa9bb	-0.06770655
220	0x3d29dc97	0.041470136
221	0x3d94d7cc	0.072677225
222	0x3d7171fa	0.058946587
223	0xbd83f7b2	-0.064437285
224	0xbd84dd55	-0.06487528
225	0xbcd15813	-0.025554692
226	0xbd6717e0	-0.056419253
227	0xbd87f296	-0.066380665
228	0x3c90e871	0.017688962
229	0xbdbbf500	-0.091775894
230	0x3dc04599	0.09388275
231	0x3ceef46d	0.029169286
232	0xbd9eddeb	-0.07757171
233	0xbcc81609	-0.02442457
234	0x3df2d399	0.11856765
235	0x3e004156	0.12524924
236	0xbdc60cc8	-0.096704066
237	0xbe0214f3	-0.12703304
238	0xbd4b88f6	-0.049691163
239	0x3e1e958c	0.15486735
240	0x3d1cf0c9	0.038315568
241	0x3d837102	0.06418039
242	0x3d733855	0.059379894
243	0xbe00c421	-0.12574817
244	0xbdd18bcd	-0.10231743
245	0x3c633c50	0.01386936
246	0xbd8f5e21	-0.070003755
247	0xbd9ed44b	-0.077553354
248	0xbd830fdf	-0.063995115
249	0x3d8b6a2d	0.06807361
250	0xbdd3720e	-0.103244886
251	0xbcc1895d	-0.02362507
252	0x3d36cb9d	0.044627775
253	0x3c2bf182	0.010494592
254	0xbb8add62	-0.0042378167
255	0x3d85ef23	0.06539752

cnn_encoder.4.bias f4 [64]
0	0x3dd2ca55	0.10292498
1	0xbcbe46a0	-0.023227036
2	0x3b3f5d3f	0.0029199866
3	0x3903889a	0.00012544022
4	0xbd1c47b4	-0.03815432
5	0x3ba04a08	0.0048916377
6	0x3c702aa9	0.0146586085
7	0xbcf3cdf0	-0.029761285
8	0x3c9855c5	0.018595586
9	0x3d6bcc73	0.057568025
10	0x3d83420e	0.06409083
11	0xbc63742d	-0.013882679
12	0x3d9ad2de	0.07559751
13	0xbd767843	-0.060173284
14	0xbd930e03	-0.07180407
15	0x3da8ed3f	0.08248376
16	0x3d259fc2	0.04043556
17	0x3daa94a0	0.08329129
18	0xbb369ab6	-0.002786321
19	0xbd44f2e9	-0.04808322
20	0xbc6063a7	-0.013695634
21	0xbd1a2288	-0.037630588
22	0xbd44839e	-0.047977082
23	0x3d739f6c	0.05947821
24	0xbccb6e4f	-0.024832873
25	0xbc83712b	-0.016045174
26	0x3da39368	0.079871
27	0x3d836622	0.06415965
28	0x3c75ebab	0.015009801
29	0x3c17249f	0.00922504
30	0x3c50deff	0.012748479
31	0x3d054dd8	0.03254494
32	0xbcf1cf89	-0.029517906
33	0x3d943749	0.07237107
34	0xbd604c79	-0.05476043
35	0xbd283797	-0.04106864
36	0x3c8d9cda	0.017286707
37	0xbd1e021a	-0.038576223
38	0xbcc2c72f	-0.023776619
39	0x3ce63b55	0.028104464
40	0xbd91b7fe	-0.07115172
41	0xbdba826a	-0.09106906
42	0x3d87990e	0.0662099
43	0x3d84d220	0.06485391
44	0xbc9f2091	-0.019424709
45	0x3d8109fd	0.06300733
46	0x3dbb3d83	0.09142592
47	0xbd51445e	-0.05109059
48	0xbbaaab65	-0.00520842
49	0x3d1b3431	0.03789157
50	0xbd9e5436	-0.07730906
51	0x3d262eb4	0.040571883
52	0x3d4d097f	0.050057884
53	0xbd23cdec	-0.039991304
54	0x3bc5a14e	0.006031192
55	0xbda25928	-0.079271615
56	0xbd660dbe	-0.05616545
57	0x3d90a8b0	0.070634246
58	0xbc9936f8	-0.018702969
59	0x3d74d4b8	0.059773177
60	0x3cfe8597	0.03106956
61	0xbd2d137e	-0.042254917
62	0xbcea1380	-0.028573751
63	0xbd86fc08	-0.0659104

cnn_encoder.5.weight f4 [64]
0	0x3f7fd26d	0.9993046
1	0x3f8676b0	1.050497
2	0x3f802547	1.0011376
3	0x3f68c423	0.9092428
4	0x3f6d40e7	0.9267716
5	0x3f820c35	1.0159975
6	0x3f76ad6b	0.96358365
7	0x3f6ee135	0.9331239
8	0x3f6db764	0.92857957
9	0x3f802f57	1.0014447
10	0x3f8405e0	1.0314293
11	0x3f7b110f	0.98072904
12	0x3f8471e5	1.0347258
13	0x3f7afc5f	0.9804134
14	0x3f6f2665	0.9341796
15	0x3f6eaf39	0.9323612
16	0x3f80ee56	1.0072734
17	0x3f808c1f	1.0042762
18	0x3f7bf8fd	0.984268
19	0x3f780ae7	0.96891636
20	0x3f74bfd5	0.9560521
21	0x3f752226	0.9575523
22	0x3f87cb1f	1.0608863
23	0x3f822d37	1.0170048
24	0x3f6d1ff9	0.9262691
25	0x3f89a6b6	1.0754001
26	0x3f7e3a69	0.99307877
27	0x3f73d530	0.95247173
28	0x3f7b4e6b	0.9816653
29	0x3f7e1865	0.99255973
30	0x3f81f9c2	1.0154345
31	0x3f78a39d	0.97124654
32	0x3f7a812e	0.9785336
33	0x3f6e7d96	0.9316038
34	0x3f75ffb4	0.96093297
35	0x3f854492	1.0411551
36	0x3f86650c	1.0499587
37	0x3f715c72	0.94281685
38	0x3f79f492	0.9763881
39	0x3f6e1208	0.92996264
40	0x3f800ede	1.0004537
41	0x3f7e72b1	0.99393755
42	0x3f7a9941	0.97890097
43	0x3f81c394	1.0137811
44	0x3f71ed3a	0.94502604
45	0x3f785992	0.97011673
46	0x3f78396b	0.9696261
47	0x3f62b93a	0.88563883
48	0x3f7d8bec	0.9904163
49	0x3f821a8a	1.0164349
50	0x3f73daf7	0.9525599
51	0x3f7b6492	0.98200333
52	0x3f6c7a8c	0.9237449
53	0x3f7696f6	0.963241
54	0x3f74e2cc	0.95658565
55	0x3f7e84ee	0.99421585
56	0x3f7adb69	0.97991043
57	0x3f70f5f2	0.9412528
58	0x3f84fdb2	1.0389922
59	0x3f7ad6d2	0.9798404
60	0x3f74debe	0.9565238
61	0x3f7bb64c	0.9832504
62	0x3f62a24a	0.88528883
63	0x3f811935	1.0085818

cnn_encoder.5.bias f4 [64]
0	0xbd956864	-0.072953016
1	0xbe0fcf8b	-0.14044015
2	0xbe04570e	-0.12923834
3	0xbe12288b	-0.14273278
4	0xbe03b485	-0.12861831
5	0xbde1f268	-0.110325634
6	0xbd6e3e43	-0.058164846
7	0xbe11c962	-0.14236978
8	0xbd8d7889	-0.06907756
9	0xbdbdef56	-0.09274165
10	0xbdcda0b4	-0.10040417
11	0xbe288306	-0.16456231
12	0xbd95277f	-0.07282924
13	0xbe315bf0	-0.17320228
14	0xbe1bc0e4	-0.152103
15	0xbe42ef89	-0.19036688
16	0xbe0fb6a1	-0.14034511
17	0xbc9a2a8c	-0.018819116
18	0xbdae5ea2	-0.085141435
19	0xbe6badcf	-0.23015521
20	0xbe305e10	-0.17223382
21	0xbe6b39ba	-0.2297124
22	0xbe6f67dc	-0.23379463
23	0xbe084528	-0.13307631
24	0xbe33b5c3	-0.17549805
25	0xbe1efb67	-0.1552559
26	0xbe02d1ab	-0.12775294
27	0xbdced10b	-0.100984655
28	0xbd924d9e	-0.071437106
29	0xbe00136e	-0.12507412
30	0xbe1149c8	-0.14188302
31	0xbe116f12	-0.14202526
32	0xbe02b69a	-0.1276497
33	0xbe23be63	-0.15990596
34	0xbda14fb7	-0.078765325
35	0xbe637c05	-0.22215278
36	0xbe52fcc2	-0.20604232
37	0xbe0209fd	-0.12699123
38	0xbd18220c	-0.037141845
39	0xbdb44427	-0.088020615
40	0xbd3b22a6	-0.04568734
41	0xbd6dd85b	-0.05806766
42	0xbd22ef44	-0.039778963
43	0xbe30b2da	-0.17255726
44	0xbd9d92c6	-0.076940104
45	0xbd43e7d5	-0.047828514
46	0xbe959725	-0.29216877
47	0xbe313a83	-0.17307477
48	0xbdbb64da	-0.09150095
49	0xbe20b1bd	-0.15692802
50	0xbdea9b03	-0.114553474
51	0xbe3ab8c5	-0.18234546
52	0xbded103a	-0.115753606
53	0xbe591a1e	-0.21201369
54	0xbdcd9aa5	-0.10039262
55	0xbe2afa98	-0.16697156
56	0xbcf05469	-0.029337125
57	0xbe495475	-0.19661124
58	0xbe726a20	-0.23673296
59	0xbce9b425	-0.028528282
60	0xbdd4a8eb	-0.10383781
61	0xbcab8e85	-0.020941982
62	0xbe54f95e	-0.20798251
63	0xbe2cae17	-0.16863285

cnn_encoder.5.running_mean f4 [64]
0	0x3e90fd65	0.28318325
1	0xbdffaf23	-0.124845766
2	0x3d76369a	0.060110666
3	0xbe0a6c7f	-0.1351795
4	0x3e890fb0	0.2676978
5	0xbf0a2f69	-0.5397859
6	0xbec9616e	-0.39332145
7	0xbfb53e59	-1.4159652
8	0xbf0f9e9f	-0.5610141
9	0x3ecba38f	0.39773223
10	0xbf488cf9	-0.7834011
11	0x3eabab4a	0.3352912
12	0x3eae7ead	0.3408102
13	0xbf480a68	-0.7814088
14	0xbe287306	-0.16450128
15	0x3f2f753f	0.6853828
16	0x3ea8ec5f	0.32992837
17	0x3e1679a1	0.14694835
18	0xbe3fa1c9	-0.1871406
19	0xbed35a82	-0.4127999
20	0xbf0f25ff	-0.5591735
21	0x3f0ecd95	0.55782443
22	0xbe6ac2e8	-0.22925913
23	0xbe2fd1ea	-0.1716992
24	0xbf0ec4a4	-0.557688
25	0x3ebfb780	0.37444687
26	0x3ef0022c	0.46876657
27	0xbe96db14	-0.29464018
28	0xbc88086a	-0.016605575
29	0x3e501ada	0.20322743
30	0x3b96c724	0.004601376
31	0xbc9b35bc	-0.018946521
32	0xbf994e4a	-1.1977017
33	0x3dd6e3c7	0.10492664
34	0x3ea98f3c	0.33117092
35	0xbd96521c	-0.0733988
36	0x3eb962d3	0.3620821
37	0xbeb97c55	-0.3622767
38	0xbefb4471	-0.49075654
39	0x3ed20e53	0.41026554
40	0xbec62e0a	-0.38707
41	0xbf823d4c	-1.0174956
42	0x3f53d751	0.8275042
43	0x3d065843	0.032799017
44	0x3cbb6b1c	0.022878222
45	0xbf648038	-0.89258146
46	0x3f0b98c3	0.5452997
47	0x3ee39e69	0.44456795
48	0xbf58ca17	-0.84683365
49	0x3f0669df	0.52505296
50	0x3e8ef25c	0.2791928
51	0x3f446ba0	0.7672672
52	0xbecc1179	-0.3985708
53	0x3ea9c0fa	0.33155042
54	0xbf916928	-1.1360216
55	0xbdb4550c	-0.08805284
56	0xbe69f7ed	-0.22848482
57	0x3d9b18fe	0.07573126
58	0xbe733972	-0.23752382
59	0x3e2629f4	0.16226941
60	0xbe3a9d2e	-0.18224022
61	0xbf422552	-0.75838196
62	0xbf0dba85	-0.5536273
63	0xbe37d3dd	-0.17951913

cnn_encoder.5.running_var f4 [64]
0	0x3f007af0	0.5018759
1	0x3f018e6a	0.5060793
2	0x3fb53a4c	1.4158416
3	0x3f197d52	0.5995685
4	0x3f874d98	1.0570555
5	0x3ea3b56c	0.3197435
6	0x3f5584f4	0.83405995
7	0x3f30d27a	0.6907116
8	0x3f69bef2	0.91306984
9	0x3f1109dc	0.5665567
10	0x3f1c1e7a	0.60984004
11	0x3f7529f1	0.9576712
12	0x3f08abb6	0.5338701
13	0x3efeb863	0.4975005
14	0x3f6a4274	0.9150765
15	0x3f09eb35	0.5387452
16	0x3eeeaea6	0.4661762
17	0x3edb7b15	0.42867342
18	0x3f3e5a49	0.74356514
19	0x3f262277	0.6489634
20	0x3f165a49	0.58731514
21	0x3f2677eb	0.6502673
22	0x3f29f582	0.6639024
23	0x3f3ea485	0.74469787
24	0x3f042134	0.51613164
25	0x3eb4478a	0.3521083
26	0x3f8173ec	1.0113502
27	0x3f5f3a44	0.8719828
28	0x3f264862	0.649542
29	0x3f00dc81	0.5033646
30	0x3ed301b0	0.41212225
31	0x3f175459	0.5911308
32	0x3f202825	0.62561256
33	0x3f49670f	0.7867288
34	0x3f06765c	0.5252435
35	0x3e6c747a	0.23091307
36	0x3eb8c605	0.36088577
37	0x3eb69e9d	0.35667887
38	0x3edaca4f	0.42732474
39	0x3edf7062	0.4364043
40	0x3f4c3b19	0.79777676
41	0x3ed7998e	0.4210934
42	0x3ef971fb	0.48719773
43	0x3f3d0c34	0.73846745
44	0x3ef26949	0.4734595
45	0x3f8a69b1	1.0813504
46	0x3f0fe9b2	0.56215966
47	0x3f9daf6d	1.2319161
48	0x3f5fc0d6	0.8740362
49	0x3ea82979	0.3284414
50	0x3f5d6fba	0.86498606
51	0x3eb80e6b	0.359485
52	0x3f3b881b	0.73254555
53	0x3f0274c3	0.50959414
54	0x3ecd1a2a	0.40059024
55	0x3f39e0d2	0.72608674
56	0x3f3380df	0.70118517
57	0x3f234f58	0.63792944
58	0x3ed47f32	0.41503292
59	0x3f58d22f	0.84695715
60	0x3fd1654c	1.6359038
61	0x3f63d640	0.88998795
62	0x3ed59f0d	0.4172291
63	0x3ec6910c	0.38782537

lstm.weight_ih_l0 f4 [256, 64]
0	0xbcfce000	-0.03086853
1	0x3e758880	0.23977852
2	0x3e6d7e01	0.23192598
3	0x3e9a3ba5	0.3012363
4	0x3e0ce463	0.13758998
5	0x3d353f48	0.044249803
6	0xbb60ca3b	-0.0034300226
7	0x3d899b54	0.067190796
8	0xbdb718a2	-0.08940245
9	0xbdbba96f	-0.09163176
10	0x3e555b2a	0.20835558
11	0xbe2ae14d	-0.16687508
12	0xbca053a3	-0.019571131
13	0x3d8ab46a	0.067726925
14	0xbc633697	-0.013867996
15	0x3d078478	0.033085316
16	0xbca99e26	-0.020705294
17	0xbecf6c73	-0.40512428
18	0xbe105c04	-0.14097601
19	0xbd4f2a5f	-0.050577518
20	0xbe987b1d	-0.29781428
21	0xbdc9b136	-0.098482534
22	0x3f07c935	0.5304139
23	0xbe1fd3a7	-0.15608083
24	0xbe1a4349	-0.1506473
25	0xbcbb84f2	-0.022890542
26	0x3d4497bf	0.04799628
27	0x3db8785e	0.09007333
28	0x3e85803f	0.26074407
29	0x3d33337d	0.043750275
30	0x3ea6451c	0.324746
31	0xbd9d26a7	-0.07673388
32	0xbd85755e	-0.06516527
33	0xbe1ef7bd	-0.15524192
34	0x3cd41183	0.025887256
35	0x3ce1e749	0.027576106
36	0x3dc95364	0.098303586
37	0xbd9edca0	-0.07756925
38	0x3d9b8079	0.075928636
39	0xbe8357e2	-0.25652987
40	0x3e2eba14	0.1706317
41	0x3eb00295	0.3437697
42	0xbcffd8f1	-0.031231375
43	0x3e05b782	0.13058284
44	0x3e1615a2	0.1465669
45	0xbcef69a4	-0.029225178
46	0xbdace4f4	-0.08442107
47	0xbcfc138b	-0.030771038
48	0xbcb5be6d	-0.022185529
49	0xbb8b1cc5	-0.004245373
50	0xbdad0718	-0.08448619
51	0xbdce890d	-0.10084734
52	0xbc73a210	-0.014870182
53	0x3df89ab2	0.12138881
54	0x3e44eb57	0.192304
55	0xbe3ffec5	-0.1874953
56	0x3dafaed9	0.085782714
57	0xbe2b0f00	-0.16704941
58	0x3e405404	0.1878205
59	0xbbe1307a	-0.006872234
60	0x3d126295	0.035738546
61	0x3e37e8ac	0.17959851
62	0xbdcb04b1	-0.09913004
63	0x3e2d9192	0.16950062
64	0x3e5067c9	0.20352091
65	0x3e1d3248	0.15351212
66	0xbd8532e6	-0.06503849
67	0xbd6980a8	-0.05700746
68	0xbdef8aaa	-0.1169637
69	0xbe1b8b33	-0.15189819
70	0xbcb12069	-0.0216219
71	0x3d901152	0.070345536
72	0x3d51e758	0.051246017
73	0xbe2a7e17	-0.16649662
74	0x3e2f7495	0.17134316
75	0x3e07075f	0.13186406
76	0xbe26fd98	-0.16307676
77	0x3d7ba278	0.06143424
78	0x3d13b3ba	0.036060072
79	0xbdf60f0c	-0.12014589
80	0x3da9b9bd	0.0828738
81	0x3c97bb51	0.018521937
82	0x3dd447b3	0.10365238
83	0xbc5da843	-0.013528886
84	0xbdcecdb0	-0.100978255
85	0x3d74a84f	0.059730824
86	0xbddbf173	-0.10739412
87	0x3ae8b4ec	0.0017754114
88	0x3d40c764	0.047065154
89	0x3c7f44db	0.015580381
90	0xbd891914	-0.066942364
91	0x3dc8df3e	0.09808205
92	0xbcd71030	-0.026252836
93	0x3df85425	0.12125424
94	0xbe0acb67	-0.13554154
95	0x3e11ff31	0.14257504
96	0xbdc31ae4	-0.09526613
97	0x3e449416	0.19197115
98	0x3ccbe3f9	0.02488898
99	0x3e8529b2	0.26008373
100	0x3de5e8ff	0.11226081
101	0xbdab486a	-0.08363421
102	0x3e77f4c1	0.2421446
103	0x3de31395	0.11087719
104	0x3dd1a070	0.10235679
105	0xbdc0d10a	-0.09414871
106	0x3d12e02c	0.03585832
107	0x3d9a3004	0.075286895
108	0x3d3b434a	0.04571847
109	0x3d937d27	0.07201605
110	0x3c2fa5e0	0.0107207
111	0x3e2c8baa	0.16850153
112	0xbd41dd36	-0.047330104
113	0x3d9bb355	0.07602564
114	0x3c8be37a	0.017076243
115	0x3db777ad	0.08958373
116	0x3daf708f	0.08566391
117	0x3dbf3082	0.09335424
118	0x3cb4a348	0.022050515
119	0x3d098f02	0.03358365
120	0x3c8d2e3d	0.017233962
121	0xbde179bd	-0.11009548
122	0x3cac776b	0.021053037
123	0x3e2e99b6	0.17050824
124	0x3cad4911	0.021153005
125	0xbcd71f1e	-0.026259955
126	0xbc1e5ac8	-0.009665199
127	0xbd9936bb	-0.07481142
128	0x3dcdb4cd	0.10044251
129	0xba77098a	-0.00094237237
130	0xbd1c4467	-0.03815117
131	0x3dd1eedf	0.10250639
132	0x3c761ba2	0.015021237
133	0x3ca61e9c	0.020278268
134	0xbe22e656	-0.15908179
135	0xbb24a4a5	-0.002512255
136	0x3be664bc	0.0070310514
137	0xbe70b01f	-0.23504685
138	0x3de88ddc	0.113551825
139	0xbd7a82ce	-0.0611599
140	0x3e7d58a1	0.2474084
141	0x3d8d022b	0.06885179
142	0x3e0f9a60	0.14023733
143	0xbc8f198b	-0.017468235
144	0xbdbbff94	-0.09179607
145	0xbdd245f0	-0.10267246
146	0x3dcfc397	0.10144728
147	0xbcdbe949	-0.026844637
148	0x3e027519	0.12739982
149	0xbe249351	-0.16071822
150	0x3e84a121	0.25904182
151	0x3e7e159a	0.24812928
152	0xbe74da5a	-0.2391142
153	0xbd199308	-0.037493736
154	0x3dbe6a3c	0.09297606
155	0xbb7e7f0f	-0.0038833057
156	0x3d797dfe	0.06091117
157	0xbc313dd1	-0.010817961
158	0xbe7b6df6	-0.24553666
159	0xbec04b27	-0.37557337
160	0x3e546dc3	0.20744996
161	0x3d10ea3c	0.035379633
162	0xbdd7a05c	-0.10528633
163	0xbb230663	-0.0024875633
164	0x3e4a0d9c	0.19731754
165	0x3de21050	0.110382676
166	0x3d4893cc	0.048969075
167	0xbdcde91d	-0.100542285
168	0x3d728239	0.05920622
169	0xbe5401dd	-0.20703836
170	0x3df31315	0.11868874
171	0x3ee6ccf8	0.45078254
172	0x3dadb944	0.08482602
173	0xbd666191	-0.05624539
174	0xbe5fa38a	-0.21839729
175	0x3e21036c	0.15723962
176	0x3e4ad085	0.19806106
177	0x3b9a9e4e	0.0047185784
178	0x3ca48565	0.020083139
179	0x3e4324c6	0.19056997
180	0x3e74571b	0.23861353
181	0x3cb0d480	0.021585703
182	0x3d5e1a1d	0.054224122
183	0x3d725033	0.059158515
184	0x3eabf448	0.3358481
185	0xbbf259c6	-0.0073959557
186	0x3db24b09	0.08705718
187	0xbda611c8	-0.0810886
188	0x3d51e9b5	0.05124827
189	0x3e1078cf	0.14108585
190	0xbca87c1e	-0.020566996
191	0xbe4cf4cf	-0.20015262
192	0x3dc51e3f	0.096249096
193	0xbdb9df7a	-0.09075828
194	0xbe7f1329	-0.24909653
195	0xbd8b7a12	-0.068103924
196	0x3c49fabb	0.012327845
197	0x3e369bd3	0.1783288
198	0x3dcad7af	0.0990442
199	0x3e288845	0.16458233
200	0xbc2620ab	-0.010139625
201	0x3becc13e	0.0072251847
202	0xbd03cb12	-0.032176085
203	0x3e82c673	0.2554203
204	0x3e19b7b6	0.15011486
205	0x3d766da8	0.06016317
206	0xbda52e17	-0.080654316
207	0xbc74173f	-0.01489812
208	0x3e310439	0.17286767
209	0x3e1189b0	0.1421268
210	0x3de7e6f8	0.11323351
211	0x3e256985	0.16153534
212	0xbc5dc630	-0.013536021
213	0xbe090fbc	-0.13384908
214	0xbe0f8324	-0.1401487
215	0x3e1fc136	0.15601048
216	0xbbac8fc5	-0.005266162
217	0xbe7e37b6	-0.2482594
218	0x3de87107	0.11349683
219	0x3de4e2e8	0.111760914
220	0xbed5a42b	-0.41726813
221	0x3e3c88b4	0.18411523
222	0x3cf37359	0.029718088
223	0x3d65bcfb	0.05608843
224	0xbded02e7	-0.11572819
225	0xbd6ff70e	-0.05858522
226	0x3c416988	0.011804946
227	0xbecf4602	-0.404831
228	0x3d3b81ec	0.0457782
229	0x3d435f5e	0.04769837
230	0x3c092c9a	0.00837245
231	0xbd89ae34	-0.0672268
232	0xbe040586	-0.12892732
233	0xbda98790	-0.082778096
234	0xbe218588	-0.15773594
235	0xbe55df7c	-0.20886034
236	0xbe065408	-0.13117993
237	0x3ebdf84b	0.37103495
238	0x3d23acaa	0.039959587
239	0x3e3a1e4d	0.18175621
240	0x3db6ebe1	0.08931709
241	0xbe89b591	-0.26896337
242	0xbddb6aef	-0.10713755
243	0x3d45fe49	0.04833821
244	0x3dc93ada	0.09825678
245	0x3d5d05bb	0.053960543
246	0xbe1c4924	-0.15262276
247	0xbdd90939	-0.10597462
248	0xbd706998	-0.058694452
249	0x3cb31887	0.021862281
250	0xbe87e5ee	-0.2654261
251	0x3e51a48f	0.2047293
252	0xbda716ab	-0.081586204
253	0xbcdde5c8	-0.027087107
254	0x3d7b3749	0.06133202
255	0x3a8d672c	0.0010788194

lstm.weight_hh_l0 f4 [256, 64]
0	0x3dafe97c	0.085894555
1	0x3dc3efb0	0.09567201
2	0x3d07800d	0.033081103
3	0xbda8e017	-0.08245867
4	0xbdba1610	-0.09086239
5	0xbd8f887f	-0.070084564
6	0xbe31611e	-0.17322204
7	0x3cc38ded	0.023871386
8	0x3daec2cc	0.08533248
9	0xbcca766e	-0.024714675
10	0xbe161468	-0.14656222
11	0xbdb97c1a	-0.090568736
12	0x3e9dbcbf	0.30808064
13	0x3d9d675b	0.07685729
14	0xbc2cb919	-0.010542178
15	0x3e058bc1	0.13041593
16	0x3e19b725	0.1501127
17	0x3db894ca	0.09012754
18	0x3aceb1e9	0.0015769574
19	0x3de7b1ed	0.113132335
20	0x3f057d62	0.52144444
21	0x3d15659f	0.036473867
22	0x3eb6c3fe	0.35696405
23	0xbea44269	-0.32081917
24	0x3d37ab29	0.044840965
25	0x3e09c4b3	0.13453941
26	0xbc8c6f13	-0.017142808
27	0xbce935a7	-0.028467966
28	0x3ccf29de	0.025288519
29	0x3e2cf118	0.16888845
30	0x3ed9e966	0.4256088
31	0x3dc6a391	0.096991666
32	0xbe8baa73	-0.2727848
33	0x3eef10a9	0.46692398
34	0xbd452224	-0.048128262
35	0x3e084127	0.13306104
36	0xbdc2e3f8	-0.09516138
37	0x3e010d66	0.12602767
38	0xbe9ac359	-0.30227163
39	0x3d04cd19	0.03242216
40	0xbdd8e66e	-0.10590826
41	0x3e84401c	0.25830162
42	0xbc51554b	-0.012776683
43	0x3e64e05d	0.22351213
44	0xbed45eb4	-0.41478503
45	0xbc9b0e58	-0.018927738
46	0xbe3f6e3a	-0.18694392
47	0x3e811f77	0.25219318
48	0xbddeaebc	-0.10873172
49	0xbe2017de	-0.15634105
50	0xbe306387	-0.17225467
51	0xbebb473c	-0.36577785
52	0x3e2d4c86	0.16923723
53	0xbe85c349	-0.26125553
54	0x3e766757	0.24062859
55	0x3e90b705	0.28264633
56	0x3e961d59	0.29319265
57	0xbda324d7	-0.07966011
58	0x3e7094cd	0.23494263
59	0x3e42a026	0.19006404
60	0xbebffc01	-0.3749695
61	0x3e049f90	0.12951493
62	0xbe110a98	-0.14164197
63	0xbde5fbb7	-0.112296514
64	0xbe8f348d	-0.2796978
65	0x3e26da70	0.16294265
66	0xbde919b0	-0.113818526
67	0x3e59cbab	0.212691
68	0xbe4b2720	-0.19839144
69	0xbd578734	-0.052619174
70	0x3eca1f7e	0.39477152
71	0x3e1e5334	0.15461427
72	0x3e7e08a4	0.24807984
73	0x3e8faa4e	0.2805962
74	0xbe126685	-0.1429692
75	0x3c9d8b10	0.01923135
76	0x3cdb5134	0.02677212
77	0x3d595133	0.053055953
78	0x3e297765	0.16549452
79	0x3e8525f8	0.2600553
80	0x3d3af768	0.0456461
81	0xbd85028e	-0.06494628
82	0x3d804396	0.06262891
83	0xbdbdb95f	-0.09263872
84	0xbc9648ec	-0.018345319
85	0x3cb519f7	0.022107108
86	0xbd983078	-0.0743112
87	0xbe6cd8b6	-0.23129544
88	0xbd309b2a	-0.043116726
89	0x3ea17899	0.3153732
90	0x3cd29e6d	0.025710309
91	0x3e31b7a3	0.17355208
92	0x3e3b390c	0.1828348
93	0x3dd07639	0.10178799
94	0x3dabfa4f	0.08397352
95	0x3d0e0232	0.034670062
96	0xbe93aca3	-0.2884265
97	0xbd3cafe2	-0.046066172
98	0xbdcf42f6	-0.10120194
99	0x3d8fb73a	0.070173696
100	0xbcbde99f	-0.023182688
101	0x3db4173a	0.087934926
102	0xbe7b32a3	-0.24531035
103	0x3c31394f	0.010816886
104	0xbd1170c3	-0.03550793
105	0xbe6fc2a7	-0.23414098
106	0x3c82b278	0.015954241
107	0xbdf4fe5b	-0.11962577
108	0xbe73a0d2	-0.23791817
109	0xbd9fdd16	-0.07805841
110	0x3de7ed96	0.11324613
111	0x3e40d9dc	0.18833107
112	0x3e8df0c4	0.27722752
113	0x3e8c9a65	0.27461544
114	0xbb1e0634	-0.0024112584
115	0x3dfbfd04	0.12304118
116	0xbd3a132e	-0.045428447
117	0x3e5bfe51	0.21483733
118	0x3dcb5c54	0.099297196
119	0x3e0b93dd	0.13630624
120	0xba982dfa	-0.0011610382
121	0xbe86a1d7	-0.2629535
122	0x3a57e430	0.00082356017
123	0x3e9c3fcb	0.3051742
124	0xbdd0656c	-0.10175595
125	0x3e75fb05	0.24021538
126	0xbdfb717f	-0.12277507
127	0xbe1ba57e	-0.15199849
128	0xbecd1919	-0.4005821
129	0xbdaffc35	-0.085930265
130	0xbe3187f2	-0.17337015
131	0xbdac1806	-0.084030196
132	0x3dc47215	0.09592072
133	0x3df363e7	0.11884289
134	0x3ea0c090	0.31396914
135	0xbdedd219	-0.116123386
136	0x3ed1ae1d	0.4095315
137	0x3e876c90	0.26450014
138	0x3d264bee	0.040599756
139	0x3e2d8582	0.1694546
140	0x3d98ca7a	0.07460494
141	0xbac544a1	-0.001505036
142	0x3e567b83	0.20945553
143	0xbd9b7c4c	-0.07592067
144	0x3d37216d	0.04470961
145	0xbcd7837e	-0.026307818
146	0x3e64ddae	0.22350189
147	0x3e52dd39	0.20592202
148	0x3e0d5772	0.13802889
149	0x3df3e25e	0.119084105
150	0x3ea0fdc2	0.31443602
151	0xbdcbdcbf	-0.09954213
152	0x3e4ee2b2	0.20203665
153	0x3ddb4a9b	0.10707589
154	0xbe599423	-0.21247916
155	0xbcbd249e	-0.02308875
156	0xbd561656	-0.052267395
157	0xbeadb33b	-0.33925804
158	0x3e5b5d8d	0.21422406
159	0xbb86e2d5	-0.004116396
160	0xbd194065	-0.037414927
161	0xbcc2db4a	-0.023786206
162	0x3cb3596c	0.021893226
163	0x3c1b12a8	0.009464897
164	0xbe2a8b89	-0.16654791
165	0xbbb65da1	-0.0055653607
166	0xbe77d3f7	-0.24201952
167	0xbd2db586	-0.042409442
168	0xbcfe147f	-0.031015633
169	0x3db09144	0.08621457
170	0x3d237480	0.039906025
171	0xbd9e0c1c	-0.077171534
172	0x3d27b917	0.040948
173	0xbccde579	-0.025133835
174	0xbef7e6e4	-0.48418343
175	0xbe2de436	-0.16981587
176	0xbec094ab	-0.37613425
177	0x3dc4021f	0.09570717
178	0xbe87da02	-0.26533514
179	0xbd62072e	-0.05518263
180	0x3d43768c	0.047720477
181	0xbd5fcea7	-0.05464044
182	0x3e709b5b	0.23496763
183	0xbc019ad8	-0.007910453
184	0x3dd33958	0.10313672
185	0x3ec0a383	0.3762475
186	0xbe1d34f1	-0.15352227
187	0xbe295a6a	-0.16538396
188	0x3e1122a6	0.14173374
189	0xbe60513f	-0.21905993
190	0xbc14f7fe	-0.009092329
191	0x3e37ea07	0.17960368
192	0xbd900bca	-0.070334986
193	0x3dd7dcfb	0.105401956
194	0x3dbb7c81	0.091546066
195	0xbd92fc57	-0.07177036
196	0xbe79ecff	-0.24406813
197	0x3cb5b13b	0.022179237
198	0x3eb2ddcf	0.34934852
199	0x3d072018	0.03298959
200	0x3cf30bfc	0.0296688
201	0x3d6cb620	0.057790875
202	0xbd9c0f64	-0.07620123
203	0x3da2a111	0.07940877
204	0xbe49d2ea	-0.19709364
205	0x3c248c39	0.010043197
206	0x3e544308	0.20728695
207	0xbe9a6f59	-0.30163077
208	0x3d8037ad	0.06260619
209	0x3d614ec6	0.055006765
210	0x3cefc884	0.029270418
211	0x3db9e612	0.090770856
212	0xbdf3168d	-0.118695356
213	0x3e77566a	0.24154058
214	0x3e555181	0.20831873
215	0xbe208bf3	-0.15678386
216	0xbd99210f	-0.074770086
217	0x3cba4363	0.02273721
218	0x3d9a6f18	0.07540721
219	0x3f455008	0.77075243
220	0x3dc60ae9	0.0967005
221	0xbe5d7ab4	-0.21628839
222	0x3e083f44	0.13305384
223	0xbdc9146a	-0.09818347
224	0xbd228338	-0.03967592
225	0xbe72db5a	-0.23716488
226	0xbe02a5ea	-0.12758604
227	0x3d8fab38	0.07015079
228	0xbd263faa	-0.04058806
229	0xbe30b98b	-0.17258279
230	0x3d9b7494	0.07590595
231	0xbc0e3f23	-0.008682045
232	0xbe926ff6	-0.28601044
233	0x3e1771c8	0.14789498
234	0xbe931722	-0.28728586
235	0xbe5d6402	-0.21620181
236	0xbdb9f022	-0.09079005
237	0x3e3e3c2a	0.18577638
238	0x3e4f5c41	0.20250036
239	0xbda66efe	-0.08126639
240	0x3e54406e	0.20727703
241	0x3e65194d	0.22372933
242	0x3ddcff0f	0.10790836
243	0x3e3944c9	0.18092646
244	0x3deeb589	0.11655719
245	0xbe0b6313	-0.13612013
246	0x3be285fb	0.0069129444
247	0xbd88bdf8	-0.06676859
248	0x3d9da330	0.07697141
249	0x3d478e23	0.048719537
250	0xbe94a159	-0.29029348
251	0xbe4af583	-0.19820218
252	0xbed9a159	-0.4250591
253	0xbe853fe0	-0.26025295
254	0x3d969b23	0.07353809
255	0x3e6440d8	0.22290361

lstm.bias_ih_l0 f4 [256]
0	0x3ca17c01	0.01971245
1	0xbdf6245d	-0.120186545
2	0xbd06b8f7	-0.03289124
3	0xbd27373d	-0.040824164
4	0xbe3ad34f	-0.1824467
5	0xbd6123fd	-0.05496596
6	0x3b17b856	0.0023150644
7	0xbe468a2f	-0.1938865
8	0x3db2cf13	0.087309025
9	0xbba5e0b8	-0.005062189
10	0xbd977aec	-0.07396492
11	0xbb8ee825	-0.00436117
12	0xbdf2ead8	-0.11861199
13	0xbe58bad6	-0.21165022
14	0xbd90b56b	-0.07065853
15	0x3c782509	0.015145549
16	0xbe2edf1d	-0.17077298
17	0xbb34a236	-0.0027562506
18	0x3d68ff62	0.056884177
19	0x3c9c940d	0.019113565
20	0xbe1eceae	-0.1550853
21	0xbdacdca9	-0.08440525
22	0xbd173610	-0.036916792
23	0xbdaeebfc	-0.08541104
24	0x3d7fa687	0.062414672
25	0xbc526bc7	-0.012843079
26	0xbe06dc71	-0.13170029
27	0x3e0b63b7	0.13612257
28	0xbd7c80d6	-0.061646305
29	0xbae45a32	-0.00174219
30	0x3d01dcdc	0.03170477
31	0x3bbafcf5	0.0057064244
32	0xbdc48ce7	-0.095971875
33	0xbc3e3a87	-0.011610634
34	0xbdd2ae90	-0.102872014
35	0x3de0b902	0.109727874
36	0xbe22f22e	-0.15912697
37	0xbdecabf6	-0.115562364
38	0x3c2abe92	0.010421412
39	0xbe4ceca8	-0.20012152
40	0xbe115daa	-0.14195886
41	0x3c120049	0.008911201
42	0xbdf213f5	-0.11820213
43	0x3c6437ee	0.01392935
44	0xbd931e62	-0.071835294
45	0x3cb01263	0.021493142
46	0xbe285e48	-0.16442215
47	0x3db65a05	0.089038886
48	0x3d6ee0e4	0.05831994
49	0xbd47a0db	-0.048737388
50	0xbe150ed4	-0.14556438
51	0x3deeea75	0.11665813
52	0xbdba4771	-0.090956576
53	0x3d0cd4bd	0.03438257
54	0xbe45b693	-0.19307928
55	0xbdad814b	-0.08471926
56	0x3cea82ed	0.028626883
57	0x3d2b0fd0	0.041763127
58	0x39f42667	0.0004656792
59	0xbdff4545	-0.12464384
60	0x3cafeb80	0.0214746
61	0x3dd87df9	0.105709024
62	0xbcd2a80a	-0.025714893
63	0x3c1d26a6	0.009591734
64	0x3e318b14	0.1733821
65	0x3dd7e84a	0.105423525
66	0x3dfa1825	0.122116365
67	0x3d552d70	0.052045286
68	0x3db921c6	0.09039645
69	0xbdd52335	-0.10407106
70	0x3e83a504	0.25711834
71	0x3da9a67a	0.08283706
72	0xbc15287c	-0.0091038905
73	0xbd24b3be	-0.040210478
74	0xbd6b6228	-0.057466656
75	0x3e26d082	0.16290477
76	0x3d141141	0.036149267
77	0x3d9d6905	0.076860465
78	0x3e06fc33	0.13182144
79	0x3dc9fa54	0.098621994
80	0x3d66d590	0.056356013
81	0x3e0c4d7b	0.13701431
82	0x3ded9b6f	0.11601912
83	0x3d53608c	0.051605746
84	0xbd0174b7	-0.03160545
85	0xbcb82ab3	-0.022481298
86	0xbbe56f6c	-0.007001808
87	0x3d072399	0.032992933
88	0x3debe446	0.11518149
89	0x3e282b55	0.1642278
90	0xbd37558f	-0.04475933
91	0xbdafed62	-0.08590199
92	0xbc962e56	-0.018332642
93	0x3d93c7fd	0.07215879
94	0xbab7dfec	-0.0014028526
95	0x3d3da155	0.046296436
96	0x3dc0bd73	0.094111346
97	0xbd4c9f47	-0.049956586
98	0xbc7982dd	-0.015228954
99	0x3d95288d	0.07283125
100	0x3daef175	0.08542148
101	0xbd86f80a	-0.065902784
102	0x3e00ff8a	0.1259748
103	0x3d475fd0	0.04867536
104	0x3d5268ae	0.05136936
105	0x3db7a86e	0.08967672
106	0xbd1bc123	-0.038025986
107	0x3bdc3382	0.0067200074
108	0x3de88db8	0.11355156
109	0xbd3cbfee	-0.046081476
110	0x3bfa4743	0.0076378896
111	0x3d00eaab	0.031473797
112	0x3c8ab156	0.016930263
113	0xbd8c2f06	-0.068449065
114	0xbd9071a6	-0.07052927
115	0x3ca2815a	0.01983707
116	0x3da85aae	0.08220421
117	0x3d9b3e9c	0.07580301
118	0xbde789dc	-0.113055915
119	0x3dd720e6	0.10504322
120	0x3dc7769a	0.09739418
121	0x3e0e328d	0.13886471
122	0x3d686b06	0.05674269
123	0x3e2c1deb	0.16808288
124	0x3e1cd83d	0.15316863
125	0x3e2527d9	0.16128482
126	0x3dcbf92a	0.09959634
127	0x3e193f90	0.14965653
128	0xbd201fda	-0.039092876
129	0xbdec4fa8	-0.11538631
130	0x3df18120	0.11792207
131	0xbcc7339c	-0.024316601
132	0x3ce99750	0.028514534
133	0xbaa6132d	-0.001267051
134	0xbd9e31b8	-0.07724327
135	0xbdbcbfe7	-0.0921629
136	0x3cb36438	0.021898374
137	0x3df3ba6b	0.11900791
138	0x3dbe439c	0.09290239
139	0x3dd03253	0.101658486
140	0x3e0b1d05	0.13585289
141	0x3de9da50	0.11418593
142	0x3df0c30b	0.117559515
143	0x3c0fc65e	0.008775322
144	0xbd761d23	-0.06008638
145	0xbdd1dd31	-0.10247267
146	0x3da35b74	0.07976428
147	0x3dab5b48	0.0836702
148	0xbd7a6001	-0.061126713
149	0xbb146e18	-0.0022648629
150	0xbd332d62	-0.043744452
151	0x3d3fe983	0.046853554
152	0xbc623c47	-0.013808317
153	0x3ca6ad43	0.02034629
154	0x3d9cd7ab	0.07658323
155	0xbbd39ef5	-0.006458158
156	0xbe0acb5d	-0.1355414
157	0xbbda4703	-0.0066612973
158	0x3d4469d3	0.047952484
159	0x3bc3d0fd	0.005975841
160	0xbdb7ebaa	-0.08980496
161	0xbd00b01e	-0.03141796
162	0x3dd5e083	0.10443213
163	0xbddaeae1	-0.10689331
164	0x3b2e7878	0.0026622098
165	0x3d5ec3cf	0.054385956
166	0x3cc7af42	0.024375562
167	0xbccb3594	-0.024805821
168	0xbca030b4	-0.019554473
169	0xbdbad5ff	-0.09122848
170	0x3daf5096	0.085602924
171	0x3d746dfb	0.059675198
172	0xbdb5a25e	-0.0886886
173	0x3bd71024	0.0065632034
174	0x3c11deb4	0.008903194
175	0x3d78736c	0.06065695
176	0x3d8fe66a	0.0702637
177	0xbd3c772e	-0.046012096
178	0x3dbe98fb	0.093065225
179	0xbdfca065	-0.1233528
180	0x3d4f25b0	0.05057305
181	0x3d1a1d69	0.037625704
182	0x3e0046b6	0.12526974
183	0x3cb87869	0.022518354
184	0x3daa86e5	0.0832651
185	0xbdb4a699	-0.088208385
186	0x3d619f68	0.055083662
187	0x3c713764	0.014722679
188	0x3ca85a86	0.020550977
189	0xbd0e19f0	-0.034692705
190	0x3db82448	0.08991295
191	0xbd149bbc	-0.036281332
192	0xbd11ef3e	-0.03562855
193	0x3d86a057	0.06573551
194	0xbd27b641	-0.040945295
195	0xbcbba665	-0.022906492
196	0xbe11d94c	-0.14243048
197	0x3d0d2694	0.03446062
198	0xbcf30502	-0.029665474
199	0xbd6249b6	-0.055246077
200	0x3e02fa0e	0.12790701
201	0x3c4e8b0b	0.012606393
202	0x3d35364a	0.044241227
203	0xbd2f033a	-0.042727686
204	0x3d0bf1f2	0.034166284
205	0x3d34f254	0.044176415
206	0xbd9f96ad	-0.07792411
207	0xbdd3b474	-0.10337153
208	0x3d124141	0.035706762
209	0xbd08f88a	-0.03344015
210	0xbd9ec976	-0.077532694
211	0x3dc656ba	0.096845105
212	0xbceafc05	-0.028684625
213	0xbc533aba	-0.0128924195
214	0xbb2ce973	-0.0026384264
215	0x3d1e2670	0.038610876
216	0x3d7553a3	0.059894215
217	0x3d5019b1	0.05080575
218	0xbcfac6ab	-0.03061231
219	0xbd825f21	-0.06365801
220	0x3d5cea13	0.053934168
221	0xbdbe731a	-0.09299298
222	0x3d91cbb7	0.07118934
223	0xbb141d9d	-0.0022600659
224	0x3d617be4	0.055049792
225	0x3d512c39	0.051067565
226	0x3d9e8074	0.07739344
227	0x3dcc152f	0.09964978
228	0xbc3a7405	-0.0113802
229	0xbcba6259	-0.022751974
230	0xbdd0beb9	-0.101926275
231	0x3d72f36a	0.05931417
232	0x3e22ee56	0.1591123
233	0x3e42d7d0	0.19027638
234	0x3d921ccf	0.07134401
235	0xbd369ae3	-0.044581305
236	0xbd28923a	-0.041155078
237	0x3d262eb8	0.0405719
238	0x3c7051bf	0.014667927
239	0x3c245ea3	0.010032329
240	0x3ddd567a	0.1080751
241	0xbbd7646a	-0.0065732496
242	0x3d1d5a59	0.03841624
243	0x3e03f97b	0.12888138
244	0x3e23e1d7	0.1600412
245	0xbdc4126b	-0.095738254
246	0x3d904034	0.07043496
247	0x3dc94ba2	0.09828879
248	0x3da88aed	0.08229623
249	0xbba3b0c0	-0.0049954355
250	0xbdae0935	-0.0849785
251	0xbd6fe640	-0.058569193
252	0x3bfbe907	0.007687691
253	0x3dde8bc2	0.108665004
254	0x3d2ef568	0.042714506
255	0x3ca4ce36	0.02011786
