src/bidmc_generation/models/ha_cnn_bilstm_withWST/20260205_180406/fold_5/best_lightweight_hybrid.pth (torch, 430093 bytes, 23 tensors)

cnn_encoder.0.weight f4 [32, 16, 7]
0.008928034 0.10050989 0.08747152 -0.076257795 -0.10308012 0.0015992622 0.014589807 0.10248255
-0.0076352917 0.040991556 -0.13967563 -0.054823138 -0.07279339 0.0110139465 0.130066 0.008494027
0.04236491 0.012732466 -0.004391032 -0.007677742 -0.043418206 0.0108065875 0.08741329 0.0073560704
-0.024597669 -0.12773345 -0.12060618 -0.08379294 0.00039901974 0.034229297 -0.050466456 -0.119416006
-0.087669685 -0.11704487 -0.020991175 0.16592844 -0.031705234 -0.008803935 0.031785507 -0.094636425
-0.0866539 0.004264667 0.14067408 -0.04220258 -0.055658348 -0.0077641485 -0.08316247 -0.027379444
0.025145642 0.10917854 0.018867046 0.0860145 -0.10257636 -0.05292988 0.06176231 -0.027505495
-0.029804388 0.06760951 0.09046075 0.09871121 -0.05048635 -0.09055258 -0.057984065 0.0215625
-0.011718743 -0.14198822 -0.08292387 0.031557363 0.15382913 0.10045199 -0.022359233 -0.10569245
-0.13289197 -0.080565274 -0.01698299 0.023163592 0.06995369 0.020156123 -0.052339442 -0.14348938
-0.00077064877 -0.064664036 0.09157112 0.1392687 -0.01408553 -0.12419868 -0.09263196 -0.05110738
0.018799292 0.013195554 0.06577876 0.014486656 -0.052351676 -0.14206766 -0.12477917 -0.12425153
-0.01849759 0.09110603 0.046962474 0.008860901 -0.0282877 -0.019848626 0.011115363 -0.099507876
0.05300798 0.046752855 -0.049420796 -0.13380702 -0.011623728 -0.013935519 -0.0938945 0.06614389
0.10466274 -0.02119573 0.056789756 -0.025288275 -0.13269849 -0.084201485 -0.03568308 -0.08279119
-0.18569425 -0.08707487 -0.12011651 -0.07424417 0.027634177 0.06805918 -0.033451606 -0.042667557
-0.13372062 -0.055661846 -0.14043906 -0.07583098 0.021322036 -0.07331665 -0.031688213 -0.1512008
-0.09631372 -0.15173723 -0.10992807 -0.094915904 0.015925232 0.048010208 -0.096755296 0.02949782
-0.042243563 -0.018339941 0.011858828 0.056290563 -0.05011302 -0.09726994 0.06287894 0.019074623
-0.090962216 -0.038455594 -0.11502468 -0.056024577 0.08216928 -0.08680096 -0.08104084 -0.08487868
-0.02405963 -0.09470326 0.07367734 0.03214787 -0.07138825 0.03581069 -0.021997562 0.0099831885
-0.02738603 0.026984144 -0.04902329 0.03793454 -0.0012168239 0.024972115 0.0577657 0.08926336
0.0750951 0.10567902 0.07542474 0.060101744 -0.055173308 0.059213307 0.100704126 0.064543754
0.10458067 0.010995964 -0.07419441 0.011772355 0.022875676 -0.026436301 0.041528855 0.011974792
-0.10359628 -0.052450124 -0.034803227 -0.027280074 -0.044653267 -0.012638724 -0.026140278 -0.009539745
-0.08614472 0.022919195 -0.043873727 -0.029097587 0.05770124 -0.047258254 -0.039571665 0.008010201
-0.120238155 -0.027738959 -0.013523957 -0.11665941 -0.12601992 -0.023676708 -0.022725333 -0.11733492
-0.06271497 -0.025064498 -0.020256154 -0.010053417 -0.14957407 -0.14234218 -0.05681151 -0.09300297
0.0063444218 0.075721115 0.08150924 0.038773336 -0.05076723 -0.043944437 -0.10425953 0.040872186
0.056334 -0.050561916 -0.046811964 0.03022407 -0.0006329274 -0.04685759 -0.016995711 0.039989553
0.10209656 -0.060200267 0.014532263 0.023552116 -0.048932515 -0.06278282 -0.039409462 -0.040675867
0.062390037 0.024911853 -0.089837134 -0.04684461 0.100739054 0.06741349 -0.030690413 0.07877368
00000000: e446 123c 21d8 cd3d 4524 b33d 0c2d 9cbd
00000010: ac1b d3bd 569e d13a 160a 6f3c 5fe2 d13d
00000020: 7831 fabb c3e6 273d 2107 0fbe 3a8e 60bd
00000030: b314 95bd d773 343c 0630 053e 882a 0b3c
00000040: d486 2d3d d59b 503c a5e2 8fbb 9195 fbbb
00000050: 4ad7 31bd 1d0e 313c bd05 b33d 310b f13b
00000060: 0d81 c9bc 8fcc 02be 5f00 f7bd a29b abbd
00000070: 8633 d139 0534 0c3d eab5 4ebd 6190 f4bd
00000080: 2a8c b3bd 39b5 efbd aff5 abbc 25e9 293e
00000090: 59dd 01bd 613e 10bc 8531 023d bed0 c1bd
000000a0: 9a77 b1bd 9fbe 8b3b de0c 103e 9ddc 2cbd
000000b0: 02fa 63bd 666a febb 1651 aabd db4a e0bc
000000c0: 3cfe cd3c 0099 df3d 108f 9a3c 5f28 b03d
000000d0: 8e13 d2bd 00cd 58bd 7afa 7c3d 3453 e1bc
000000e0: 5528 f4bc db76 8a3d 7c43 b93d 1a29 ca3d
000000f0: c6ca 4ebd a273 b9bd b380 6dbd d7a3 b03c
00000100: f8ff 3fbc 5c65 11be fdd3 a9bd 4b42 013d
00000110: 6285 1d3e c6b9 cd3d b62a b7bc 4975 d8bd
00000120: d514 08be 68ff a4bd e91f 8bbc 93c1 bd3c
00000130: e143 8f3d 741e a53c e261 56bd e1ee 12be
00000140: 5d05 4aba 946e 84bd a489 bb3d 749c 0e3e
00000150: ffc6 66bc e15b febd d3b5 bdbd f955 51bd
00000160: f900 9a3c 2a32 583c 04b7 863d 7059 6d3c
00000170: b66e 56bd 2f7a 11be 398c ffbd 9677 febd
00000180: 4288 97bc cc95 ba3d b95b 403d 502d 113c
00000190: 9bbb e7bc 9699 a2bc 361d 363c c9ca cbbd
000001a0: e51e 593d ec7f 3f3d 766d 4abd b504 09be
000001b0: 7371 3ebc ce51 64bc c24b c0bd 7376 873d
000001c0: 6b59 d63d aba2 adbc 609c 683d 5b29 cfbc
000001d0: 1de2 07be d471 acbd 6c28 12bd 6d8e a9bd
000001e0: a226 3ebe 4f54 b2bd a5ff f5bd 540d 98bd
000001f0: 1261 e23c 9d62 8b3d 8d04 09bd 2dc4 2ebd
00000200: 0fee 08be adfd 63bd 42cf 0fbe 464d 9bbd
00000210: 8dab ae3c 0a27 96bd 80cb 01bd 62d4 1abe
00000220: 2140 c5bd 0161 1bbe f821 e1bd 4563 c2bd
00000230: a275 823c 5aa6 443d a427 c6bd 6aa5 f13c
00000240: 9607 2dbd a53d 96bc 884b 423c ef90 663d
00000250: 4f43 4dbd 7635 c7bd acc6 803d 6242 9c3c
00000260: 664a babd 9d83 1dbd 0f92 ebbd 077a 65bd
00000270: 5e48 a83d b4c4 b1bd bdf8 a5bd e0d4 adbd
00000280: b418 c5bc c8f3 c1bd 25e4 963d 7cad 033d
00000290: 0134 92bd 3bae 123d 3b34 b4bc 8790 233c
000002a0: ab58 e0bc da0d dd3c a5cc 48bd 4061 1b3d
000002b0: d67d 9fba 5292 cc3c ba9b 6c3d b5cf b63d
000002c0: 76cb 993d 3e6e d83d 4978 9a3d 3f2d 763d
000002d0: 68fd 61bd a789 723d f73d ce3d 842f 843d
000002e0: 642e d63d 6a28 343c 3df3 97bd d6e0 403c
000002f0: c565 bb3c f190 d8bc 291a 2a3d eb31 443c
00000300: 492a d4bd f1d5 56bd d48d 0ebd 767a dfbc
00000310: 58e6 36bd a712 4fbc 2324 d6bc 974c 1cbc
00000320: a56c b0bd 09c1 bb3c f0b4 33bd 105e eebc
00000330: 2358 6c3d df91 41bd e615 22bd 383d 033c
00000340: 6c3f f6bd d03c e3bc 9693 5dbc 21eb eebd
00000350: 5e0b 01be a8f5 c1bc 7a2a babc 4a4d f0bd
00000360: b570 80bd 1054 cdbc 3cf0 a5bc 16b7 24bc
00000370: f229 19be 26c2 11be 30b3 68bd 5778 bebd
00000380: dee4 cf3b ac13 9b3d 51ee a63d cad0 1e3d
00000390: 4df1 4fbd 15ff 33bd 0586 d5bd 9869 273d
000003a0: 7bbe 663d 031a 4fbd e7bd 3fbd 7898 f73c
000003b0: 0aeb 25ba bfed 3fbd 973a 8bbc 16cc 233d
000003c0: 0018 d13d 8e94 76bd bb18 6e3c 5ef0 c03c
000003d0: 766d 48bd 4794 80bd d16b 21bd bd9b 26bd
000003e0: b28c 7f3d f113 cc3c 88fc b7bd 22e0 3fbd
000003f0: 4750 ce3d 1510 8a3d 766a fbbc 1854 a13d

cnn_encoder.0.bias f4 [32]
0.08183526 -0.09155117 -0.063885435 0.06265646 -0.04911402 -0.1007523 0.032073297 0.007015826
0.09696436 -0.00016359522 -0.014392399 0.11598365 0.047476042 0.069428936 -0.070401266 -0.033600863
0.012230334 0.048956268 0.20452026 -0.03941636 -0.10372251 0.09749831 -0.06564779 -0.0064031277
0.062373992 -0.09822361 0.01233794 -0.088117205 0.023271115 0.0743362 0.07457145 0.05943
00000000: 3f99 a73d 2e7f bbbd 5ed6 82bd 0852 803d
00000010: c82b 49bd 3957 cebd 4a5f 033d 04e5 e53b
00000020: 4095 c63d c28a 2bb9 19ce 6bbc d688 ed3d
00000030: 3d76 423d c230 8e3d 8a2e 90bd 0fa1 09bd
00000040: bd61 483c 5e86 483d c26d 513e 0d73 21bd
00000050: 786c d4bd 32ad c73d 5972 86bd 54d1 d1bb
00000060: df7b 7f3d 7629 c9bd 1225 4a3c cb76 b4bd
00000070: 11a3 be3c 943d 983d ebb8 983d df6c 733d

cnn_encoder.1.weight f4 [32]
1.1453612 1.033962 1.0663522 1.1271809 0.9640409 0.9520009 1.0939672 0.91377693
0.890839 0.9857302 0.9611598 0.96739626 1.138458 0.99240726 1.0495601 0.8289059
0.98639286 0.90376776 1.1542323 0.90915287 0.8844268 0.92891216 0.89527774 0.96027195
1.0924909 1.0348551 0.9626492 0.95170003 0.9514292 0.9912159 0.92320496 1.1267438
00000000: 329b 923f de58 843f 3b7e 883f 7747 903f
00000010: 62cb 763f 55b6 733f 1e07 8c3f 49ed 693f
00000020: 060e 643f d058 7c3f 920e 763f 48a7 773f
00000030: feb8 913f 670e 7e3f fc57 863f 2d33 543f
00000040: 3e84 7c3f 535d 673f e2bd 933f 3ebe 683f
00000050: cb69 623f 30cd 6d3f ec30 653f 62d4 753f
00000060: bed6 8b3f 2276 843f 2e70 763f 9da2 733f
00000070: dd90 733f 53c0 7d3f 2957 6c3f 2439 903f

cnn_encoder.1.bias f4 [32]
-0.0027035836 -0.07148657 -0.08696113 0.059578482 -0.059121337 -0.19143564 0.0902161 -0.1116149
-0.12873979 -0.13584498 -0.0325035 -0.15297303 -0.029369177 -0.041476127 -0.07945231 -0.17202903
-0.061579835 -0.16465104 -0.11719901 -0.049841706 -0.18038364 -0.0024147327 -0.0014233061 -0.110140264
-0.09976542 -0.07200285 0.024597228 -0.15622999 -0.034251165 -0.026246654 -0.11855741 0.027695427
00000000: 9b2e 31bb 8d67 92bd ad18 b2bd 9108 743d
00000010: 3729 72bd b407 44be 38c3 b83d 5a96 e4bd
00000020: 5dd4 03be f21a 0bbe 6422 05bd f6a4 1cbe
00000030: a197 f0bc dfe2 29bd e5b7 a2bd 6128 30be
00000040: 233b 7cbd 489a 28be 0906 f0bd d126 4cbd
00000050: 7db6 38be 7e40 1ebb 3a8e baba 3891 e1bd
00000060: d051 ccbd 3b76 93bd 2080 c93c c1fa 1fbe
00000070: f34a 0cbd 3903 d7bc 3ace f2bd 85e1 e23c

cnn_encoder.1.running_mean f4 [32]
0.068449706 -0.21557753 -0.13498771 0.07194798 -0.040464524 -0.17287007 0.014103639 -0.0917345
0.03067475 -0.061590914 -0.083077334 0.0088509135 0.03020593 0.06868013 -0.14159885 -0.21776232
-0.033861406 -0.17964785 0.23068868 -0.01919084 -0.36283937 0.18851641 0.17540124 -0.01172263
0.07577872 -0.11551043 -0.053057738 0.02425 -0.09586992 0.06730924 0.11237483 0.013513745
00000000: 5c2f 8c3d 5bc0 5cbe 383a 0abe 7659 933d
00000010: 21be 25bd da04 31be f312 673c 4cdf bbbd
00000020: 9d49 fb3c c146 7cbd 7324 aabd 6c03 113c
00000030: 6d72 f73c 2ba8 8c3d 4aff 10be 16fd 5ebe
00000040: 42b2 0abd 9bf5 37be a739 6c3e 1c36 9dbc
00000050: 15c6 b9be 720a 413e 629c 333e 4610 40bc
00000060: e031 9b3d bb90 ecbd 1253 59bd f0a7 c63c
00000070: 7357 c4bd 6dd9 893d c624 e63d c168 5d3c

cnn_encoder.1.running_var f4 [32]
0.0022083581 0.004938786 0.002079672 0.0038062693 0.0014706304 0.0016276911 0.0011344182 0.0017566469
0.002454958 0.002073274 0.0019622745 0.0020520992 0.00085279695 0.0025232646 0.001059809 0.0028935547
0.0008427156 0.003965768 0.0016689133 0.002656019 0.004269531 0.0044008656 0.0044461084 0.0037608326
0.0017649452 0.0006783555 0.002557937 0.0020262452 0.0022454935 0.0014290059 0.0013149064 0.00068088603
00000000: 1aba 103b 8ad5 a13b 1b4b 083b 9a72 793b
00000010: 2bc2 c03a 4058 d53a c2b0 943a 4a3f e63a
00000020: 5ce3 203b c4df 073b 8199 003b 837c 063b
00000030: 3c8e 5f3a 5b5d 253b 4ae9 8a3a cba1 3d3b
00000040: b0e9 5c3a 46f3 813b 70bf da3a 9b10 2e3b
00000050: 6ce7 8b3b 2335 903b a9b0 913b 4d78 763b
00000060: bc55 e73a abd3 313a 10a3 273b c1ca 043b
00000070: 2129 133b 7b4d bb3a f058 ac3a 7d7d 323a

cnn_encoder.4.weight f4 [64, 32, 5]
-0.03987424 -0.052446295 -0.011231849 -0.015123115 -0.03832437 -0.021177914 0.006914598 0.04216682
0.04295733 -0.053755373 -0.13612492 -0.011274707 -0.008073884 -0.17062233 -0.16162142 -0.052633137
0.017203555 0.055371914 -0.007133885 0.037110593 -0.04295009 0.029434832 -0.036544617 -0.054425474
-0.058598187 -0.04099059 0.04023109 0.05249578 0.073127285 0.10090965 -0.06942238 0.026609778
-0.028724642 -0.13135625 -0.07798492 0.043568715 0.010016024 -0.06873615 0.05262629 0.03768627
-0.060514767 -0.159785 -0.107658885 -0.076026656 -0.09091262 -0.043312356 0.0033417505 -0.024485921
0.020044722 -0.02501169 -0.044592034 0.042865265 0.09565102 0.12725551 -0.0131632015 -0.128028
-0.05854673 -0.052243546 -0.12612349 -0.09119648 -0.027697774 -0.040471222 0.04232786 0.010928603
-0.06529225 0.043362346 0.091215864 -0.04394568 0.027854353 0.04049112 -0.0769798 0.028869191
0.0364809 0.029312916 0.028061045 -0.067251995 -0.023921939 -0.00650252 -0.10738952 -0.11581449
0.029824441 0.060814086 -0.06938101 -0.102034174 -0.030453566 -0.10308814 -0.16869074 -0.12668325
-0.0766239 -0.08568535 -0.09608461 0.004903422 -0.07379841 -0.038942214 -0.025673328 -0.020876883
0.056210313 -0.049911287 -0.014859828 0.0074708285 -0.0054692463 -0.07609817 -3.275265e-05 0.005990832
-0.08343879 -0.028277084 -0.06893466 -0.07634966 0.040950444 0.056227107 0.05510972 -0.03229921
0.030094758 -0.032802608 0.05620326 -0.0893247 -0.07363687 0.056840666 0.04519957 -0.007931649
-0.037174 0.031515546 -0.012942927 -0.005442961 0.04009178 -0.012849287 0.043637894 -0.023697682
-0.026508251 -0.08210093 0.0027586934 0.071298204 -0.011557987 0.01631839 0.00040822616 0.04154734
0.031863075 0.036396854 0.018661581 0.018485831 0.062256765 -0.004550336 -0.07000336 -0.044177156
-0.025462843 0.04583043 -0.006785952 0.11127082 0.06099793 -0.0013019856 -0.07936656 -0.007385749
-0.06809176 -0.021712616 0.12604098 -0.081564985 -0.024545383 0.06467611 0.03810539 -0.062293034
-0.09793022 -0.045547646 -0.00013690452 -0.0069415914 0.17334104 -0.027753893 -0.07530453 -0.031708423
-0.09427181 0.06906862 -0.124340475 -0.0008409344 0.01030585 0.0502786 0.07749842 -0.09558071
-0.06282019 0.046261415 0.039014142 0.057318326 0.102090776 -0.043426756 0.09623942 -0.023035582
-0.10615818 -0.01679117 -0.03704728 0.02289828 -0.09711108 -0.08506035 -0.004856259 0.06594054
0.040493827 0.11186134 -0.09834149 -0.039898824 0.035623305 0.036758963 -0.065598786 -0.027058247
-0.06938128 -0.02872158 -0.03925277 -1.2341565e-05 0.0084151 -0.096578196 0.013481264 -0.041583415
0.054094024 0.096952505 0.12548785 -0.023183532 -0.08673928 0.04203124 -0.02557991 -0.090124145
-0.011462456 0.04495681 0.012196795 0.116746955 -0.03700148 -0.053522427 -0.056532837 0.022884287
-0.09262662 -0.0006395576 -0.044013284 0.049026825 -0.07435784 -0.02732219 0.036521677 -0.019375868
-0.06530006 -0.046357684 -0.054584503 -0.05509327 -0.014626699 0.028980525 -0.039122507 -0.011637004
-0.01524835 -0.027891567 0.0046486626 0.03432785 0.03160738 -0.025889674 -0.015352893 0.0019221155
-0.08215721 0.0847791 -0.12964134 -0.0019538363 -0.0031158319 0.032601435 -0.06851195 0.011592343
00000000: 2c53 23bd edd1 56bd ca05 38bc f1c6 77bc
00000010: 04fa 1cbd 4e7d adbc da93 e23b 1eb7 2c3d
00000020: 06f4 2f3d 982e 5cbd 5564 0bbe 8cb9 38bc
00000030: 5348 04bc 9fb7 2ebe 1680 25be d895 57bd
00000040: 78ee 8c3c a9cd 623d 5dc3 e9bb 4701 183d
00000050: 6fec 2fbd 5121 f13c cfaf 15bd 3fed 5ebd
00000060: a704 70bd c0e5 27bd 5bc9 243d d105 573d
00000070: c2c3 953d b8a9 ce3d 522d 8ebd c0fc d93c
00000080: f14f ebbc 4182 06be 8fb6 9fbd 1c75 323d
00000090: 401a 243c 8ac5 8cbd aa8e 573d eb5c 1a3d
000000a0: 55de 77bd ae9e 23be 437c dcbd ddb3 9bbd
000000b0: 6530 babd 4c68 31bd 4501 5b3b b396 c8bc
000000c0: d434 a43c 51e5 ccbc 23a6 36bd 7d93 2f3d
000000d0: afe4 c33d 454f 023e 78aa 57bc c619 03be
000000e0: b2ce 6fbd 54fd 55bd 8426 01be 38c5 babd
000000f0: 71e6 e2bc 27c5 25bd fa5f 2d3d e20d 333c
00000100: f1b7 85bd b79c 313d 62cf ba3d 6300 34bd
00000110: d02e e43c 04da 253d 96a7 9dbd 157f ec3c
00000120: ff6c 153d a421 f03c 47e0 e53c 6abb 89bd
00000130: f1f7 c3bc 1713 d5bb 09ef dbbd 2630 edbd
00000140: 6352 f43c 3118 793d a217 8ebd 4bf7 d0bd
00000150: c279 f9bc e01f d3bd 44bd 2cbe 41b9 01be
00000160: feec 9cbd cd7b afbd 02c8 c4bd e3ac a03b
00000170: 9f23 97bd df81 1fbd df50 d2bc ff05 abbc
00000180: c93c 663d c76f 4cbd a376 73bc dacd f43b
00000190: 5d37 b3bb 5bd9 9bbd e45f 09b8 be4e c43b
000001a0: f5e1 aabd 58a5 e7bc 9d2d 8dbd 365d 9cbd
000001b0: a7bb 273d 654e 663d bbba 613d 2d4c 04bd
000001c0: 4889 f63c 075c 06bd 6435 663d deef b6bd
000001d0: edce 96bd c2d1 683d 2f23 393d bff3 01bc
000001e0: c443 18bd 7216 013d 920e 54bc de5a b2bb
000001f0: 4737 243d d185 52bc a6bd 323d a421 c2bc
00000200: d527 d9bc 8824 a8bd 32cb 343b cb04 923d
00000210: b65d 3dbc 25ae 853c 3007 d639 8b2d 2a3d
00000220: db82 023d de14 153d 2ce0 983c 996f 973c
00000230: f300 7f3d fc1a 95bb ec5d 8fbd 1bf3 34bd
00000240: 7497 d0bc b0b8 3b3d b15c debb f5e1 e33d
00000250: f7d8 793d 63a7 aaba ef8a a2bd 2704 f2bb
00000260: b173 8bbd a8de b1bc e310 013e 8b0b a7bd
00000270: 6613 c9bc e974 843d 6614 1c3d fb26 7fbd
00000280: a48f c8bd 2b90 3abd 078e 0fb9 4a76 e3bb
00000290: 5080 313e 225c e3bc 4339 9abd b1e0 01bd
000002a0: 9411 c1bd d973 8d3d 38a6 febd 2772 5cba
000002b0: ded9 283c eff0 4d3d 7eb7 9e3d d2bf c3bd
000002c0: dfa7 80bd 9c7c 3d3d 4bcd 1f3d 9fc6 6a3d
000002d0: f814 d13d 41e0 31bd 2c19 c53d 1eb5 bcbc
000002e0: 7669 d9bd a38d 89bc e4be 17bd 2c95 bb3c
000002f0: 2de2 c6bd 1f34 aebd 4121 9fbb d50b 873d
00000300: dbdc 253d 8f17 e53d 4367 c9bd f36c 23bd
00000310: bee9 113d 9190 163d a858 86bd 42a9 ddbc
00000320: c617 8ebd 8549 ebbc 83c7 20bd 9e0e 4fb7
00000330: 7ddf 093c caca c5bd 85e0 5c3c 5f53 2abd
00000340: b291 5d3d 098f c63d e37f 003e 64eb bdbc
00000350: 5da4 b1bd f328 2c3d f68c d1bc 0293 b8bd
00000360: 06cd 3bbc a224 383d 11d5 473c 0719 ef3d
00000370: dd8e 17bd 553a 5bbd fa8e 67bd d477 bb3c
00000380: 06b3 bdbd fca7 27ba 4647 34bd 5ad0 483d
00000390: ec48 98bd c9d2 dfbc c197 153d 24ba 9ebc
000003a0: 0abc 85bd 8ee1 3dbd 0094 5fbd 7ba9 61bd
000003b0: d2a4 6fbc 9168 ed3c ec3e 20bd 22a9 3ebc
000003c0: 37d4 79bc db7c e4bc cf53 983b 5c9b 0c3d
000003d0: bd76 013d 9516 d4bc b38a 7bbc 7eef fb3a
000003e0: 0a42 a8bd aaa0 ad3d b3c0 04be ef0b 00bb
000003f0: fc32 4cbb 1589 053d fe4f 8cbd d0ed 3d3c

cnn_encoder.4.bias f4 [64]
-0.056810707 -0.0059198225 -0.031802673 0.045599777 -0.011563923 -0.07628868 0.06483024 0.010708626
0.04921511 -0.06211853 -0.04128144 -0.08252705 0.0460517 -0.04867626 0.065949894 -0.055838548
0.035555314 0.023934782 0.07554821 0.017244877 0.01638793 0.05694534 0.040714994 0.039559785
-0.060115065 0.01093936 -0.018543413 0.055922087 0.09486419 -0.056775983 0.038053103 0.0020691291
0.045748282 -0.041464843 -0.05547542 0.063104205 0.040008962 0.035444077 -0.025990646 -0.074272096
0.06005409 -0.026718916 0.02359006 0.06368859 0.07155641 0.028692557 0.012774754 -0.016957466
0.027890954 0.046114646 -0.031319935 -0.08157959 0.02598265 -0.007121265 0.0036824248 -0.01808937
0.055073153 0.061830398 -0.030543655 0.06696851 -0.02621048 0.04888036 0.027725765 0.07317948
00000000: 58b2 68bd 12fb c1bb 8543 02bd d5c6 3a3d
00000010: 9c76 3dbc 3d3d 9cbd b8c5 843d 3c73 2f3c
00000020: c895 493d 0070 7ebd ba16 29bd f103 a9bd
00000030: b5a0 3c3d c260 47bd bd10 873d f6b6 64bd
00000040: 73a2 113d e012 c43c 05b9 9a3d 2145 8d3c
00000050: fb3f 863c 843f 693d c4c4 263d 7109 223d
00000060: 373b 76bd 003b 333c 5be8 97bc 8f0e 653d
00000070: 2848 c23d ef8d 68bd 92dd 1b3d 3a9a 073b
00000080: 8d62 3b3d 0ad7 29bd 323a 63bd c73c 813d
00000090: 70e0 233d cf2d 113d 56ea d4bc f81b 98bd
000000a0: 47fb 753d a1e1 dabc f13f c13c 2a6f 823d
000000b0: 2b8c 923d a70c eb3c 344d 513c 62ea 8abc
000000c0: 927b e43c b6e2 3c3d 5549 00bd 3313 a7bd
000000d0: 91d9 d43c 8059 e9bb d654 713b 2930 94bc
000000e0: 6394 613d df41 7d3d b036 fabc c926 893d
000000f0: 5cb7 d6bc c636 483d 2521 e33c 20df 953d

cnn_encoder.5.weight f4 [64]
0.979423 1.0227051 1.0060874 1.0504109 0.989551 0.9786089 1.0160779 1.002313
1.0325873 0.93966347 0.9859706 0.9869636 0.9502381 0.9926556 1.0119007 1.0737244
1.0129048 0.9998979 1.0143298 1.0113995 1.0002468 0.97457135 1.0254668 0.9675986
1.0251732 1.0012009 0.9806254 1.0339389 1.0050924 1.0174869 0.9839706 1.0356072
1.0248909 0.97943944 0.9717546 0.94781893 1.0081623 1.0152459 1.0157964 0.964681
1.0219837 1.0466363 0.9771772 1.0077128 0.98214704 0.98318344 0.97186023 0.9790891
0.97332484 1.0090152 1.0176424 1.0407962 0.997839 1.0157391 0.9863029 0.97682786
0.9825901 1.0227364 1.0097419 0.9572953 0.97043175 0.9843441 0.9999495 1.0460569
00000000: 77bb 7a3f 00e8 823f 79c7 803f dd73 863f
00000010: 3753 7d3f 1d86 7a3f d70e 823f cb4b 803f
00000020: d22b 843f c98d 703f 9268 7c3f a6a9 7c3f
00000030: ce42 733f ad1e 7e3f f685 813f cd6f 893f
00000040: dda6 813f 4ff9 7f3f 8fd5 813f 8a75 813f
00000050: 1608 803f 827d 793f 7f42 833f 8bb4 773f
00000060: e038 833f 5a27 803f 440a 7b3f 1c58 843f
00000070: dea6 803f 033d 823f 7fe5 7b3f c78e 843f
00000080: a02f 833f 8bbc 7a3f e9c4 783f 43a4 723f
00000090: 760b 813f 94f3 813f 9e05 823f 56f5 763f
000000a0: 5dd0 823f 2ef8 853f 4928 7a3f bcfc 803f
000000b0: fd6d 7b3f e9b1 7b3f d5cb 783f 95a5 7a3f
000000c0: d12b 793f 6927 813f 1b42 823f cf38 853f
000000d0: 6072 7f3f bd03 823f 597e 7c3f 6411 7a3f
000000e0: 068b 7b3f 07e9 823f 393f 813f 4e11 753f
000000f0: 376e 783f fafd 7b3f b1fc 7f3f 31e5 853f

cnn_encoder.5.bias f4 [64]
-0.04605767 0.014509113 -0.0042565083 0.051675357 -0.12138919 0.012402272 -0.04036802 -0.07885661
-0.017438354 -0.14189263 -0.00089902966 -0.06234504 -0.028020082 -0.06585522 -0.055363778 -0.009818658
-0.07543014 -0.021585474 -0.03979396 0.023273252 -0.17265788 -0.10128918 -0.08787097 -0.037571
0.014312441 -0.005806249 -0.07125956 -0.09009591 -0.038450383 0.026634432 -0.028724425 -0.07530338
0.00090336 -0.040112466 -0.070929915 -0.064784065 -0.07052018 -0.05222743 -0.10578439 -0.11449754
-0.032004327 -0.035076432 -0.102081954 -0.019327067 -0.010806161 -0.061580557 0.0025399872 -0.035674408
-0.04065006 0.0013244371 -0.084397435 0.028811645 -0.066544175 -0.06889018 -0.063089184 -0.048287198
-0.026509253 0.012282327 -0.0027098723 -0.066834204 -0.030338477 -0.0050304853 -0.028011478 0.019623987
00000000: f8a6 3cbd a1b7 6d3c 2e7a 8bbb 8aa9 533d
00000010: e59a f8bd e632 4b3c f058 25bd 937f a1bd
00000020: e1da 8ebc 4d4c 11be dcac 6bba 835d 7fbd
00000030: 5f8a e5bc 1adf 86bd 21c5 62bd 70de 20bc
00000040: 1e7b 9abd 05d4 b0bc fefe 22bd 8ca7 be3c
00000050: 3acd 30be b470 cfbd b2f5 b3bd 0de4 19bd
00000060: bb7e 6a3c 5942 bebb 88f0 91bd 3484 b8bd
00000070: 267e 1dbd 7430 da3c 7c4f ebbc a938 9abd
00000080: 77cf 6c3a f84c 24bd b443 91bd 82ad 84bd
00000090: e26c 90bd 6eec 55bd 7ca5 d8bd b07d eabd
000000a0: f816 03bd 4eac 0fbd 5810 d1bd cc53 9ebc
000000b0: 530c 31bc e53b 7cbd ea75 263b 541f 12bd
000000c0: ad80 26bd bc98 ad3a 90d8 acbd 6606 ec3c
000000d0: 5048 88bd 4b16 8dbd e734 81bd ccc8 45bd
000000e0: ef29 d9bc d03b 493c 1d98 31bb 5fe0 88bd
000000f0: 6688 f8bc c5d6 a4bb 5478 e5bc 7cc2 a03c

cnn_encoder.5.running_mean f4 [64]
-0.9260765 -0.3759553 -0.9897308 -0.28517377 -0.20326668 -0.6966032 -0.4280697 -0.32267812
-0.6275119 -0.44459766 0.06853783 -0.449102 -0.7380422 -0.79717946 0.85434926 -0.006919187
0.47025767 -0.37617263 -1.1917007 -0.5183471 0.14404982 0.6131042 0.7736027 -0.51013017
-0.8848492 -0.627166 -0.45890284 0.3850192 -0.29232165 -0.24186963 -0.11301649 0.40547234
-0.42109287 -0.21730435 0.18370417 -0.025575878 -0.33712533 0.29219317 -0.036218226 0.41397217
-0.04027941 0.08161737 0.078192085 -0.07790323 0.22183163 -0.66408175 -0.34351495 -0.009000194
0.68738455 -0.17813739 0.5388356 -0.1470583 -0.35638893 -0.38860178 -0.4481766 -0.38480997
-0.10396569 -0.7785836 -0.6643369 0.49343637 -0.4789365 -0.12510274 0.046134245 0.6693422
00000000: 5913 6dbf 377d c0be ff5e 7dbf 4c02 92be
00000010: 2425 50be 9654 32bf f42b dbbe 1136 a5be
00000020: 9fa4 20bf 4ea2 e3be 905d 8c3d b3f0 e5be
00000030: 55f0 3cbf f413 4cbf a2b6 5a3f 59ba e2bb
00000040: 9dc5 f03e b399 c0be a689 98bf 65b2 04bf
00000050: cc81 133e 66f4 1c3f d40a 463f e497 02bf
00000060: 7a85 62bf f38d 20bf 50f5 eabe 3d21 c53e
00000070: 2fab 95be acac 77be 3175 e7bd 129a cf3e
00000080: 7c99 d7be 0885 5ebe f21c 3c3e 8184 d1bc
00000090: b19b acbe 589a 953e 9059 14bd 29f4 d33e
000000a0: 06fc 24bd 0227 a73d 2c23 a03d bb8b 9fbd
000000b0: d527 633e 4301 2abf 31e1 afbe 8d75 13bc
000000c0: 6ff8 2f3f a669 36be 21f1 093f 7396 16be
000000d0: 9c78 b6be d0f6 c6be 6777 e5be d005 c5be
000000e0: f7eb d4bd 4151 47bf fc11 2abf b1a3 fc3e
000000f0: 2a37 f5be ef1a 00be 43f7 3c3d 035a 2b3f

cnn_encoder.5.running_var f4 [64]
0.6387044 0.68495643 0.6310722 1.2646744 0.22941768 1.1872457 0.62569296 0.4247999
0.5750952 0.43202487 1.4381176 0.6496472 0.70545214 0.17365001 0.27185452 0.24767125
0.21688436 0.4412899 0.34919488 0.7006937 0.2376335 0.5197127 0.51153505 0.32045454
0.5747098 0.75813425 0.49117756 0.3550069 0.30072147 0.8662745 0.6626074 0.33859548
0.6241939 0.5391157 0.37055635 0.5489188 0.3091155 0.2108605 0.23617609 0.39715472
0.3516414 0.46242172 0.5540265 0.3328961 0.51315695 0.52841663 0.7997419 0.8025181
0.42946577 0.53106016 0.33842966 0.634324 0.35295933 0.60191303 0.2553694 0.70130616
1.4246788 0.5269932 0.27373794 0.34078997 0.46337944 0.97313064 1.1846591 0.6237066
00000000: 2282 233f 4e59 2f3f f38d 213f dae0 a13f
00000010: 78ec 6a3e abf7 973f 6a2d 203f 5f7f d93e
00000020: 7039 133f 5d32 dd3e 3d14 b83f 474f 263f
00000030: 8398 343f 4fd1 313e 8430 8b3e 889d 7d3e
00000040: ef16 5e3e c0f0 e13e acc9 b23e aa60 333f
00000050: 3256 733e e40b 053f f6f3 023f 9e12 a43e
00000060: 2e20 133f 1615 423f a07b fb3e 77c3 b53e
00000070: 2af8 993e 2ac4 5d3f a3a0 293f 635c ad3e
00000080: 2ccb 1f3f 7d03 0a3f 90b9 bd3e f185 0c3f
00000090: 6344 9e3e d1eb 573e 25d8 713e dd57 cb3e
000000a0: 570a b43e 8ac2 ec3e aed4 0d3f 5c71 aa3e
000000b0: 415e 033f 5046 073f e3bb 4c3f d471 4d3f
000000c0: f0e2 db3e 8ff3 073f a746 ad3e 0f63 223f
000000d0: 16b7 b43e f916 1a3f c7bf 823e cd88 333f
000000e0: e05b b63f 07e9 063f 6127 8c3e 067c ae3e
000000f0: 1240 ed3e 171f 793f e9a2 973f 3cab 1f3f

lstm.weight_ih_l0 f4 [256, 64]
0.11888406 0.036690667 -0.058891904 0.04106253 -0.106650434 -0.101132095 0.08976494 -0.16938405
-0.078998655 0.027228417 0.004317681 -0.091971606 0.080386594 -0.2426978 -0.027529465 0.03630519
0.23056784 0.07256408 -0.18197162 -0.023888048 -0.07269188 0.21245521 -0.031454742 -0.08574219
-0.1456157 -0.06416891 -0.17502895 0.06609321 0.0801953 -0.04066458 0.08707469 -0.03266331
0.023014145 -0.07275129 0.07349404 -0.082112245 -0.034850005 -0.020474197 -0.16589506 0.057693698
0.029784523 -0.004848565 0.03517684 -0.07647062 0.10693896 -0.1976418 0.12268956 -0.24839452
0.010784178 -0.10644667 0.17250603 -0.06456237 0.19120185 -0.06662015 0.23181209 -0.11719761
-0.06839862 -0.056631878 0.20615107 -0.0012930004 -0.0704033 -0.021084117 -0.05593773 -0.15583025
0.105542235 0.02820775 0.07905811 0.068746135 0.01054195 -0.1244376 -0.06864842 -0.0968814
-0.11317566 -0.035295602 -0.18380882 0.028710712 -0.048966415 -0.17994687 -0.113786645 0.09918173
-0.19151756 0.013076564 -0.026150586 0.041368462 -0.28865996 -0.08695465 -0.12923759 0.010509974
0.16047768 -0.07405026 -0.069226675 -0.08618064 0.08761288 -0.09209072 -0.082210846 0.023537345
0.00526113 0.12778209 0.09900865 -0.067519985 0.2336562 0.09327656 -0.12634157 -0.033830456
-0.119864166 0.14452651 -0.10314191 -0.11440567 -0.07144691 0.09291929 0.20285311 0.057793222
-0.124285996 -0.016026167 -0.0640036 -0.1114852 0.12518504 -0.05755535 0.013271365 -0.011709538
-0.13188298 0.0112902345 0.033132832 0.011182646 0.13642375 -0.085482284 -0.043657266 -0.17957015
-0.13868889 -0.045026176 -0.09126381 -0.22367333 -0.20722106 -0.028614713 -0.1817678 -0.107660174
0.07831155 0.06891864 -0.027580097 0.032969676 -0.034663994 0.036059055 -0.107320726 0.048180968
0.022237979 -0.023993272 0.011206044 0.042421047 -0.16012116 0.051557887 0.0050392826 0.107819
0.15642107 -0.028377688 -0.04822333 -0.03030382 -0.07814841 0.083484605 -0.04765327 0.01965099
0.008232026 -0.041369803 0.06448642 0.11624791 0.09578364 0.0871647 -0.1335159 -0.1341133
-0.030473376 -0.14126958 -0.0474257 -0.09254588 0.16628936 -0.0937075 0.026521103 0.024009544
-0.022119895 0.04749002 0.037576318 -0.069620706 0.08113945 0.060744047 0.10746513 -0.0022799368
-0.11445428 -0.10232745 0.06671359 -0.031544097 -0.079091124 0.11215421 0.13908994 0.018363627
0.07279454 0.19325872 0.022167303 -0.12298365 -0.120879866 0.003449744 0.06026892 0.022928577
0.12696813 0.020199599 -0.0919888 -0.09035521 -0.15775585 0.18331762 0.092768215 0.024699671
-0.02561034 -0.17145285 0.13184407 -0.0783474 0.07133522 -0.10358548 -0.28030676 0.047847107
-0.039467737 -0.07072189 0.2921834 0.15969878 -0.029223118 -0.09373816 -0.010687484 -0.15696476
-0.092600465 0.1504346 0.080064595 -0.118655674 0.068770856 -0.28171036 -0.023697741 0.118012495
0.047084913 0.12601438 -0.037952587 0.016890576 0.0011662724 0.007846132 -0.21518554 0.21854974
-0.051110566 0.101303965 -0.1846267 -0.062655784 -0.059842665 0.0735929 -0.0061553144 0.14857912
0.12752792 -0.056440905 -0.086503 0.055179644 0.04284926 -0.009687146 -0.033678345 -0.120983385
00000000: 7c79 f33d f448 163d a338 71bd 2f31 283d
00000010: 8b6b dabd 581e cfbd aed6 b73d 0373 2dbe
00000020: 0cca a1bd 210e df3c 557b 8d3b 9c5b bcbd
00000030: baa1 a43d c685 78be 7985 e1bc c0b4 143d
00000040: fa19 6c3e 7a9c 943d c556 3abe deb0 c3bc
00000050: 7bdf 94bd dc8d 593e b0d6 00bd 9a99 afbd
00000060: 481c 15be fd6a 83bd ca3a 33be e05b 873d
00000070: 6f3d a43d e78f 26bd 3754 b23d f7c9 05bd
00000080: 2988 bc3c a1fe 94bd 0b84 963d 772a a8bd
00000090: e1be 0ebd 81b9 a7bc 65e0 29be 3a50 6c3d
000000a0: acfe f33c b6e0 9ebb 9715 103d a19c 9cbd
000000b0: d002 db3d 9d62 4abe aa44 fb3d 225b 7ebe
000000c0: 1fb0 303c b600 dabd 6ca5 303e 4739 84bd
000000d0: 6bca 433e 2570 88bd 2660 6d3e 4d05 f0bd
000000e0: 9314 8cbd d4f6 67bd 4419 533e e579 a9ba
000000f0: 9b2f 90bd 99b8 acbc f61e 65bd f791 1fbe
00000100: 8726 d83d f013 e73c 38e9 a13d c6ca 8c3d
00000110: 25b8 2c3c 24d9 febd 8b97 8cbd c169 c6bd
00000120: a4c8 e7bd 1f92 10bd 6138 3cbe ba32 eb3c
00000130: 0291 48bd fe43 38be f908 e9bd ca1f cb3d
00000140: 2e1d 44be 163f 563c c139 d6bc fa71 293d
00000150: 3dcb 93be 4815 b2bd dc56 04be 0732 2c3c
00000160: 4354 243e aaa7 97bd b7c6 8dbd 7a7f b0bd
00000170: 626e b33d 0f9a bcbd 295e a8bd 64d1 c03c
00000180: 8f65 ac3b 4fd9 023e 0cc5 ca3d eb47 8abd
00000190: 9243 6f3e c807 bf3d af5f 01be ce91 0abd
000001a0: 587b f5bd c2fe 133e 113c d3bd 854d eabd
000001b0: c252 92bd 784c be3d bab8 4f3e 96b8 6c3d
000001c0: a889 febd 4f49 83bc 5214 83bd 5a52 e4bd
000001d0: 8230 003e 29bf 6bbd 2470 593c 5dd9 3fbc
000001e0: 550c 07be adfa 383c 4bb6 073d 6b37 373c
000001f0: abb2 0b3e 5611 afbd f6d1 32bd 3de1 37be
00000200: 7604 0ebe 5e6d 38bd 85e8 babd 9f0a 65be
00000210: c231 54be 6769 eabc 5721 3abe f07c dcbd
00000220: ce61 a03d 3725 8d3d a8ef e1bc 360b 073d
00000230: d5fb 0dbd a9b2 133d f8ca dbbd 6859 453d
00000240: 6c2c b63c 8a8d c4bc 8e99 373c b1c1 2d3d
00000250: cdf6 23be 5d2e 533d 9120 a53b 35d0 dc3d
00000260: d82c 203e 5378 e8bc d485 45bd b73f f8bc
00000270: 460c a0bd faf9 aa3d 1330 43bd 1dfb a03c
00000280: 9fdf 063c 6273 29bd 7511 843d 6213 ee3d
00000290: 372a c43d 6883 b23d 64b8 08be ff54 09be
000002a0: 4da3 f9bc f9a8 10be 7341 42bd b288 bdbd
000002b0: c247 2a3e b8e9 bfbd c942 d93c aaaf c43c
000002c0: c834 b5bc e584 423d a0e9 193d 4d95 8ebd
000002d0: 712c a63d c0ce 783d ae16 dc3d fe6a 15bb
000002e0: 0167 eabd 0e91 d1bd 22a1 883d 6234 01bd
000002f0: 87fa a1bd 1bb1 e53d 986d 0e3e 516f 963c
00000300: 4e15 953d 9de5 453e 3498 b53c dade fbbd
00000310: dd8f f7bd 1a15 623b 8bdc 763d b6d4 bb3c
00000320: ef03 023e a179 a53c a064 bcbd 270c b9bd
00000330: c08a 21be 9db7 3b3e 43fd bd3d f756 ca3c
00000340: c7cc d1bc 5691 2fbe 2202 073e 9a74 a0bd
00000350: 3318 923d a024 d4bd 5e84 8fbe 54fb 433d
00000360: eca8 21bd a3d6 90bd 1099 953e 1488 233e
00000370: 5265 efbc cbf9 bfbd 8f1a 2fbc 5fbb 20be
00000380: 50a5 bdbd 870b 1a3e e8f8 a33d bf01 f3bd
00000390: bcd7 8c3d 573c 90be c421 c2bc 89b0 f13d
000003a0: 1cdc 403d ea09 013e 2c74 1bbd 1b5e 8a3c
000003b0: 9cdd 983a 108d 003c 9959 5cbe 81cb 5f3e
000003c0: 5059 51bd 7478 cf3d c80e 3dbe ad51 80bd
000003d0: 951d 75bd e0b7 963d 85b2 c9bb 2025 183e
000003e0: ae96 023e 942e 67bd 7c28 b1bd 0d04 623d
000003f0: b582 2f3d d6b6 1ebc 4ef2 09bd 23c6 f7bd

lstm.weight_hh_l0 f4 [256, 64]
0.08226864 -0.057400104 -0.07448708 -0.0697779 -0.12452309 -0.22060095 -0.060012463 -0.121040165
0.041275337 -0.013142994 0.027433626 -0.07393348 -0.2515977 -0.10755718 0.17057209 0.080465704
0.049942452 -0.021408003 -0.114927225 0.0063688387 -0.17978609 0.03844068 -0.12064379 0.13952748
-0.008831263 0.03503131 -0.059146244 0.14871486 -0.24794368 -0.04364629 0.1352785 0.121858
-0.097088866 0.08182125 0.0106275575 -0.052078824 0.13226564 0.15383291 0.018199632 -0.08354977
-0.017208688 0.2836687 0.1076793 -0.20582972 -0.21407647 -0.030865574 0.15598218 -0.008023508
-0.093245044 -0.08051328 -0.21749984 0.23580714 -0.110657424 0.020493684 -0.161186 -0.037763465
0.01156171 0.025526522 0.061538856 0.22701146 -0.19221127 -0.077568814 0.043455664 -0.033733595
-0.049362425 0.0010733517 0.46552128 0.12878193 0.08060121 -0.1507885 -0.05241182 0.22745141
0.1536286 0.06366726 0.08939608 -0.03402913 0.117473386 -0.114365004 0.097732976 -0.12859577
-0.19595891 -0.050023146 -0.10943164 -0.045948487 -0.13302515 -0.034368783 -0.04181734 0.1834037
-0.010645084 -0.19572105 0.14141694 -0.20605919 0.08704408 -0.19727051 0.11234828 0.047621157
0.00096058944 0.21117164 0.0050958563 -0.023351166 -0.18850257 -0.009601011 -0.09993624 -0.15624285
0.14416939 0.09309759 -0.039798375 0.24164644 -0.26603198 -0.005555327 -0.046968076 0.049485862
0.037104003 -0.17654668 0.146219 0.04541061 0.26185286 -0.050788257 -0.0941248 0.119638406
0.10769118 -0.018749356 -0.22504552 0.19658706 0.08147363 -0.011890576 -0.05087471 0.01045063
-0.10328133 -0.0997827 -0.014680282 0.17496064 0.12002751 -0.12966046 0.19775318 -0.06637021
0.1438194 0.14284855 0.014721293 0.11834947 0.12908709 0.0075313337 -0.16240667 0.08269496
0.020374143 -0.11104796 -0.3952074 -0.030740205 0.19028051 0.022326909 -0.21669725 -0.00679561
-0.03165425 0.20510162 -0.10255846 0.10227455 -0.21905944 -0.19965431 0.09605535 0.18454386
-0.0195816 -0.3251229 0.049534973 0.040889103 -0.09445574 -0.0037309148 -0.13288665 0.061601788
-0.1419449 0.18625659 0.04579581 -0.047360282 0.24642994 -0.14218345 -0.068975784 -0.17531718
-0.056126878 0.28932524 0.053413432 0.021387687 0.1254691 -0.13263875 0.10820311 -0.12035245
0.13528125 0.066803366 -0.09438269 0.12911017 -0.011006265 -0.25065768 -0.03185615 -0.15528151
-0.27137855 0.1873133 0.077506095 -0.008252837 0.17664336 -0.1302711 -0.2641609 0.17452419
0.08976741 0.030574732 -0.086552374 -0.29157314 0.13481808 0.05532691 -0.1715026 0.121620595
0.22094595 -0.21678008 0.13939147 -0.26632318 -0.07840057 0.13350326 -0.13651586 -0.06323014
-0.07313221 -0.10682019 0.008283499 -0.05650062 -0.12387153 0.26853308 -0.107583635 -0.009065297
0.020419657 -0.1156735 -0.107959956 -0.25769946 0.32739264 0.40324724 0.22536415 0.033752788
0.014315261 -0.19270213 0.19808194 0.07693326 -0.016267981 -0.0807452 0.0907536 -0.09345724
-0.115183935 0.043739982 -0.029015258 0.088866055 0.2613134 0.028081598 0.07083487 -0.15187098
0.010853138 0.09759642 -0.17249437 0.10230461 0.029460289 -0.0754897 -0.24508075 0.26899248
00000000: 767c a83d 5f1c 6bbd af8c 98bd b7e7 8ebd
00000010: f605 ffbd 37e5 61be a1cf 75bd e8e3 f7bd
00000020: 5410 293d b655 57bc 7cbc e03c 706a 97bd
00000030: 6ad1 80be f046 dcbd 73aa 2e3e 34cb a43d
00000040: 7590 4c3d d65f afbc f75e ebbd b1b1 d03b
00000050: d819 38be f973 1d3d 1714 f7bd 4be0 0e3e
00000060: 00b1 10bc fe7c 0f3d 5543 72bd b548 183e
00000070: f3e4 7dbe 74c6 32bd 7286 0a3e b090 f93d
00000080: 87d6 c6bd e691 a73d 351f 2e3c 9b50 55bd
00000090: a570 073e 6086 1d3e 6517 953c 241c abbd
000000a0: 3cf9 8cbc 063d 913e f786 dc3d 07c5 52be
000000b0: dd36 5bbe cdd9 fcbc cbb9 1f3e 0875 03bc
000000c0: 42f7 bebd 26e4 a4bd 47b8 5ebe 6d77 713e
000000d0: 5ca0 e2bd 5fe2 a73c f10d 25be ddad 1abd
000000e0: 546d 3d3c ff1c d13c 2b10 7c3d b175 683e
000000f0: 08d3 44be 66dc 9ebd 91fe 313d 3d2c 0abd
00000100: 4130 4abd b5af 8c3a ce58 ee3e 69df 033e
00000110: 3f12 a53d 4d68 1abe c7ad 56bd 06e9 683e
00000120: d150 1d3e fb63 823d 4b15 b73d 2162 0bbd
00000130: e395 f03d 3338 eabd 3a28 c83d 9cae 03be
00000140: 74a9 48be 12e5 4cbd b21d e0bd 7b34 3cbd
00000150: bf37 08be 48c6 0cbd a948 2bbd 2ece 3b3e
00000160: b868 2ebc 196b 48be 9acf 103e 2e01 53be
00000170: 2b44 b23d 4801 4abe db16 e63d 670e 433d
00000180: 11d0 7b3a 613d 583e 24fb a63b f24a bfbc
00000190: d106 41be 8f4d 1dbc 5fab ccbd 20fe 1fbe
000001a0: 24a1 133e f3a9 be3d 9f03 23bd 2a72 773e
000001b0: 5835 88be 7609 b6bb 9961 40bd b0b1 4a3d
000001c0: 5efa 173d a7c8 34be 6fba 153e 7a00 3a3d
000001d0: 9411 863e 5907 50bd 81c4 c0bd fb04 f53d
000001e0: 328d dc3d 4098 99bc 5572 66be 1e4e 493e
000001f0: a6db a63d b1d0 42bc 0062 50bd 1f39 2b3c
00000200: 2985 d3bd df5a ccbd 9185 70bc e228 333e
00000210: fcd0 f53d b6c5 04be cf7f 4a3e 1bed 87bd
00000220: 6545 133e e446 123e 9431 713c 3561 f23d
00000230: 682f 043e 68c9 f63b ef4d 26be fa5b a93d
00000240: ade7 a63c 1d6d e3bd a058 cabe e2d2 fbbc
00000250: e5d8 423e ece6 b63c e2e5 5dbe b5ad debb
00000260: e3a7 01bd 2906 523e 2b0a d2bd 5275 d13d
00000270: 1e51 60be 2e72 4cbe abb8 c43d 11f9 3c3e
00000280: 9769 a0bc 8276 a6be 2fe5 4a3d 557b 273d
00000290: 0372 c1bd 5d82 74bb 7013 08be 2852 7c3d
000002a0: 015a 11be 0cba 3e3e 6394 3b3d dbfc 41bd
000002b0: 2158 7c3e 8a98 11be 2d43 8dbd 5986 33be
000002c0: 4ce5 65bd 7022 943e 0bc8 5a3d 3b35 af3c
000002d0: f97a 003e 74d2 07be 9899 dd3d 587b f6bd
000002e0: 2b87 0a3e 34d0 883d b64b c1bd 7535 043e
000002f0: 9f53 34bc 3456 80be 987b 02bd 1e02 1fbe
00000300: 21f2 8abe 0fcf 3f3e 84bb 9e3d e836 07bc
00000310: ffe1 343e ca65 05be 1940 87be 78b6 323e
00000320: fad7 b73d dc77 fa3c 5f42 b1bd 1349 95be
00000330: c00d 0a3e 789e 623d 619e 2fbe 3814 f93d
00000340: a83f 623e 99fb 5dbe a3bc 0e3e 835b 88be
00000350: 7a90 a0bd 14b5 083e d0ca 0bbe ce7e 81bd
00000360: 57c6 95bd 8bc4 dabd 83b7 073c 326d 67bd
00000370: 5bb0 fdbd 2b7d 893e cf54 dcbd 9d86 14bc
00000380: 2047 a73c 3ae6 ecbd 1c1a ddbd 2ff1 83be
00000390: 02a0 a73e 6c76 ce3e dcc5 663e 5d40 0a3d
000003a0: 8e8a 6a3c b553 45be fed5 4a3e 2f8f 9d3d
000003b0: 6e44 85bc bd5d a5bd 06dd b93d 8266 bfbd
000003c0: 8ee5 ebbd b228 333d 68b1 edbc 68ff b53d
000003d0: dfca 853e 610b e63c df11 913d 1184 1bbe
000003e0: 5cd1 313c a2e0 c73d 5da2 30be 1485 d13d
000003f0: b456 f13c 589a 9abd 73f6 7abe 62b9 893e

lstm.bias_ih_l0 f4 [256]
-0.17773788 0.019780032 0.038398005 -0.0036504136 0.061632138 -0.098867096 0.10385626 -0.02278186
0.053455427 -0.03513832 0.11305231 -0.1356224 0.102058664 -0.08599153 0.053202823 -0.03219837
-0.072555944 -0.15450774 -0.02731184 -0.070634596 0.00020079485 -0.0517295 0.019778237 -0.11041311
0.06084118 -0.14422324 -0.0062127844 0.0050106235 -0.012291728 0.06315047 -0.01703674 0.0434573
0.08254854 -0.016175754 -0.11008373 -0.10785149 -0.013752254 -0.077249005 0.03636554 0.096224524
0.03464122 0.006808571 0.0010437083 -0.051352307 -0.058641765 -0.047680803 -0.124539584 0.080934696
-0.028454076 -0.06590194 0.026377987 -0.030597342 0.0322507 0.020369034 -0.10809451 -0.01597612
0.03565833 -0.09778807 -0.025407663 0.014361409 -0.025440563 0.094364785 0.06309246 0.06313621
-0.044652287 0.08285612 0.10869717 0.045889314 0.12805717 0.10851637 -0.090065315 0.13465028
0.16157617 0.16709024 0.060186453 -0.035605412 0.04972689 0.061029613 -0.029856011 -0.044025864
0.03657162 0.14075679 0.03825583 -0.01832402 -0.01286853 0.10120039 0.14891312 0.06280948
0.10953356 0.0038670646 0.08436551 0.09518536 0.14631656 -0.008418892 0.09495664 0.17285486
-0.062026434 0.018593999 0.16517603 -0.008337106 0.15945871 -0.0018512913 0.06980724 0.16431245
-0.06318012 0.13935623 -0.030626735 0.14852436 -0.0039188913 -0.064985506 0.08126182 -0.043665823
0.1671004 0.050055683 0.13200203 -0.018869346 0.17575732 0.027605822 -0.013803185 0.06064968
-0.010755603 0.1533248 0.011174765 0.10433885 0.122843914 -0.016042039 0.095288865 0.06623234
-0.07114752 -0.024707953 0.095092975 -0.06658985 -0.03823341 -0.036684465 -0.099520385 -0.073302284
0.030949287 -0.13104722 -0.0012616429 0.034340348 -0.049276084 0.08050532 -0.08741164 -0.01918016
0.08920264 -0.09739025 0.07140707 0.08163132 -0.056021314 -0.0033847536 0.11807477 0.052291073
-0.07703733 -0.111278415 0.10946322 -0.060331523 -0.04338936 0.09271531 0.08851614 -0.1210888
0.036194395 0.049914412 0.026195362 -0.12291662 0.034111295 -0.07381861 -0.012587444 0.104088806
-0.08234609 0.052423313 -0.1508204 0.095165916 -0.014896874 -0.0016119999 -0.04441121 -0.015945246
-0.075551875 -0.019516086 0.13318017 -0.08201748 0.026946357 -0.0063964985 -0.07396912 -0.09264341
-0.06285304 0.078213155 -0.0014352369 -0.05520718 0.036409516 -0.043934852 0.08617332 0.05269706
-0.103287995 0.015456152 0.11620859 0.13509043 0.11232441 0.008449834 -0.086871415 -0.09886889
-0.045320723 0.059837278 0.082381114 0.12565324 0.06653152 0.077291705 -0.07060944 -0.0233341
0.14205885 0.046645306 0.13306552 0.07532785 -0.06661428 0.044199586 -0.021318946 -0.044425894
0.021774407 0.007446218 -0.0026274037 0.13207379 0.11455682 -0.030242387 0.1275205 0.045003142
0.1243853 0.043859873 0.10493619 0.07784506 -0.03017206 -0.03424442 -0.061791833 0.15364124
0.14097776 -0.08734832 -0.024630867 -0.03181713 0.009573619 -0.09155204 -0.084101334 -0.006247576
0.107762404 -0.0793403 -0.043988813 -0.034087136 0.0322248 0.05196409 -0.10949897 0.02265688
0.036472842 0.07423535 0.056156293 0.06820006 0.017632745 0.10349746 0.09451537 0.14474359
00000000: eb00 36be bc09 a23c 3a47 1d3d c73b 6fbb
00000010: fb71 7c3d d57a cabd 97b2 d43d 06a1 babc
00000020: 14f4 5a3d 33ed 0fbd f887 e73d 99e0 0abe
00000030: 2204 d13d 541c b0bd 34eb 593d 70e2 03bd
00000040: 3698 94bd 4737 1ebe 14bd dfbc dfa8 90bd
00000050: 758c 5239 50e2 53bd f805 a23c 4520 e2bd
00000060: 9a34 793d 42af 13be 9d94 cbbb 2830 a43b
00000070: 3e63 49bc 0955 813d a290 8bbc 4800 323d
00000080: 350f a93d 0483 84bc 9473 e1bd 3ee1 dcbd
00000090: 2251 61bc ba34 9ebd 08f4 143d 5d11 c53d
000000a0: f4e3 0d3d 6f1a df3b 0acd 883a cc56 52bd
000000b0: 5932 70bd f24c 43bd 9c0e ffbd 17c1 a53d
000000c0: 8618 e9bc 99f7 86bd a616 d83c 47a7 fabc
000000d0: 4f19 043d f6dc a63c a860 ddbd 5ae0 82bc
000000e0: 780e 123d 1d45 c8bd bb23 d0bc 1d4c 6b3c
000000f0: ba68 d0bc 5342 c13d 9f36 813d 8f4d 813d
00000100: 51e5 36bd 78b0 a93d 9f9c de3d 6ff6 3b3d
00000110: 6b21 033e d53d de3d 2a74 b8bd c3e1 093e
00000120: 3974 253e b419 2b3e 1286 763d fbd6 11bd
00000130: 6cae 4b3d 30fa 793d 9894 f4bc 7754 34bd
00000140: 1fcc 153d 8c22 103e 25b2 1c3d 411c 96bc
00000150: 87d6 52bc 2642 cf3d ae7c 183e 42a2 803d
00000160: 2253 e03d 946e 7d3b d3c7 ac3d 8bf0 c23d
00000170: 02d4 153e 64ef 09bc a078 c23d dd00 313e
00000180: 6e0f 7ebd 7152 983c e823 293e 5b98 08bc
00000190: 2549 233e 07a7 f2ba 19f7 8e3d 8641 283e
000001a0: 9464 81bd 66b3 0e3e ebe4 fabc c516 183e
000001b0: 0b6a 80bb 1f17 85bd 996c a63d efda 32bd
000001c0: 5e1c 2b3e 3007 4d3d 8a2b 073e e393 9abc
000001d0: baf9 333e 9b25 e23c c126 62bc cd6b 783d
000001e0: 4538 30bc 2d01 1d3e 5d16 373c 9baf d53d
000001f0: 9795 fb3d 986a 83bc cf26 c33d d2a4 873d
00000200: cab5 91bd 5568 cabc 1bc0 c23d 4260 88bd
00000210: a39a 1cbd 7342 16bd 58d1 cbbd 821f 96bd
00000220: 5c89 fd3c 3e31 06be b65d a5ba 77a8 0c3d
00000230: b8d5 49bd f9df a43d e004 b3bd b61f 9dbc
00000240: e0af b63d 8a74 c7bd df3d 923d 522e a73d
00000250: 9b76 65bd bed2 5dbb 2fd1 f13d 2a2f 563d
00000260: bfc5 9dbd f0e5 e3bd 412e e03d 301e 77bd
00000270: 0bb9 31bd 86e1 bd3d f347 b53d 68fd f7bd
00000280: 9340 143d 0e73 4c3d a897 d63c b5bb fbbd
00000290: 49b8 0b3d 362e 97bd 913b 4ebc 832c d53d
000002a0: 11a5 a8bd d4b9 563d aa70 1abe 59e6 c23d
000002b0: 0512 74bc be49 d3ba 87e8 35bd 9b9f 82bc
000002c0: f1ba 9abd 33e0 9fbc 6260 083e c8f8 a7bd
000002d0: 9bbe dc3c b899 d1bb 1f7d 97bd d4bb bdbd
000002e0: 18b9 80bd 382e a03d 8f1e bcba ed20 62bd
000002f0: 2522 153d 08f5 33bd a37b b03d dfd8 573d
00000300: a888 d3bd cd3b 7d3c c5fe ed3d 2555 0a3e
00000310: 570a e63d 2c71 0a3c a4e9 b1bd c67b cabd
00000320: 39a2 39bd ef17 753d 6eb7 a83d 3eab 003e
00000330: ad41 883d 1d4b 9e3d af9b 90bd 2827 bfbc
00000340: e077 113e 260f 3f3d 5442 083e 7d45 9a3d
00000350: 116d 88bd a00a 353d 12a5 aebc edf7 35bd
00000360: 3e60 b23c 67ff f33b 8530 2cbb 5a3e 073e
00000370: c49c ea3d e2be f7bc bc94 023e 3755 383d
00000380: b8bd fe3d 69a6 333d c9e8 d63d 3b6d 9f3d
00000390: 652b f7bc e043 0cbd 6f19 7dbd 2154 1d3e
000003a0: 795c 103e ade3 b2bd acc6 c9bc ae52 02bd
000003b0: abda 1c3c a37f bbbd 523d acbd 77b8 ccbb
000003c0: 89b2 dc3d 2b7d a2bd 9d2d 34bd f49e 0bbd
000003d0: 27fe 033d 4cd8 543d ff40 e0bd ec9a b93c
000003e0: 8c64 153d b408 983d 2404 663d 79ac 8b3d
000003f0: 8c72 903c 7af6 d33d 4691 c13d aa37 143e

lstm.bias_hh_l0 f4 [256]
-0.04922086 -0.05381318 -0.00887968 -0.005780337 -0.10020827 0.03340361 -0.039716773 -0.09498922
-0.08884543 -0.10621503 -0.05783421 0.045539528 0.08273053 0.106038734 -0.024489224 -0.055527013
0.055815507 0.0017511138 0.063648984 0.020866275 0.018423088 -0.105570145 -0.044532865 -0.06275173
-0.07076167 0.06517307 -0.06645362 0.019422645 0.09038266 0.08203998 -0.12676439 -0.009538314
0.04284923 -0.06938739 0.10890557 0.057244737 0.06396175 -0.10719103 0.0056627207 -0.09638906
-0.20491615 -0.043902043 0.0025197677 0.02505113 0.14397995 -0.013612899 -0.083093286 -0.007939388
0.069883786 -0.03302278 -0.08678636 -0.14697023 0.06047924 -0.13512148 -0.06512144 0.017771013
-0.038908698 0.0963533 0.032958284 0.22360307 0.027710656 0.04183021 -0.015096688 -0.029704284
0.1095594 0.06586551 0.1362919 0.092387274 0.023268903 -0.027145455 0.013221447 0.03528085
0.1086676 0.08868524 -0.05555203 -0.008439188 0.10378567 0.10512994 0.13453586 -0.08085439
-0.051287755 -0.026025271 0.09029844 0.060380198 0.18720481 0.013009646 0.011846788 -0.047623556
0.11705461 -0.0341224 0.016268644 0.058151085 -0.027925756 0.08822447 0.15970622 0.05258798
-0.08268079 0.07946702 0.041653614 0.007037916 -0.016167577 -0.032435585 0.1452803 0.16321805
-0.036623187 0.06422562 0.12354924 0.19976422 0.13809626 -0.048183642 -0.03423625 0.097626716
-0.044705737 -0.043312393 0.13674358 0.16815084 -0.059131004 0.040795922 -0.0024188573 0.010717888
0.15774563 0.048979376 -0.0070312815 0.15887642 -0.022533191 -0.013567939 0.09965453 0.0888816
0.048211813 -0.0041306005 -0.09268392 -0.088108525 -0.039604723 -0.022094015 0.0409915 0.02625428
-0.05953754 -0.057018556 0.09774742 0.12458895 -0.13874047 0.082663804 0.11377011 0.09167213
0.014616236 0.10632357 -0.08167911 0.055134714 -0.0005973489 -0.032825924 0.023346422 -0.08892835
0.05078647 -0.066911794 0.046169475 -0.10303932 0.078936286 0.10466533 -0.072594486 -0.045687646
-0.07655957 -0.07010069 0.09365664 -0.045456894 -0.03854147 -0.13753521 0.088644065 -0.060648106
0.018887447 -0.10422911 -0.12555006 -0.10780736 -0.11306598 0.019413782 -0.0694048 0.06397994
-0.038577385 -0.118476026 -0.096037425 0.061382663 0.1021699 -0.047269244 -0.018279973 0.112073064
-0.08419722 0.1225085 -0.008955756 -0.10555349 -0.057992127 -0.007132509 0.07089457 -0.11987742
-0.007048284 0.04822686 -0.0379902 -0.055458944 0.11086964 -0.07052297 -0.07914567 -0.04812847
-0.027389528 0.1500533 -0.016787548 0.03113681 0.09298281 -0.059198223 -0.048033968 0.119652025
0.049197648 0.063321374 -0.015976587 0.1100839 -0.077178225 0.10212689 0.12969244 -0.03777879
-0.025416723 -0.023695625 0.027258486 0.034356903 0.0769124 0.03947329 0.09661357 -0.08223272
-0.02650851 0.1407473 0.11159194 0.10222835 0.002267377 -0.028263468 0.09692405 0.086905174
0.15771915 0.06647277 0.09118999 0.10347271 0.13770683 -0.05290796 -0.059415817 0.13034722
-0.011421486 0.10602719 0.013217889 0.14414822 -0.019929832 -0.001279886 -0.006659498 0.15340288
0.09383235 0.026172526 -0.0624197 0.0007344398 0.0550812 0.14050253 0.0063674455 -0.056134332
00000000: d09b 49bd 366b 5cbd 147c 11bc fb68 bdbb
00000010: fe39 cdbd 39d2 083d 0eae 22bd b589 c2bd
00000020: 98f4 b5bd 4487 d9bd 91e3 6cbd a887 3a3d
00000030: a06e a93d d62a d93d a09d c8bc 4b70 63bd
00000040: cd9e 643d a185 e53a 665a 823d c0ef aa3c
00000050: 04ec 963c 2935 d8bd 1868 36bd fb83 80bd
00000060: 7feb 90bd 7579 853d d618 88bd 3d1c 9f3c
00000070: 8b1a b93d 9404 a83d 86ce 01be 9746 1cbc
00000080: ad82 2f3d fa1a 8ebd e209 df3d 7579 6a3d
00000090: 61fe 823d f986 dbbd 588e b93b a167 c5bd
000000a0: 8ad5 51be a1d2 33bd b022 253b 0738 cd3c
000000b0: 7b6f 133e a308 5fbc d02c aabd 3514 02bc
000000c0: 3b1f 8f3d e542 07bd 0cbd b1bd 5d7f 16be
000000d0: 14b9 773d 495d 0abe 645e 85bd 8494 913c
000000e0: ba5e 1fbd e154 c53d 44ff 063d 34f8 643e
000000f0: 7501 e33c 2756 2b3d 1958 77bc 6656 f3bc
00000100: ae60 e03d 7fe4 863d 1b90 0b3e 8a35 bd3d
00000110: 6d9e be3c 2560 debc c59e 583c a782 103d
00000120: 1e8d de3d 9ba0 b53d 878a 63bd 8544 0abc
00000130: 958d d43d 5e4e d73d c5c3 093e fd96 a5bd
00000140: 1c13 52bd f332 d5bc 63ee b83d 3a51 773d
00000150: 9eb2 3f3e 6926 553c 0819 423c eb10 43bd
00000160: 54ba ef3d eec3 0bbd d245 853c d52f 6e3d
00000170: 8ec4 e4bc 08af b43d 078a 233e 7e66 573d
00000180: 8c54 a9bd 9bbf a23d fb9c 2a3d 529e e63b
00000190: de71 84bc 2ddb 04bd 5cc4 143e a222 273e
000001a0: 3202 16bd b988 833d 6207 fd3d fe8e 4c3e
000001b0: 1b69 0d3e 365c 45bd 4f3b 0cbd 84f0 c73d
000001c0: 5d1d 37bd 5668 31bd 8206 0c3e bc2f 2c3e
000001d0: 5a33 72bd a019 273d b185 1ebb 159a 2f3c
000001e0: 1288 213e 999e 483d aa66 e6bb 80b0 223e
000001f0: 8797 b8bc 104c 5ebc ad17 cc3d 8e07 b63d
00000200: c079 453d fd59 87bb 11d1 bdbd 3e72 b4bd
00000210: 9038 22bd 82fe b4bc b4e6 273d 3713 d73c
00000220: a3dd 73bd 4a8c 69bd cd2f c83d 7e28 ff3d
00000230: fb11 0ebe a44b a93d 4e00 e93d 99be bb3d
00000240: f078 6f3c 2cc0 d93d 6147 a7bd f0d4 613d
00000250: 6897 1cba 7a74 06bd ff40 bf3c 1120 b6bd
00000260: 7905 503d 0d09 89bd 341c 3d3d 4706 d3bd
00000270: 59a9 a13d c75a d63d 6bac 94bd f822 3bbd
00000280: 44cb 9cbd f390 8fbd 0dcf bf3d 0231 3abd
00000290: a9dd 1dbd 08d6 0cbe 058b b53d 266a 78bd
000002a0: d9b9 9a3c 1276 d5bd 3290 00be 1bca dcbd
000002b0: 238f e7bd a709 9f3c 1b24 8ebd ea07 833d
000002c0: 5203 1ebd 8fa3 f2bd 45af c4bd 636c 7b3d
000002d0: 743e d13d 659d 41bd e2bf 95bc 9086 e53d
000002e0: 986f acbd bde5 fa3d 2abb 12bc 6e2c d8bd
000002f0: 2789 6dbd d2b7 e9bb 2c31 913d 4b82 f5bd
00000300: 4bf5 e6bb 8789 453d 9d9b 1bbd eb28 63bd
00000310: 9f0f e33d 596e 90bd 2017 a2bd 5c22 45bd
00000320: 0160 e0bc 93a7 193e 0a86 89bc a012 ff3c
00000330: c66d be3d d679 72bd 44bf 44bd 1f0c f53d
00000340: 7983 493d a3ae 813d 55e1 82bc ab73 e13d
00000350: 9e0f 9ebd e727 d13d 18ce 043e efbd 1abd
00000360: bb36 d0bc 541d c2bc 304d df3c d3b9 0c3d
00000370: 4084 9d3d bfae 213d 56dd c53d a169 a8bd
00000380: 6028 d9bc 0f20 103e 518a e43d 195d d13d
00000390: 4698 143b ca88 e7bc 1e80 c63d 57fb b13d
000003a0: 2181 213e e022 883d d1c1 ba3d 80e9 d33d
000003b0: 0503 0d3e 04b6 58bd 005e 73bd be79 053e
000003c0: 2f21 3bbc c924 d93d d88f 583c 979b 133e
000003d0: e343 a3bc d9c1 a7ba eb37 dabb a515 1d3e
000003e0: 2d2b c03d c467 d63c cdab 7fbd 6c87 403a
000003f0: d39c 613d e5df 0f3e 01a6 d03b 1ded 65bd
