src/bidmc_generation/models/ha_cnn_bilstm_withWST/20260205_171105/best_lightweight_hybrid.pth (torch, 430093 bytes, 23 tensors)

cnn_encoder.0.weight f4 [32, 16, 7]
000000 ac 14 8e 3c fd c5 95 bc a3 ac d6 3d 0d 5e 0a bd
       0.017343841 -0.018282885 0.104821466 -0.0337811
000010 2d f4 d6 bd f1 6c 9e bd a0 f5 2f bb a2 79 3f be
       -0.104957916 -0.07735623 -0.0026849285 -0.18698743
000020 5a 73 2b bc e5 dc 59 3b a3 86 a1 3d 16 60 9c bd
       -0.010464514 0.0033243236 0.07887008 -0.076355144
000030 9b 5b 99 bb d8 84 1f bc 54 4f c7 bd 56 3f 83 bc
       -0.0046801097 -0.009736262 -0.097319275 -0.016021412
000040 02 89 f4 bc 62 57 28 bd 40 bc 7f 3d cf ca 8c bd
       -0.029850487 -0.04109896 0.06243539 -0.0687462
000050 84 aa b3 bd 27 26 7b bd c3 b8 b0 bd 30 ad 79 3d
       -0.08772758 -0.06131568 -0.086289905 0.06095618
000060 1d a6 82 bd 90 ae 88 3d 65 c0 42 3c 14 52 e1 bc
       -0.0637934 0.0667392 0.011886691 -0.027504958
000070 1a 59 11 bd 2e f8 be bd 4d 39 ca 3b 46 40 ba bc
       -0.035485364 -0.0932468 0.0061713816 -0.022735726
000080 84 39 25 3d fd c6 2b 3d 48 02 90 3d 9a e6 1d be
       0.040338054 0.041937817 0.07031685 -0.15419999
000090 93 46 da bc c8 c8 6a bc 25 c6 a7 3d 3d bd 56 bd
       -0.02664498 -0.014330097 0.0819209 -0.052426565
0000a0 8e 34 d9 bc dc cd 7c 3d 55 7b 89 bd b2 c2 99 bd
       -0.026514318 0.06171976 -0.06712977 -0.07507838
0000b0 fd 1a c6 3c de 12 4d 3d 40 79 83 bc 48 f2 8b bd
       0.02418279 0.05006682 -0.016049027 -0.06833321
0000c0 2c 2c a2 bd 8e 6f 41 bd fd 57 70 bd 1e 3e 39 3d
       -0.07918581 -0.047225527 -0.058677662 0.045225255
0000d0 4f d7 60 bd b6 a5 c7 3d 55 6b 1f 3d 57 8f 36 bc
       -0.054892834 0.09748404 0.03892072 -0.011142573
0000e0 b9 fc f7 bc a2 9e dc 3c 6c 62 71 bd a5 a7 da bd
       -0.030271875 0.02693111 -0.058931753 -0.10676507
0000f0 aa dd 55 bd d1 ca e1 3d 79 d1 22 bd 04 be ad 3c
       -0.05221335 0.11025012 -0.03975055 0.02120877
000100 26 8a 0b 3d 24 8d 20 bd 61 ee 18 3e 2e 09 09 3e
       0.034067295 -0.039197102 0.14934684 0.13382408
000110 b9 ca a1 3d 2a 75 d1 3d 92 ea 0b bd 55 42 2a 3d
       0.078999944 0.102274254 -0.03415925 0.041567165
000120 96 38 f4 3d c0 c5 be 3d 9d 53 c1 3d d6 66 bc 3d
       0.119248554 0.093150616 0.09439776 0.09199302
000130 89 72 d2 3d 55 66 c6 bd 96 48 76 bd 84 a6 91 bd
       0.10275752 -0.09687487 -0.060127817 -0.071118385
000140 a9 d6 1c 3e 35 da 5a 3d be 47 82 3d 14 51 81 bc
       0.15316261 0.053430755 0.0636134 -0.015785731
000150 45 d0 a5 bd d7 96 3a 3d 40 91 81 bd c8 e6 ca 3d
       -0.08096365 0.04555401 -0.06326532 0.09907299
000160 3c 1f 34 3e c5 30 f0 bc d7 bf 78 3d 6a e7 3a bd
       0.1759004 -0.02932013 0.060729828 -0.04563085
000170 69 e5 bc bc b4 95 80 3c 73 a2 11 3e e7 26 2b 3e
       -0.02305861 0.015696384 0.14222126 0.16714059
000180 8a 9f 64 3d 19 40 a9 3d 05 96 df bd 0b cf 9d bd
       0.05581621 0.08264179 -0.10917286 -0.07705506
000190 13 b6 9b bc 52 9f eb 3d 70 39 22 3e af 73 d9 3d
       -0.019007718 0.11504997 0.15842223 0.10617768
0001a0 f3 db 19 3d 88 e4 5f bd c4 77 ab bd 62 93 d9 bb
       0.037563276 -0.054661304 -0.08372453 -0.006639884
0001b0 09 90 c8 bc 97 04 e1 3d 37 d4 af bc 84 f1 ee 3d
       -0.024482744 0.109872036 -0.021463497 0.11667159
0001c0 e2 58 9b 3d e3 09 c1 3d b6 e3 ac 3b 23 2a 93 3c
       0.075853124 0.09425714 0.0052761687 0.017964428
0001d0 c3 6c e3 bd 3e 2f 84 bd 96 43 76 bd 7e a9 9c 3d
       -0.11104729 -0.06454323 -0.06012305 0.076495156
0001e0 81 e4 52 3d df 13 82 3d 6a 09 b6 3d 84 a6 7d 3c
       0.05148745 0.06351446 0.08888514 0.015481595
0001f0 98 0b 91 bc d6 1e d9 bd 3c df 69 bd 2d e8 85 3d
       -0.017705724 -0.106015846 -0.05709766 0.06538425
000200 de 4c ba 3d ec 4e 86 bd ae d9 2f 3c 4f de 98 bd
       0.090966925 -0.06558022 0.010733051 -0.07464277
000210 10 a8 a4 3c 21 64 33 bd a2 83 c1 bc 98 45 90 3a
       0.02009967 -0.043796662 -0.023622338 0.0011007069
000220 89 36 62 bc 78 b9 6f 3d 89 71 b4 bd 18 88 01 bd
       -0.0138069475 0.058526486 -0.088107176 -0.03162393
000230 b5 97 f8 bc b2 83 84 3d f8 f1 86 3d d4 a7 79 bd
       -0.030345777 0.064704314 0.065891206 -0.06095107
000240 be 3b 17 bd e0 2c 5c bd 57 48 c4 bd a4 b8 aa 3c
       -0.03692221 -0.053753734 -0.0958411 0.020839997
000250 e7 d6 9b 3d 5c e0 92 bd e8 4d 14 bd 59 27 8b 3d
       0.07609349 -0.071716994 -0.03620711 0.06794614
000260 80 a5 10 bd 6a 85 c2 bd da 4f 5b 3c 3b 44 f9 bc
       -0.035314083 -0.09498103 0.013385737 -0.030428043
000270 55 05 ef bc 20 73 a8 bd 36 8d 2d 3d 1f 23 91 bd
       -0.029177347 -0.08225083 0.042370997 -0.07086777
000280 d6 dc 02 be fa ae fd bd 22 40 b6 bd b2 d4 09 3d
       -0.12779555 -0.1238689 -0.08898951 0.033650108
000290 ed d0 08 3d c8 99 64 bb 82 ba da bd 85 59 1c be
       0.033402372 -0.00348817 -0.10680105 -0.15268524
0002a0 10 cb cb bc ea f0 3a bc 4a 6b 43 3d 17 c4 e9 3b
       -0.024877101 -0.011409977 0.04770974 0.0071339714
0002b0 2f 78 d2 bd da 88 d7 bd d5 df bd 3d 57 d8 fb 3b
       -0.102768295 -0.10524149 0.09271208 0.007685702
0002c0 5a c7 9a bd 25 7a bf bd 0b e2 de bd 78 6e 24 be
       -0.075575545 -0.09349469 -0.10882958 -0.16057765
0002d0 01 0c 67 bd 83 c6 02 bd 2e e8 92 bd ee 65 c4 bd
       -0.056407932 -0.031927597 -0.07173191 -0.09589754
0002e0 32 20 8d bd 41 36 19 be 92 bb db bd 0f f3 d9 bd
       -0.068909064 -0.14962102 -0.107291356 -0.10642063
0002f0 19 d7 a5 bd d6 a1 38 3c 08 38 2c bd ae 6b 32 3d
       -0.08097667 0.011269053 -0.042045623 0.043559723
000300 34 68 09 3c c5 e2 b2 bd 12 f1 dd bd 78 97 fa bd
       0.00838666 -0.08734659 -0.10836996 -0.122359216
000310 6d 3b 02 3c 6d 31 7b bd 80 29 b9 3d 5d f2 c4 3c
       0.0079487385 -0.061326433 0.090411186 0.024041349
000320 eb 8d 41 bd ea 87 81 bd 90 49 14 bd 88 5b da 3d
       -0.047254484 -0.06324752 -0.036202967 0.106619895
000330 96 2e 73 3c 5f ec 21 3d 72 64 42 3d d1 a7 d2 3c
       0.01484265 0.03953206 0.047459073 0.025714787
000340 e6 54 17 bd 99 a8 3c 3d 2d 4e 16 bd fa de 7c 3d
       -0.0369462 0.046059225 -0.036695648 0.061736085
000350 6a df 5c bd cd 50 8d 3d d3 8d 88 3d 39 04 3c bd
       -0.053924 0.06900177 0.06667676 -0.045902465
000360 dc 3e d1 bd b3 2b 09 bc 60 2e 94 3d e4 b4 e1 bc
       -0.102170676 -0.008372235 0.07235408 -0.027552076
000370 f8 13 84 bb 2b a7 de bc 9f 5a 84 bd c9 1a 09 3d
       -0.004030701 -0.027179321 -0.06462597 0.03347281
000380 40 03 13 bd c3 45 8e 3d 4c 5f 36 bc 41 8c 45 3d
       -0.03589177 0.069469 -0.011131119 0.04822946
000390 4a d6 c6 3d 86 30 c3 bd 7d 6d dc bd 46 bd a2 3c
       0.09708841 -0.095307395 -0.10763071 0.019865643
0003a0 08 56 33 3d ff 1c 58 bd 6c 3b 76 3d c4 59 55 bd
       0.043783218 -0.052762028 0.060115263 -0.05208756
0003b0 ed 68 cf bd bf 08 b0 bd c6 05 cf 3c b4 e8 02 3a
       -0.10127435 -0.08595418 0.025271308 0.0004993782
0003c0 05 d2 cf 3d f7 d2 7c 3d 98 59 b3 bb 45 7b 78 3d
       0.1014748 0.06172463 -0.005473327 0.060664434
0003d0 23 8a 74 bb 2c c1 f2 bb e6 ef c3 bd 58 38 52 bd
       -0.0037313781 -0.007408282 -0.09567241 -0.051323265
0003e0 8a 77 bd 3d 67 bf cb 3d d3 f0 c6 3b 9b 32 4b 3b
       0.09251316 0.099486165 0.006071189 0.0031005505
0003f0 42 45 df bd 7a be 01 bd 6a ae 9a 3b d6 66 c0 bc
       -0.10901882 -0.031675793 0.004720499 -0.023486536

cnn_encoder.0.bias f4 [32]
000000 6a 27 15 be 3f 67 a5 bd eb 09 32 bd a2 b5 ab bd
       -0.14565817 -0.08076333 -0.04346649 -0.08384253
000010 1c 7a ef bc 7a 03 92 bc 48 cf f5 3c 20 95 21 bd
       -0.029233031 -0.017823923 0.030006066 -0.039448857
000020 6f 69 ea bc 94 a8 c9 3c da 85 c7 bd eb 54 29 3d
       -0.028614728 0.024616517 -0.09742327 0.04134075
000030 3b f7 88 bd 9b f4 c6 3c 3c 71 25 be 79 60 7e bd
       -0.066877805 0.024286559 -0.16156477 -0.062103722
000040 2c 6f 09 be 5a a5 66 bd 0d 6d 0d 3c 46 be 1d 3d
       -0.13421315 -0.056310035 0.008631957 0.038511537
000050 b4 34 b2 bc 71 c0 41 bd fe 32 51 bd 70 49 59 3d
       -0.021753646 -0.047302667 -0.05107402 0.05304855
000060 54 15 33 bd 10 bd 99 bd 72 e9 55 bd 3d 8c a8 bd
       -0.043721512 -0.07506764 -0.052224584 -0.08229873
000070 7c 09 10 be 4c db 9d bd ed fc 5f bd a6 d3 12 3d
       -0.14066118 -0.07707843 -0.05468457 0.035846375

cnn_encoder.1.weight f4 [32]
000000 55 f9 5d 3f c9 f8 81 3f 26 bb 81 3f 7f 96 79 3f
       0.86708575 1.0154048 1.0135238 0.97495264
000010 ce 65 91 3f da 2e 88 3f 9b 7d 82 3f 18 0d 7b 3f
       1.1359193 1.0639298 1.0194582 0.98066854
000020 4e 67 89 3f 48 7f 83 3f 5e 1a 76 3f 73 57 72 3f
       1.0734651 1.0273218 0.96133983 0.94664687
000030 1c 82 74 3f dd 8e 84 3f 88 71 65 3f f7 13 89 3f
       0.9551103 1.0356098 0.8962636 1.0709218
000040 c7 b3 7d 3f 6a 6b 6d 3f 15 8e 67 3f 12 e6 82 3f
       0.99102443 0.92742026 0.90451175 1.0226462
000050 b9 22 82 3f 6f e2 7e 3f e2 d2 82 3f f3 f5 61 3f
       1.0166847 0.9956426 1.0220606 0.88265914
000060 a0 b7 8e 3f 5d 7f 91 3f 5e 98 84 3f 7b e4 7f 3f
       1.1149788 1.1366993 1.0358999 0.9995801
000070 fe 0b 63 3f ce 5f 82 3f 93 cc 74 3f ab 12 62 3f
       0.88690174 1.0185487 0.95624655 0.88309735

cnn_encoder.1.bias f4 [32]
000000 a1 df 9f bd ce 31 ce 3c 23 2a e3 bd 0f 4d c0 bd
       -0.07806326 0.025170233 -0.11092021 -0.09389698
000010 bf 2d ae bd 58 aa 93 bd ed ca f4 bd a4 6e 1b bc
       -0.08504819 -0.07210225 -0.119527675 -0.009486828
000020 8e cc 9e 3d f4 ba 8e bd 18 4f 99 bc 54 db 1d be
       0.077538595 -0.06969252 -0.018714473 -0.15415698
000030 ce 7d ab bd 06 df 0f 3c 01 53 03 be 6e e6 2f bc
       -0.08373605 0.0087812 -0.12824632 -0.010736091
000040 38 c7 8a be 69 22 86 bd 0a f4 29 be f5 7a 6b bd
       -0.27105117 -0.06549532 -0.16597 -0.057490308
000050 be 10 39 bd 82 19 eb bd 53 cb 19 be 11 11 90 bd
       -0.045181982 -0.114794746 -0.15018968 -0.07034505
000060 91 49 23 3e 1d bc b0 3b a2 bc a3 bd 92 cb d8 bd
       0.15946032 0.0053935186 -0.07994963 -0.10585703
000070 79 19 22 be 78 8d 51 bd 22 f3 ad bd e4 8c 1a be
       -0.1583003 -0.051160306 -0.084936395 -0.15092808

cnn_encoder.1.running_mean f4 [32]
000000 65 1f 81 be b2 fc 40 be 4b c4 81 bd 35 45 15 be
       -0.25219265 -0.18846396 -0.06336268 -0.14577182
000010 83 d0 2e 3c 4a 4d c5 bd 7e b5 6f 3a f6 fe 2e bc
       0.01066983 -0.09633882 0.0009144171 -0.010680905
000020 67 ae 4c bc 5e 42 01 be 98 7d 2d bd 08 f1 b7 bd
       -0.012492753 -0.12622973 -0.042356104 -0.0898152
000030 dc da bf bd 1c 07 f7 3d fa 6b 63 be 36 27 b9 bd
       -0.09367916 0.12061903 -0.22209159 -0.09040682
000040 3b 78 6b be 1b 41 24 be 4d aa 56 3e 32 97 d2 bb
       -0.22995083 -0.16040461 0.20963402 -0.0064267153
000050 ef 0a c2 bd 38 ca 2d be 6c c8 a8 bd bd e7 4b 3d
       -0.09474742 -0.16971672 -0.082413524 0.04978155
000060 da 5a c8 bc 94 43 eb bc 77 c7 34 bd ff 58 df bd
       -0.024457384 -0.028718747 -0.044135537 -0.109056465
000070 f9 cb 30 be bb 9f d8 bd fd 73 b7 3c bd a2 47 be
       -0.1726531 -0.10577341 0.022394175 -0.19495673

cnn_encoder.1.running_var f4 [32]
000000 73 dc 07 3b 57 cf 59 3b 58 cd 2a 3a ad ce 38 3a
       0.0020730763 0.0033235156 0.0006515584 0.000704984
000010 26 c3 7d 3a ea 81 2a 3a ff 81 b5 3a 58 db f4 3a
       0.00096802635 0.0006504344 0.0013847946 0.0018681092
000020 d7 2d 26 3a 7b 8e e1 3a 56 57 b8 3a 7b 5f a8 3a
       0.0006339228 0.00172086 0.0014064114 0.0012845838
000030 fe 2b 6b 3b 0d 22 8c 3a 6b c3 3a 3b 31 1f 20 3b
       0.0035884376 0.00106913 0.0028497826 0.0024432654
000040 9d 90 d1 3a d8 0a ba 3a 16 1d 82 3b 2a b2 aa 3a
       0.0015988533 0.0014193906 0.0039707525 0.0013023068
000050 93 31 90 3b d9 14 19 3b de c8 ee 3a 4f 63 8a 3a
       0.004400441 0.0023358373 0.0018217822 0.0010558161
000060 c0 8b c6 39 0b 07 a2 3a e8 95 fc 39 fc 38 04 3a
       0.00037869625 0.0012361718 0.00048176874 0.0005043892
000070 8c 26 06 3b 7b 37 24 3a c4 5c cc 3a 81 58 71 3b
       0.0020469753 0.0006264371 0.0015591611 0.0036826434

cnn_encoder.4.weight f4 [64, 32, 5]
000000 cc 62 1c 3d 01 ff 0c bd be 61 69 3c 07 bc c6 bd
       0.038180158 -0.03442288 0.014244495 -0.09703832
000010 47 c5 c8 bc 77 c4 e4 3d 53 31 e3 3c 89 6f 08 be
       -0.024508132 0.11170285 0.02773348 -0.13323797
000020 df c0 4e be e5 35 3b 3b 28 19 fb 3c 45 b0 66 3c
       -0.20190762 0.002856606 0.030651644 0.014080112
000030 c0 8b ac bd cd 3f 99 3d 25 6f 89 3d 41 37 1b 3d
       -0.08425093 0.07482872 0.06710652 0.03789449
000040 01 b7 55 bd 51 20 b4 bd 04 8a 87 bd b0 65 c1 3d
       -0.05217648 -0.08795226 -0.06618121 0.094432235
000050 37 81 2a bd d3 df bb bb 28 57 1a bd f5 78 25 bd
       -0.041627135 -0.005733469 -0.037680775 -0.040398557
000060 77 fe 88 bd f4 33 0a 3e 00 10 e6 bb 46 25 d0 bd
       -0.0668916 0.13496381 -0.0070209503 -0.10163359
000070 52 0c b4 bd aa 28 53 bc 83 c9 20 bd c9 ab f4 3c
       -0.087914124 -0.012888113 -0.039254677 0.02986707
000080 a1 f7 ba bc d3 90 63 bd ee 3e 22 bc 4e 0f 27 3d
       -0.022823157 -0.055558037 -0.009902699 0.04078608
000090 7d 23 15 3d 5d b7 9a bd 8c f9 83 bd ab 13 00 3d
       0.036410797 -0.07554505 -0.06444082 0.031268757
0000a0 08 ff 6c bd 21 32 1b bd 41 b9 23 bc 6f 30 f1 39
       -0.057860404 -0.037889604 -0.009992898 0.00046003188
0000b0 b6 54 1e 3d d6 5f d8 bd 29 a1 bf bd 1c e1 3c bb
       0.038655005 -0.10565154 -0.09356911 -0.00288207
0000c0 02 f7 72 3d 76 af af 3d c8 8b a2 bd 71 26 4d 3d
       0.059317596 0.085783884 -0.079368174 0.05008549
0000d0 21 39 f0 3b 07 cb 86 bd 93 18 06 bd b9 3a 14 3d
       0.007331029 -0.06581693 -0.03273828 0.036188815
0000e0 6c 2f 3c 3d 5f 40 2e 3c 92 6a 51 bd 9c 58 36 3d
       0.045943663 0.010635464 -0.051127024 0.0445181
0000f0 15 e8 28 3d 8a 45 59 3d 18 95 09 be 33 d4 93 bd
       0.041236956 0.053044833 -0.13435781 -0.07218208
000100 67 f5 48 3c 81 62 03 3d 1d b0 98 bc 32 d5 e3 bd
       0.01226554 0.032076363 -0.018638665 -0.11124648
000110 59 03 37 bd e9 ec 6b 3d 26 44 7d bd 73 60 1d 3d
       -0.044680927 0.057598982 -0.06183257 0.03842206
000120 9b f0 7c 3d 09 b2 f7 bd 3a be d3 3b 53 39 26 3e
       0.061752897 -0.120945044 0.0064618858 0.16232805
000130 70 38 56 bd 76 d3 1f be b3 ad 2b be 82 b2 55 3c
       -0.052299917 -0.1560801 -0.1676548 0.013043048
000140 7c c4 c5 3d da 4e 74 3d 59 94 58 3d 96 70 05 be
       0.09656617 0.05964551 0.05287585 -0.1303123
000150 b1 98 c8 bd ae 99 50 bc a0 93 4a bd 94 75 dd 3b
       -0.097947486 -0.012731953 -0.049457192 0.006758401
000160 45 55 1d bb e3 cb 79 3d 2b b6 2d bb d0 f9 9f 3c
       -0.0024007123 0.060985457 -0.0026506286 0.0195283
000170 39 d3 1f bb ba b8 93 bc 09 76 04 3d c5 e2 9a 3d
       -0.0024387373 -0.01803242 0.03233913 0.07562784
000180 e7 48 6f 3d ca 3b 9f 3c d5 68 87 3c e1 8b f0 bd
       0.058419134 0.01943769 0.01652948 -0.1174543
000190 06 19 a2 3d 35 3a 2b bd 6b 1c 1c 3c dd d7 1d bd
       0.07914929 -0.041803557 0.00952826 -0.03853594
0001a0 b1 d8 d9 bc f4 ea 9e bd 00 3b 76 3d 4d 61 f2 3c
       -0.026592584 -0.077596575 0.06011486 0.029587412
0001b0 9e 5e 07 3e 57 0d a9 bd 5d 3f 8a 3d 42 7a c9 3d
       0.13219687 -0.082544975 0.06750367 0.09837772
0001c0 28 9b 56 3c 39 5b d2 bd 28 ba 42 bd 1e e5 d8 bb
       0.013098516 -0.102713056 -0.047540814 -0.00661911
0001d0 ba 26 33 3c bc e7 50 bd ac da f3 bc f1 a6 70 bd
       0.010934526 -0.05100225 -0.029767357 -0.058752958
0001e0 31 3e 85 3d 30 b9 21 3d 4c 0a e2 bc e9 92 15 3d
       0.06506003 0.03948325 -0.0275928 0.036517058
0001f0 02 d4 be bd 43 e2 48 3c f1 7a 93 3c fb 52 b8 bb
       -0.09317781 0.012260976 0.018002959 -0.0056251264
000200 d3 b0 85 3d 95 c5 61 3c 74 ec a2 3c d9 c6 3e bd
       0.06527867 0.013780017 0.01988814 -0.046576355
000210 93 16 27 bd 7e 9e 34 bd ae ac 2c bc 20 30 33 3d
       -0.040793013 -0.044096462 -0.010539217 0.043747067
000220 9c 72 3f bd 0c 56 1e 3e 99 31 c0 3c 27 a8 0a 3c
       -0.04674016 0.15462512 0.02346115 0.008462942
000230 13 af df 3c 93 fe 19 bd 0e 72 80 bd 77 4e 0f bd
       0.027305162 -0.037596297 -0.06271754 -0.03498694
000240 81 2d b7 bd f9 23 99 bc 18 aa 8a 3d 6a aa 34 3d
       -0.08944226 -0.01869391 0.06770724 0.044107832
000250 72 35 38 bd 16 f4 21 bd b1 b5 7a bd 24 91 93 bc
       -0.044972844 -0.03953942 -0.06120843 -0.018013544
000260 bb 56 b6 bd 16 d9 e9 bb a6 1d 5e 3b 74 bc 06 bc
       -0.08903261 -0.0071364744 0.0033892184 -0.008223642
000270 cc d2 c5 bc cd ee c5 3c 13 6c 7e bd 0f 7d b3 bd
       -0.024148367 0.02416172 -0.062114786 -0.087640874
000280 bb 31 bd ba c7 97 72 3d f5 08 a0 3d 82 79 70 bb
       -0.0014434376 0.059226777 0.078142084 -0.0036693518
000290 ea 8f cc 3d f7 d8 85 3d db 4f 80 3d aa fe 1f bd
       0.09988387 0.065355234 0.06265231 -0.039061226
0002a0 b5 36 9c bc c5 b1 27 3a fa 60 f8 bc a5 f8 3f 3d
       -0.019069055 0.0006397034 -0.03031968 0.046867985
0002b0 7d a9 c2 bd 68 9a 60 bd d8 59 66 3d ea 10 9a bd
       -0.095049836 -0.054834753 0.056238025 -0.07522757
0002c0 67 3e 98 3c 86 58 3e 3d f1 10 09 3b c3 fe c8 bd
       0.018584443 0.04647114 0.002091464 -0.09814217
0002d0 77 a5 36 3d 92 03 21 be ba f6 5d 3a ce d0 6b 3d
       0.044591393 -0.15724018 0.0008467246 0.05757218
0002e0 a7 76 67 bd 26 15 55 3d fe e0 67 3d 51 ec 3b bd
       -0.05650964 0.05202212 0.056611054 -0.045879666
0002f0 27 64 a0 3d 66 3d aa 3d a1 9d 26 bd 8b 52 b9 3c
       0.078316025 0.08312492 -0.04067767 0.022622367
000300 6f ee 7a 3d 10 37 16 be 54 28 97 bd 49 50 4b 3d
       0.061262544 -0.14669442 -0.07380739 0.049637113
000310 33 cf 33 3b 26 a3 5e 3d 5a eb 1e bd 39 88 86 3d
       0.0027436733 0.05435481 -0.038798667 0.06568951
000320 42 40 89 3c 6b 8b 3c 3c 75 e9 a0 bd d9 b6 36 3c
       0.016754273 0.011507849 -0.078570284 0.011151993
000330 bb 7b 08 bb fd 27 05 b9 97 61 ee 3d fc 14 bf 3d
       -0.0020825702 -0.00012698765 0.116397075 0.09330174
000340 16 a9 d2 bd 00 0c d0 bb d6 e9 d6 3d 80 62 93 bc
       -0.10286157 -0.0063490868 0.104938194 -0.017991304
000350 8d 58 b2 3c e5 71 f0 bd 0a da 39 bd fc 48 85 3d
       0.02177074 -0.11740474 -0.045373954 0.06508061
000360 57 b6 72 3d ec 9f 9c 3c 72 c5 b8 bc c7 1f 90 3d
       0.059255924 0.019119225 -0.022555087 0.07037311
000370 0c 32 b0 3d 13 90 9e 3d 29 f5 cd 3d b3 b7 a2 bd
       0.08603296 0.07742324 0.10056526 -0.07945194
000380 11 e2 52 3c 2b f4 0b be 6b 0b 5e 3c 88 2c e6 3b
       0.012871281 -0.13667361 0.013552527 0.0070243515
000390 02 7e 1c 3d 2a 96 64 bd cb 8b 64 bd 3a 26 e4 3c
       0.038206108 -0.05580727 -0.05579738 0.02785026
0003a0 c8 bd 66 3c d3 75 b1 bc e4 82 45 3c ef 7d 6a 3d
       0.014083333 -0.021662628 0.012055133 0.057249006
0003b0 b8 f7 05 bd f9 cb 48 bd 01 77 b1 3b 90 93 bf 3d
       -0.032706946 -0.04902265 0.0054157977 0.09354317
0003c0 68 f7 90 3d 81 10 ac bc fb 3f 1a bc 68 50 88 bd
       0.07078439 -0.021003963 -0.009414668 -0.06655961
0003d0 2f aa 54 bc 4c 87 86 bd 1f 06 f7 bd 1d 01 b1 bc
       -0.012980028 -0.065687746 -0.120617144 -0.021606976
0003e0 b4 6e 97 bd 0f e7 53 3d 30 f4 84 3d fb 37 52 bb
       -0.07394162 0.051734027 0.064918876 -0.0032076824
0003f0 9d 43 45 3b 69 b3 31 bd 32 c1 e4 bd a6 e1 bd 3d
       0.0030100115 -0.04338399 -0.111696616 0.09271555

cnn_encoder.4.bias f4 [64]
000000 c5 b2 8f 3d bc 40 0f bd e2 a3 f3 3a cb 27 4b bc
       0.070165195 -0.034973845 0.001858827 -0.012399624
000010 56 95 10 bd 49 cc 81 bc 18 2b 5d 3b d3 cd 38 bd
       -0.035298668 -0.015844481 0.003374761 -0.045118164
000020 1e aa 56 bc 3d 6f 15 3d ff 2a 89 3d 63 a3 d0 bc
       -0.013102083 0.03648304 0.06697654 -0.025468534
000030 9e 50 7d 3d e8 62 31 bd 62 54 8a bd 4c 97 8d 3d
       0.06184446 -0.043307215 -0.06754376 0.06913623
000040 63 44 39 3b a9 b7 8f 3d 07 b4 56 bb 4c 63 5a bd
       0.0028269521 0.07017452 -0.0032761113 -0.053317353
000050 b6 85 69 bb 4d 1d 29 bd b4 b4 54 bd 88 10 53 3d
       -0.0035632676 -0.04128771 -0.051930144 0.051529437
000060 6c 5a b9 bb 5a 63 3e bd 12 f9 91 3d 0d 55 44 3d
       -0.005656531 -0.046481468 0.071275845 0.047932673
000070 66 92 21 3c e3 01 53 3c c4 ec 06 3d 47 44 22 3d
       0.009861564 0.012878868 0.03294064 0.039615896
000080 c9 13 91 bc 7b d6 a1 3d c7 65 86 bd 8f ef 0c bd
       -0.01770963 0.07902237 -0.06562381 -0.03440815
000090 35 a7 84 3c c3 3b b1 bc 8c 00 0a bd 68 9c 17 3d
       0.016193012 -0.021634942 -0.033691928 0.037014395
0000a0 0d 32 94 bd 44 0c 83 bd 62 68 95 3d 5e f7 9b 3d
       -0.07236109 -0.06398824 0.072953 0.07615541
0000b0 a8 48 9e bc 7d fb 69 3d 65 0c 82 3d 2b d2 48 bd
       -0.019321755 0.057124604 0.0635002 -0.049028557
0000c0 10 34 26 bd dd f6 76 3d d8 39 93 bd a7 a4 a8 3c
       -0.040576994 0.06029402 -0.07188767 0.020586325
0000d0 3a 5d 8b 3d b4 32 27 bd b2 3b c6 bc 00 6a 8a bd
       0.06804891 -0.04081984 -0.024198387 -0.06758499
0000e0 43 2e 5e bd c3 e1 56 3d 0e 9d cc bc 91 80 2c 3d
       -0.054243337 0.052461397 -0.024977233 0.042114798
0000f0 9b c0 aa 3c d1 b5 8a bd 1b 34 32 bd 55 75 85 bd
       0.020843795 -0.0677296 -0.043506723 -0.0651652

cnn_encoder.5.weight f4 [64]
000000 2e 6b 87 3f c1 be 86 3f cb 03 84 3f 60 b5 88 3f
       1.0579584 1.0526963 1.0313658 1.0680351
000010 90 18 7b 3f 06 2f 7e 3f 5a c9 83 3f a9 b9 80 3f
       0.98084354 0.992905 1.0295823 1.0056659
000020 89 f8 7a 3f ff 3b 84 3f 6b fd 7c 3f 9d 86 81 3f
       0.98035485 1.0330809 0.98824185 1.0119206
000030 44 90 7f 3f be 7e 7c 3f 29 ff 81 3f 9c 35 81 3f
       0.99829507 0.98630893 1.0155994 1.0094485
000040 95 bf 77 3f 1a cc 85 3f 4e 30 77 3f 9d f5 87 3f
       0.96776706 1.0452912 0.9655808 1.062183
000050 70 32 8b 3f bb b1 81 3f 99 5a 8d 3f a6 19 81 3f
       1.0874767 1.0132364 1.1043273 1.0085952
000060 21 b9 80 3f 44 21 87 3f db 00 84 3f 73 c4 83 3f
       1.0056497 1.0557027 1.0312761 1.0294327
000070 1f 7d 7f 3f e6 dd 88 3f fd 09 85 3f 6f 34 82 3f
       0.99800295 1.0692718 1.0393673 1.0172251
000080 c7 10 8e 3f 11 b8 80 3f 98 ba 85 3f d6 62 82 3f
       1.109887 1.0056173 1.0447569 1.0186412
000090 9e f3 84 3f 5a 6f 85 3f 33 69 83 3f 41 a5 86 3f
       1.0386846 1.0424607 1.0266479 1.0519181
0000a0 2b 65 7b 3f c7 ba 84 3f d6 a2 7e 3f 3c 3e 88 3f
       0.98201245 1.03695 0.9946722 1.0643992
0000b0 12 97 83 3f 87 2d 75 3f 17 26 80 3f d5 d9 7e 3f
       1.0280478 0.95772594 1.0011624 0.99551135
0000c0 fb 0d 82 3f df 50 85 3f 43 9f 83 3f 21 dc 70 3f
       1.0160517 1.0415305 1.0282978 0.9408589
0000d0 4d d8 86 3f ec b0 86 3f ea 1a 80 3f 2c 6d 7d 3f
       1.053476 1.0522742 1.0008214 0.9899471
0000e0 c1 2d 7b 3f 86 cb 88 3f 65 f9 87 3f a7 63 83 3f
       0.9811669 1.068711 1.0622984 1.0264786
0000f0 e8 0e 8d 3f 69 6e 86 3f dc c4 7a 3f 1e f1 81 3f
       1.1020174 1.0502445 0.97956634 1.0151708

cnn_encoder.5.bias f4 [64]
000000 93 09 a5 3c cb 50 24 bd cb 45 96 3c 87 ff ce bd
       0.020146167 -0.040116113 0.018343827 -0.10107332
000010 8b 8e f9 bc 81 ac f0 bd ea 98 d1 bd c0 7c b1 bc
       -0.030463478 -0.117516525 -0.10234244 -0.02166593
000020 9e 91 44 bc c7 2b a9 bd f3 53 f5 bc 8c 13 8a bd
       -0.0119976085 -0.08260303 -0.029947257 -0.067420095
000030 ae 59 9e bd 55 ed 0b bd b6 9c 3b bd d6 cc 82 bd
       -0.07731949 -0.034161884 -0.045803748 -0.063867256
000040 0c 8e a6 bd cc 27 48 3b 10 26 99 bd b5 ec 85 bd
       -0.08132562 0.00305413 -0.07477963 -0.06539289
000050 7a c2 58 ba 43 dd 93 3c 5a 34 83 bd 5c 26 92 bd
       -0.00082687254 0.018049842 -0.0640647 -0.07136223
000060 da 3d 42 bc b6 1e 28 bd c0 f2 18 bd 67 85 05 bd
       -0.011855567 -0.041044913 -0.03734088 -0.032597926
000070 5a 21 90 bd 22 ef 9a bd e1 8e 43 bc a9 b9 53 bd
       -0.07037611 -0.07565142 -0.01193592 -0.05169073
000080 6d 84 be bb 78 c9 ed bc e0 95 2f bd 29 af 35 bd
       -0.005814126 -0.029026732 -0.04286754 -0.0443565
000090 88 27 2c bc c0 af e7 bd ba 21 27 ba e4 9b a9 bd
       -0.010507472 -0.113128185 -0.000637557 -0.08281687
0000a0 d8 da 50 bc d5 2e ca bd 1e 45 5b bd 7b 89 e3 bc
       -0.012747489 -0.09872214 -0.053532712 -0.027775517
0000b0 01 ae 6c bd 82 2e f6 bc 44 83 33 bd 07 c7 a7 bd
       -0.05778313 -0.030051474 -0.043826357 -0.08192258
0000c0 62 4e aa bd 6f d0 1d bd 7e 79 c8 bd 9c 96 b6 bd
       -0.083157316 -0.038528856 -0.09788798 -0.08915445
0000d0 0a 27 0c 3c 50 0a 48 bd a1 e4 b6 bd 72 95 5a bd
       0.0085542295 -0.04883796 -0.08930326 -0.05336518
0000e0 5e f8 a0 bc d1 0a 18 bc f8 f0 a5 bd 4b 2a 43 bd
       -0.01964968 -0.009279923 -0.08102602 -0.047647756
0000f0 74 e9 69 bd f3 c6 86 bd 5a 42 27 bd 9e 7f b8 bc
       -0.057107404 -0.06580915 -0.040834762 -0.02252179

cnn_encoder.5.running_mean f4 [64]
000000 d6 4e 04 bf 6b 1c 8a 3d 74 cb ba 3d 17 18 29 bf
       -0.51682794 0.067437015 0.09120837 -0.66052383
000010 b4 fa 34 be 28 8e 37 bf 91 39 7e bc 88 95 b2 be
       -0.1767376 -0.7170129 -0.015516655 -0.34879708
000020 79 54 19 bf 68 cd 7e 3f 54 b0 19 bf cb a2 f0 3e
       -0.5989452 0.99532175 -0.6003468 0.469992
000030 89 ba 8d 3e e9 af a1 bc 87 93 cb be ca 93 a0 3e
       0.27681378 -0.0197372 -0.39760992 0.31362754
000040 95 1e 65 bf 46 2a 52 bd 35 e7 36 bf ce 88 5b 3d
       -0.8949979 -0.051309846 -0.71446544 0.053597264
000050 c6 9b 17 bf 9e d3 1d bf fa 03 af 3e 9b 09 dd 3e
       -0.59222066 -0.6165103 0.3418272 0.4317139
000060 0b 2c cf bd 26 93 1f 3e 6f cc 81 be 8c 47 73 bf
       -0.101158224 0.15583476 -0.25351283 -0.95031047
000070 c9 28 0f 3f 9c 48 3d 3f 78 c3 96 3d 6c ae 08 3f
       0.5592161 0.7393892 0.073615015 0.53391147
000080 b7 9a 6f be 75 94 5d 3d 42 4f 7a bf 99 ec b3 be
       -0.23398863 0.054096658 -0.9777719 -0.35141447
000090 63 a6 27 be 68 2f f5 3d 1b 76 c5 bf 43 27 a7 3e
       -0.16372065 0.11971933 -1.5426668 0.32647142
0000a0 b0 76 95 bf a0 52 40 3f 34 77 d3 3e 95 0c 9c 3e
       -1.1676846 0.75126076 0.41301882 0.3047835
0000b0 9a 09 13 be db bd 72 bf 9d 63 90 be f3 33 b0 be
       -0.14359131 -0.94820946 -0.28201 -0.34414634
0000c0 99 1e df be 59 1b 08 3e e6 c2 c6 3e 75 b4 ab 3e
       -0.43578032 0.13291682 0.3882057 0.33536115
0000d0 41 7f fb be fa 6a b8 3e 2a 1a b1 be b5 b1 72 3c
       -0.49120525 0.36019117 -0.34590274 0.0148128765
0000e0 db 82 30 bf ca b9 c9 be 06 96 63 bf 89 1c f5 3e
       -0.6894967 -0.39399558 -0.8890079 0.47873333
0000f0 5c 8c a4 3e bb a4 dc 3d b0 8e d5 be 20 19 c3 be
       0.32138336 0.10773607 -0.41710424 -0.38105106

cnn_encoder.5.running_var f4 [64]
000000 cc be 1e 3f f1 04 bf 3e 40 15 76 3f 1c 1a 54 3e
       0.6200988 0.37308457 0.96126175 0.20713085
000010 3a 21 ee 3e c2 5b d1 3e 95 22 a7 3e 10 1e 9b 3e
       0.46509725 0.40890318 0.32643571 0.30296373
000020 5e 68 01 3f f7 5c 28 3f 9c f8 37 3f 1e 8c 01 3f
       0.50549877 0.65766853 0.7186372 0.50604427
000030 ef 72 49 3f 11 b2 35 3f 26 08 f2 3e ee 2e 28 3f
       0.78691 0.7097483 0.47271842 0.6569661
000040 e1 3b fb 3e 03 97 01 3f 83 62 e3 3e 8a ae dd 3e
       0.4906912 0.5062105 0.44411096 0.43297225
000050 38 ca c9 3e ee e0 5f 3f 9c 27 78 3e bb 81 1d 3f
       0.39412093 0.8745259 0.2423386 0.6152608
000060 a8 8b 9d 3e bf a7 43 3f d5 39 c4 3e e7 49 ce 3e
       0.30770612 0.76427835 0.38325372 0.40290758
000070 2a 75 f2 3e 2c 34 40 3f 66 ab 48 3f e1 e2 d0 3e
       0.47355014 0.7507961 0.78386533 0.40798095
000080 47 b6 d2 3e b8 ca c7 3e 12 52 2a 3f ac 2f 78 3e
       0.41154692 0.3902185 0.6653148 0.24236935
000090 62 72 d4 3e 7b 09 60 3e ab 2a 0c 3f 8e ba d9 3e
       0.41493517 0.21878617 0.54752606 0.42525142
0000a0 e3 ee 71 3f a2 90 aa 3e bd 3f e3 3e d4 df 37 3f
       0.9450514 0.3331347 0.44384566 0.7182591
0000b0 c2 69 c9 3e a3 0e a3 3f 28 9f 22 3f fd df b2 3e
       0.393385 1.2738842 0.63524103 0.34936514
0000c0 d6 2b ba 3e e3 32 07 3f 61 44 e9 3e 9d c0 5a 3f
       0.3636157 0.5281202 0.4555998 0.85450155
0000d0 86 07 22 3f 14 a8 1a 3f 3d c5 a9 3e 5f 3e d7 3e
       0.6329273 0.60412717 0.33158293 0.42039773
0000e0 60 40 1b 3f 8d 7c e2 3e f7 80 b4 3e d0 83 7b 3e
       0.60645103 0.4423565 0.35254642 0.24562001
0000f0 72 de 2d 3f c5 43 16 3f ff c6 4f 3f 4c a2 b1 3e
       0.6791755 0.5869716 0.8116302 0.34694135

lstm.weight_ih_l0 f4 [256, 64]
000000 42 a2 93 be 6a 68 13 3e 95 2a 0f 3e df 3b 71 3e
       -0.2883473 0.143953 0.13981088 0.23557995
000010 40 38 0a 3e 5d 86 93 bd e7 90 b1 3d e5 2a 7e 3d
       0.1349802 -0.07203362 0.08670216 0.062052626
000020 d4 75 07 be f9 cd d4 3d 8c 33 d6 3d 18 eb 9c bc
       -0.13228542 0.10390849 0.104590505 -0.01915507
000030 57 19 99 bd f1 99 4a 3e 2e fe 09 be 97 28 f8 3c
       -0.07475536 0.19785286 -0.13475868 0.030292792
000040 93 5f d1 3d 00 24 41 bd 5f 85 eb bd 0f fd bb 3c
       0.102233075 -0.047153473 -0.11500048 0.022947816
000050 a1 42 d5 bd 04 12 3e bd b5 12 85 3e b8 07 f1 bd
       -0.10413099 -0.0464039 0.25990835 -0.1176905
000060 73 f9 42 bd 2e f1 8e bd 09 ae 3c 3d 5b 7b 51 3d
       -0.047601175 -0.06979595 0.04606441 0.05114303
000070 10 53 41 3e 1d b6 1d 3e 5e b3 02 3e d6 f6 b9 bc
       0.18879342 0.15401502 0.12763736 -0.022700708
000080 fb 9b 9f 3d 41 5f 3a 3d 3a 03 22 be bd 34 a4 3d
       0.07793423 0.045500997 -0.15821543 0.080178715
000090 bf c9 24 be 23 d6 96 be 92 e2 4b bd b2 3d 74 be
       -0.16092585 -0.29460248 -0.04977662 -0.2385166
0000a0 f8 43 1b bd e6 2d b4 3d 2f 1a 2e 3e f4 24 0a 3d
       -0.037906617 0.08797817 0.17002176 0.033726647
0000b0 3c 31 55 3d 50 6d 4e bd 31 a3 65 3d 09 ff 6c be
       0.052048907 -0.050397217 0.056063835 -0.23144163
0000c0 11 b5 30 bd 4a 32 d1 3d a6 5f f6 bc e5 e3 df bd
       -0.04314143 0.1021467 -0.030074906 -0.10932139
0000d0 c6 59 88 3d a5 44 98 bb 97 1a 5d bd d2 77 63 be
       0.06657748 -0.004646855 -0.053980436 -0.22213677
0000e0 88 6b c1 3d 95 19 2d bd b5 9d 05 be 81 69 a9 3d
       0.09444338 -0.042260725 -0.13048442 0.082720764
0000f0 81 3c 62 bd 07 1f 3f 3e fd c8 d1 bd 8b a6 37 3e
       -0.055233482 0.1866418 -0.102434136 0.17934625
000100 7f a6 61 bd e2 d5 08 3e 7a a7 04 be b5 3c c7 bd
       -0.055090424 0.1336284 -0.12954512 -0.09728376
000110 54 e8 c2 bd f4 c2 af bd b9 59 b1 3c ab c8 06 3d
       -0.09516969 -0.08582106 0.021649228 0.032906216
000120 d1 8f 37 bd d0 05 63 be a6 fb cb 3d 06 5a 17 3b
       -0.04481489 -0.22170186 0.099601075 0.002309443
000130 ed 28 6f be df b3 0c be 48 3f c9 bc cc e2 de 3d
       -0.23355456 -0.1374049 -0.024566308 0.10883102
000140 9e cd b3 3c d2 fa 95 bd c5 16 c4 3d 13 d2 66 3d
       0.021948632 -0.07323231 0.095746554 0.056352686
000150 fb 77 b0 bd 2c be 21 be 12 d9 19 be 40 42 45 3e
       -0.086166345 -0.15795201 -0.15024212 0.19263554
000160 26 e7 e3 3d d5 e9 bd 3c 9b 87 d0 bd 0c 50 b1 3e
       0.111280724 0.023182789 -0.10182115 0.34631383
000170 1f f7 3b 3c de 56 4a bd 6d 97 3d be 85 a0 c5 bc
       0.0114724925 -0.04939925 -0.18514796 -0.024124393
000180 5f 04 fb bd df 3a 01 3e 79 e2 f3 bc a5 d0 1b bd
       -0.12256693 0.12620114 -0.029771077 -0.038040776
000190 a5 dc 85 bd 1c 60 fb bd d0 73 23 3e 0b 5d c3 bc
       -0.06536225 -0.12274191 0.15962148 -0.023848077
0001a0 01 c4 9d 3d de d9 3a be a8 ee 31 3d 1a ea 04 bc
       0.077034004 -0.18247172 0.04344049 -0.008112455
0001b0 1c d4 90 3e b8 53 ad bd 11 50 6b bd 62 41 bd 3d
       0.28286827 -0.08463234 -0.057449404 0.092409864
0001c0 3c 02 b9 bc b8 a3 8f 3e 8a a5 ce bd ca c3 65 bd
       -0.022584073 0.28054595 -0.10090168 -0.056094922
0001d0 0a 06 8b 3e 14 28 31 3d 3d 66 fe 3d 20 03 00 be
       0.27153045 0.043251112 0.12421844 -0.12501192
0001e0 13 dc fc 3d fe 3c 65 3d 3f 64 0a be 6f 24 5f 3c
       0.12346663 0.05596637 -0.13514803 0.013619526
0001f0 7e 5d 59 bd fd b4 69 3e 50 3d 41 3d 4a bf 4f bd
       -0.053067677 0.22822948 0.047177613 -0.050719537
000200 eb 25 1e be 92 94 ae bc 25 57 61 3d 2a c1 f1 3d
       -0.15444152 -0.021311078 0.055014748 0.11804421
000210 64 dd 6d bd 70 fe 9e 3d 35 0a 35 be d0 c8 19 be
       -0.058072463 0.07763374 -0.17679675 -0.1501801
000220 1f 2d 17 3e 9b 94 df bd 48 b2 67 3c 16 8a 30 3e
       0.14763306 -0.10917016 0.014141627 0.17240176
000230 f2 af 6d 3c 64 8e cd bd 4e dd 03 3d 77 f2 1b 3e
       0.014507281 -0.100369245 0.032193474 0.15229212
000240 44 3f 24 3c e9 65 b5 bd 36 f2 b0 3d ef 44 97 bd
       0.010024849 -0.088573284 0.08639948 -0.07386195
000250 a7 2e eb 3b 9f 60 13 be 7d 84 98 3d 0e ec bd 3d
       0.0071771923 -0.14392327 0.07447145 0.092735395
000260 65 93 99 bd 5a 70 ef 3d 71 1f cc 3d 4e 6e 1c be
       -0.074988164 0.11691351 0.099669345 -0.15276453
000270 8f 0d c2 3d 91 b2 05 3e 2b 2a 22 be c8 35 c7 bd
       0.09475242 0.13056399 -0.15836398 -0.09727055
000280 0a 56 f8 3d f8 a6 08 bc 75 06 d0 bd 59 b7 79 bd
       0.12125786 -0.00834059 -0.101574816 -0.06096587
000290 db af aa 3d 49 59 18 3e 1d 5f 5c bc e0 6b a2 bb
       0.08334323 0.1487781 -0.013450411 -0.0049567074
0002a0 46 4a a0 bd d5 0e 9e bd ba 3d e8 3c 69 8f 0a 3d
       -0.078266665 -0.07717673 0.028349746 0.033828173
0002b0 f2 ac 03 be e2 22 bf bc 18 2b 12 bc dd e0 1c bd
       -0.12858942 -0.023332063 -0.008921407 -0.038300384
0002c0 f3 21 d2 bb a6 2b e3 3c 1b 1d 9d 3c 93 2d 78 3d
       -0.0064127385 0.027730774 0.019178918 0.060590338
0002d0 f1 d3 2e 3e 2f 33 2a 3e 07 c6 26 be e5 fa 1b 3d
       0.17073037 0.16621087 -0.16286479 0.03808107
0002e0 e1 17 59 bc 97 06 8b 3d 58 25 d5 bd 01 19 47 bd
       -0.013250322 0.06788366 -0.104075134 -0.04860783
0002f0 6d 18 8c bd 39 4e 01 3e d5 88 c7 bc 0a 32 bd bd
       -0.06840596 0.12627496 -0.024357239 -0.0923806
000300 0b 18 61 be e7 b9 13 be 5c cc 64 bd 14 77 4b be
       -0.21981828 -0.14426385 -0.055858955 -0.19869643
000310 41 d5 3a bd 33 1d 4d 3e 8f bd 2f 3e 8b de f0 3d
       -0.04561353 0.2003067 0.17162155 0.11761197
000320 e4 e2 b9 3d 69 dd a2 bd c3 de 9c 3d b5 49 d0 3d
       0.09076479 -0.07952387 0.07659676 0.101703085
000330 fd 1a 64 3d 36 76 34 3d be 61 9e bd 74 d4 e6 bd
       0.0556898 0.044058047 -0.077334866 -0.11270991
000340 8b e3 0a 3e aa 08 f7 bc b9 71 52 3d 40 6e 90 3d
       0.13563363 -0.030155499 0.051377986 0.070522785
000350 45 f9 93 3d bd a3 cc 3d 98 62 d1 bd cc 3f 44 3c
       0.07225279 0.09992168 -0.102238834 0.011978101
000360 01 9f b3 bd 51 77 2b 3e f7 cb 8c bd f0 33 06 3e
       -0.08770562 0.16744734 -0.06874841 0.1310575
000370 3f 02 c2 bd 1b c3 ac 3d e8 7f 53 bc 65 1a 74 bc
       -0.09473085 0.08435651 -0.012908913 -0.014898871
000380 4d b8 39 bd bd 41 c3 3d 79 df db 3d ce 7e 8f bd
       -0.04534178 0.09534023 0.107359834 -0.07006608
000390 5d ba 04 3d a8 a8 0b 3e e2 63 62 bd a3 8b 90 3c
       0.032404292 0.13638556 -0.055271037 0.017644709
0003a0 fc 56 24 be 8b ef c6 3d db 4d 58 bd a7 5d 77 be
       -0.16048807 0.09713658 -0.052808624 -0.2415682
0003b0 84 45 51 3c 7d 19 17 3d 12 69 55 3d 85 8e ce bb
       0.0127729215 0.036889542 0.052102156 -0.0063036107
0003c0 65 1c 2b 3b cb e0 d1 3b d2 c7 8f bd bc 88 9f bd
       0.0026109454 0.0064049712 -0.070205346 -0.07789752
0003d0 02 76 a0 bd 05 3e df bc 7b d5 cc 3d dc 1e 11 3d
       -0.07835008 -0.027251253 0.10001656 0.03542982
0003e0 4c bd 34 be 6e 38 a6 bb 3d 6b 9e bd a6 fd 92 3d
       -0.17650336 -0.005072645 -0.07735298 0.07177286
0003f0 4a 0c 8c 3d d4 a5 e3 bc 54 ba d5 bd c6 dd 90 3d
       0.068382815 -0.027789034 -0.1043593 0.0707355

lstm.weight_hh_l0 f4 [256, 64]
000000 77 5a 1d be b9 cf cf 3d fc 81 35 3e 67 f8 c9 3c
       -0.15366541 0.10147042 0.17725366 0.02465458
000010 a4 cb fb bd e5 e6 5f be 2f ad 1c 3e 98 f3 3d 3e
       -0.12294701 -0.21865423 0.1530044 0.18549955
000020 76 82 f9 3d c6 23 ff bd 06 10 96 bd 3c db b1 bd
       0.121830866 -0.12457995 -0.07327275 -0.08684394
000030 96 76 e0 3c d2 bc 04 3e 71 23 e1 3d 9f c3 0f 3e
       0.027400296 0.12962654 0.10993088 0.14039467
000040 a1 df 04 3e 06 66 8b bd 0a 95 1a 3e 66 86 d5 bd
       0.12975933 -0.06806569 0.15095916 -0.10426025
000050 e8 89 e8 3d 48 9c 00 be 3c f6 9f 3d 10 01 3b be
       0.113544285 -0.12559617 0.07810637 -0.18262124
000060 cc 1f 86 3d 89 dd 07 3d 20 60 9c 3d 9c 64 67 3d
       0.065490335 0.033170257 0.07635522 0.056492433
000070 e1 06 fe 3c 6e 9d 8a 3d 44 15 0b 3e 19 55 b2 bd
       0.03100914 0.067683086 0.13582331 -0.08707637
000080 d4 96 b9 bb 67 53 8d 3e 0b fd 5a 3c 25 e4 15 3d
       -0.005663732 0.27602693 0.013365994 0.03659453
000090 93 ef 01 be 71 d8 f3 3d fd 85 7a 3c 74 db 02 3d
       -0.12689047 0.11906517 0.015290734 0.031947568
0000a0 15 dc f7 3c 3c a6 8c be 50 04 7f bc c5 b6 b5 bd
       0.03025631 -0.27470577 -0.015564993 -0.08872751
0000b0 c6 2a 4a 3d 56 01 91 bd 6a ff ac 3d f3 68 bf 3d
       0.0493572 -0.07080333 0.08447154 0.09346189
0000c0 89 09 4e bd f4 4d 89 bc 93 85 8e 3c ba 76 bc bc
       -0.050302062 -0.016760804 0.017397678 -0.023005832
0000d0 de 12 a3 3c e9 08 fd 3c 64 e0 73 3e d4 85 ff 3d
       0.019906458 0.030888038 0.23816067 0.124766976
0000e0 1c b7 5c 3c 7e 9f a9 bd f8 7a aa bd 52 ae ea 3d
       0.013471391 -0.08282374 -0.08324236 0.1145903
0000f0 f9 67 38 be 9a 45 64 bd 10 a4 9f bd 08 7c 27 3e
       -0.18008412 -0.05573044 -0.07794964 0.16355908
000100 88 2b 89 bc 26 49 19 be 5c 7c a3 3c 65 85 66 bd
       -0.01674439 -0.1496931 0.01995676 -0.05627956
000110 1e cd a6 3b 58 fa e4 bd 8b bf d0 bb 31 15 af bd
       0.00509037 -0.11180562 -0.00637049 -0.08548964
000120 13 89 44 bc 8f 5b a2 3b d2 7a 95 bc 21 b8 2d 3e
       -0.011995572 0.0049547623 -0.018247042 0.16964771
000130 d7 73 a9 bd 93 48 9f 3d f1 80 82 bd 90 fa 02 3e
       -0.08274048 0.07777514 -0.0637225 0.12790895
000140 f0 3b 20 bc ae b5 08 be cd 3a b6 3c 05 b7 af bd
       -0.009779915 -0.13350555 0.022244835 -0.0857983
000150 9d d7 1e 3b 6d 81 2c bd 40 d5 60 3e 77 eb 72 bd
       0.0024237402 -0.042115618 0.21956348 -0.059306588
000160 83 41 96 bd ef ba 89 3d 0b 5c ea 3c 76 e8 87 3d
       -0.07336714 0.06725108 0.028608343 0.06636135
000170 dd 29 91 3d e4 56 39 3e b4 a6 85 bc cc c5 99 3a
       0.07088063 0.18099552 -0.016314842 0.0011731922
000180 0e 05 e1 bd 40 8b 19 3e 95 6e 17 3c 28 be 39 3d
       -0.10987292 0.14994526 0.009242673 0.045347363
000190 c1 17 09 3e e1 47 83 3d 7b 6b 5e 3d 35 07 d6 bd
       0.13387968 0.06410194 0.05430172 -0.104505934
0001a0 44 b9 4a be 1a 7a 84 bd 33 8e 14 3c bb b1 6f bd
       -0.19797236 -0.064686015 0.009067106 -0.058519106
0001b0 71 30 c0 3d 57 56 a4 3d 20 f9 72 ba 2f b7 f4 ba
       0.093842395 0.080242805 -0.000926869 -0.0018670316
0001c0 63 2d d0 bb 47 cb 23 3d af 74 24 be 29 8c 22 3d
       -0.006353067 0.039988782 -0.16060136 0.03968445
0001d0 35 9c d6 3c aa c4 0d bd 34 cc 76 3c 75 78 14 3e
       0.026197532 -0.03461138 0.015063334 0.14499076
0001e0 47 b5 ef bc c9 0a 00 be 75 e8 68 3e a9 89 94 bd
       -0.029261244 -0.12504114 0.22744925 -0.07252819
0001f0 2a 72 a1 bd 42 ad 0b be 6d 46 68 3b 6d 38 ea bc
       -0.07883103 -0.13640311 0.0035442368 -0.028591359
000200 48 40 0f be 59 32 9a bb 81 d1 16 be 7c e9 fa bd
       -0.13989365 -0.004705709 -0.14728357 -0.12251565
000210 7b 56 e5 bd d5 97 ca 3d a4 1b 02 3e ac 7d 0b bd
       -0.111981355 0.09892241 0.12705857 -0.034055397
000220 67 7d 05 3e 7a a9 59 3d bf 04 04 3e 92 25 8b 3d
       0.13036118 0.05314014 0.12892435 0.06794275
000230 41 1a 5e 3e df 21 3e be ff 04 94 3c 7c 64 9e bc
       0.21689703 -0.18567608 0.018068789 -0.019335024
000240 f8 40 cb 3c 22 ad b4 bd 97 e9 fe 3c a3 bd 54 3d
       0.024811253 -0.08822085 0.031117244 0.051938664
000250 3f 38 6d bc c8 3c b6 3d 0b 1b c0 3d 07 ce 33 3d
       -0.014478742 0.08898312 0.09380158 0.043897655
000260 a0 3b 84 3a ad 98 6e bd 11 9b a8 bd 80 91 89 3d
       0.001008857 -0.05825107 -0.082327016 0.06717205
000270 f7 0f f0 3d 17 fe b5 bd da 9e de 3d ca 37 28 3e
       0.11721795 -0.088863544 0.10870142 0.16427532
000280 9a ad 27 3e e9 64 ac bd e5 53 fe bd c1 6d 24 bd
       0.16374817 -0.084176846 -0.12418345 -0.040143732
000290 68 06 a3 bd b9 ec 92 bd 36 da 15 be 3a 79 da 3b
       -0.07960206 -0.071740575 -0.14634022 0.0066672834
0002a0 1d 16 26 3d f2 91 5a 3e a6 88 0d 3c da a9 88 bc
       0.040548433 0.21344736 0.008638537 -0.016682554
0002b0 16 bc 8e 3d 16 a1 ff bc b7 81 e3 3c 4c de 21 3d
       0.06969468 -0.031204741 0.027771814 0.03951864
0002c0 fb 71 d5 3d 63 ce f3 bd 49 41 92 bc a2 98 98 3d
       0.10422131 -0.119045995 -0.017853396 0.074509874
0002d0 4e 64 fc 3d 88 31 37 bd 32 e0 85 3d 37 c3 b6 3d
       0.12323819 -0.04472497 0.065369025 0.08923953
0002e0 6c dc 82 bc ec df 2c 3d a6 ae 90 bd c0 8e d7 bd
       -0.015974246 0.042205736 -0.070645615 -0.10525274
0002f0 d9 02 14 3c 94 51 aa be 85 9f ef 3d 23 72 03 be
       0.009033882 -0.33265364 0.11700348 -0.12836508
000300 b6 39 06 be 4c d1 34 bc 6c 9c 4b 3e 95 dc 29 be
       -0.13107952 -0.011036228 0.19883889 -0.16588052
000310 0e 8b b4 3c 74 75 a0 bd d5 90 02 bd ea b9 35 bd
       0.022038963 -0.078349024 -0.031876404 -0.044366755
000320 9d cb c0 3c 57 8a d5 bb c7 94 54 3d bb 2d 23 3e
       0.02353459 -0.0065167355 0.051899698 0.15935414
000330 0b 3d 7e 3c 79 19 56 3d 41 e0 4d 3e 95 40 07 3e
       0.015517483 0.052270386 0.20105077 0.1320823
000340 88 6d 89 bd 1b a6 d6 3d c0 ed 72 bd 4b e7 4e 3e
       -0.067103446 0.10480901 -0.059308767 0.20205419
000350 68 2d 29 3e ed aa 2a 3e 87 91 5e 3d 26 f1 b6 bb
       0.16521227 0.16666766 0.054338004 -0.0055829464
000360 08 d0 49 3e 7a bb df bd 04 87 a9 3d 74 30 bc 3d
       0.19708264 -0.1092443 0.08277705 0.09188929
000370 3e 04 93 3d 4e a9 0b 3e 13 47 bc bd 24 69 22 3d
       0.071785435 0.13638803 -0.09193244 0.03965105
000380 17 0a 61 3e 6d f3 d9 bd 67 0d 28 be 5d 6b ae 3d
       0.21976505 -0.10642133 -0.16411363 0.08516572
000390 7a 23 89 be 65 ea 19 3d 96 0e 18 3e 86 0d 2e be
       -0.2678488 0.03757705 0.14849314 -0.16997346
0003a0 e5 dc 30 be 83 54 ae 3d 1e 28 c8 bc 25 fe 23 3e
       -0.17271765 0.08512213 -0.024433192 0.16014917
0003b0 d4 2a b8 3d 32 2c 97 3d 62 b8 db 3d d5 55 08 3e
       0.08992544 0.073814765 0.107285276 0.13313992
0003c0 0d 25 3b bd cd bb 56 3d a5 79 e6 3d d2 19 2c 3d
       -0.04568963 0.052425195 0.112536706 0.04201681
0003d0 56 f9 41 3e c1 d8 2e be 70 4b a5 bc b3 2e 32 be
       0.1894277 -0.17074873 -0.020177573 -0.17400627
0003e0 3c 97 42 3e 8a 92 3e 3c 95 b7 c2 3c 9e 3d 15 be
       0.19003004 0.011631617 0.02376918 -0.14574286
0003f0 4d a5 ca bc 15 25 5e 3d 60 fb f6 3c b1 33 6f 3d
       -0.024737025 0.054234583 0.030149162 0.058398906

lstm.bias_ih_l0 f4 [256]
000000 b9 cc 03 bd 90 47 c6 bd 6b a7 fb bd a1 b2 a1 3b
       -0.03217766 -0.09681618 -0.12287792 0.0049346243
000010 bd 29 0b be 6f 98 0b 3d 9e 3b 33 3c 00 34 06 be
       -0.1359014 0.03408092 0.010939507 -0.13105774
000020 39 15 a9 3a 81 a8 d5 3c b5 e8 24 3d 41 84 80 3d
       0.0012900002 0.026081325 0.04026099 0.062752254
000030 89 c4 f2 bd c2 34 0f be 2c e2 2c bd 55 05 e6 bb
       -0.11853892 -0.1398497 -0.04220788 -0.0070196786
000040 8a 22 0b bd b1 04 88 bd 9f 59 9b 3d c2 ed 3f bd
       -0.033968486 -0.0664152 0.07585453 -0.046857603
000050 db d9 9a bd a9 62 61 bd 13 e2 d8 bc 15 fb 0d be
       -0.07561084 -0.05502573 -0.026474988 -0.13865311
000060 bb ca 8c 3d 6c a5 bf bc 0a d0 aa bc 0e 6c d8 3d
       0.06874605 -0.023394309 -0.020851154 0.10567485
000070 a9 ef b8 3b d9 3e b2 3d b9 5c 12 3c db 76 76 3d
       0.005643804 0.087033935 0.00893324 0.060171943
000080 23 64 e7 bc f7 e4 02 3d b7 f0 fc bc 9b 20 da 3d
       -0.028245991 0.03195664 -0.0308765 0.1065075
000090 50 dd 29 be 79 d5 e8 bd b8 7f ad bb 1c 57 27 be
       -0.1658833 -0.11368842 -0.0052947663 -0.16341823
0000a0 44 43 19 be 70 72 bd bc ae 66 e6 bc 7f c4 0f 3d
       -0.14967066 -0.023125857 -0.028125133 0.035099503
0000b0 d0 1a 92 bb fa 95 ab 3d f4 9b 74 bd 65 ae ef 3d
       -0.0044587627 0.08378215 -0.05971904 0.11703185
0000c0 ec 5f 17 bc ed e6 86 bd 9a 3e 2a be 63 4b 74 3d
       -0.009239178 -0.06587014 -0.16625443 0.059642207
0000d0 a7 06 a4 bc 0d 91 e2 3d b1 ba 0b be 71 37 09 be
       -0.020022703 0.110628225 -0.13645436 -0.13400055
0000e0 d6 13 53 3d 86 12 f7 3c 71 1b e2 3d 6f 43 24 be
       0.05153259 0.0301602 0.1104039 -0.16041349
0000f0 44 d1 1e 3e 39 28 61 3d 44 cb 9d 3d f8 56 81 3c
       0.15509516 0.05497 0.077047855 0.01578854
000100 bd 0d 0b 3d 2a fa 64 3d 4e df ee 3d 54 5c c7 3d
       0.03394865 0.055902638 0.11663686 0.09734407
000110 a3 48 de 3d 59 7b 57 bd 10 73 18 3e e8 ff 64 3d
       0.10853698 -0.052607868 0.14887643 0.055908114
000120 bb e9 6b bd 2e 4d cd bc 05 7e 67 bc e7 9a 31 3e
       -0.05759595 -0.025061216 -0.0141291665 0.17344247
000130 0a 39 99 3c b6 dc 35 3d 31 c9 2b 3e 90 25 28 3e
       0.018703956 0.04439994 0.16775967 0.16420579
000140 7b c1 88 3d 00 28 d0 3d d5 66 3c 3d 22 66 87 bc
       0.066775285 0.101638794 0.045996506 -0.016528193
000150 7d fa 8b bc 23 6d c8 3c dc c8 6f bd d4 fa c1 3c
       -0.017087216 0.024466103 -0.058541164 0.023679174
000160 8d 7e 10 3d ff d3 26 3e 17 d5 54 bd bd cd aa bd
       0.03527694 0.16291808 -0.05196103 -0.08340023
000170 b4 89 d6 bc 7c 9f c7 3d 0b 8d 5b bc 72 f7 ab 3d
       -0.026188709 0.09747216 -0.0134003265 0.08396806
000180 24 bc 7d 3d 5e 21 83 bd 5d aa d2 bb 39 4a d7 3c
       0.061947003 -0.06402849 -0.0064290003 0.02628051
000190 52 d0 9f 3d 2a 79 8a bd 9b 8d 04 3e 9e 70 aa 3d
       0.07803406 -0.067613915 0.12944643 0.08322261
0001a0 df 63 2c 3d 1b e1 42 3d 2f 57 28 bd 3f 6b aa 3b
       0.042087432 0.04757796 -0.04109877 0.005200773
0001b0 16 32 24 3e 91 4e bf bd cf c4 8a bc 1c 70 e1 3d
       0.16034731 -0.09341157 -0.016939549 0.11007711
0001c0 79 48 3a bd 01 9b 75 bc d9 df d9 bc 67 0d 64 ba
       -0.04547927 -0.014990569 -0.026595997 -0.0008699507
0001d0 c9 f9 00 3e f7 33 a2 3d e6 cf a6 bd fe 2f e4 3d
       0.12595285 0.07920068 -0.08145122 0.11141966
0001e0 ff 22 04 3e 98 79 3f 3e 55 03 db 3d 7a bc e0 3d
       0.12903975 0.18698728 0.10693995 0.10973449
0001f0 e1 a6 34 3e 1a d2 1f 3e 88 e9 e0 3d 8b 60 bc 3d
       0.17641784 0.15607491 0.109820426 0.091981016
000200 ab e5 41 bd 44 cd ef bd 42 9f c8 3d a6 b8 f7 3c
       -0.04733817 -0.11709073 0.09796001 0.030239414
000210 ef c3 68 3d f8 79 94 3c 87 f7 cd bd 4f da ad bd
       0.05682748 0.018124565 -0.10056978 -0.08488905
000220 1a 62 46 3d dc 0f 04 3e 5c 01 d5 3d cf 05 ad 3d
       0.0484334 0.12896675 0.1040065 0.084483735
000230 d6 a9 c4 3d b6 8f a5 3d 1d f8 0e 3e c9 52 49 bd
       0.09602706 0.08084051 0.13961835 -0.049151216
000240 1a 2a 22 bd 4e 8c c6 bd a6 61 82 3d da 51 5e 3d
       -0.039590932 -0.0969473 0.06366281 0.05427728
000250 9b f4 bb bd ca 9a 27 3d fd 01 40 bd 88 c9 c5 bb
       -0.09177514 0.040919103 -0.046876896 -0.0060359873
000260 a7 f1 e7 bc 06 50 c6 3c 8e be e9 3d eb eb 1d 3c
       -0.028313471 0.02420808 0.114132985 0.009638767
000270 0a 5d 04 be 79 01 0c bc 35 49 12 3d cd 33 f8 bc
       -0.12926117 -0.008545273 0.035714347 -0.030298138
000280 ff 85 f5 bd 0a b3 61 bd 1b 4c 9e 3d de 7a b2 bd
       -0.11988448 -0.055102386 0.0772936 -0.08714841
000290 82 93 19 b9 1a f3 98 3d 83 6f 66 3d 6f 03 4a 3c
       -0.00014646168 0.07468243 0.05625869 0.01232992
0002a0 42 d8 80 3c 70 ad d4 bd 21 e6 bd 3d 48 81 b2 3d
       0.01572812 -0.10384643 0.09272409 0.08716065
0002b0 d2 63 5d bd 7f 28 34 3d a7 4a 8d bb c3 e0 76 3d
       -0.054050274 0.043983933 -0.004311878 0.060272943
0002c0 02 0f 57 3d 06 f5 b4 ba c2 2f b9 3d 89 f9 63 bd
       0.052504547 -0.0013805933 0.09042312 -0.055657897
0002d0 0d 7a c5 3d b8 5a 8d 3d 0b e1 a1 3d 4d 2c 28 3d
       0.0964242 0.06902069 0.07904252 0.041057874
0002e0 36 a1 d2 3d e0 d7 e7 bd 38 08 66 3d 21 b3 50 3c
       0.10284655 -0.11320472 0.05616018 0.01273802
0002f0 0d 53 6e 3d 87 b9 83 bc a7 87 ae 3d 1d f0 1f bd
       0.058184672 -0.016079677 0.085219674 -0.03904735
000300 54 e4 52 bd 92 f3 c8 3d ba 6e 6b bd 0b 3c a7 bc
       -0.051487282 0.09812082 -0.057478644 -0.020414373
000310 33 48 bb bd 13 36 b9 3d f8 81 95 bc 2c 76 1f bd
       -0.0914463 0.09043517 -0.01825045 -0.038931057
000320 53 b1 8e 3d 8e 79 af 3c f7 03 a4 3d 0f ce 55 bd
       0.06967416 0.021420266 0.08008569 -0.052198466
000330 c3 8b ed 3c ec 35 cc 3d 66 27 a5 bc 5b 7d 90 bd
       0.028997308 0.09971222 -0.020160388 -0.0705516
000340 a1 0a 79 3d bd 1b dc bd c7 4c e9 bd b4 55 0c 3d
       0.060801152 -0.10747478 -0.11391597 0.03426142
000350 61 2f 4f bc cf 1b 11 bc c4 89 b9 bc 3b 74 2b bc
       -0.012645573 -0.008856728 -0.0226487 -0.010464723
000360 9a 79 d1 3c ed f3 6a 3c b7 b4 61 3d 9c b3 1b bd
       0.02557068 0.014340383 0.055103984 -0.038013086
000370 0c 25 19 3c ff 07 aa bd dc 0e 94 3d a1 02 72 3d
       0.009347212 -0.083023064 0.07229397 0.05908454
000380 71 21 17 3d 72 8f 56 3d 6e 9c db 3d 0c c5 d7 3d
       0.036897127 0.052382894 0.10723196 0.105356306
000390 14 10 1f bd 53 2b a9 bd c9 56 f1 bd d0 25 e7 3c
       -0.038833693 -0.082602166 -0.11784131 0.028216273
0003a0 fd 27 c8 3d 9d 62 bf 3d f6 2b 73 3d 1c 4a 13 3d
       0.09773252 0.09344981 0.059368096 0.035959348
0003b0 07 4e c7 bc 5c bf ea 3c 3f 28 16 bd a6 82 27 3d
       -0.024329199 0.0286557 -0.036659475 0.04089608
0003c0 d1 3d 93 3d 96 95 82 bd 4d 87 24 3d fa ab b2 3d
       0.07189525 -0.063761875 0.040168095 0.08724208
0003d0 55 e6 3e 3e 85 c2 7c bd fe 38 7e 3d 1f 99 ab 3d
       0.18642552 -0.061708946 0.06206607 0.08378815
0003e0 e4 bb 1c 3e 50 d3 7c 3d a7 d9 8c bd b3 10 9d bd
       0.1530605 0.06172496 -0.068774514 -0.07669201
0003f0 96 06 c6 3c 3b 40 de 3d d8 f1 a4 3d 3f dc 9e bc
       0.024173062 0.10852095 0.080539405 -0.01939213
