src/bidmc_generation/models/ha_cnn_bilstm_withWST/20260207_114110/fold_4/best_lightweight_hybrid.pth (torch, 430093 bytes, 23 tensors)

cnn_encoder.0.weight f4 [32, 16, 7]
000000 42 d2 31 bd 39 b1 8e bc c4 f8 50 bd e6 db 3e 3d
       -0.043413408 -0.01741849 -0.05101849 0.04659643
000010 8b 6a 0d bb 9a 24 97 bd 36 5b bd 3b 85 43 8d 3c
       -0.0021578397 -0.07380028 0.0057786955 0.01724411
000020 1d e3 cd bd c1 89 08 3a 53 f0 98 bd f1 01 2c 3d
       -0.10053084 0.0005208515 -0.07467713 0.04199404
000030 42 a8 f7 3c ac 3b 9d bd b2 ad 32 3c 4e 56 8e bc
       0.030231599 -0.07677397 0.01090567 -0.017375138
000040 3f 7d 1c bb 3c 38 de 3a 07 78 2e 3d ce 9d 61 3d
       -0.0023878363 0.0016954015 0.042594936 0.055082135
000050 e1 26 5b bd 4e cb 5b bc c1 db be 3c 03 2e 30 3d
       -0.053503875 -0.013415171 0.023298146 0.04301263
000060 29 4a 83 3d 08 25 64 3d df c4 86 bd f5 71 8f 3d
       0.06410629 0.05569938 -0.06580519 0.070041575
000070 8e 76 62 3c 41 7f dc 3c 97 8c d6 bd 74 c0 ed b9
       0.013822211 0.026916148 -0.10476034 -0.0004534755
000080 40 67 64 3d 23 3f 9d 3d 83 e3 c5 3c 38 1b b1 bd
       0.05576253 0.07678058 0.024156338 -0.0864777
000090 d2 e1 27 bd 51 7f ba 3c dd fe cc bd f5 80 3f bd
       -0.040986843 0.022765787 -0.10009549 -0.046753842
0000a0 83 48 91 bd c7 36 af bd fb 15 cc 3c 84 75 8f bd
       -0.07093909 -0.0855537 0.024912825 -0.07004836
0000b0 bc 4f 0f 3c 45 98 4c bd 03 dc ed 3b 04 e3 ef bb
       0.0087470375 -0.049949903 0.0072588935 -0.0073207635
0000c0 e4 fb a8 3d 28 9e b7 3d de 7f 85 3d de 18 d9 bd
       0.08251169 0.08965713 0.06518529 -0.10600446
0000d0 c2 26 ef bc 1d de af bd fa d2 b8 bd 8d 28 91 3d
       -0.029193286 -0.085872866 -0.090246156 0.070878126
0000e0 e5 e9 b7 bd ac 58 60 bd 84 36 0c bd 8b ce 29 bd
       -0.08980159 -0.054772064 -0.034231678 -0.04145674
0000f0 e7 04 c1 3d 95 b3 bb bc 38 12 51 3d 39 3c cc bc
       0.09424763 -0.02291278 0.051042765 -0.02493106
000100 e7 61 a6 bd 3a f6 f7 3c 1c 4c 0f bc 44 c4 72 bd
       -0.08124142 0.030268777 -0.008746173 -0.059269205
000110 bd a3 46 bc 38 7c b5 bd 91 3a 74 3b 9b a6 09 bd
       -0.012123999 -0.088615835 0.0037266354 -0.033606153
000120 b6 96 10 bd 79 fa d3 bd e3 0b a8 3c 6b d0 bf 3a
       -0.03529998 -0.10350508 0.02051348 0.0014634257
000130 23 43 1b bb 27 15 55 bd 8a ba bc bd 1a ac 62 bd
       -0.002369114 -0.052022126 -0.09215267 -0.05533991
000140 27 a2 0c bd 6f 5f a4 bb 4f 50 6f 3d 4b 21 69 bd
       -0.034334328 -0.0050162594 0.058426198 -0.056916516
000150 40 f8 80 bd 16 7b ae bd a9 15 d5 3c 11 f3 c8 bd
       -0.0629735 -0.085195705 0.026011305 -0.09811986
000160 e2 4a 82 bd 26 2d 44 3c 8f 78 72 3d f8 22 cd bc
       -0.06361939 0.011973655 0.059197005 -0.025041088
000170 a4 2a bb bd 72 67 5f bd b7 b4 93 3c 23 e8 82 bd
       -0.091389924 -0.054542013 0.018030507 -0.06391933
000180 c2 ee c6 bd 56 5b 3c 3d f1 ba 7b 3d 38 88 87 bd
       -0.09713508 0.045985542 0.061457578 -0.066177785
000190 56 b9 34 3d c7 9b 72 bd 8e a9 45 3c 92 58 1c 3d
       0.044122063 -0.059230592 0.012064351 0.038170405
0001a0 1a e0 46 3d 7a 9d 6c bd 00 83 76 bb 5b e2 b2 bd
       0.048553564 -0.05776737 -0.0037614703 -0.0873458
0001b0 65 c1 a9 3d d5 19 7a bd bb 59 25 bc b9 84 01 be
       0.0828884 -0.06105979 -0.010092194 -0.12648286
0001c0 0b b8 d6 bd fc c1 34 3d 39 d5 4c bd 8f b6 5e 3d
       -0.10484322 0.04413031 -0.050008032 0.05437332
0001d0 25 63 64 3d 9e d4 34 3d e1 b9 d1 bb 97 28 6e 3d
       0.055758614 0.04414808 -0.0064003323 0.05814418
0001e0 41 db 24 bd 65 55 34 bc 38 3d 5b 3d 61 12 1f bd
       -0.04024816 -0.011006688 0.05352518 -0.038835887
0001f0 a1 97 1f bd 01 13 b5 bd 7e e3 dd 3d ad b2 97 bd
       -0.038962964 -0.08841515 0.10834406 -0.074071266
000200 1f 4f b9 3a ba 5e 9c bd ad 99 8a bb 7f 4d 63 3d
       0.001413796 -0.07635255 -0.0042297454 0.055493828
000210 4a bc 93 3c 72 6f d7 3c 77 25 3e bc 0f 7b b3 3d
       0.01803412 0.026298258 -0.011605612 0.08763706
000220 d5 a7 2f 3d e4 30 f0 bc 68 71 7e bd fd af 44 bc
       0.042884666 -0.029320188 -0.06211987 -0.0120048495
000230 f7 a6 bf 3d 0c d0 6f bb e8 9f d7 3c aa a5 0d 3d
       0.09358018 -0.0036592511 0.026321366 0.034581818
000240 09 ea 80 39 4b 62 bc bd 85 d4 9d 3c 99 c3 c5 3d
       0.00024588432 -0.091984354 0.019266376 0.09656448
000250 ca c8 f0 bc 4f d2 29 bd 04 cd 80 bc 4d 4a d6 bd
       -0.029392619 -0.04146033 -0.015722759 -0.104633905
000260 6b 95 47 bd d3 dc 7b 3d ea bb e1 3c 24 e4 86 ba
       -0.04872648 0.06148989 0.027555425 -0.001029138
000270 97 5b aa 3d 2d 79 20 bd ab 64 46 3d ab c7 b2 bd
       0.083182506 -0.039178062 0.04843585 -0.0872949
000280 07 6f 93 3d 77 64 8b bb 5a e9 91 bd 04 2b 80 3d
       0.07198911 -0.0042539197 -0.071245864 0.062582046
000290 4b 75 24 3d df c0 13 3c 21 0e d2 bd f1 c8 26 3d
       0.04015092 0.009018152 -0.10256601 0.040718976
0002a0 c5 e9 1f bc 4e f0 7d bd 55 c7 48 bd 5e e9 8c 3d
       -0.009760325 -0.06199675 -0.049018223 0.06880449
0002b0 33 2e d8 bc 35 51 b6 3d a4 f1 32 3d 2b 6b ac bd
       -0.026389217 0.08902208 0.043687478 -0.08418878
0002c0 36 7c 8d bd d1 60 d5 bd eb a3 e6 bd 24 53 0c 3d
       -0.06908457 -0.10418857 -0.112617336 0.034258977
0002d0 3e 25 bd bd d4 85 97 bd 9b 15 16 3d d8 bd 10 bd
       -0.09235619 -0.073985726 0.0366417 -0.0353373
0002e0 68 ef ed 3c ae e4 7a bd 29 b3 d1 bd 00 20 ee bc
       0.029044822 -0.061253242 -0.1023925 -0.029067993
0002f0 9d 21 ca bd 4d 08 fd bc bf 8d b1 bd 19 95 ab bd
       -0.098696925 -0.030887747 -0.08669614 -0.083780475
000300 84 93 73 bc cb 8c c5 bd 9d 8a 76 bd c6 87 88 bc
       -0.014866713 -0.09645995 -0.060190786 -0.016666304
000310 4d c2 a6 3d d5 12 e4 3a 89 7e d0 bd 83 02 99 bd
       0.08142529 0.0017400632 -0.10180385 -0.07471182
000320 be d2 76 bc 65 a9 1d 3b 07 ec 89 bd 2c 36 5d 3b
       -0.015064893 0.0024057266 -0.06734472 0.0033754213
000330 a1 28 8c bd 2c a8 ce bb fe f7 7e bd bf f4 82 bd
       -0.06843687 -0.0063066687 -0.062248223 -0.06394338
000340 62 ff 9e bd de b9 3d bd e5 bb 70 bd cb 22 52 3c
       -0.07763554 -0.046319835 -0.05877294 0.012825678
000350 4a 1a 44 bd 8b 15 c6 bd c5 da e9 3c 31 0d 51 bd
       -0.047876634 -0.09672078 0.0285467 -0.05103797
000360 b6 9e f6 bc 9d 42 25 3d f7 94 1c 3d 4d 78 bc 3c
       -0.030104976 0.04034673 0.038228 0.023006583
000370 00 e3 48 3c c6 0b c8 bd e4 7e b8 bd 6f a6 09 be
       0.012261152 -0.097678706 -0.090085775 -0.13442396
000380 e6 be d1 bd e3 71 74 bd a1 e5 5e 3c f3 3c 83 bc
       -0.10241489 -0.059678923 0.0136045525 -0.016020274
000390 c0 9b 91 3d fa b3 7a 3d 61 bf 7a bd bb 77 64 3d
       0.07109785 0.061206795 -0.06121767 0.055778246
0003a0 33 8c 77 3d 30 e9 94 3d 58 66 3f bc 82 fe d1 bd
       0.06043644 0.072710395 -0.0116821155 -0.10253622
0003b0 bc 25 b1 3c a6 bc 5a bd 9b 5e 34 bd 91 1b 0b 3c
       0.021624438 -0.053402565 -0.044035535 0.008490459
0003c0 2f 7b bd bd ce e6 48 bd 87 2e 86 bd 5c 68 55 bd
       -0.09252011 -0.049048238 -0.06551843 -0.052101478
0003d0 0a 7b f3 3b 8c 31 d7 bd 4b a6 fc bb ca ee ee 3c
       0.007430439 -0.10507497 -0.0077102534 0.029166598
0003e0 b7 ac e5 3c d5 4a 8f bd 56 96 33 3d d2 55 42 3d
       0.028036458 -0.06996695 0.043844543 0.047445126
0003f0 b8 fb 74 bc 39 1e bc bd 49 c1 30 3c b2 d7 6a 3d
       -0.014952593 -0.09185452 0.01078827 0.05733461

cnn_encoder.0.bias f4 [32]
000000 86 f9 68 3d 11 a0 55 3b eb 2a 46 3d e8 c3 10 bd
       0.05687859 0.0032596628 0.048380774 -0.03534308
000010 a4 79 da bb cf 56 41 bd 46 c2 9d 3d 26 58 a2 bd
       -0.0066673327 -0.047201928 0.0770307 -0.07926969
000020 f8 af b1 bd f6 52 56 bb b4 ae c6 3c da 77 8f 3d
       -0.086761415 -0.0032703257 0.024253227 0.07005282
000030 bd ba ff bc 08 c3 81 bd ee 43 01 bd 84 6d b7 bd
       -0.031216973 -0.063360274 -0.031558923 -0.08956435
000040 30 c9 6b 3d 00 25 13 3c da 5f f4 ba 4b 71 39 bd
       0.057564914 0.008980989 -0.0018644289 -0.04527406
000050 1e 5e 00 bd 7f f6 7b bd f2 11 3b bd a4 2a cb 3d
       -0.031339757 -0.061514374 -0.04567141 0.099202424
000060 ff 2d 1f bd 93 cd 87 3d cf 3c a0 3d 3b f0 4a bd
       -0.038862225 0.06631007 0.07824098 -0.049545508
000070 49 a3 69 bd d2 d4 74 bc 85 9b 15 3d 81 d0 21 3d
       -0.057040486 -0.014943318 0.036525268 0.039505485

cnn_encoder.1.weight f4 [32]
000000 c6 79 83 3f 73 67 7e 3f 20 70 76 3f 81 a0 83 3f
       1.0271537 0.993766 0.9626484 1.0283357
000010 8b 3d 80 3f f6 93 79 3f 0c 64 79 3f 4f 66 79 3f
       1.0018781 0.97491395 0.97418284 0.97421736
000020 8b ae 72 3f 2c af 82 3f fa 45 82 3f 12 e2 79 3f
       0.9479758 1.0209708 1.0177605 0.9761058
000030 03 ea 87 3f 68 cf 7d 3f 6e 15 71 3f 15 30 87 3f
       1.061829 0.991446 0.94173324 1.0561548
000040 27 ba 7c 3f bc 18 76 3f 74 a4 85 3f 88 80 7f 3f
       0.98721546 0.9613149 1.0440812 0.998055
000050 2d fd 78 3f 92 4c 75 3f 80 0e 86 3f 1d 9f 84 3f
       0.97261316 0.9581996 1.0473175 1.0361058
000060 7d f5 73 3f be b7 7c 3f 63 cd 84 3f eb 55 81 3f
       0.9529646 0.9871787 1.0375179 1.0104345
000070 df 01 7c 3f 1d 1f 80 3f 6a f1 85 3f 0c 58 72 3f
       0.98440355 1.0009495 1.0464299 0.946656

cnn_encoder.1.bias f4 [32]
000000 78 a0 4d bc c9 2a b6 bb ba 07 ea bc 68 18 7d 3c
       -0.012550466 -0.0055592996 -0.028568137 0.015447713
000010 1f 2e 1e bc f1 4a f2 bc 98 46 d4 ba 87 f2 67 bc
       -0.009654551 -0.02957675 -0.0016195355 -0.014156944
000020 d9 24 0c bd 49 08 d5 ba 0e 95 6f bd 1d a7 09 bd
       -0.03421483 -0.001625308 -0.05849176 -0.033606637
000030 78 61 16 bd bf ad 9e bc c3 69 30 bd d8 fb 38 3d
       -0.036714047 -0.019369958 -0.043069612 0.045162052
000040 03 25 4e bd 04 71 1b bd 0f 9c c9 3c 1b 88 17 bd
       -0.050328266 -0.037949577 0.024610547 -0.036995035
000050 2a 4e fb bc e3 60 87 bc f1 f6 02 bd d1 9f 13 3c
       -0.03067692 -0.016525691 -0.031973783 0.009010271
000060 22 26 8f bb d9 f9 5a bd a9 a0 47 bd b4 dc b6 3b
       -0.0043685595 -0.05346093 -0.0487372 0.005580509
000070 16 6b 29 b8 c6 11 7c bc 2b ad 0e bd 99 ae c4 bc
       -4.039247e-05 -0.015385097 -0.034833115 -0.024009036

cnn_encoder.1.running_mean f4 [32]
000000 f3 60 94 bd fd 56 12 3c 3d 21 21 3e 13 e9 07 be
       -0.07245054 0.008931872 0.15735336 -0.13272505
000010 1b 5e b7 b9 33 4d 93 bd 73 57 bf 3d fa 26 f8 bd
       -0.00034974594 -0.07192459 0.093428515 -0.12116809
000020 6b a7 05 3e 32 d8 97 3c 9a 76 41 bd f7 19 87 3c
       0.13052146 0.018535707 -0.047232248 0.016491873
000030 62 4e ca bd d8 87 f6 bd 12 e7 fc 3d 2f 57 9c bd
       -0.098782316 -0.12037629 0.12348761 -0.076338165
000040 91 36 23 3d 43 a4 88 bd f9 f6 86 bb 83 61 25 3d
       0.03984696 -0.066719554 -0.004118797 0.040376198
000050 2d 17 36 be 12 dc 93 3d f4 8b 9a bd 00 fd 38 3e
       -0.17782278 0.072197095 -0.07546225 0.18065262
000060 04 b5 90 3d 8d 19 d0 3c 56 d2 bf 3d 3e 08 57 3b
       0.07065776 0.025402809 0.0936629 0.003281131
000070 77 53 d3 bc a1 f2 ab bd af 2d 4c 3d 55 5b 74 3d
       -0.025796635 -0.08395887 0.049848255 0.059657414

cnn_encoder.1.running_var f4 [32]
000000 8c a9 70 3a 90 ad 9e 3a 94 d4 78 3b c4 2a 87 3a
       0.0009180538 0.0012106169 0.0037968503 0.0010312428
000010 48 3e 39 3a 17 8c c2 39 87 09 5d 3a fb 45 2f 3a
       0.00070664706 0.00037106939 0.00084319006 0.0006686148
000020 87 9b fe 3a 31 8e 84 3a 7c 26 60 3a 8a b0 e6 3a
       0.0019425013 0.0010113177 0.00085506565 0.001760022
000030 26 4d 1c 3a 1a 3a 25 3b 03 16 fd 3a f5 08 04 3a
       0.0005962424 0.0025211633 0.0019308928 0.0005036735
000040 b8 de 5b 3a 4e ed a6 3a c8 8a 03 3a 5c 69 8f 3a
       0.00083873747 0.0012735517 0.00050179334 0.0010941434
000050 f6 e3 3e 3b c0 f4 06 3b 01 e4 39 3a 82 cc ae 3a
       0.0029127575 0.002059266 0.0007091165 0.0013336095
000060 f4 a0 3a 3b df ce ea 39 bc 2e 7a 39 81 e6 c7 39
       0.0028477283 0.0004478609 0.00023859268 0.00038127977
000070 3d f1 aa 39 6f 03 49 3a 3f db 5e 3a 4c 6f 86 3a
       0.00032604663 0.0007668053 0.0008501298 0.0010256558

cnn_encoder.4.weight f4 [64, 32, 5]
000000 d3 3a 4c bd 87 96 83 3b ab a0 15 bd 59 5d 79 bd
       -0.049860787 0.004015747 -0.036530178 -0.06088004
000010 4b 7c c7 3b 74 d8 9d bc e9 64 88 3c 34 0b 80 3d
       0.006087815 -0.019268252 0.01664968 0.06252137
000020 87 95 bf 3c 95 44 e7 3c 15 02 af bb 85 01 89 3d
       0.02338673 0.028230945 -0.0053408244 0.06689743
000030 95 30 3e 3c 3e e6 9f bd fb 64 0b 3b 30 02 03 bd
       0.011608263 -0.07807587 0.0021269906 -0.031984508
000040 84 39 96 3d df a4 67 3d e4 07 26 3d ce e2 ce bd
       0.07335189 0.056553718 0.04053487 -0.10101853
000050 9e 04 a1 bd d5 15 4f 3c 3f 7c 91 bc 6c 76 6c 3b
       -0.07862209 0.0126394825 -0.01775944 0.0036081327
000060 9d ea 45 3d e4 9c e7 bc fe e2 d7 bc 56 f2 25 bd
       0.048319448 -0.028273053 -0.026353355 -0.040514313
000070 22 5d 42 bd fb 5c 83 b9 93 93 4b bd 11 94 19 bd
       -0.0474521 -0.00025055543 -0.049701285 -0.037494723
000080 a1 36 24 bd b1 ea 2d 3d 3a 09 72 3d 8f d3 e5 bb
       -0.04009116 0.042460147 0.05909083 -0.007013745
000090 aa 8b d5 3c 98 8e 36 3c e6 4e 45 bc 69 ea 17 bd
       0.026067574 0.011142395 -0.012042737 -0.037088785
0000a0 f2 7d 85 3d 47 30 b4 3c ec 84 5c bd 68 5f e7 3c
       0.06518163 0.021995677 -0.0538377 0.028243735
0000b0 0b e3 61 3d 4b 39 9e 3d 08 82 41 bd b1 9e 3a bc
       0.055148166 0.077257715 -0.047243148 -0.011390374
0000c0 1d 90 b1 bd ad 5b d9 bc 8c 69 b2 bd fa 22 26 3d
       -0.086700656 -0.026532972 -0.08711538 0.0405607
0000d0 2f 7c 30 3d 35 2e 3c 3a 57 0a c5 3b 5a ec 9d bd
       0.04308718 0.0007178516 0.0060131955 -0.07711096
0000e0 08 63 96 3c 44 7f 3e bd d9 92 4f 3d 85 f8 95 3d
       0.018357769 -0.04650809 0.050677154 0.07322792
0000f0 db b6 ec 3c b2 d6 27 bd d5 54 76 bb 5e 49 f8 ba
       0.028895786 -0.040976234 -0.0037587185 -0.0018942764
000100 8e 59 60 3d 3e 6c bb 3c 14 4c fb 3c 1d 00 7c bd
       0.054772906 0.022878762 0.030675925 -0.061523546
000110 bb ca 0b 3c 4b e9 e2 3c 44 a5 75 bd ee ae 67 bc
       0.008532221 0.027699133 -0.059972063 -0.014140828
000120 e8 2b c9 3d 6b ab 14 bd b1 78 46 bd 26 15 e9 bd
       0.098228276 -0.03629629 -0.048454944 -0.11380987
000130 05 5d 9f 3d 17 a0 94 3d 82 94 a5 3c 8f 22 a5 bd
       0.07781414 0.07257097 0.020212416 -0.08063232
000140 cc 2c b7 bc 81 e6 99 3d 01 fb a9 bb 45 a8 1d bb
       -0.022360228 0.07514668 -0.0051873927 -0.0024056595
000150 05 9b c7 3d b2 6f 3a bd fb 70 68 bd 12 57 23 3d
       0.097463645 -0.045516677 -0.05674837 0.03987796
000160 c0 92 a4 3c f2 55 61 bd 77 78 a3 3d 3c b2 d9 bc
       0.020089507 -0.055013604 0.07981961 -0.026574247
000170 e2 1f 27 3d b0 2b 0b bd ab dc 99 bc 7f 01 af 3b
       0.04080189 -0.03397721 -0.01878198 0.0053407545
000180 7d cb d4 b9 25 1e 7f bd 4f b4 76 bd 1d 0c e7 3c
       -0.00040587402 -0.062284607 -0.06023055 0.028204018
000190 81 f2 11 bd 45 54 8d bd 37 70 33 3d b4 81 9b 3d
       -0.03563166 -0.06900839 0.04380819 0.07593098
0001a0 d2 61 c5 3d 7a 88 af bd 3d 65 bf bc 55 99 07 3d
       0.09637798 -0.08570953 -0.023363704 0.033105213
0001b0 fb 43 74 3d 8b e1 21 bd 4e 52 5a 3a d3 f6 5e 3d
       0.059635144 -0.039521735 0.00083283044 0.05443461
0001c0 31 35 51 bd 69 1e 12 3d 8f 58 ba 3d 19 c4 ce 3c
       -0.051076118 0.035673533 0.090989225 0.025239991
0001d0 3e 8a 7d bd c5 07 de bc 48 b0 d2 bc eb 37 c5 3d
       -0.061899416 -0.027103314 -0.025718823 0.09629806
0001e0 dc 38 39 3d a7 4a b7 bc 65 53 09 bd b2 f9 ad 3d
       0.04522024 -0.022374464 -0.033526797 0.08494891
0001f0 04 1a 8f bd 28 29 ed bb 39 ca 4d 3c 28 82 39 bd
       -0.06987384 -0.007237572 0.012560421 -0.045290142
000200 fd 93 05 3d fe 1c 26 bd 90 69 81 3d 2d e1 25 bd
       0.032611836 -0.040554993 0.063189626 -0.040497947
000210 29 4c 81 bd d3 e2 6a 3c 26 f5 a0 3d 54 3d 43 3c
       -0.063133545 0.014336306 0.07859258 0.011916477
000220 e7 c4 45 3d fd a1 f3 bc 4a 10 6c bd 1a f9 1b bc
       0.048283484 -0.029740328 -0.057632722 -0.00951984
000230 70 c9 94 bd d8 6f b2 bd 70 6c 78 bc 67 52 7f 3d
       -0.07264984 -0.08712739 -0.015162572 0.062334444
000240 4e 8c f3 bb 51 eb 2f bd 11 cb f1 3c 7d d0 ff bc
       -0.007432497 -0.042949025 0.029515775 -0.031227345
000250 d2 f8 06 3b e6 6b ac 3c 48 18 af 3d ac fc 68 bd
       0.0020595086 0.021047544 0.08549553 -0.05688159
000260 eb 60 cb 3c b7 dc 85 3d 55 eb 0c 3d 64 f4 18 3d
       0.024826488 0.06536239 0.034404118 0.037342444
000270 3d 2b 39 3d 33 78 1f bc a1 21 88 bd 12 4a 12 bd
       0.04520725 -0.009733248 -0.06647039 -0.03571517
000280 21 08 1f 3d 81 91 02 3c 5b a0 82 bb 8b c5 81 bd
       0.03882611 0.007969261 -0.003986401 -0.063365065
000290 61 3e 3d 3c 67 4b e1 3c b4 8f 22 3d e1 b6 21 bd
       0.011550517 0.027501775 0.039687827 -0.039481048
0002a0 1c 55 f6 3a 9c 88 82 39 d0 8c 09 bc cc f3 78 bc
       0.0018793675 0.00024897314 -0.008395389 -0.015194844
0002b0 ff 29 28 bd 1c 36 eb bc 1d a2 a3 3c 9d d4 64 bd
       -0.041055676 -0.028712325 0.019974763 -0.055866826
0002c0 32 32 e6 bc 36 0c 9d bd 8d 3b 14 bc 5d 4a 40 3d
       -0.028100107 -0.07668345 -0.009047401 0.04694592
0002d0 71 53 8d 3d 9b 7b 8b 3d 06 43 bf 3b 17 41 a3 3d
       0.06900681 0.06810685 0.0058368472 0.07971399
0002e0 70 71 47 bd e6 3e 11 3d e5 9e 15 3d 5c f9 b3 3d
       -0.048692167 0.035460375 0.036528487 0.08787796
0002f0 fa 79 9b ba 9e 41 06 bd 4e 09 c8 3c 88 9c 2e 3d
       -0.0011861913 -0.03277742 0.0244185 0.04262975
000300 74 74 3a bc 76 5c c0 3c b6 07 ef ba a4 dd 16 3d
       -0.011380304 0.023481589 -0.0018236551 0.036832467
000310 35 e8 37 bd d4 c0 5b 3c 42 d8 50 3d db 2b af bd
       -0.044899184 0.013412673 0.05098749 -0.08553287
000320 77 5a 8b 3d 2a 31 24 bd 77 cb c5 3b 17 dc 1f 3d
       0.06804364 -0.04008595 0.006036218 0.039028253
000330 d8 df 88 3c a4 98 63 bc aa b7 94 bd ad b1 a0 3d
       0.0167083 -0.013891373 -0.07261594 0.07846389
000340 ed d5 7f bd 44 b9 59 3d 7c f5 b6 bc 76 87 ad 3d
       -0.062459875 0.0531552 -0.022333853 0.08473103
000350 4f 85 22 bd 49 56 5f bc 1b 34 8b 3d 51 76 1e 3d
       -0.039677914 -0.013631412 0.06797048 0.038687054
000360 8f ed 93 bd fa d6 f8 bc 16 4b 83 3d 1f c3 9e bd
       -0.07223045 -0.030375946 0.06410806 -0.0775206
000370 bc 4f 05 bb f7 3c cb 3d 94 f6 94 3d 85 bf 20 3c
       -0.0020341715 0.099237375 0.072735935 0.009811287
000380 37 82 31 3d dd 87 bb bd 78 b3 0d bd 2d 60 84 bd
       0.043337073 -0.09156773 -0.034594983 -0.064636566
000390 1d e6 70 bd 25 d4 76 bc 06 cd fc 3c b7 bf 80 3d
       -0.058813203 -0.015065228 0.030859482 0.06286567
0003a0 fc 4f d2 3b 4c 27 4b bc 14 2c 4a bd dd 75 3e bd
       0.0064182263 -0.012399506 -0.049358442 -0.046499122
0003b0 cc c5 c4 bd 11 3d 64 bd 05 e7 c2 bc 9d b1 02 3d
       -0.09608039 -0.0557223 -0.0237918 0.031907666
0003c0 0f 47 e9 3c 28 01 49 3d db 04 96 3d 24 3d 31 3d
       0.028476266 0.04907337 0.07325145 0.0432712
0003d0 9f 29 c9 3c c3 7f df bb e5 04 1d bd 80 54 ee bc
       0.02455598 -0.0068206503 -0.038334746 -0.029093027
0003e0 6d 2e 3b 3d 8b 9b 19 3d c7 22 ad bd b6 f2 1d 3d
       0.045698572 0.037501853 -0.08453899 0.038561545
0003f0 99 4c 14 bd f3 c3 cb 3b 21 20 ad ba fd 2e 25 3d
       -0.03620586 0.0062184273 -0.0013208428 0.040328015

cnn_encoder.4.bias f4 [64]
000000 cd 06 71 3d 2d e0 26 bd 0c 7d b5 3c 6a 75 04 3d
       0.058844376 -0.040741134 0.022154354 0.032338537
000010 f2 a1 4e bc 57 3a 40 3c 48 57 93 3d ae 4d 94 bd
       -0.012611853 0.011732659 0.07194382 -0.07241379
000020 36 82 be bc f7 78 1e 3d c0 ff 61 3d 9a 99 6a bc
       -0.023255449 0.03868958 0.055175543 -0.014318848
000030 e6 d2 3b bc 8e 64 8a 3d ce c7 ed bc 28 08 77 bc
       -0.011463856 0.067574605 -0.029025938 -0.015077628
000040 1a dd 9f 3d 88 82 b0 3b 07 3e 9e bd 12 27 7c 3d
       0.07805844 0.0053866543 -0.077266745 0.061560698
000050 91 66 d5 3c db b3 83 bd 0d f5 7f bd e9 7e cf 39
       0.026049884 -0.06430789 -0.062489558 0.00039576672
000060 63 4f 93 bc bd 32 9d 3d 58 dd 70 bc f5 2c 27 bd
       -0.01798219 0.07675693 -0.01470121 -0.04081436
000070 45 5b b4 3c 0f 00 9a 3d 9e 94 16 3d 31 87 f0 3b
       0.022016177 0.075195424 0.036762826 0.007340335
000080 83 ad 65 bc 75 2f 16 3d 98 60 2a bb cf df c3 3b
       -0.014018419 0.036666352 -0.0025997516 0.005977608
000090 22 1b 98 3c 18 0a 87 3d da 22 83 3c 22 66 9c bd
       0.018567625 0.06593722 0.01600783 -0.07636668
0000a0 4e 28 b5 bc 1f b3 15 bd 80 15 d1 bb 54 98 ff 3c
       -0.022113945 -0.036547776 -0.006380737 0.031200565
0000b0 bd 8f 8d 3c 84 51 8f 3b 76 8f 2f 3d f1 bf 66 3b
       0.017280454 0.004373731 0.042861424 0.003520962
0000c0 20 2f 7d 3c 46 67 d4 3c 6d ec 81 bd 98 a2 17 bd
       0.01545313 0.02592815 -0.06343923 -0.037020296
0000d0 f3 c7 0f bc 4f 0f 96 3d ab 86 70 bb d4 c5 8a 3d
       -0.008775699 0.07327139 -0.0036701362 0.06776014
0000e0 18 33 bd 3c 64 2d ac 3b fc 26 8c bd c1 5e cc 3c
       0.023095652 0.0052544344 -0.06843373 0.024947526
0000f0 c3 0b 8b bd 29 bf 0b 3d 62 dd 48 bd 5d ea f5 3c
       -0.06789353 0.03411785 -0.049039252 0.03001898

cnn_encoder.5.weight f4 [64]
000000 5e 0d 84 3f f8 5d 7a 3f 52 18 79 3f 6f 16 82 3f
       1.0316579 0.97799635 0.97302735 1.0163096
000010 21 a1 7e 3f e9 21 78 3f 52 a8 82 3f e6 66 81 3f
       0.99464613 0.9692674 1.0207617 1.0109527
000020 c2 44 79 3f 84 0f 82 3f 40 09 79 3f e6 c9 7c 3f
       0.9737054 1.0160985 0.9727974 0.9874557
000030 30 e4 82 3f e5 ac 82 3f ff 47 79 3f a1 c7 80 3f
       1.0225887 1.0209013 0.9737548 1.0060922
000040 7b 52 83 3f 81 5a 80 3f f2 d0 80 3f 38 2f 82 3f
       1.0259546 1.002762 1.0063765 1.017066
000050 b5 2c 80 3f bc 0c 7c 3f 51 35 7f 3f f6 02 81 3f
       1.0013644 0.9845693 0.9969073 1.0079029
000060 f0 ae 80 3f e2 82 7c 3f 1e 50 7e 3f 39 8d 75 3f
       1.0053387 0.9863721 0.99341 0.95918614
000070 a6 c1 80 3f d9 0e 80 3f 0a 69 7f 3f 6a b5 83 3f
       1.0059097 1.0004531 0.9976965 1.0289738
000080 30 85 7e 3f 67 68 7c 3f 45 24 7c 3f 62 7a 7b 3f
       0.9942198 0.98596805 0.9849284 0.98233616
000090 3a 31 7c 3f f6 26 7a 3f f4 6c 83 3f dd 06 80 3f
       0.98512614 0.977157 1.0267625 1.0002095
0000a0 8a 4c 80 3f f7 ab 81 3f e8 66 7c 3f a2 ac 84 3f
       1.0023358 1.0130605 0.9859452 1.0365183
0000b0 fa 88 81 3f ff 57 83 3f 86 78 7d 3f 23 b6 82 3f
       1.0119927 1.0261229 0.9901203 1.0211834
0000c0 f5 3e 7b 3f 0e ad 81 3f 17 97 7a 3f a9 aa 81 3f
       0.9814294 1.0130937 0.97886795 1.0130206
0000d0 4f 7b 82 3f 9a 11 80 3f 97 02 81 3f 44 9e 82 3f
       1.0193881 1.0005372 1.0078915 1.0204549
0000e0 de 0f 7b 3f 78 d9 7b 3f 18 70 82 3f 28 7f 82 3f
       0.98071086 0.98378706 1.0190458 1.0195055
0000f0 3a 45 7f 3f 57 17 84 3f 4a 1f 7f 3f 29 97 80 3f
       0.99715006 1.0319623 0.9965712 1.004613

cnn_encoder.5.bias f4 [64]
000000 c3 c2 cb bb 10 73 9e bc 61 9e f1 bc 32 e1 9e bc
       -0.0062182858 -0.019341975 -0.029494466 -0.01939449
000010 d8 aa 21 bd bd 69 fb bc b7 16 f7 3b ea 1c f4 bc
       -0.03946957 -0.030690068 0.0075405496 -0.029798944
000020 c0 ce 81 bc 3f 0f 24 bc 08 88 17 bd 1b de 32 bc
       -0.015845656 -0.010013401 -0.036994964 -0.010917212
000030 f7 bc b1 bc 52 fd c8 3c 1e 30 88 bc bc 7a 9a bb
       -0.02169655 0.024534855 -0.016624507 -0.004714338
000040 db 56 d5 3c 59 88 54 bd 80 92 9f bc 92 36 d8 bc
       0.026042392 -0.051887844 -0.019479036 -0.026393209
000050 d0 a2 9c bc 7f 75 3a bc 17 bb 0e bc 1e 35 2f bc
       -0.019120604 -0.011380552 -0.008711598 -0.0106938165
000060 ad b1 61 bc 24 4c c6 bc dc b5 29 bd 35 3e d3 bc
       -0.013775271 -0.024206229 -0.0414332 -0.025786499
000070 5e 43 92 3b 07 c4 10 bc 1c d6 20 bd 88 ec cd bb
       0.004463597 -0.008835799 -0.03926669 -0.0062843002
000080 33 6f fe bc da 4e 09 bc 78 1b 15 bd 5b 64 68 bc
       -0.031058883 -0.008380616 -0.03640315 -0.014184083
000090 90 3a 50 bc dc 05 9e bb 46 ae 45 bc f5 e4 b9 bb
       -0.012709275 -0.004822476 -0.012065476 -0.0056730458
0000a0 5e 1a e7 ba b3 a2 4c bc 13 ce 9b bc ce 04 61 3b
       -0.0017631759 -0.012489962 -0.019019162 0.003433514
0000b0 f6 eb 23 bd b3 2f 05 bc 84 e4 26 bc 46 80 0b bd
       -0.04001995 -0.008129048 -0.010186318 -0.034057878
0000c0 23 d8 94 3b 63 05 cd bc 9b cc a7 bc 21 28 f6 bb
       0.004542367 -0.025026983 -0.020483306 -0.007512108
0000d0 40 62 15 bd 48 a1 ff bb 6c 51 0d 3b 3a 15 66 bc
       -0.03647065 -0.0078012086 0.0021563424 -0.014043147
0000e0 20 2b 0a bd a1 84 87 bc 23 4a 3e 3c 3b 7e a5 bc
       -0.033732533 -0.016542735 0.011614355 -0.020201793
0000f0 91 f1 2d bc e5 b7 68 3c 4a 84 45 3b 2b 1e 1e ba
       -0.010616676 0.014204 0.0030138665 -0.0006031717

cnn_encoder.5.running_mean f4 [64]
000000 8f b7 41 3d 72 5f 8f be e6 06 96 3e ab 2c 22 3f
       0.047294196 -0.28002506 0.29302138 0.6334941
000010 ff 12 ca 3c c5 3c 85 3e ae c3 89 3d 8c 94 d6 3c
       0.024667261 0.26022926 0.06726776 0.02619388
000020 4e 96 88 be 0a 04 98 be 9f f8 5f be b5 e5 dc be
       -0.26677173 -0.29690582 -0.21872185 -0.43144003
000030 f9 89 c6 3d 9e 63 1b 3c 9e ee c7 be e1 35 4b be
       0.09694285 0.0094842 -0.39049238 -0.19844772
000040 84 2d 9a be b1 6e 45 3f 13 44 80 3e 95 87 d4 3e
       -0.3011285 0.77122027 0.25051937 0.4150969
000050 66 b3 8b be 00 28 17 bf 0f a7 bb 3c 35 22 53 3e
       -0.27285308 -0.5904541 0.022906808 0.20618518
000060 c7 26 8f be 22 63 99 3d 92 8f fe bd f5 2a 7f bd
       -0.27959272 0.07489611 -0.124297276 -0.062296826
000070 ed 24 b0 be 22 ea fc be a1 a9 ce 3e ee c7 4f bd
       -0.34403172 -0.4939738 0.40363792 -0.050727777
000080 f3 97 29 be 8f c6 82 3e 16 e3 84 3e 56 8b 85 3c
       -0.1656187 0.25542113 0.25954503 0.016301792
000090 6f f8 66 be 04 33 c8 bc d8 9b 72 3f f9 01 f1 be
       -0.22555707 -0.024438389 0.9476905 -0.47071818
0000a0 4c 2d 48 bf e3 e3 a6 3e 48 60 ed bc 03 2d ab 3e
       -0.7819412 0.3259574 -0.028976575 0.3343278
0000b0 3a 1b 05 3f 5e d8 85 bd 33 ca ee be ec b2 b6 3d
       0.5199467 -0.065354094 -0.4663864 0.089208454
0000c0 b7 46 04 be 94 33 46 3e 68 e9 68 bd a3 33 ea bd
       -0.129176 0.19355613 -0.05686322 -0.1143563
0000d0 64 19 c0 3e ba a4 d2 be d0 77 7e be b4 bf c2 3d
       0.37519372 -0.411413 -0.24850392 0.09509221
0000e0 d1 32 90 3e c4 b2 c9 3e b4 8b 00 bf 2d 2e b9 be
       0.2816377 0.393942 -0.5021317 -0.36168042
0000f0 6b ae e4 be 3f e6 e1 be 4e e1 81 be 9e ae b8 bd
       -0.4466432 -0.44120976 -0.25367206 -0.090176806

cnn_encoder.5.running_var f4 [64]
000000 b7 83 9d 3e 56 22 a1 3e a7 33 6c 3e 8c 1c 89 3e
       0.30764553 0.3147151 0.23066579 0.26779592
000010 30 96 89 3e 15 54 57 3e 35 c5 ad 3e 7d b7 a4 3e
       0.26872396 0.21028168 0.3393952 0.3217124
000020 e7 03 d7 3e 41 ab 44 3e 21 af 6f 3e 55 57 9c 3e
       0.41995165 0.19205953 0.2340665 0.3053538
000030 b7 b6 6e 3e 43 6d ce 3e a0 9d 8f 3e 89 fe 33 3e
       0.23311888 0.40317735 0.28049946 0.17577566
000040 49 26 80 3e 57 ec 8e 3e 3a bc 2c 3e 20 f8 40 3e
       0.2502921 0.27914688 0.16868678 0.18844652
000050 bd ec 80 3e d2 e3 a4 3e b5 07 9c 3e 5d c5 ab 3e
       0.25180617 0.32205063 0.3047463 0.33549014
000060 1a 93 b4 3e 5a f5 62 3e 4a 54 94 3e 99 e7 a7 3e
       0.3526848 0.22163907 0.28970557 0.32793882
000070 7e 48 d0 3e 8d f5 77 3e 01 40 12 3e a2 4e 91 3e
       0.40680307 0.24214764 0.14282228 0.28380305
000080 3d d2 87 3e 99 69 95 3e 50 af 5d 3e 52 91 75 3e
       0.26527587 0.29182127 0.21648908 0.23981217
000090 2c d8 c9 3e a5 2a 82 3e 1c 80 66 3e 39 46 4a 3e
       0.3942274 0.2542316 0.22509807 0.1975335
0000a0 02 3d 71 3e f4 53 b5 3e 0d 3c b2 3e b5 ef 51 3e
       0.23558429 0.35415614 0.3481144 0.20501597
0000b0 cd c9 26 3e 5f 11 83 3e 64 36 a5 3e 23 dc 9c 3e
       0.16287918 0.2559919 0.3226806 0.306367
0000c0 d4 b5 a0 3e 72 d4 22 3e 99 d0 b3 3e 18 0e 58 3e
       0.31388724 0.15901354 0.35120085 0.21099126
0000d0 d6 bc 59 3e ab e7 40 3e 71 ed 96 3e 79 ef bf 3e
       0.21263441 0.18838374 0.29478028 0.3748739
0000e0 cd df 8f 3e ff 29 87 3e 97 62 6b 3e 16 ca 88 3e
       0.28100434 0.26399228 0.22986828 0.2671668
0000f0 2c d4 87 3e 12 8d 44 3e 1d fd a2 3e 4a cf 89 3e
       0.26529062 0.19194439 0.31833735 0.26915962

lstm.weight_ih_l0 f4 [256, 64]
000000 29 e0 e8 3c 8b 26 d2 bd 28 bc f5 3c c3 60 00 3e
       0.0284272 -0.10261258 0.029996946 0.12536912
000010 90 13 f5 bc 71 8a dd bd f6 24 20 bd 02 3c a3 bd
       -0.029916555 -0.10817421 -0.03909775 -0.0797043
000020 0b fc 10 bd 53 7b 35 3d 81 60 ec 3d 71 0a d3 bd
       -0.035396617 0.044307064 0.11541844 -0.10304726
000030 70 0f da bd de e8 cd 3c 69 e5 42 bd a3 22 f8 3d
       -0.10647476 0.025135454 -0.047582064 0.121159814
000040 83 6a 2c 3d c5 be 98 bd 6e 8c 60 bd 0d bd 0f 3e
       0.042093765 -0.074582614 -0.054821424 0.14036961
000050 1a 9b ee bd 5c bc 6f bc 91 23 1f bd c6 2e 54 bd
       -0.11650677 -0.014632311 -0.03885228 -0.05180242
000060 12 fc d8 bc db 6f db bd dd 2a a5 bd 25 4e 8f 3d
       -0.026487384 -0.10714694 -0.08064816 0.06997327
000070 a8 c6 b2 bc 94 5c 7d bc 0f 5a d9 3d 47 b8 b9 3d
       -0.021823242 -0.015463967 0.106128804 0.09068351
000080 fd f4 ca 3d d1 2f d4 3d ce fb cb 3d 3d 88 09 3d
       0.09910009 0.10360683 0.09960137 0.033577193
000090 6a 84 1d bd 9c f4 c8 3d e8 c8 73 bd a2 5c 19 3d
       -0.038456358 0.098122805 -0.05951777 0.037441857
0000a0 e0 b0 93 bd 36 d3 13 bd 6c 37 51 3d 0d 94 5c bd
       -0.072114706 -0.0360901 0.051078245 -0.05385213
0000b0 76 cc bb 3c 24 5a e9 3d a2 e5 89 3d 5d ac c9 bd
       0.022924643 0.11394146 0.06733252 -0.09847329
0000c0 bd 79 fd bd 03 45 94 bd e3 d7 08 3e f6 ab b7 bd
       -0.12376735 -0.072397254 0.13363604 -0.08968346
0000d0 1b 28 92 bc ec be 10 3b f6 c5 a8 bd a5 dc 39 3d
       -0.01784139 0.0022086455 -0.08240883 0.04537644
0000e0 06 49 e1 3d b4 3f 7b 3d c4 76 5b 3c 37 05 b9 3d
       0.11000256 0.06134005 0.013395015 0.09034198
0000f0 03 80 c5 bd c6 32 af bd 13 60 fb 3c 13 50 8e 3d
       -0.09643557 -0.08554606 0.03068546 0.06948867
000100 bd 22 19 bc 49 5f 58 3d 78 b7 6d bd fa ad 42 3c
       -0.009346661 0.052825246 -0.058036298 0.0118823
000110 57 9c ee bc 1e 58 24 3d 00 2a e9 bd 8e 9a 84 bd
       -0.029127283 0.040123098 -0.11384964 -0.064747915
000120 d0 e7 3d 3d 2a 88 85 3a 19 30 b2 bd b8 77 e8 bc
       0.04636365 0.0010187675 -0.0870058 -0.028377399
000130 41 37 7b 3d 14 bc 01 bc db a8 7b 3d e8 29 fa bc
       0.06133199 -0.0079183765 0.06144033 -0.03053756
000140 b2 9e 91 bd d9 38 b8 3d b1 36 92 3c 16 32 7d 3d
       -0.07110347 0.08995218 0.017848345 0.061815344
000150 40 a2 e3 bd 5e f4 d3 bc 9e 3c 93 bd 9b d9 0b 3c
       -0.11114931 -0.02587336 -0.07189296 0.008535768
000160 e9 fc 32 bd 7a 3c 2a 3d 1c 22 dd bd e3 b6 9b bc
       -0.043698225 0.04156158 -0.107975215 -0.019008106
000170 83 eb d6 3d f8 4b 2d bd 93 c1 07 3e 28 8a cb bd
       0.10494139 -0.042308778 0.13257436 -0.099384606
000180 6d 8d ca 3c 18 fc fe 3d c5 f3 82 bd 5a 2c 9e bd
       0.02472564 0.12450427 -0.063941516 -0.07723303
000190 8b 49 06 bd b6 c2 dc 3d ce 42 c7 3d b5 40 a9 bd
       -0.03278498 0.10779326 0.09729539 -0.08264295
0001a0 d6 80 cc 3d 8b e7 3c 3d ca 63 0b 3e 2d de f0 ba
       0.09985511 0.046119254 0.13612285 -0.001837676
0001b0 ae 65 c5 3d 42 df 26 3d 83 72 4e 3d 45 c1 3f 3d
       0.096385345 0.04074026 0.050402176 0.046815176
0001c0 a7 55 d0 bc 3a 71 59 bd 84 af 5b 3d a8 24 e8 bd
       -0.025431467 -0.053086497 0.05363418 -0.113351166
0001d0 3d 17 64 bd ae 91 a3 bd 0c 92 c5 3c 8c c4 9e 3d
       -0.055686224 -0.079867706 0.024117492 0.07752332
0001e0 b1 c2 3f bd 8c e3 ff bd 7f b7 72 bd dd ce 97 3c
       -0.04681653 -0.12494573 -0.059257027 0.018531257
0001f0 75 e0 a7 3d 2d 10 e7 3d bf 2b f3 bc 1b 15 9f 3d
       0.08197109 0.11282382 -0.029683946 0.077676974
000200 d0 9e c7 bd 9f 8e f3 bd 04 51 65 3d d5 14 dc 3c
       -0.09747088 -0.11892437 0.055985466 0.026865402
000210 3b 3a ad bb 98 31 50 3c 73 19 ae 3d 12 3f cc 3d
       -0.0052864826 0.012707137 0.08500948 0.09972967
000220 49 b3 c2 bd 84 e0 0b 3c d1 4f 04 be 69 ab 74 bd
       -0.09506852 0.008537415 -0.12921073 -0.059733782
000230 58 02 a9 3c 82 28 a9 bd 0d a5 19 bc 60 14 35 3c
       0.020631 -0.082596794 -0.00937773 0.011052221
000240 86 26 2b bc 36 ca 98 bd df 70 b0 bd a7 bf ae bd
       -0.010446196 -0.07460444 -0.086152785 -0.085326485
000250 99 0b 74 3b b5 cf 52 3d 3f 4f c0 bc 63 0b f5 bd
       0.0037238358 0.051467616 -0.023475287 -0.119650625
000260 8d ce fd bc 1c 8b 68 3d 75 ea 03 bd 08 41 6e 3d
       -0.03098228 0.05677329 -0.032206018 0.058167487
000270 e6 9b 9c 3d 5b 68 c1 3d 2c 0b e6 bd 5f 60 8a 3d
       0.07646923 0.09443732 -0.112325996 0.067566626
000280 aa e1 04 bd 60 43 0b bc 9c b5 85 bc df 2a 0e 3d
       -0.032441773 -0.00849995 -0.01632195 0.034708854
000290 22 91 00 bd 54 55 12 bd 1c 02 0a bd 7f e6 ca bd
       -0.03138841 -0.035725906 -0.033693418 -0.09907245
0002a0 58 ee f9 bc 29 52 23 bd d3 99 38 3d 28 aa 65 3d
       -0.030509159 -0.039873276 0.045068573 0.056070477
0002b0 cc 7c 5a bd 23 00 d7 3d b3 29 e7 bd 7a 4d 5e 3d
       -0.05334167 0.10498073 -0.1128725 0.054273106
0002c0 91 50 7e bd c9 7b 40 3c 8b 7d b3 3c 21 80 d5 bc
       -0.062088553 0.011748263 0.02191045 -0.026062073
0002d0 e2 31 b5 3d 50 ec 19 3d 7c c6 b6 bd d3 9f a3 3c
       0.08847405 0.03757888 -0.08924577 0.019973671
0002e0 29 55 32 3d a6 5f c0 bd 48 d1 eb bd 3b 1d a3 3d
       0.043538246 -0.093932435 -0.115145266 0.0796456
0002f0 4f 2a ce bc de 77 d9 3d f4 76 fe bd a4 fd dd bc
       -0.025166659 0.10618566 -0.12425032 -0.027098484
000300 c0 f2 33 bd eb ae c0 bd ce aa 62 3d 8e f9 af bd
       -0.043932676 -0.09408363 0.055338673 -0.08592521
000310 33 10 06 bd df c3 29 bd e0 86 9a bd d5 a2 d3 bd
       -0.032730293 -0.041446563 -0.075452566 -0.10333792
000320 48 d2 be 3d e1 a1 2f 3c 1c d3 35 bc 8f c1 01 3e
       0.09317452 0.010719747 -0.011097696 0.12671493
000330 a6 46 c2 bd 06 e7 74 bd b1 df a5 bd bb 8f 2e 3d
       -0.09486131 -0.059790634 -0.080993064 0.04261754
000340 39 a6 80 3b d9 2f c5 ba df 0a 83 3d 79 e4 86 bd
       0.0039260653 -0.0015044167 0.06398558 -0.065865465
000350 71 e3 90 3d 9a 4f e8 3d 8c 94 18 bc d0 9d d5 3d
       0.07074631 0.11343308 -0.00931276 0.10430491
000360 ea 80 e6 bd e1 62 f8 bd e7 47 03 3b 82 17 8d bd
       -0.11255057 -0.12128235 0.002003187 -0.068892494
000370 09 98 d9 bd 9a f4 b2 bd b2 30 cf 3b 26 38 ca bd
       -0.106247015 -0.0873806 0.0063229436 -0.09873991
000380 03 7b d0 bc 1d 01 5e bd 34 ec 8e 3d 47 2d b3 bc
       -0.025449282 -0.05420028 0.06978646 -0.021872176
000390 3b 19 3b 3d a3 20 b3 bd 0a 76 bf bb d3 06 2c 3e
       0.04567836 -0.08746459 -0.005842929 0.16799478
0003a0 33 75 06 bc 3f 31 9d 3c 17 b3 55 3d ea a5 bd bc
       -0.008206653 0.019188521 0.052172747 -0.023150403
0003b0 92 51 84 3d b2 86 d4 3c 59 16 1e bc 02 07 26 be
       0.06460871 0.025943134 -0.009648883 -0.16213611
0003c0 c7 cc f6 3c 45 46 d5 3d e7 29 4b 3d bd cb 8c 3c
       0.030126942 0.104137935 0.049600508 0.017186994
0003d0 54 8b 30 bd 6d 51 e2 bd a1 1d 8f 3d 54 27 1f 3d
       -0.043101624 -0.11050687 0.06988073 0.038855866
0003e0 2e 32 ac bd 91 8d 5c bd 6d 29 7e bd 53 15 ce bc
       -0.084080085 -0.053845946 -0.062051225 -0.025156653
0003f0 e6 39 e3 3d 20 31 07 3e c5 39 48 bd 88 a0 a5 3d
       0.110950276 0.13202333 -0.04888322 0.080872595

lstm.weight_hh_l0 f4 [256, 64]
000000 89 69 9c bc 7d cb 83 3d 83 38 bb bd dc c4 6b 3d
       -0.019093292 0.06435297 -0.09141638 0.057560787
000010 c6 61 4e 3d 9d d2 5e 3c c0 49 ab bc 19 91 8f 3b
       0.050386213 0.013600019 -0.02090919 0.0043813107
000020 8e b0 82 b7 03 b6 be 3d 0f e9 73 bd f9 71 80 3c
       -1.5579422e-05 0.0931206 -0.059548434 0.015679346
000030 50 a3 80 bd aa 7e e2 bb 29 09 9d 3d 27 07 c1 3d
       -0.062811494 -0.006912072 0.07667763 0.09425192
000040 2c 49 89 bc db a9 13 bd 4c f5 b1 3d 62 b9 bb bd
       -0.016758524 -0.03605066 0.08689365 -0.09166218
000050 0e fa 26 bd b0 aa e6 3c 7a 4d 06 bd 90 d8 c4 bd
       -0.040765814 0.028157562 -0.03278873 -0.096116185
000060 38 db 9f bc 82 d9 76 3d 18 e4 b2 3c 8f 06 94 3b
       -0.019513711 0.060266025 0.02183728 0.0045173834
000070 77 0f 59 3d 73 b3 0e 3e 9f b5 80 3d 5c 32 67 3d
       0.052993264 0.13935642 0.062846415 0.05644451
000080 07 3c bc bd ce 79 97 3d 6d 59 a5 3c 5b a5 cf bc
       -0.09191137 0.07396279 0.020184243 -0.025347402
000090 95 fc 07 bc c3 69 b1 3c d4 16 94 bd 0c c1 8d 3d
       -0.008299966 0.021656876 -0.072309166 0.069215864
0000a0 ef 85 d5 bd f6 09 07 3e 5f 0c 07 3c 65 e9 5a bd
       -0.104259364 0.13187394 0.008242696 -0.05344524
0000b0 2d cd d1 bd 9a 24 77 bd 45 ff e6 bd d4 e3 ee 3d
       -0.10244212 -0.06033764 -0.112791575 0.116645485
0000c0 00 9f cf bd da 08 78 bd 58 8a 31 bc b2 27 80 bd
       -0.10137749 -0.060555317 -0.010836206 -0.06257571
0000d0 4e b1 61 bd a5 29 5d 3d a2 a3 bf 3d bf 3e f3 bd
       -0.05510073 0.053994793 0.09357382 -0.11877202
0000e0 0d 66 42 3d f7 81 1a bd 46 26 32 bd c5 06 7d bd
       0.047460604 -0.0377216 -0.04349353 -0.061774034
0000f0 63 15 c6 3d e8 7f de bc ea af 36 bc b0 ad b7 3d
       0.09672048 -0.0271606 -0.01115034 0.08968675
000100 db 08 ff bd 27 6d 6f bd 10 95 ec 3d 92 89 f8 bc
       -0.12452861 -0.058453705 0.11551869 -0.030339036
000110 b9 a0 59 bd e5 e0 d2 bd 8f b4 0b 3d eb bb 00 be
       -0.053131793 -0.102968015 0.03410774 -0.12571685
000120 4a a5 c8 bd 8c f9 a5 3d af 80 fd bd 01 75 e1 3c
       -0.097971514 0.08104238 -0.1237806 0.027521612
000130 4f 36 c5 3d 74 c2 e4 bd 6e b9 ac bd 53 ec c3 bd
       0.09629499 -0.111699015 -0.084338054 -0.0956656
000140 2f 62 5a 3d c6 95 0c bd 0f 0e 09 be fa 28 d4 bd
       0.05331629 -0.034322523 -0.13384269 -0.10359378
000150 1c 80 32 3d 42 91 a3 3d bd 61 5f 3d 3b 8a be 3d
       0.043579206 0.0798669 0.05453657 0.09303709
000160 af 66 c5 3c 8c a0 05 bb 9e 55 64 bd 7d 5a 00 3e
       0.024096815 -0.0020389883 -0.055745713 0.12534519
000170 51 5d bf bd 73 40 31 3c 11 08 4c bd fe a7 12 3d
       -0.093439706 0.010818589 -0.04981238 0.03580474
000180 6a 3a e1 bd 39 90 0e 3d 78 fc a1 3d f2 12 c5 bd
       -0.1099747 0.03480551 0.07909483 -0.09622754
000190 b0 a8 0e 3d 9f 4e 8c bd 1a 66 b4 bb a9 52 1a bd
       0.03482884 -0.06850933 -0.0055053355 -0.037676487
0001a0 3e 1a c9 bc 52 24 b2 bd 82 5e d4 bd ff 02 65 3d
       -0.024548646 -0.08698334 -0.103695884 0.05591106
0001b0 f9 73 cd bd 26 58 f6 3c 74 40 d8 bd c2 1e 31 3c
       -0.10031886 0.03007133 -0.105591685 0.010810556
0001c0 31 5c 03 3e c6 6c a0 bd 2f ff 76 bd 50 ee 0e bd
       0.12828137 -0.07833247 -0.060301956 -0.03489524
0001d0 1d 30 84 3b da 2f bb bd 16 69 b0 3d 45 a9 09 be
       0.004034056 -0.09139986 0.086137936 -0.13443477
0001e0 eb ac 82 bc 25 59 df 3d e8 5c 89 3d 7d 59 46 3d
       -0.015951594 0.10905675 0.067071736 0.048425186
0001f0 21 c7 d3 3c 39 b4 96 bd d7 90 a9 bd a7 d2 4a 3d
       0.025851788 -0.073585935 -0.08279579 0.0495173
000200 88 25 8f bd 87 d9 b3 bb 60 f7 d7 3d f2 98 ae 3d
       -0.069895804 -0.0054885778 0.1054523 0.08525266
000210 73 44 b4 bd e5 23 67 bd 84 62 e8 3c 29 84 e1 3d
       -0.08802118 -0.056430716 0.028367288 0.11011536
000220 2a d9 3f 3d ec ad 33 bd 13 0e 69 3d 1b ca 20 bd
       0.046837963 -0.043867037 0.056898188 -0.039255243
000230 38 24 22 bd 80 cb ee 3d a6 dd af 3d 1e f9 92 bd
       -0.039585322 0.11659908 0.08587198 -0.071764216
000240 92 b9 da 37 2e 55 69 3d a9 e3 b6 3d 81 3e b7 bd
       2.6074038e-05 0.056966 0.089301415 -0.089474685
000250 2c 33 0a 3d 42 eb d6 bd 89 23 ab 3d 2f 8b 26 bd
       0.033740208 -0.104940906 0.08356387 -0.04066008
000260 4f 4b de bd da 28 35 bc f9 14 25 bd 1d bc 55 3d
       -0.10854208 -0.011057103 -0.040303204 0.052181352
000270 80 53 e9 3d 13 3b 8a 3d 58 9d d1 b9 e9 92 83 3d
       0.113928795 0.06749549 -0.00039980817 0.06424505
000280 1e 61 05 be 25 3f a8 3c bd 7f 4d 3d 08 3d a3 bd
       -0.13025329 0.020537922 0.05017065 -0.07970625
000290 16 4d 9e bd d2 2e d6 bd fe 7a 7c bd 05 2f 52 3d
       -0.07729547 -0.10458149 -0.061640732 0.051314373
0002a0 b6 12 be 3d c4 60 6c 3d 78 b3 ef 3d 5a de 16 3e
       0.092809126 0.05770947 0.11704153 0.14733258
0002b0 bb 6e 6f bd 58 c8 de bc 04 d6 ba 3d b3 ff bc bd
       -0.05845521 -0.02719514 0.091228515 -0.09228458
0002c0 29 7b ab bd d3 e4 ff bd c2 a8 ac bd 5c 68 9b 3b
       -0.083731 -0.12494817 -0.084306255 0.004742665
0002d0 ec d9 d8 bc 22 4b 03 3e 83 aa 93 3d 3e 79 ba bd
       -0.0264711 0.1282163 0.07210257 -0.09105156
0002e0 9c 0a bf 3b 80 28 d1 3c 37 57 ac bc 2f bc 95 3c
       0.005830122 0.025532007 -0.021037681 0.01827821
0002f0 e7 cf f7 3b c8 a7 f8 bd 13 24 68 bc 71 0d d1 3d
       0.0075626257 -0.12141377 -0.014168757 0.10207642
000300 1b 45 fe 3c 72 28 ac bd 7a b0 47 3b c5 25 ff 3b
       0.031038811 -0.08406152 0.0030470178 0.007786485
000310 c8 8c 8d 3d 08 ec 36 bd 24 e9 c5 3c cc 1f f6 bc
       0.069116175 -0.04465869 0.024159022 -0.030044459
000320 9e 98 a5 3d 0f c3 e0 3d 36 cc 2c bd c3 7a 31 3d
       0.0808575 0.109747045 -0.04218694 0.043329965
000330 71 6d 5d bc b4 ed ed 3c 85 18 79 3d 28 50 c1 bd
       -0.013514862 0.02904401 0.0608144 -0.09439117
000340 93 fc 0e bd 6e db 38 3d 0c d5 08 be 83 7b ab bd
       -0.034908842 0.04513114 -0.13362521 -0.08373167
000350 5d 7f 7e bd fb c8 64 3d 9d e0 be bc 4e 81 20 3c
       -0.06213318 0.055855732 -0.023300463 0.009796454
000360 e4 79 d3 bd 8c d4 ab 3d 40 0d 9d bc 75 86 0e 3e
       -0.10325983 0.083901495 -0.019171357 0.13918479
000370 9e 40 90 bd cb a5 0a bb 8e d2 1f 3d ee 58 56 3d
       -0.07043575 -0.002115595 0.03901916 0.052330904
000380 29 8e db bc d5 72 f9 bd 20 da a7 bd 30 42 27 3d
       -0.026801186 -0.121801056 -0.08195901 0.040834606
000390 89 a5 84 3c b7 01 90 3c 0c 8b c4 bd eb 7d 2b be
       0.016192215 0.017578943 -0.095968336 -0.16747253
0003a0 06 fc b2 bc 73 f2 03 3e 21 93 b5 bd 45 be 18 3c
       -0.02184869 0.12885456 -0.08865953 0.009322708
0003b0 5d da d8 3d fb e0 d5 3d 77 14 01 bd 56 3b fc bc
       0.105885245 0.10443302 -0.031513657 -0.030790012
0003c0 98 11 2b bd 02 ca 7e bc d6 a0 97 3c f5 12 36 3c
       -0.041764826 -0.015551092 0.01850931 0.011112918
0003d0 d2 b5 0e be 0f 25 ac bc 7d 9a ea bd bc b4 d3 bd
       -0.13936546 -0.021013765 -0.114552476 -0.10337207
0003e0 be cb 8e 3d 44 1f b5 3c bf 9f 00 bd 60 9c 8a bc
       0.069724545 0.022109635 -0.031402346 -0.016920269
0003f0 93 75 9d 3c 77 13 cd 3d ef 9f 66 3d cc db 3b bd
       0.019221103 0.10013478 0.05630487 -0.04586391

lstm.bias_ih_l0 f4 [256]
000000 49 07 17 bc 2e 58 07 3d f6 71 c0 bd fe 26 be bd
       -0.0092180455 0.03304308 -0.09396736 -0.09284781
000010 bb 15 07 3d a1 0c 94 bd eb 39 d1 bc f6 48 ca bd
       0.03297971 -0.07228971 -0.025540313 -0.098771974
000020 ac 4e e5 3d d4 da 21 bd d4 07 30 3d a7 fb 05 bc
       0.11196646 -0.03951533 0.042976215 -0.008177674
000030 88 5b c4 3d da 14 08 bd 7d 33 b5 3d f1 1f 98 3d
       0.09587771 -0.03322301 0.08847711 0.07427967
000040 a0 4d 4a bd 6b 55 3a 3d de 11 c3 bd 99 34 70 bd
       -0.049390435 0.045491617 -0.09524892 -0.05864391
000050 04 e3 48 3d 3b cf 9d 3d 88 4a 37 3d 63 ba bd bd
       0.049044624 0.07705542 0.044748813 -0.09264066
000060 b8 42 25 bd cb 18 b5 3c 02 72 9f bd 9b 96 fd bd
       -0.04034683 0.022106549 -0.07785417 -0.12382241
000070 40 7a 46 3c c2 a6 d5 bc eb 05 ec bb e8 d7 90 3d
       0.012114108 -0.026080493 -0.007202854 0.07072431
000080 8c 81 c0 bd f5 2c 09 3d 9e 2f 40 bd 33 c3 09 be
       -0.09399709 0.03349014 -0.04692041 -0.13453369
000090 a7 10 43 bd 8d 57 45 bd b0 91 f4 3d 00 8a bc bd
       -0.047623303 -0.048179198 0.1194185 -0.09206009
0000a0 67 23 87 3d 1f 8d b2 bd 75 3c 70 3d cf 7f 17 bd
       0.06598549 -0.08718323 0.058651406 -0.036987122
0000b0 f5 00 e1 bd e6 cb 84 3d 29 04 83 3c 64 bc e3 bd
       -0.10986511 0.06484203 0.015993195 -0.11119917
0000c0 ab d0 d3 bd d4 9e fa 3d 9b d6 b7 bd fa 24 94 3d
       -0.10342535 0.12237325 -0.089764796 0.07233615
0000d0 42 81 06 3e 66 64 db bd 32 14 16 bc a2 84 c4 3d
       0.13135245 -0.10712509 -0.009160088 0.0959561
0000e0 0a 23 fb 3d 07 e1 0e be a0 ad b0 3c d7 c1 ea 3d
       0.122625425 -0.13953029 0.021567166 0.11462753
0000f0 e3 0b e5 bd 07 39 c1 3d 53 00 b7 3c cc 6d 05 3d
       -0.11183908 0.09434705 0.022339022 0.032575414
000100 1a 9b 80 3d 95 fd 9d 3d c4 8d f0 bc 14 d1 04 3e
       0.06279583 0.077143826 -0.029364474 0.12970382
000110 70 08 d5 bd 8b 51 f7 3d 0e d3 ba 3d ab d0 da 3d
       -0.10402 0.120761 0.09122287 0.106843315
000120 12 da e5 3b 80 e2 e1 bd e8 2d 5a 3d 51 01 8e 3d
       0.0070145214 -0.110295296 0.053266436 0.06933845
000130 e6 54 b2 3d 38 31 16 3d 0d 0f 95 3d 63 12 e8 3d
       0.08707599 0.036668032 0.07278261 0.11331632
000140 2d 39 10 3d f1 91 a6 bd f8 b3 b8 3d 28 7a ad 3d
       0.035210777 -0.08133305 0.09018701 0.08470565
000150 e3 58 ab bd 41 67 a6 3d 27 af 00 3e b9 eb 85 bd
       -0.08366563 0.08125163 0.12566815 -0.06539101
000160 4d 46 86 3d 8e cf 3b 3d 6d f1 d2 bc a7 69 40 bb
       0.065563776 0.045852236 -0.025749886 -0.0029359849
000170 21 fd 99 3d 33 e7 bb 3d 8d 28 dc bd c4 c8 bf 3d
       0.07518984 0.09174957 -0.10749922 0.09364465
000180 9a 61 d8 3c 61 3f b0 bd 4c 15 96 3b 19 72 c4 3d
       0.026413728 -0.086058386 0.0045801755 0.09592075
000190 68 f7 d9 3d 34 18 d7 3b 41 28 f4 39 6b ba 03 3d
       0.10642892 0.0065641645 0.00046569298 0.032160204
0001a0 46 61 a7 bc 2d e9 c9 bd 8c bd db 3c 2a 24 a8 3d
       -0.020432126 -0.09858928 0.026823781 0.08210023
0001b0 05 47 ab bd e2 d0 d2 3c fa 28 97 3c 7a 01 bb bd
       -0.08363155 0.025734369 0.018452156 -0.09131141
0001c0 29 95 a7 bc 4a 7a d8 3c 39 ca ba bd f2 b7 79 3c
       -0.020456867 0.0264255 -0.09120602 0.01524161
0001d0 7f 3d 4b 3c 05 6e e7 bc e2 de 0f 3e aa 3f d5 bd
       0.0124047985 -0.028250704 0.14049867 -0.104125336
0001e0 96 07 9f 3d c2 08 a2 bd 63 03 2c bd 1d 18 f6 bc
       0.07765119 -0.07911827 -0.041995417 -0.030040795
0001f0 6e a6 c5 bd ec f2 6d 3d 0b 42 a0 3d e4 09 2d 3e
       -0.096508846 0.058092996 0.07825097 0.16898304
000200 3e 7c 25 3d 39 d7 9e 3d 22 d1 20 3d ea 5d 6e bd
       0.04040169 0.07755894 0.039261945 -0.058195032
000210 05 45 b5 3d d8 94 8c bd ee 8c 96 bd 3d d9 8b bd
       0.08851055 -0.06864327 -0.07351099 -0.06828544
000220 3a e8 3b bc a3 cc da bd 5e 63 96 3d 98 bd 8d 3d
       -0.011468941 -0.106835626 0.073431715 0.06920928
000230 5a 8f c3 3d 52 fd bd bd dc 1c 44 3c 0d b1 97 bd
       0.095488265 -0.09276833 0.011969771 -0.07406817
000240 a4 45 4a 3d 82 d8 9e 3d ad 3a c0 3d 16 f9 9c 3d
       0.04938282 0.07756139 0.093861915 0.07664697
000250 bd 98 31 bc 71 f8 26 bd a5 e9 e9 3d 72 07 5c bd
       -0.010839638 -0.040764276 0.11421517 -0.053718038
000260 0e 0d fd 3c 57 dc 01 bd ff 29 56 bd 63 2f 69 3d
       0.030890014 -0.031704273 -0.052286144 0.056929957
000270 67 83 04 3d bc c7 b0 3d b2 c1 5f 3b c3 38 01 bd
       0.032351878 0.08631846 0.003414255 -0.031548273
000280 a7 37 bd 3d be 7b f8 3a ea 0e e8 3d 36 ff 78 bd
       0.092391305 0.0018957776 0.1133097 -0.060790263
000290 8e 4d 81 3d 56 a2 a9 bd 48 35 b1 bc c9 06 14 3d
       0.063136205 -0.08282916 -0.021631852 0.036139283
0002a0 65 f7 83 bd c4 cb 77 3d 27 11 ac bd 09 be 82 bd
       -0.06443671 0.06049706 -0.08401709 -0.063839026
0002b0 68 fd df bb c8 07 ee bd 65 a3 ef bc 3e de b6 3c
       -0.0068356283 -0.11622578 -0.029252717 0.02232277
0002c0 aa a0 fc bd 8e a0 f9 3d b0 d0 40 3d 07 59 c1 3b
       -0.12335332 0.121888265 0.04707402 0.0059005055
0002d0 3a 08 9c 3d 57 d0 4b bd 88 f1 9e 3d f7 9f cd bd
       0.076187566 -0.049759235 0.07760912 -0.100402765
0002e0 39 7d a6 3d 4f dc 72 3d 3a 92 b2 bd 11 84 a8 bd
       0.08129353 0.059292134 -0.08719297 -0.08228315
0002f0 d3 ea e3 3b 9b b9 e5 bd 50 df a5 bd 3d 0d e2 bd
       0.0069554835 -0.11217042 -0.08099234 -0.11037681
000300 dc 28 c9 3c ab 22 89 3d 81 d2 a7 bd 39 42 b9 bd
       0.024555616 0.066960655 -0.08194447 -0.09045834
000310 60 75 d2 bc e7 df 30 3d 6a d6 0e 3d bf 3b 0f be
       -0.025690734 0.04318228 0.03487245 -0.13987635
000320 68 bc 44 3d 7f a3 dc 3d 35 da 68 bd 6f e9 fc 3d
       0.04803124 0.10773372 -0.056848723 0.123492114
000330 3d f6 03 be 29 cf 9f 3d bf 05 65 bd cd 7b 7c 3b
       -0.12886901 0.078031845 -0.055913683 0.003852594
000340 56 42 b8 3d d9 ec ef bd 55 6b b4 bd 5b a4 af bd
       0.089970276 -0.11715097 -0.088095345 -0.0857627
000350 05 38 88 3c dd 09 92 3d 2e 5a ec bd 56 75 35 3d
       0.016628275 0.071307875 -0.11540638 0.044301353
000360 4d f4 e8 bc b6 27 dd 3c 0a b4 a3 bd 5a 0a fb 3c
       -0.028436804 0.026996475 -0.07993324 0.030644584
000370 ac 4b c8 bc b3 cf 8b bd e3 2e 42 bd c0 7e c7 3d
       -0.024450146 -0.06826725 -0.047407996 0.097409725
000380 ab 8a 78 3d 20 48 3a bd 2d 56 93 3d e3 ac 71 3b
       0.06067912 -0.04547894 0.07194171 0.003687673
000390 c9 53 82 3c 61 ed af 3d 36 3b 3c bc 71 e5 92 3d
       0.015909093 0.08590198 -0.011488726 0.07172669
0003a0 90 22 35 bd 15 e9 bd bd cf 17 c1 3d 6c 68 e4 3d
       -0.044222414 -0.092729725 0.09428369 0.111527294
0003b0 f5 23 54 bd 26 62 ad bd 8e 99 c0 bd 65 51 cc 3d
       -0.051792104 -0.08465986 -0.09404288 0.09976462
0003c0 52 79 52 bd bc e2 7d 3d a8 2b 14 3c ff 2a 81 bd
       -0.05138523 0.06198381 0.009043612 -0.06307029
0003d0 bb 3d bd 3d 91 87 e5 bd 0c 93 9b 3d 8c 1a 8b 3d
       0.0924029 -0.11207498 0.07596406 0.06792173
0003e0 0f 45 da 3d 93 38 fe bd 9a a1 71 3d 99 e5 ac bd
       0.10657703 -0.124131344 0.058992006 -0.0844223
0003f0 89 7f 52 3d 24 ec 96 bd ec 32 5a 3d 03 03 bb bd
       0.05139116 -0.07369259 0.05327122 -0.09131434
