src/bidmc_generation/models/ha_cnn_bilstm_withWST/20260205_175557/fold_5/best_lightweight_hybrid.pth (torch, 430093 bytes, 23 tensors)

cnn_encoder.0.weight f4 [32, 16, 7]
0	0x3bc8ad2a	0.0061241584
1	0xbd6fba34	-0.058527187
2	0x3cb6d01e	0.022316035
3	0xbdd8206f	-0.10553061
4	0x3ca10938	0.019657716
5	0x3dc1d591	0.09464563
6	0x3d17094f	0.03687411
7	0x3d9d780d	0.076889135
8	0x3ddd1218	0.10794467
9	0xbca6612f	-0.020310013
10	0xbd96f304	-0.0737057
11	0xbdf7fd45	-0.12108854
12	0xbe292363	-0.16517405
13	0xbd5b144a	-0.053486146
14	0x3dffec96	0.12496297
15	0x3d9e6cad	0.07735572
16	0x3d19386d	0.037407327
17	0x3d775724	0.06038584
18	0xbd934d91	-0.07192529
19	0x39e8a6fd	0.00044374904
20	0xbdd686af	-0.104749076
21	0xbad019fa	-0.0015876882
22	0x3d72c2ed	0.059267927
23	0xbd562f15	-0.052290995
24	0x3cd79abd	0.026318902
25	0x3d1efaf6	0.038813554
26	0xbdbe202d	-0.09283481
27	0xbd851c96	-0.06499593
28	0x3d814179	0.06311316
29	0x3db858fe	0.09001349
30	0xbc81a25c	-0.01582449
31	0xbd9021a1	-0.07037664
32	0x3d027816	0.031852804
33	0xbdc9faa7	-0.09862261
34	0xbb2c286b	-0.0026269208
35	0xbb11bcf5	-0.0022237871
36	0x3df27633	0.11838951
37	0xbc863f94	-0.016387738
38	0xbd1116de	-0.0354222
39	0xbde44970	-0.111468196
40	0xbdd5a7b2	-0.10432376
41	0xbdb6d37b	-0.089270554
42	0x39c6cd26	0.0003791835
43	0x3d7e4a9b	0.062082868
44	0xbca07904	-0.019588955
45	0x3d805bde	0.06267522
46	0xbbee24bb	-0.007267562
47	0xbe19fef6	-0.15038666
48	0xbd630615	-0.055425722
49	0x3d04feac	0.032469437
50	0x3d5e95df	0.054342147
51	0x3dcca0ab	0.099915825
52	0xbaa6ffd8	-0.0012741042
53	0xbe0136af	-0.12618516
54	0xbd765969	-0.060143862
55	0xbde7e169	-0.113222905
56	0x3cd7de01	0.026350977
57	0x3c6e6bc1	0.014552058
58	0x3c171cf3	0.009223211
59	0x3cb14f18	0.02164416
60	0xbd3b68d1	-0.045754258
61	0x3d606d49	0.054791722
62	0xbd902a86	-0.07039361
63	0xbb2ca126	-0.002634117
64	0x3c1bbffd	0.009506223
65	0xbd1af407	-0.03783038
66	0xbdc90998	-0.09816283
67	0xbdca366a	-0.0987366
68	0xbe75b307	-0.23994075
69	0xbe7c84dc	-0.24660057
70	0xbd9ed06c	-0.07754597
71	0x3ca89434	0.020578481
72	0xbe04d6dc	-0.12972587
73	0x3b07f7a4	0.002074697
74	0xbe003163	-0.1251884
75	0xbdd2e671	-0.102978595
76	0xbe2812e5	-0.16413458
77	0xbdb26e92	-0.08712496
78	0xbd9a1145	-0.07522825
79	0x3d24894b	0.040169995
80	0x3d25ec2d	0.040508438
81	0xbdf3b359	-0.11899442
82	0xbe1c8b68	-0.15287554
83	0xbdd51570	-0.104044795
84	0x3d1f7947	0.03893402
85	0x3c91e3fe	0.01780891
86	0xbd4c9af9	-0.04995248
87	0x3d28557f	0.04109716
88	0xbde449cb	-0.111468874
89	0xbcb29b40	-0.021802545
90	0xbdbbe85e	-0.0917518
91	0x3d89cfb2	0.06729068
92	0x3d802da3	0.062587045
93	0xbc8de8ad	-0.017322863
94	0x3d7572fb	0.059924107
95	0x3d7a597b	0.06112049
96	0x3d5c6dfa	0.05381582
97	0xbb8ef25a	-0.0043623867
98	0x3c5dc366	0.013535356
99	0xbd2ebe29	-0.04266182
100	0x3d97fced	0.07421289
101	0x3d1b1803	0.037864696
102	0x3d1d5db4	0.03841944
103	0xbd50441f	-0.050846215
104	0xbdcb01c8	-0.09912449
105	0xbce782bc	-0.028260581
106	0xbd307d84	-0.04308845
107	0x3cef5bd5	0.029218594
108	0xbc4b0e88	-0.012393601
109	0xbd44f55d	-0.04808556
110	0x37f19a1f	2.8801207e-05
111	0xbdacd60c	-0.08439264
112	0x3aa53880	0.0012605339
113	0x3dc6b686	0.09702782
114	0xbd8075a3	-0.062724374
115	0x3ca2d849	0.019878523
116	0x3dbd3a85	0.09239677
117	0xbda80754	-0.08204523
118	0xbdaeecd1	-0.08541263
119	0x3d3e1384	0.04640533
120	0x3da9a4ea	0.08283408
121	0xbd978e3b	-0.07400175
122	0xbd3c26b9	-0.045935366
123	0x3cd51f6c	0.02601596
124	0xbddd0773	-0.107924365
125	0xbdc53e01	-0.09630967
126	0x3d7f7ee7	0.062376883
127	0x3d561149	0.05226258
128	0xbc5e7df9	-0.013579839
129	0x3dc0ee5e	0.09420465
130	0xbd911aac	-0.070851654
131	0xbd9d15b1	-0.07670153
132	0xbb9f3cf7	-0.0048595625
133	0x3bceb8d0	0.0063086525
134	0xbc2b982f	-0.010473295
135	0x3d85a4ab	0.065255485
136	0x3dbb5cb3	0.0914854
137	0x3dc58ed7	0.09646385
138	0xbde57be2	-0.112052694
139	0xbe1d611a	-0.15369073
140	0x3c6dee16	0.014522096
141	0x3dc8e71b	0.09809705
142	0x3d689346	0.056781076
143	0xbda39f91	-0.07989419
144	0xbd25b0d2	-0.040451832
145	0xbbc68c5a	-0.0060592117
146	0x3ca61cb1	0.020277353
147	0x3d546623	0.051855218
148	0x3d259716	0.04042729
149	0xbd37cd8d	-0.044873763
150	0xbd8cd286	-0.06876092
151	0xbcce1724	-0.025157519
152	0xbcf51952	-0.0299193
153	0xbda6e17b	-0.08148476
154	0x3d3ca106	0.046052
155	0x3d91cb6d	0.071188785
156	0x3ac97d06	0.0015372343
157	0xbda024fc	-0.07819554
158	0x3d85cc95	0.065331616
159	0xbd674a39	-0.05646727
160	0x3c3bebb0	0.0114697665
161	0x3e0bfbd6	0.13670287
162	0x3cdfd00b	0.027320882
163	0xbd9c8f98	-0.07644576
164	0xbcdabae7	-0.02670045
165	0x3cc2cc41	0.023779036
166	0x3d357325	0.044299264
167	0xbd3dfa8c	-0.04638152
168	0x3d0d8ace	0.034556203
169	0x3d002c9e	0.03129255
170	0xbcc116d7	-0.023570461
171	0xbdbb40ea	-0.09143241
172	0xbd6f1010	-0.058364928
173	0xbdf658f3	-0.120286845
174	0xbd9e4460	-0.07727885
175	0xbd4ddd20	-0.05025971
176	0xbd4151f9	-0.047197316
177	0xbd36c260	-0.044618964
178	0xbd17fb5f	-0.03710496
179	0x3c2ac1d6	0.010422191
180	0x3d0d21c4	0.03445603
181	0xbe021af4	-0.12705594
182	0xbd8d04f7	-0.068857126
183	0xbd2b33ab	-0.04179732
184	0xbdc06ac8	-0.09395367
185	0xbe0437e0	-0.1291194
186	0x3d1c5926	0.038170956
187	0x3d047ac3	0.032343637
188	0xbdbef71a	-0.09324475
189	0xbd2435e4	-0.040090457
190	0xbd6a5a60	-0.057215095
191	0xbe11c83d	-0.14236541
192	0xbc73ec2b	-0.01488785
193	0xbd02e72d	-0.031958748
194	0xbdcb7ebe	-0.099362835
195	0xbdaf4752	-0.08558525
196	0xbdce93ce	-0.10086785
197	0xbdb47139	-0.08810658
198	0xbe16ba31	-0.14719464
199	0xb9f2c631	-0.000463055
200	0x3c8afd9d	0.016966635
201	0x3d45034b	0.048098844
202	0x3d9764fd	0.07392309
203	0xbc94f9fd	-0.01818561
204	0xbd332ba6	-0.0437428
205	0xbc661d64	-0.014045093
206	0xbd808fa3	-0.062773965
207	0x3d7a5695	0.061117727
208	0xbd159917	-0.03652295
209	0xbcd56bc9	-0.026052373
210	0xbd8463d8	-0.06464356
211	0xbdb52b4a	-0.08846147
212	0xbc4f216e	-0.012642248
213	0xbdc2cf80	-0.09512234
214	0x3aa5b81e	0.0012643372
215	0xbd86708d	-0.06564436
216	0xbd6ef9c7	-0.058343675
217	0xbe39dd76	-0.18150887
218	0xbb985005	-0.004648211
219	0x3d6af8bb	0.057366114
220	0xbd610f62	-0.05494631
221	0x3dde1986	0.10844712
222	0x3cd8bd38	0.026457414
223	0x3d062b37	0.032756057
224	0x3d0c82c5	0.0343044
225	0x3dd6c222	0.10486247
226	0xbc668ae8	-0.014071204
227	0xbd9d28a3	-0.076737665
228	0x3d94fbab	0.07274564
229	0x3c66aee9	0.014079788
230	0xbe299585	-0.16560943
231	0xbdf8f3cf	-0.12155878
232	0xbe1f5eec	-0.15563554
233	0xbdc73a5d	-0.09727929
234	0x3d037f85	0.032104034
235	0xbe094325	-0.1340452
236	0xbdd204e5	-0.1025484
237	0xbddaa0ba	-0.106751874
238	0xbdcbe576	-0.099558756
239	0xbe0362ce	-0.1283066
240	0x3d1d8ad8	0.03846249
241	0xbc47173a	-0.012151534
242	0xbde961e9	-0.11395628
243	0x3c78db34	0.015188981
244	0xbd2c88bf	-0.0421226
245	0xbd6d1e0f	-0.057889994
246	0xbdbaa0a7	-0.09112673
247	0xbd1a6649	-0.037695203
248	0xbddf6cee	-0.109094486
249	0xba31504e	-0.00067639805
250	0xbc78bc1c	-0.0151815675
251	0x3ba90ad6	0.0051587624
252	0xbc7f36ec	-0.015577059
253	0xbc4fa4dd	-0.012673584
254	0xbb4ea99b	-0.0031534198
255	0x3d1fd924	0.03902544

cnn_encoder.0.bias f4 [32]
0	0x3d4f087b	0.050545197
1	0x3dbe80da	0.0930192
2	0xbdf89ee6	-0.121396825
3	0xbd024b88	-0.031810313
4	0x3d92bbd1	0.071647294
5	0x3ce2aa9d	0.027669245
6	0x3dd021e5	0.10162715
7	0xbca59312	-0.02021173
8	0x3cf6fea9	0.030150728
9	0x3d0ca2b4	0.034334853
10	0x3c5a217d	0.013313648
11	0x3e003fdd	0.12524362
12	0xbcce0e14	-0.025153197
13	0xbd73be5c	-0.059507713
14	0xbd21b7bf	-0.039481875
15	0x3dc7ab63	0.09749486
16	0x3df0989b	0.11747857
17	0x3d3d2d4d	0.04618578
18	0x3d83475c	0.06410095
19	0x3d97b0df	0.07406782
20	0xbcb2f3da	-0.021844793
21	0x3dc55911	0.09636129
22	0xbd475171	-0.048661653
23	0xbda7e53b	-0.08198019
24	0xbd810283	-0.06299307
25	0x3db54c6e	0.088524684
26	0xbd91ab12	-0.07112707
27	0x3d3e9212	0.046526022
28	0xbcdf22c3	-0.027238255
29	0x3d34f7d8	0.044181675
30	0xbd9ce719	-0.07661266
31	0x3c40a783	0.011758688

cnn_encoder.1.weight f4 [32]
0	0x3f86d5d3	1.0534004
1	0x3f80dfd6	1.0068309
2	0x3f87fbe9	1.0623752
3	0x3f8249b7	1.0178746
4	0x3f86f78c	1.0544295
5	0x3f69ac08	0.91278124
6	0x3f8e978b	1.1139997
7	0x3f69b533	0.91292113
8	0x3f737dae	0.95113647
9	0x3f84a8d5	1.0364023
10	0x3f6bb480	0.92072296
11	0x3f673e32	0.9032928
12	0x3f6dba04	0.9286196
13	0x3f68962c	0.90854144
14	0x3f759eb1	0.9594527
15	0x3f86f59e	1.0543706
16	0x3f8daf66	1.1069152
17	0x3f91be5f	1.1386222
18	0x3f71dc93	0.94477195
19	0x3f5d2118	0.8637862
20	0x3f64e133	0.89406127
21	0x3f9d686c	1.2297492
22	0x3f6c731b	0.92363137
23	0x3f789bbd	0.9711264
24	0x3f63a9e4	0.8893111
25	0x3f8caf6d	1.0991036
26	0x3f791139	0.97291905
27	0x3f6f18ac	0.9339702
28	0x3f79c11c	0.97560287
29	0x3f8301db	1.0234941
30	0x3f86e83f	1.0539626
31	0x3f6ed5c9	0.9329496

cnn_encoder.1.bias f4 [32]
0	0xbc70c6d3	-0.014695841
1	0xbe1abf6c	-0.15112084
2	0xbc45fab0	-0.012083694
3	0xbd931bed	-0.07183061
4	0x3df7ae90	0.12093842
5	0xbd1ae6b5	-0.037817676
6	0xbd4f78ea	-0.050652422
7	0xbdc2dcff	-0.09514808
8	0xbdffac2f	-0.12484013
9	0xbdd4d660	-0.10392451
10	0xbd95e7c0	-0.073195934
11	0xbe18094d	-0.14847298
12	0xbe068bac	-0.13139218
13	0xbd5f51e4	-0.054521456
14	0xbd5adc68	-0.053432852
15	0xbd28f097	-0.04124507
16	0xbe120570	-0.14259887
17	0x3d7268c3	0.05918194
18	0xbe15de0b	-0.14635484
19	0xbd677e69	-0.05651704
20	0xbe0bff80	-0.13671684
21	0x3d2de8ed	0.042458463
22	0xbdabf69f	-0.083966486
23	0xbd890b29	-0.06691582
24	0xbd9d6221	-0.07684732
25	0xbd75fa41	-0.060053114
26	0xbe2280b3	-0.15869407
27	0xbe4227c6	-0.18960485
28	0xbd8b553b	-0.06803366
29	0xbd5aec87	-0.053448226
30	0x3c625318	0.013813756
31	0xbd5269dd	-0.05137049

cnn_encoder.1.running_mean f4 [32]
0	0x3bef0530	0.0072943196
1	0xbd89da12	-0.06731047
2	0xbe34e223	-0.1766439
3	0xbe1be119	-0.15222587
4	0x3dfba31b	0.12286969
5	0x3d60db5a	0.05489669
6	0x3e0fa9d2	0.14029625
7	0x3df98127	0.12182837
8	0xbd13abc9	-0.0360525
9	0x3c1689a4	0.0091880895
10	0xbe388318	-0.18018758
11	0xbd9beefc	-0.07613942
12	0xbe22daa5	-0.15903719
13	0x3b9eac3d	0.0048423097
14	0xbdc44566	-0.09583549
15	0x3e1b69a1	0.15177013
16	0x3d0eed77	0.034894433
17	0x3d7c5cb2	0.06161184
18	0xbe0e02ad	-0.13868208
19	0x3cbfc570	0.023409575
20	0xbdf4f337	-0.11960452
21	0x3da3cb6d	0.07997785
22	0xbb2c06a1	-0.0026249068
23	0xbdc6a7c6	-0.09699969
24	0xbe7913e5	-0.24323995
25	0x3ca278b7	0.019832952
26	0xbd968f2e	-0.07351528
27	0xbe2dad0f	-0.16960548
28	0x3e1e18b2	0.15439108
29	0x3d14f06f	0.036362108
30	0xbd2cc344	-0.042178407
31	0x3d81f7f2	0.0634612

cnn_encoder.1.running_var f4 [32]
0	0x3aa78a2b	0.0012782266
1	0x3b843c90	0.00403554
2	0x3ae0f068	0.001716149
3	0x3b01ada2	0.001978733
4	0x3b1cc64c	0.0023921905
5	0x3afd98a8	0.0019347863
6	0x3afd376f	0.0019318889
7	0x3b105592	0.002202366
8	0x3a5e3100	0.00084759295
9	0x3acff529	0.001586591
10	0x3bf16935	0.007367278
11	0x3b68ea61	0.0035540091
12	0x3b0ca92e	0.0021463144
13	0x3b785fb3	0.0037898838
14	0x3b0e92b3	0.002175492
15	0x3b50199f	0.0031753553
16	0x3b769eb1	0.0037631209
17	0x3acfa3e5	0.0015841691
18	0x3b4cabaf	0.003123026
19	0x3bf13265	0.007360744
20	0x3a97cd3e	0.0011581553
21	0x3a70bc6d	0.0009183351
22	0x3b02454b	0.0019877728
23	0x3a6cc3ef	0.0009031882
24	0x3c26fa90	0.010191575
25	0x3a8021c3	0.0009775687
26	0x3a55fcaa	0.0008162955
27	0x3bb15d3d	0.005412726
28	0x3bfb3e8b	0.007667368
29	0x3ab058af	0.0013454164
30	0x3ac3a4fb	0.0014926487
31	0x3ba5fe45	0.0050657117

cnn_encoder.4.weight f4 [64, 32, 5]
0	0x3dc6f652	0.097149506
1	0xbc9bac69	-0.01900311
2	0xbda77f84	-0.081786186
3	0xbd382e20	-0.044965863
4	0xbcdb3593	-0.026758945
5	0x3df181e7	0.11792355
6	0x3b83bbc1	0.0040201847
7	0xbcb37979	-0.021908509
8	0x3ae190a7	0.0017209247
9	0x3d731e6b	0.05935518
10	0xbdc11e08	-0.09429556
11	0x3db0e026	0.08636503
12	0x3c5721bf	0.013130604
13	0x3dbfea26	0.09370832
14	0xbccc8335	-0.024964908
15	0x3d27e683	0.040991317
16	0xbc1f01d5	-0.009705027
17	0xbcef3abd	-0.029202813
18	0xbda07f8c	-0.07836828
19	0x3ca74109	0.020416753
20	0x3d8f31bc	0.06991908
21	0x3bdc25db	0.00671838
22	0xbcbb264c	-0.02284541
23	0xbcb804db	-0.022463253
24	0x3d0a0dc8	0.03370455
25	0xbda5ad85	-0.08089737
26	0xbd324f1c	-0.043532476
27	0x3cf12a80	0.02943921
28	0xbd2f2b2c	-0.04276578
29	0xbcf75934	-0.030193903
30	0x3dd495db	0.10380145
31	0xbd3afe15	-0.045652468
32	0xbd9e1c5e	-0.07720254
33	0xbd4feca8	-0.050762802
34	0x3db8b56a	0.09018977
35	0x3d53c4fd	0.051701535
36	0x3cc01ea8	0.023452118
37	0x3d10b1b6	0.03532573
38	0x3b13a3d8	0.0022528078
39	0xbd807a53	-0.062733315
40	0xbe0deac0	-0.13859081
41	0x3c45d97e	0.01207578
42	0xbd37ce9d	-0.044874776
43	0xbd526c6e	-0.051372938
44	0xbd706c78	-0.058697194
45	0x3c289db3	0.010291505
46	0x3d54de93	0.051970076
47	0xbd341257	-0.043962803
48	0xbdc11fc6	-0.094298884
49	0x3c8f8506	0.017519485
50	0xbd005e0e	-0.031339698
51	0xbbad2b43	-0.005284698
52	0x3d83cb3b	0.064352475
53	0x3d4ae484	0.049534336
54	0x3d9a245d	0.07526467
55	0xbd403ebc	-0.04693483
56	0xbb9c184c	-0.0047636386
57	0x3db5f800	0.08885193
58	0x3d102ca2	0.035198815
59	0x3d6ea0ba	0.05825875
60	0xbca5f0e5	-0.020256469
61	0xbd55da56	-0.052210175
62	0x3ce18cfc	0.027533047
63	0xbd13adaf	-0.03605431
64	0x3dc56c9b	0.096398555
65	0xbc7d1248	-0.015446253
66	0xbd888133	-0.06665268
67	0x3b390227	0.0028230043
68	0xbe0833ae	-0.13300964
69	0xbe2e540a	-0.17024246
70	0xbdbf9b10	-0.09355748
71	0xbdc794e7	-0.09745198
72	0xbcab0399	-0.020875739
73	0xbdaf3049	-0.085541315
74	0x3c368a6d	0.011141402
75	0x3e17a8d2	0.14810494
76	0x3dee68fa	0.116411164
77	0x3de7197c	0.11284158
78	0x3d9f22c9	0.077703066
79	0xbc1af879	-0.009458655
80	0x3d1ae983	0.03782035
81	0x3cc22eff	0.02370405
82	0x3d1a42b6	0.037661277
83	0x3da499b3	0.08037128
84	0x3d3b7aab	0.045771282
85	0x3bf9f8f7	0.007628556
86	0x3d03476c	0.032050535
87	0xbcdf23bb	-0.027238717
88	0xbd8dfcf1	-0.0693301
89	0x3daae721	0.083448656
90	0xbcc4e94b	-0.024037024
91	0xbda3524b	-0.079746805
92	0xbcbc173f	-0.022960303
93	0x3c3898ec	0.011266928
94	0x3cab81bb	0.020935884
95	0x3c56f3a9	0.013119617
96	0x3d131b32	0.035914607
97	0x3dae9555	0.085245766
98	0x3bc71123	0.006075041
99	0x3cb920f6	0.022598725
100	0xbadf28cc	-0.0017025708
101	0xbcff48e9	-0.031162696
102	0x3a72c387	0.0009260703
103	0xbd0eb82b	-0.034843605
104	0x3d15e701	0.036597256
105	0x3d5024c7	0.050816324
106	0x3d780f7b	0.06056164
107	0x3d9f8272	0.07788552
108	0x3b97113d	0.0046102093
109	0x3d870dd4	0.065944344
110	0xbbe1bf56	-0.006889264
111	0xbd773a30	-0.060358226
112	0xbbffd3f6	-0.00780725
113	0x3db3a993	0.08772578
114	0xbaa43056	-0.0012526612
115	0xbd79aa39	-0.060953353
116	0x3da3a62b	0.079906784
117	0x3b36efba	0.0027913884
118	0x3cf900f9	0.030395972
119	0xbe0ec175	-0.13940986
120	0xbdea6a03	-0.114460014
121	0xbca82109	-0.020523565
122	0xbbc31d49	-0.005954419
123	0xbc080c40	-0.008303702
124	0x3d79f343	0.061023008
125	0x3d58c1a7	0.052919056
126	0x3d7b9a4c	0.061426446
127	0xbd5eae1f	-0.054365274
128	0xbd87ca5c	-0.06630394
129	0x3c80a42e	0.015703287
130	0x3dca67fb	0.09883114
131	0x3db1a1d5	0.08673445
132	0xbd414a49	-0.047189984
133	0xbd2fca96	-0.04291781
134	0xbc9030b3	-0.017601347
135	0x3cf1c20b	0.029511472
136	0x3a59d56c	0.00083096954
137	0xbd2b7a6c	-0.041864797
138	0x3cf7e6b3	0.030261373
139	0x3d86ce8b	0.06582364
140	0x3d768b2e	0.060191326
141	0x3d51d7c4	0.05123116
142	0x3cb0e591	0.02159384
143	0xbc9b95fe	-0.01899242
144	0x3dbc8d4b	0.09206637
145	0x3c8d3251	0.017235907
146	0x3da4630c	0.08026704
147	0x3da8e20d	0.08246241
148	0xbd935e14	-0.07195678
149	0x3b1299b9	0.0022369458
150	0x3d08b10b	0.033371966
151	0x3c24f70b	0.010068665
152	0xbc04ce98	-0.008105896
153	0xbdaf3ff9	-0.08557124
154	0xbdacd997	-0.084399395
155	0x3d7c75e4	0.061635867
156	0xbd07d190	-0.03315884
157	0xbdc2e533	-0.095163725
158	0x3cc4b716	0.024013083
159	0x3cdd7cbe	0.02703702
160	0x3c7daa8f	0.015482559
161	0xbc7ea74d	-0.015542817
162	0x3d343b83	0.044002067
163	0xbb23f426	-0.002501735
164	0xbc8c1f41	-0.017104747
165	0xbdad6017	-0.08465593
166	0x3ce4f530	0.027948946
167	0xbb14101b	-0.0022592607
168	0xbe14b3f1	-0.14521767
169	0x3d9d253e	0.07673119
170	0xbc37c693	-0.011216777
171	0x3d0fbb00	0.035090446
172	0x3d892b3c	0.066976994
173	0xbd0c1ce5	-0.034207243
174	0x3da24585	0.07923416
175	0xbe14b384	-0.14521605
176	0xbd01fb3d	-0.03173374
177	0x3c0c0d04	0.008548025
178	0x3d4d96cd	0.050192643
179	0xbd1961e9	-0.03744689
180	0x3db60da9	0.08889324
181	0x3d95e86a	0.0731972
182	0xbc6056cf	-0.013692572
183	0xbb0f4cc7	-0.0021865831
184	0x3c478fa1	0.01218024
185	0xbda2d75f	-0.07951235
186	0x3d388fe5	0.045059104
187	0x3bb95d38	0.0056568645
188	0x3d7fa1e5	0.062410254
189	0xbdce512c	-0.10074076
190	0x3db6ebfb	0.089317285
191	0xbd5e4c75	-0.054272134
192	0x3d1c77f0	0.03820032
193	0xbd80c5d3	-0.06287732
194	0xbd8f1f01	-0.069883354
195	0x3d136734	0.035987094
196	0x3d111ed1	0.03542978
197	0x3c0c1bb1	0.008551524
198	0x3c6f2ff3	0.014598834
199	0xbc9b5660	-0.018962085
200	0xbd0bd41d	-0.034137834
201	0x3d770583	0.06030799
202	0x3d72cdbc	0.059278235
203	0x3cfbe8c7	0.030750645
204	0x3df94398	0.121710956
205	0xbd57fcc1	-0.05273128
206	0xbc62c577	-0.013841025
207	0xbd3fe95d	-0.046853412
208	0xbde80fc3	-0.11331131
209	0x3dda46d3	0.1065804
210	0xbc1f2b0c	-0.009714853
211	0x3d380bab	0.044933002
212	0x3c6cc46d	0.014451128
213	0xbc92e70f	-0.017932443
214	0x3d736e8e	0.059431605
215	0xbbcd4e6c	-0.006265452
216	0xbcc3e5d6	-0.023913305
217	0xbd05b03d	-0.032638777
218	0x3d1a49a3	0.03766788
219	0x3d127d3b	0.03576396
220	0xbdeadae4	-0.11467531
221	0xbdc1b530	-0.09458387
222	0xbdb7a11c	-0.08966276
223	0x3c811e6e	0.01576158
224	0xbd379788	-0.044822246
225	0x3d4660e7	0.048432257
226	0x3dc33564	0.09531668
227	0x3d024b97	0.03181037
228	0x3c693ab5	0.014235188
229	0x3c8aea83	0.016957527
230	0xbdc75cd2	-0.09734501
231	0xbd5b7652	-0.053579636
232	0x3d4a7426	0.049427174
233	0x3d32bcb1	0.04363698
234	0x3e03366a	0.12813726
235	0x3e0ccd23	0.13750128
236	0x3d63fc85	0.055660743
237	0x3d967a0f	0.073474996
238	0xbd9bb2c9	-0.0760246
239	0xbcf65985	-0.030071983
240	0x3de1589f	0.11003231
241	0x3dc506db	0.09620448
242	0x3e0b2949	0.13589968
243	0xbdb4035e	-0.08789705
244	0xbd15e51e	-0.036595456
245	0xbd2824fa	-0.04105089
246	0xbdd709a2	-0.10499884
247	0x3d969bbf	0.07353925
248	0xbba34c15	-0.004983435
249	0x3ccfd62d	0.025370682
250	0xbc85d4ab	-0.01633676
251	0x3d0ebc21	0.034847382
252	0x3dd4ff22	0.10400225
253	0xbd4964c6	-0.04916837
254	0xbbb25399	-0.0054420945
255	0x3c6c9e9b	0.014442111

cnn_encoder.4.bias f4 [64]
0	0xbd8a2b90	-0.0674659
1	0x3d142302	0.0361662
2	0xbd8dc5d7	-0.069225006
3	0xbd35d32b	-0.04439084
4	0x3d2245c7	0.039617326
5	0x3d1e64f8	0.03867051
6	0xbc856f97	-0.016288562
7	0x3cd071a2	0.02544481
8	0xbcf9a095	-0.03047208
9	0x3d253180	0.04033041
10	0xbdac2bbc	-0.08406779
11	0x3cc32412	0.02382091
12	0x3cee0c83	0.0290587
13	0x3b4bbd7b	0.003108828
14	0xbd10c4e1	-0.03534401
15	0xbd0e8a7a	-0.03480003
16	0xbc968b13	-0.018376863
17	0x3d75be04	0.059995666
18	0xbd29d935	-0.04146691
19	0xbc5df229	-0.013546505
20	0xbd93ffa4	-0.07226494
21	0xbd48947b	-0.048969727
22	0xbc9a0e5d	-0.018805677
23	0xbd63ce33	-0.05561657
24	0xbda058ff	-0.07829475
25	0x3da3aeb8	0.07992309
26	0x3d3533f0	0.044238985
27	0x3d49bbfc	0.04925154
28	0xbbebaf4e	-0.007192529
29	0xbc4d6919	-0.012537264
30	0xbc33abec	-0.010966282
31	0x3d617181	0.055039886
32	0x3b4e5ba9	0.003148774
33	0xbc061f21	-0.008186133
34	0x3d8a47b6	0.06751959
35	0xbd2cbc3a	-0.042171694
36	0x3d2eca11	0.042673174
37	0xbcb9c0e1	-0.02267498
38	0x3d279617	0.04091462
39	0xbc890ec8	-0.016730681
40	0xbd6c36cc	-0.057669446
41	0xbd872e71	-0.06600655
42	0xbd0a9b24	-0.03383936
43	0xbd4ca68a	-0.04996351
44	0x3d8630ba	0.065522626
45	0xbd4265e4	-0.04746045
46	0x3d81ffa7	0.0634759
47	0xbcfcd02d	-0.030860985
48	0xbcc3ce37	-0.023902042
49	0x3d207269	0.03917161
50	0xbd5467b2	-0.051856704
51	0x3d88f475	0.066872515
52	0xbcf51426	-0.029916834
53	0x3da8da53	0.08244767
54	0xbacb5816	-0.0015513923
55	0xbd9ca7d7	-0.076492004
56	0x3da7fb9e	0.08202289
57	0xbc1b5aa3	-0.009482059
58	0xbceef8a8	-0.029171303
59	0xbc6b14e9	-0.014348247
60	0x3d9ba614	0.07600036
61	0x3d372485	0.044712562
62	0x3d4bd9db	0.04976831
63	0xbaacb998	-0.001317787

cnn_encoder.5.weight f4 [64]
0	0x3f8b883f	1.0900954
1	0x3f82a823	1.0207561
2	0x3f8370c1	1.0268785
3	0x3f85ab1a	1.0442841
4	0x3f80a94d	1.0051666
5	0x3f867808	1.0505381
6	0x3f6d2510	0.9263468
7	0x3f7d9033	0.99048156
8	0x3f7c4549	0.9854322
9	0x3f76b5ee	0.9637135
10	0x3f80f8f9	1.007598
11	0x3f7eadc5	0.994839
12	0x3f7b15ed	0.9808033
13	0x3f839c23	1.0282024
14	0x3f828543	1.0196918
15	0x3f808cad	1.0042931
16	0x3f811e64	1.00874
17	0x3f81b7a4	1.0134168
18	0x3f7a46e5	0.97764426
19	0x3f7e3f01	0.99314886
20	0x3f76000f	0.9609384
21	0x3f80ba0e	1.0056779
22	0x3f7c327a	0.9851452
23	0x3f862046	1.0478599
24	0x3f81133e	1.0083997
25	0x3f815a00	1.0105591
26	0x3f7fdda2	0.9994756
27	0x3f769a50	0.9632921
28	0x3f7d993e	0.99061954
29	0x3f7b288c	0.98108745
30	0x3f856c26	1.0423629
31	0x3f78a73c	0.9713018
32	0x3f6b82eb	0.9199664
33	0x3f8750dc	1.0571551
34	0x3f81e9d9	1.014949
35	0x3f84f279	1.0386497
36	0x3f8334b5	1.025046
37	0x3f6d8c10	0.92791843
38	0x3f7b8f0e	0.9826516
39	0x3f77d59f	0.96810335
40	0x3f84d4c1	1.0377427
41	0x3f79b417	0.9754042
42	0x3f7bd153	0.9836628
43	0x3f7f0f72	0.9963294
44	0x3f776fa9	0.96654755
45	0x3f84e05e	1.0380971
46	0x3f7b03db	0.9805276
47	0x3f84c969	1.0373966
48	0x3f83197d	1.0242153
49	0x3f83688e	1.0266283
50	0x3f76de20	0.96432686
51	0x3f74b570	0.9558935
52	0x3f82797e	1.0193326
53	0x3f831823	1.0241741
54	0x3f81124d	1.008371
55	0x3f740b6e	0.9532994
56	0x3f777c8a	0.96674407
57	0x3f83bad7	1.0291394
58	0x3f802e68	1.0014162
59	0x3f7540d9	0.95802075
60	0x3f7f4984	0.9972155
61	0x3f8174c5	1.011376
62	0x3f8691fe	1.0513303
63	0x3f7ac9d0	0.9796419

cnn_encoder.5.bias f4 [64]
0	0xbd847495	-0.06467549
1	0xbcce3499	-0.025171565
2	0xbcd77b8b	-0.026304027
3	0xbde55e06	-0.11199574
4	0xbd975c82	-0.07390691
5	0xbd99565c	-0.07487175
6	0xbdd3dc57	-0.10344761
7	0xbdb7c698	-0.089734256
8	0xbdbdf87d	-0.09275911
9	0xbcb5b371	-0.02218029
10	0xbc0cfb33	-0.008604812
11	0x3a997441	0.001170762
12	0xbd18aab2	-0.037272163
13	0x3cabc4fb	0.020967951
14	0x3c7a6d26	0.015284812
15	0x3ccb1726	0.024791311
16	0xbd96fe82	-0.07372762
17	0xbd6e36aa	-0.0581576
18	0xbc6f5d07	-0.014609582
19	0xbd3ddb40	-0.04635167
20	0xbcd40d86	-0.025885355
21	0xbca78b6c	-0.020452224
22	0xbcc7797f	-0.024349926
23	0xbb82bb0a	-0.003989582
24	0xbc5350b2	-0.012897657
25	0xbc95117e	-0.018196817
26	0xbd1e8688	-0.038702518
27	0xbd9f2146	-0.07770018
28	0xbd388a26	-0.045053624
29	0xbcefcea8	-0.029273346
30	0xbd3c0c3a	-0.045910098
31	0x3ac5ab05	0.0015080875
32	0xbd4cd7dc	-0.050010547
33	0xbc79ea87	-0.01525367
34	0xbc04f6e1	-0.008115501
35	0xbc0ac429	-0.00846962
36	0xbc994ef3	-0.018714404
37	0xbe001c2e	-0.1251075
38	0xbc6be187	-0.014397032
39	0xbcc5c30d	-0.024140859
40	0xbd1ce154	-0.038300827
41	0xbdcdff62	-0.10058476
42	0xbd660aac	-0.05616252
43	0xbbaf9f4f	-0.0053595672
44	0xbcba2a5b	-0.022725275
45	0xbda20122	-0.07910372
46	0xbd4ac5b1	-0.04950494
47	0x3aa2df1b	0.001242611
48	0xbc87adb6	-0.016562324
49	0xbd80da5a	-0.06291647
50	0xbd296221	-0.04135335
51	0xbcbc0e29	-0.02295597
52	0xbd37da77	-0.04488608
53	0xbd89cecc	-0.067288965
54	0xbd94a9b6	-0.07258932
55	0xbe01dc09	-0.12681593
56	0xbd559b4a	-0.05215005
57	0xbd53fb74	-0.051753476
58	0xbd3b8bb8	-0.045787543
59	0xbda85378	-0.082190454
60	0xbd8344d6	-0.06409614
61	0xbd0de4e7	-0.034642126
62	0xbdbbc065	-0.09167556
63	0x3be8a4bf	0.0070997174

cnn_encoder.5.running_mean f4 [64]
0	0x3e1c39e0	0.15256453
1	0xbe43c177	-0.1911677
2	0x3d872c8a	0.06600292
3	0x3e3913bd	0.18073936
4	0x3ed33018	0.4124763
5	0x3f610af6	0.8790735
6	0x3e30005d	0.17187639
7	0x3dfbf5d0	0.123027444
8	0x3f8ac872	1.0842421
9	0xbf0fa7a3	-0.5611517
10	0xbe4253c9	-0.18977274
11	0xbf1dd5fe	-0.6165465
12	0xbef2457b	-0.47318634
13	0xbf55925e	-0.83426464
14	0xbf3f6eca	-0.74778426
15	0xbf115ddb	-0.5678384
16	0xbe549353	-0.20759325
17	0xbd6e548a	-0.05818609
18	0xbeba8351	-0.3642831
19	0x3e50c490	0.20387483
20	0xbf5f7c9c	-0.87299514
21	0xbed07bf6	-0.40719575
22	0xbea885ce	-0.32914585
23	0xbf3762f6	-0.7163538
24	0xbee168be	-0.44025224
25	0xbf53dba9	-0.8275705
26	0x3eb16b41	0.3465214
27	0xbed47273	-0.41493568
28	0xbf170083	-0.58985156
29	0x3d72ebd0	0.05930692
30	0x3e23e7f2	0.16006449
31	0xbdbdb893	-0.0926372
32	0xbe5370d6	-0.20648512
33	0xbf1feefa	-0.62474024
34	0xbe891e4f	-0.26780936
35	0xbe2b83b1	-0.16749455
36	0xbe0ce2f5	-0.13758452
37	0xbdae3f72	-0.08508195
38	0xbf0b287e	-0.5435866
39	0xbee51a51	-0.4474664
40	0x3e1ea0b5	0.15490992
41	0x3f049a47	0.5179791
42	0x3e261992	0.16220692
43	0xbe3c3c35	-0.18382342
44	0xbcc23ac9	-0.023709672
45	0x3e9cc4d8	0.3061893
46	0x3e8afc8a	0.27145797
47	0x3f12f0f4	0.57398915
48	0xbcb5a9ef	-0.022175757
49	0xbf327957	-0.697164
50	0x3e0320bd	0.12805457
51	0xbdbff382	-0.09372617
52	0xbe6decf0	-0.23234916
53	0x3e0cd2a1	0.13752224
54	0xbdad291a	-0.08455105
55	0x3da14ae5	0.07875613
56	0xbe58db38	-0.21177375
57	0xbdc6b4a3	-0.097024225
58	0xbe4cf32e	-0.2001464
59	0xbf242efa	-0.6413418
60	0xbdc713a2	-0.097205415
61	0x3eeea6c5	0.4661161
62	0x3f639258	0.8889518
63	0xbe7d0ffe	-0.24713132

cnn_encoder.5.running_var f4 [64]
0	0x3f0f9579	0.5608745
1	0x3f1e770d	0.6190041
2	0x3ea950c3	0.3306943
3	0x3e8bb476	0.27286118
4	0x3e991071	0.29895356
5	0x3ec42e55	0.383166
6	0x3ef46b9a	0.47738343
7	0x3f12a2a8	0.57279444
8	0x3efc3b7e	0.4926414
9	0x3eaae2b1	0.33376077
10	0x3ede8e6c	0.43468034
11	0x3eb52ffe	0.35388178
12	0x3f0fc6c9	0.561627
13	0x3f57712e	0.84157073
14	0x3f0af3ed	0.5427845
15	0x3f78c772	0.9717933
16	0x3e9a4618	0.30131602
17	0x3e914453	0.2837244
18	0x3f77ecd4	0.96845746
19	0x3f2f9ad6	0.68595636
20	0x3ed6cc34	0.4195267
21	0x3e99fc95	0.30075517
22	0x3f024bea	0.50897086
23	0x3ecb03cc	0.39651334
24	0x3ecd9f06	0.40160388
25	0x3efe8f28	0.49718595
26	0x3f2d3d37	0.6767153
27	0x3f0015cc	0.5003326
28	0x3edbca63	0.42927846
29	0x3f34bbe1	0.7059918
30	0x3e9a6773	0.3015705
31	0x3f61093f	0.87904733
32	0x3f4e6005	0.80615264
33	0x3e398958	0.18118799
34	0x3f210259	0.6289421
35	0x3ed3cd50	0.41367579
36	0x3e9d8793	0.30767497
37	0x3f0f7175	0.56032497
38	0x3f1fa9b4	0.6236832
39	0x3e63eca7	0.22258244
40	0x3e8bf0f1	0.2733226
41	0x3e813699	0.25236967
42	0x3f4c82c3	0.79887027
43	0x3ee89b6c	0.45431077
44	0x3f05bc74	0.5224068
45	0x3e7f6318	0.24940145
46	0x3f04f380	0.5193405
47	0x3f14c3e1	0.5811139
48	0x3f7e61d4	0.99368024
49	0x3f254928	0.6456475
50	0x3e8ba3e2	0.2727347
51	0x3f019a70	0.5062628
52	0x3e8fcd9e	0.2808656
53	0x3f215c8a	0.6303183
54	0x3eb122e2	0.34596926
55	0x3e5784eb	0.21046798
56	0x3e92ceb4	0.28673327
57	0x3e6ad2a7	0.2293192
58	0x3ea54dc2	0.32285887
59	0x3ea6b1dd	0.32557574
60	0x3eb4ebab	0.3533605
61	0x3efa1697	0.4884536
62	0x3e78890e	0.24271032
63	0x3f808c1e	1.004276

lstm.weight_ih_l0 f4 [256, 64]
0	0xbcb6f4ce	-0.022333529
1	0x3cf81dc5	0.030287633
2	0xbe050bd8	-0.129928
3	0xbd619c61	-0.055080775
4	0x3e857673	0.26066932
5	0x3dfc7445	0.12326864
6	0xbdb3967b	-0.08768936
7	0x3d3ccbad	0.046092678
8	0xbde6bc55	-0.1126639
9	0xbdd6bb98	-0.104849994
10	0x3d3afc08	0.045650512
11	0xbd999595	-0.07499234
12	0x3cb6613f	0.022263167
13	0x3d82f6a7	0.063947015
14	0xbe3409a8	-0.17581809
15	0xbcc14d2f	-0.023596374
16	0xbd9f5b88	-0.0778113
17	0x3e05d987	0.13071261
18	0xbd25aa3c	-0.04044555
19	0xbe3d7cfe	-0.18504712
20	0x3d906154	0.07049814
21	0xbd61ae63	-0.05509795
22	0xbe060b0b	-0.1309015
23	0xbe4ee356	-0.2020391
24	0xbd9ac44f	-0.07556974
25	0xbe35c9af	-0.17752717
26	0x3cb88125	0.022522518
27	0xbe3a32b9	-0.18183412
28	0x3ca85def	0.020552604
29	0xbe35fef6	-0.17773041
30	0xbdf6d87f	-0.12053012
31	0x3d94177c	0.07231042
32	0xbc91383b	-0.017727008
33	0x3e0043a1	0.12525798
34	0xbcb5286a	-0.022113997
35	0xbc0fc60e	-0.008775247
36	0xbcf0c449	-0.029390471
37	0x3d3159ce	0.043298535
38	0xbe36ec65	-0.17863615
39	0x3d06008e	0.032715373
40	0x3d295e92	0.041349955
41	0x3da7773e	0.081770405
42	0x3e05651c	0.13026851
43	0xbc00408e	-0.007827891
44	0x3cdfbc0d	0.02731135
45	0xbe13864e	-0.14406702
46	0xbd3552e2	-0.044268496
47	0xbda47c31	-0.080315
48	0xbe2a1659	-0.16610087
49	0xbc36e5fa	-0.011163229
50	0x3d26b489	0.040699515
51	0x3b90a584	0.0044142623
52	0xbe2377b7	-0.15963636
53	0xbe91f260	-0.2850523
54	0x3ba0060e	0.0048835343
55	0xbda1bc49	-0.07897241
56	0xbd7e2f78	-0.06205699
57	0x3e26fd26	0.16307506
58	0x3d8d6105	0.06903271
59	0xbc4b6475	-0.012414088
60	0x3c2d9776	0.010595193
61	0xbd590b0f	-0.052989062
62	0xbd897f6f	-0.06713759
63	0x3d595ab0	0.053065002
64	0xbd88cc22	-0.0667956
65	0xbe391565	-0.18074568
66	0x3d2b0440	0.0417521
67	0xbdbdc9a0	-0.092669725
68	0xbdb8d00c	-0.09024057
69	0x3e3db774	0.18527013
70	0x3e129efc	0.1431846
71	0x3d022721	0.031775597
72	0xbd4f1a25	-0.050562043
73	0x3e897b61	0.26851943
74	0x3d65598e	0.05599361
75	0x3ce28613	0.027651822
76	0xbda209da	-0.07912035
77	0x3d91c466	0.07117538
78	0xbbe1ab7c	-0.0068868976
79	0xbc2a2b52	-0.010386305
80	0xbd95ae7a	-0.073086694
81	0x3da5d77b	0.0809774
82	0x3dc8b03a	0.097992375
83	0x3dad2e4a	0.084560946
84	0x3d1be1fc	0.038057312
85	0xbe17e9d8	-0.14835298
86	0xbd7cdcda	-0.061734058
87	0x3ddb64ff	0.10712623
88	0x3b8616ea	0.004092087
89	0x3cbcf761	0.023067178
90	0xbc97c927	-0.018528534
91	0xbe04d605	-0.12972267
92	0x3d4671af	0.04844826
93	0x3b0edbee	0.0021798569
94	0x3e90f704	0.28313458
95	0x3e48c7aa	0.19607416
96	0xbdd062a1	-0.10175062
97	0x3daa0627	0.08301955
98	0xbe1ba8cf	-0.15201114
99	0x3d4d294c	0.050088212
100	0xbd90a710	-0.07063115
101	0xbdf57798	-0.11985701
102	0xbe760706	-0.24026117
103	0xbbe6f558	-0.00704829
104	0xbc604494	-0.013688225
105	0x3d921c71	0.07134331
106	0xbe1c662c	-0.1527335
107	0x3d3414e0	0.04396522
108	0x3d53057d	0.051518906
109	0x3d619d54	0.05508168
110	0x3cd8d5ce	0.026469138
111	0x3e379a4c	0.17929953
112	0xbd906593	-0.07050624
113	0xbe47d4c1	-0.19514753
114	0x3dd26001	0.102722175
115	0x3e35d9fb	0.17758934
116	0x3ce233a3	0.027612513
117	0xbdb8b31f	-0.0901854
118	0x3cee2027	0.029068066
119	0x3cd8b248	0.026452199
120	0x3cb415bd	0.021983022
121	0x3dd45961	0.1036861
122	0x3daf42d8	0.08557671
123	0xbbf24498	-0.007393431
124	0x3d4160a9	0.047211323
125	0xbdaf5fb4	-0.08563176
126	0x3db801e2	0.08984734
127	0xbd089417	-0.033344354
128	0xbd2d11f0	-0.042253435
129	0xbc643852	-0.013929443
130	0x3e027ac6	0.12742147
131	0x3e19c788	0.15017521
132	0x3e0bd955	0.13657124
133	0x3cf9d743	0.030498153
134	0x3e20d9bd	0.1570806
135	0xbb219a21	-0.0024658518
136	0x3e1153b0	0.1419208
137	0xbde4a650	-0.11164534
138	0x3c9e53e6	0.019327115
139	0x3cc69d59	0.024244951
140	0xbdd1f0c6	-0.10251002
141	0x3ce971dd	0.028496677
142	0x3c9b6fd0	0.018974215
143	0xbd47a086	-0.04873707
144	0xbdc341ea	-0.095340565
145	0xbc98df74	-0.018661238
146	0xbbe92034	-0.0071144346
147	0xbe5cdbc3	-0.21568207
148	0xbd967e50	-0.07348311
149	0xbe2a177a	-0.16610518
150	0xbe2557c4	-0.16146761
151	0xbcc433ab	-0.023950418
152	0xbe3c3164	-0.18378216
153	0x3dddc591	0.108286984
154	0xbd7ff495	-0.06248911
155	0xbcacd7a8	-0.021098927
156	0xbd1fc4b8	-0.039005965
157	0x3e102837	0.14077841
158	0xbd3f64bc	-0.046726927
159	0xbd337a2f	-0.043817695
160	0xbce7cd8c	-0.028296255
161	0x3cd33fbf	0.025787232
162	0xbd3a6041	-0.04550195
163	0xbe556357	-0.20838676
164	0xbe0af129	-0.13568558
165	0xbbf91210	-0.00760103
166	0x3e238faa	0.15972772
167	0xbd9bbcc7	-0.07604366
168	0xbdd5435c	-0.104132384
169	0x3e424509	0.18971647
170	0x3e4df541	0.20113088
171	0xbda75532	-0.081705466
172	0xbc7fed27	-0.015620506
173	0x3e59ba6e	0.21262524
174	0x3e1f57d4	0.15560848
175	0x3d5b6558	0.053563446
176	0xbd557d5e	-0.052121513
177	0xbc2cf4ec	-0.010556441
178	0x3cdb2567	0.026751233
179	0x3c582cff	0.013194322
180	0xbd28bf4b	-0.041198056
181	0xbdc9819f	-0.098391764
182	0xbdb5a28f	-0.08868896
183	0x3dbaece4	0.091272146
184	0xbdeeb503	-0.11655619
185	0xbe3a2ac5	-0.18180378
186	0xbd52dc93	-0.051479887
187	0xbc0a6352	-0.008446531
188	0x3e4e6161	0.20154335
189	0x3d1e1629	0.038595352
190	0xbd88221a	-0.06647129
191	0x3cceea2f	0.025258152
192	0xbd84bf22	-0.06481768
193	0xbe34ad75	-0.17644294
194	0x3e247eef	0.16064046
195	0x3d28bad1	0.041193787
196	0x3d93655a	0.07197066
197	0x3d8ebb2a	0.069692925
198	0xbd83c103	-0.064332984
199	0x3ce3b06e	0.02779409
200	0xbe14a495	-0.14515908
201	0x3d29fb0b	0.04149918
202	0x3e2b362d	0.16719885
203	0xbe32fd23	-0.17479376
204	0xbccffb35	-0.02538834
205	0xbd95f2a8	-0.07321674
206	0xbe072363	-0.13197093
207	0x3d8eea95	0.06978337
208	0x3bc2181e	0.005923285
209	0xbdc2fb83	-0.09520628
210	0xbdf483f6	-0.11939232
211	0xbc9e6cc2	-0.01933897
212	0xbd95daec	-0.07317147
213	0xbda24476	-0.07923214
214	0x3dd3d3d7	0.103431396
215	0x3d6f1292	0.05836732
216	0x3d59d1ca	0.053178586
217	0x3dac717a	0.084200814
218	0xbdfbcf7b	-0.12295433
219	0x3d6f3fbc	0.05841039
220	0xbd6e8667	-0.058233645
221	0x3dee1883	0.11625769
222	0x3c507772	0.0127237905
223	0x3d278f16	0.04090794
224	0xbd861948	-0.06547791
225	0xbd92079c	-0.071303576
226	0xbe302002	-0.1719971
227	0x3cbef9c3	0.023312455
228	0xbccb91fb	-0.024849882
229	0x3dc3e976	0.095660135
230	0x3e62e58a	0.22157875
231	0x3d02a9e0	0.031900287
232	0xbc18774a	-0.0093057845
233	0x3dc009b7	0.09376853
234	0xbddf7d04	-0.10912517
235	0x3e2fb97d	0.17160602
236	0xbd9c1666	-0.0762146
237	0xbe6ed7ef	-0.2332456
238	0xbc254374	-0.010086883
239	0xbc3ddb8c	-0.011587989
240	0x3d62ac52	0.05534012
241	0x3c3d46eb	0.011552553
242	0x3cd76e1b	0.02629762
243	0xbe12262c	-0.14272374
244	0x3dba90f9	0.091096826
245	0xbddcf5ce	-0.10789071
246	0x3d881b15	0.066457905
247	0xbd30e6e8	-0.04318896
248	0xbdaed5d5	-0.08536879
249	0x3d9dedb7	0.07711356
250	0x3dc6d9ed	0.09709535
251	0xbdc7412b	-0.09729227
252	0xbd913454	-0.07090059
253	0x3e055f8d	0.13024731
254	0x3dbadebb	0.09124514
255	0x3de26898	0.11055106

lstm.weight_hh_l0 f4 [256, 64]
0	0xbd494306	-0.049136184
1	0xbdd21774	-0.102583796
2	0xbe001659	-0.12508525
3	0xbc9d8446	-0.019228112
4	0xbe83f3bf	-0.257719
5	0xbbfe26d5	-0.007756094
6	0x3e374f37	0.17901312
7	0x3c6f6032	0.014610337
8	0x3e03283c	0.12808317
9	0xbdd1db47	-0.10246902
10	0xbd6a1cac	-0.05715625
11	0xbd611b56	-0.05495771
12	0xbd1d95ae	-0.038472824
13	0xbdd3f467	-0.103493504
14	0xbe822005	-0.25415054
15	0x3e72152e	0.23640892
16	0x3cbd5739	0.02311288
17	0x3c598acc	0.013277721
18	0xbe261e5a	-0.16222516
19	0xbdb49097	-0.08816641
20	0xbd86c921	-0.06581331
21	0x3ddbfa85	0.10741142
22	0xbe28b4fc	-0.1647529
23	0xbcdaa6c2	-0.026690844
24	0xbdc92fd2	-0.09823574
25	0x3e14caf5	0.14530547
26	0x3de83006	0.11337285
27	0xbe183822	-0.14865163
28	0xbd402bf4	-0.046916917
29	0x3e1bbbdc	0.15208381
30	0xbc01c7c9	-0.007921168
31	0x3b9a89a1	0.0047161137
32	0xbd9d2704	-0.07673457
33	0x3da855e0	0.08219504
34	0xbe5fb8a1	-0.21847774
35	0x3cf6d937	0.030132873
36	0xbcc194a6	-0.023630451
37	0xbca64ca5	-0.020300219
38	0xbe449993	-0.19199209
39	0x3e866e21	0.26255897
40	0xbe422f68	-0.18963397
41	0x3d2c0c65	0.042004008
42	0xbe3c254a	-0.183736
43	0x3e01d397	0.12678371
44	0xbc494e6e	-0.0122867655
45	0x3d073b5d	0.033015598
46	0x3d914690	0.07093537
47	0xbba9db43	-0.0051836087
48	0x3c2a8888	0.010408528
49	0xbdca8c8c	-0.098900884
50	0xbe8b74f0	-0.27237654
51	0x3e3b2b2b	0.18278186
52	0xbc63e5d2	-0.013909774
53	0xbda4e5dd	-0.080516554
54	0xbda29c37	-0.07939952
55	0x3cddc7b0	0.027072757
56	0xbd51c58a	-0.05121378
57	0x3bb6e6a2	0.005581693
58	0xbcdf0c2d	-0.027227486
59	0x3e04d7b1	0.12972905
60	0xbc94e8f3	-0.018177485
61	0x3dfc21b6	0.12311117
62	0x3c97b5c8	0.018519297
63	0x3e1eca64	0.15506893
64	0x3d4ec1ab	0.050477665
65	0x3d8a47dc	0.06751987
66	0xbe141f2e	-0.14465019
67	0x3df6ca0c	0.12050256
68	0xbe2bcfba	-0.1677846
69	0xbd3ebc88	-0.046566516
70	0x3caa6ae4	0.020802923
71	0x3dfa1cfe	0.12212561
72	0x3d2cdf99	0.042205427
73	0xbe82e22b	-0.25563177
74	0xbd1448d2	-0.03620226
75	0xbc1a1510	-0.009404436
76	0xbe724c4e	-0.2366192
77	0xbdc239a4	-0.0948365
78	0x3d8f3e17	0.069942646
79	0x3c15bd93	0.009139436
80	0x3dbe6c58	0.09298009
81	0xbe0469b4	-0.12930948
82	0x3dcbcca7	0.09951144
83	0xbe777026	-0.24163875
84	0xbe68a4b9	-0.22719087
85	0xbd8150fd	-0.063142754
86	0x3d118774	0.03552957
87	0xbe6be13f	-0.23035143
88	0x3dcdaaa0	0.1004231
89	0xbdc331bb	-0.0953097
90	0xbdc2d3f6	-0.095130846
91	0xbe123cfd	-0.14281078
92	0x3e375a7e	0.17905614
93	0x3c8a0d77	0.016852124
94	0xbe06ffd9	-0.13183536
95	0xbd43c596	-0.047795855
96	0x3bfc0250	0.0076907054
97	0x3e32e152	0.17468765
98	0xbe953f9b	-0.2915009
99	0xbda6c409	-0.081428595
100	0xbe62bd67	-0.22142564
101	0x3e81685a	0.25274926
102	0x3d5ff513	0.05467708
103	0x3d2fc3a0	0.042911172
104	0xbe34af9e	-0.17645118
105	0xbc671bfb	-0.014105792
106	0xbe0c9fcb	-0.13732831
107	0x3c06eb5b	0.008234824
108	0x3e53b467	0.20674287
109	0x3dbd3387	0.09238344
110	0xbe044088	-0.12915242
111	0x3c01d634	0.007924605
112	0xbd9be992	-0.076129094
113	0xbd5a5ed2	-0.053313084
114	0x3d9249db	0.07142993
115	0x3dbb8c7f	0.09157657
116	0x3c1b9cdf	0.00949785
117	0x3d150448	0.036381036
118	0xbd7dce85	-0.06196453
119	0x3e4d96fe	0.2007713
120	0xbcc5ed40	-0.024160981
121	0x3def7ec4	0.116941005
122	0xbe08d94f	-0.13364147
123	0xbd823ea4	-0.06359604
124	0x3d8d5445	0.06900839
125	0x3d837919	0.06419582
126	0xbdfe64dd	-0.12421582
127	0x3e3eaee0	0.18621397
128	0xbbf9e574	-0.00762623
129	0x3d85cc62	0.065331236
130	0xbb84f7f0	-0.0040578768
131	0xbdd2e829	-0.10298187
132	0x3e04606c	0.12927407
133	0x3dbf68aa	0.09346135
134	0x3bb657b5	0.0055646547
135	0xbdce9a99	-0.10088081
136	0x3dc94c42	0.09828998
137	0x3e142032	0.14465407
138	0xbddb5659	-0.10709829
139	0x3e1b9993	0.15195303
140	0x3da1fb61	0.07909275
141	0xbddb4427	-0.107063584
142	0xbe65dc74	-0.22447377
143	0xbe2141f3	-0.15747814
144	0x3b0daac0	0.0021616668
145	0x3d361919	0.04445753
146	0x3e5a1147	0.21295653
147	0xbdfe4353	-0.12415185
148	0x3dfa286d	0.12214742
149	0x3d26dc97	0.040737715
150	0xbdf65bfe	-0.12029265
151	0x3b830082	0.0039978633
152	0x3d96b407	0.07358556
153	0xbd2e5759	-0.04256377
154	0xbd5ab2f7	-0.05339333
155	0xbd9800f6	-0.07422058
156	0x3d751063	0.05983008
157	0x3d815bb6	0.063163206
158	0xbc5a5711	-0.013326422
159	0xbdaa41f2	-0.08313359
160	0xbdebad2c	-0.11507639
161	0xbe2f2652	-0.17104462
162	0x3dbd0b67	0.092306904
163	0xbe046210	-0.12928033
164	0xbd143233	-0.036180686
165	0x3e05ba25	0.1305929
166	0x3e07bdca	0.13255993
167	0xbdf9d40a	-0.12198646
168	0xbd32d1ad	-0.043656994
169	0xbdee4c8e	-0.116356954
170	0x3be0738a	0.006849711
171	0x3d28b080	0.04118395
172	0x3d1e8c83	0.03870822
173	0xbd875e64	-0.066098005
174	0xbcdb4e35	-0.02677069
175	0x3d91fdc9	0.07128484
176	0x3d068c0c	0.032848403
177	0x3dc1b92d	0.094591476
178	0xbe34414c	-0.17603034
179	0x3de90fcc	0.11379966
180	0xbd8a108b	-0.067414366
181	0xbe5cc05a	-0.21557751
182	0x3e3369bf	0.17520808
183	0xbdcfdaac	-0.1014913
184	0xbc2973a4	-0.010342512
185	0xbbd0eadb	-0.006375653
186	0xbe214823	-0.15750174
187	0xbdabd957	-0.08391064
188	0xbd5b7000	-0.05357361
189	0x3d120e42	0.03565813
190	0x3c9db22d	0.01925
191	0xbe12896a	-0.14310232
192	0x3d7b37bc	0.06133245
193	0x3e003155	0.12518819
194	0xbd1832ca	-0.03715781
195	0x3d98b5c5	0.07456545
196	0xbe46c218	-0.19409978
197	0xbe1044e7	-0.14088784
198	0x3c5bd3a3	0.013417157
199	0xbc58b2be	-0.013226209
200	0x3df8f417	0.121559314
201	0xbd8f5e53	-0.07000413
202	0xbd585e15	-0.0528241
203	0xbde9d781	-0.11418057
204	0xbdca8061	-0.098877676
205	0x3cd5b59c	0.026087575
206	0xbdb4d589	-0.08829791
207	0xbcdf8b4f	-0.027288107
208	0xbd34fba3	-0.044185292
209	0x3d3f94e9	0.04677287
210	0x3dea06d3	0.11427083
211	0xbcce880f	-0.025211362
212	0xbd614bab	-0.055003803
213	0x3d3f00a4	0.04663147
214	0xbb1ba3f7	-0.0023748854
215	0x3e2b5664	0.16732174
216	0x3e13f825	0.14450128
217	0x3cc071e7	0.023491813
218	0x3d677bec	0.056514665
219	0x3e33855c	0.17531341
220	0xbe3ed5f9	-0.18636312
221	0xbd4392dc	-0.047747478
222	0x3df13ba0	0.11778951
223	0xbca192b2	-0.01972327
224	0xbdfbdc3f	-0.12297868
225	0x3db0385d	0.086045004
226	0x3d040af9	0.032237027
227	0x3de99674	0.1140565
228	0xbe140ce2	-0.1445804
229	0x3d684a5c	0.05671154
230	0x3d0732c1	0.033007387
231	0xbd45cdcc	-0.048291966
232	0xbd251dae	-0.040311508
233	0x3e0f4ada	0.13993397
234	0xbe889ef2	-0.26683766
235	0xbd3159c9	-0.043298516
236	0x3cb75d85	0.02238346
237	0xbd558f4e	-0.05213862
238	0x3dfe5557	0.12418621
239	0x3dad0e4a	0.08449991
240	0x3cdc713b	0.026909461
241	0x3e2d1cd9	0.16905536
242	0xbe7e6e69	-0.24846806
243	0x3cab5e80	0.020919085
244	0x3daae9a6	0.08345346
245	0x3b047842	0.002021328
246	0xbddad07b	-0.10684296
247	0x3a2a05de	0.00064858596
248	0xbdd2654d	-0.10273228
249	0x3dfbdfb8	0.1229853
250	0xbd214e48	-0.039381295
251	0x3dceca7d	0.10097215
252	0xbd85296c	-0.06502041
253	0xbe496a7f	-0.19669531
254	0x3d8a337d	0.06748102
255	0x3e0e932f	0.13923334

lstm.bias_ih_l0 f4 [256]
0	0xbc37e1f4	-0.011223305
1	0xbc513f7a	-0.012771482
2	0xbe0c5d89	-0.13707556
3	0xbd88c47d	-0.06678102
4	0xbe13bb33	-0.1442688
5	0x3ca69c1f	0.020338116
6	0xbd6f964c	-0.058492944
7	0xbd4fcc0e	-0.05073171
8	0x3c4c5e06	0.012473589
9	0x3d99fb9b	0.07518693
10	0x3d74ca02	0.059762962
11	0xbca57987	-0.02019955
12	0xbdca6d70	-0.09884155
13	0x3cd97926	0.026547026
14	0xbdae6c5b	-0.08516761
15	0xbd1b1bc3	-0.037868273
16	0x3d8f873d	0.070082165
17	0x3cf6b40a	0.030115146
18	0x3d3f17dd	0.046653617
19	0xbc41b8dc	-0.011823859
20	0x3d716ad5	0.058939774
21	0xbe5c7133	-0.21527557
22	0x3cfd75c3	0.030939942
23	0x3d68d3bc	0.05684255
24	0xbdcdaf33	-0.10043182
25	0xbc6fa83c	-0.014627513
26	0xbd54103f	-0.051773306
27	0x3d2c1f1e	0.042021863
28	0xbd95283a	-0.07283063
29	0x3c62f205	0.013851647
30	0x3b05578d	0.0020346374
31	0xbe07e5bb	-0.13271229
32	0xbd93b29a	-0.072118
33	0xbdbbe73d	-0.091749646
34	0xbcefef41	-0.02928889
35	0x3d93bf7c	0.07214257
36	0xbdb89a13	-0.09013762
37	0x3db09143	0.086214565
38	0xbdf60375	-0.12012378
39	0xbc9d25a2	-0.019182984
40	0x3d19b522	0.037526257
41	0x3d022559	0.0317739
42	0xbb354f80	-0.0027665794
43	0xbd9ac291	-0.07556642
44	0xbd08d8fb	-0.033410054
45	0x3b9a1106	0.0047017364
46	0xbc707009	-0.014675149
47	0xbdbf7842	-0.09349109
48	0xbcd43f8a	-0.025909204
49	0xbd9a7589	-0.07541949
50	0x3dc7f967	0.097643666
51	0xbe0182bc	-0.12647527
52	0xbca263a0	-0.019822896
53	0xba0fe450	-0.00054890383
54	0x3d0a8c0e	0.033824973
55	0xbdd2912d	-0.10281596
56	0xbddff97f	-0.109362595
57	0x3cebfbb2	0.028806541
58	0xbe1acbeb	-0.15116851
59	0x3db608b8	0.08888382
60	0xbd60fdda	-0.05492959
61	0x3d9ddfde	0.07708715
62	0xbe149f94	-0.14513999
63	0x3d6fbdd5	0.058530647
64	0xbca65ac8	-0.02030696
65	0xbc8fdeb1	-0.017562242
66	0xbcf96c20	-0.030447066
67	0x3d2c37b0	0.042045295
68	0x3e025073	0.12726001
69	0x3df17313	0.11789527
70	0x3c6ad498	0.014332913
71	0xbcb79509	-0.022409933
72	0x3de3b5c8	0.111186564
73	0xbdce7da3	-0.10082557
74	0x3e235a53	0.15952425
75	0xbd0edacb	-0.034876626
76	0x3dad2ca0	0.08455777
77	0xbc837336	-0.016046148
78	0xbcd406b8	-0.02588211
79	0x3d8516cd	0.064984895
80	0x3d8aaec6	0.06771617
81	0x3d9ac395	0.075568356
82	0x3dfdc8dc	0.123918265
83	0xbd7d8883	-0.061897766
84	0x3e0443dc	0.12916511
85	0x3d206813	0.039161753
86	0x3e09ada8	0.13445151
87	0x3d38fe2d	0.045164276
88	0x3e244030	0.1604011
89	0xbd319d32	-0.043362804
90	0x3e2c9722	0.16854528
91	0xbd4803db	-0.0488318
92	0x3dede54d	0.11616001
93	0x3dcac196	0.09900205
94	0x3c84c5f5	0.016207675
95	0xbd9dd32c	-0.077062935
96	0xbc5bd4f7	-0.013417474
97	0xbd0ad894	-0.03389795
98	0x3d46a6cc	0.048498914
99	0x3d15e4b2	0.036595054
100	0x3d3a8d4c	0.045544907
101	0xbcfd8272	-0.03094599
102	0x3e578837	0.21048056
103	0xbd839ec2	-0.06426765
104	0x3dc4be4f	0.09606611
105	0x3da1b079	0.078949876
106	0xbd0ccaa9	-0.03437296
107	0x3dc56b92	0.09639658
108	0xbba48b4f	-0.0050214897
109	0x3dd59b98	0.10430068
110	0x3df6b162	0.12045552
111	0x3d792ab4	0.06083174
112	0xbd56a0c7	-0.052399423
113	0xbcf38c71	-0.029730054
114	0x3d53c36e	0.05170005
115	0xbd2dee5c	-0.042463645
116	0x3c7f2fa4	0.015575323
117	0x3e024c41	0.12724401
118	0x3e2c5601	0.16829683
119	0x3adeb8f7	0.001699238
120	0xbd083b63	-0.03325976
121	0x3d50e248	0.05099705
122	0xbd800933	-0.062517546
123	0x3dbc03c6	0.09180407
124	0xbdcaaf61	-0.09896732
125	0x3e1a0db2	0.15044287
126	0x3d9464a7	0.072457604
127	0x3d447706	0.047965072
128	0x3cb344a5	0.021883318
129	0x3c619efa	0.013770813
130	0x3d303149	0.043015752
131	0x3d85dba8	0.06536037
132	0xbd9c7114	-0.076387554
133	0xbc93c0ee	-0.018036332
134	0x3c052a7c	0.008127805
135	0xbde05384	-0.10953429
136	0xbcd63de4	-0.026152559
137	0xbd92a06a	-0.07159503
138	0x3c08932c	0.00833587
139	0x3ddda039	0.10821576
140	0x3d84f2e3	0.064916395
141	0x3d5d2236	0.053987704
142	0xbda8d48b	-0.08243664
143	0x3d613274	0.054979756
144	0x3d28f87e	0.041252606
145	0xbcc88b78	-0.024480566
146	0x3dc395c7	0.09550052
147	0x3d60b50c	0.05486016
148	0xbd95c936	-0.073137686
149	0x3dc01ef4	0.09380904
150	0x3dd54103	0.104127906
151	0x3dac110e	0.084016904
152	0x3d17c558	0.037053436
153	0xbd0cc6a0	-0.03436911
154	0x3b68bdc0	0.003551349
155	0x3d379717	0.044821825
156	0xbd523ece	-0.051329426
157	0xbce9808f	-0.028503684
158	0xbba37c6f	-0.004989199
159	0x3dddac4e	0.1082388
160	0x3bc0398b	0.0058662347
161	0xbd19f3d2	-0.03758604
162	0xbdc99cdb	-0.09844371
163	0x3c8d20be	0.017227527
164	0x3d92c07e	0.07165621
165	0x3c2ce1cb	0.01055188
166	0x3d15bf1c	0.03655921
167	0xbd89cc53	-0.06728425
168	0x3d90228c	0.07037839
169	0x3d0b86d3	0.034064125
170	0x3e103ea3	0.14086394
171	0xbd77e4ac	-0.060520813
172	0x3d826535	0.0636696
173	0x3dfeaef2	0.12435712
174	0xbdb3586d	-0.087571
175	0xbcf9fea2	-0.030516926
176	0x3de385e9	0.11109526
177	0xbd30ba72	-0.043146558
178	0x3e038914	0.1284526
179	0xbd84c265	-0.0648239
180	0x3cf3de0b	0.029768964
181	0x3e09311c	0.1339764
182	0xbdf001fd	-0.11719129
183	0x3da4ad4c	0.08040866
184	0xbdcad6d5	-0.09904257
185	0x3d7fd9e3	0.062463652
186	0xbda442d1	-0.08020557
187	0xbd86b9ed	-0.06578431
188	0x3d711fd9	0.058868263
189	0xbd8e03b1	-0.06934298
190	0x3df3ce58	0.11904591
191	0xba9c3fd9	-0.0011920884
192	0x3e04b107	0.12958156
193	0xbd634620	-0.0554868
194	0x3dbea786	0.09309296
195	0x3ceec492	0.029146466
196	0xbd327118	-0.043564886
197	0x3d4455ce	0.047933392
198	0xbca7ce2d	-0.020484054
199	0x3e19816b	0.14990775
200	0x3ca5e7fd	0.020252222
201	0x3d1c1951	0.03811008
202	0x3ddce944	0.107866794
203	0xbda99dbd	-0.08282039
204	0x3df66a6b	0.12032016
205	0x3d68fcc4	0.05688168
206	0xbd89d049	-0.0672918
207	0xbd9e5f8e	-0.07733069
208	0x3ddf781a	0.109115794
209	0xbd450efa	-0.048109986
210	0x3c7689c2	0.015047492
211	0xbcb3f7fb	-0.021968832
212	0xbd834c39	-0.06411023
213	0xbdd97656	-0.10618274
214	0x3dda7562	0.1066692
215	0xbde49409	-0.11161048
216	0x3d9b403a	0.075806096
217	0x3dccbd96	0.09997098
218	0x3cf24c7c	0.029577486
219	0x3daf1ded	0.0855063
220	0xbde1487a	-0.11000152
221	0x3d868cc2	0.06569816
222	0x3e14a3ce	0.14515612
223	0xbde13c07	-0.109977774
224	0x3d8cda22	0.06877543
225	0x3dfdbc62	0.12389447
226	0xb9b0f09a	-0.00033748598
227	0x3c026343	0.007958236
228	0x3e09e908	0.134678
229	0x3db6aa1f	0.08919167
230	0xbd728461	-0.059208278
231	0xbdc60fb5	-0.09670965
232	0x3e2c5e8a	0.16832939
233	0xbd147705	-0.03624632
234	0xbd86aa50	-0.06575453
235	0x3d5e6317	0.05429372
236	0x3dcfef0c	0.101530164
237	0xbda87a70	-0.08226478
238	0x3d2a51fd	0.041582096
239	0x3de25994	0.11052242
240	0x3dc7e54e	0.09760533
241	0xbdc38c04	-0.0954819
242	0x3dca5ea8	0.098813355
243	0xbd7ddba1	-0.061977033
244	0xbcc4b8a6	-0.024013828
245	0x3de30fb6	0.11086981
246	0xbde8fd91	-0.11376489
247	0x3d5d65b8	0.054052085
248	0xbde12fdc	-0.109954566
249	0x3e199f66	0.15002212
250	0x3d18c949	0.037301335
251	0x3cc5bc6c	0.024137698
252	0xbd258100	-0.040406227
253	0xbb9770c1	-0.0046215956
254	0xbcec9fb3	-0.028884744
255	0x3ce62c34	0.02809725
