src/bidmc_generation/models/ha_cnn_bilstm_withWST/20260205_180406/fold_2/best_lightweight_hybrid.pth (torch, 430093 bytes, 23 tensors)

cnn_encoder.0.weight f4 [32, 16, 7]
00000000: 70ca eebc fa46 5a3d 7a81 59bd 551c b03c
00000010: 43c1 76bc 9f7d f93c 0942 11bc d57f 3fbe
00000020: 076d 8fbc f1d9 253c 1262 fe3d 6e3e 2f3e
00000030: 738d 1c3e 0444 833d b2d0 24be 6243 e3bd
00000040: e773 903b 8c0e 833d 226c 1a3e 3346 0b3e
00000050: d77b 0f3d 16db 60be f240 2fbe 937c adbd
00000060: c9fe 913c 6270 963d d695 303e fef7 173d
00000070: b18e 2fbe 81fe d1bd b0bb 3cbc 3b33 e1bb
00000080: 98fb e43c 9201 9e3d 7e72 583d e20b e5bd
00000090: 7a35 c2bd 3083 063d fcd3 7e3c f123 b13d
000000a0: f1dc a63d f843 d03d 97c8 27be 0301 01be
000000b0: ac89 d0bd ff2b 703d 639c 053e 5eb0 1a3e
000000c0: 267c 5c3d 92e2 fbbd 393b dbbc 1a74 1c3d
000000d0: 80dc cf3d ce1f a73d 8feb db3d 5025 9d3d
000000e0: 6922 6ebb 1d6f b33c 53ec 4c3c 398a 29bd
000000f0: 300c 963d d671 c13c 5e6d 63bd 444d c7bd
00000100: 3e4e 2ebe 05bf 3ebe df39 51be d89d 74be
00000110: 45d3 e5bd 4be7 bcbd 4ae1 35be 4117 01be
00000120: 84d7 06be 2ea8 e3bd cd7a 33bd ce37 bfbd
00000130: aa88 12be 1de9 e8bd 7c7d b9bd 03cb b9bd
00000140: 6074 14bd 87ad 5abd 011b 1ebe 9e5d 54be
00000150: 33c5 afbd a79c 73bd f88b 6cbd af07 0ebe
00000160: d45c 91bb ce4a 3c3c 1e8a c1bd e354 3abd
00000170: 2b75 393a 25c9 70bb c8bf 323b c9f3 aebc
00000180: 52c5 fabd 7425 18be 1024 4dbd adca 5fbd
00000190: 8341 0fbe 0667 853c 0bdb d7bd 27e6 e1bd
000001a0: 7519 00be 214f 6fbc 4196 2abd 6cb9 d53a
000001b0: 9592 33bd c577 97bd 89ca aebd cb07 babd
000001c0: 00ab f23d b336 7ebb ee69 c7bd 160d 3b3d
000001d0: ec57 923d 9618 583d 0f37 babd 463f e53d
000001e0: d382 1d3e 45d7 063d d63a 0d3b 2fac 25bb
000001f0: 2468 86bd 111b b6bd 7a01 ea3d df39 e23d
00000200: da99 ea3d a307 093b 6b8f a0bd 02d8 3cbc
00000210: 9291 a0bd 7c48 ef3d e626 543d e65e 5b3d
00000220: e4a0 663d 367a f1bd 37de d4bd a305 243d
00000230: 7913 55bd bfb4 0fbd 39e9 823c dd4a 2fb9
00000240: 8bf1 afbd 951b cabb beb4 0cbc 8a36 91bd
00000250: 52e3 a6bb e8a8 9c3d 0962 243d 19ad 8cbd
00000260: 4f2f a0bd 9783 8dbc 03b8 38bd 9c71 e63b
00000270: fad4 423d 7459 233d bdf3 e4bd 99ea 05be
00000280: 280c ecbb 5fb6 403d 2da7 053d 7251 b43c
00000290: 862a ae3c 2019 5fbc 5a13 bdbc cc76 9c3c
000002a0: 14cc acbd 873b d4bc 0f1e cb3c 859e 023e
000002b0: 8c65 c53d a677 78bc b6d4 9e3d 84bb f9bd
000002c0: e817 2abe 7e3c 97be 0a80 98be db26 23be
000002d0: f278 30bd 0e1d 233e 6166 0abd 2bb3 e0bd
000002e0: 310e 53be c879 0fbe 220a 34be 48ee 03be
000002f0: 4d14 163b 28d6 d2bd 9de8 74bd 8f40 d8bd
00000300: 8d49 1ebe 6ca7 37be 9970 53bd bfe4 853d
00000310: 0ec5 143c 8079 17be c044 3cbc f7a1 943b
00000320: 1329 33be adb3 dcbd cca0 a43d 46f5 933d
00000330: c3d7 923a a585 f9bd 9a2d d03c faf3 9cbd
00000340: 575d cdbd d2de 56bd cadc a7bb 3e9b 443d
00000350: 9d3f e0bc 6794 a6bd 89c4 fbbb 0bbc efbd
00000360: b438 debc 2e04 f0bc 5e47 15bd e6f1 553d
00000370: d488 a53d 30f2 b9bd 72c8 0abd 51c6 1e3d
00000380: b267 6bbb 614c 0a3c 9d61 b1bc 37fe 85bd
00000390: 10e0 44bd 94c4 393d 4f77 a63d e1d6 debc
000003a0: d6c9 bf3c 3e83 b6bc e9a3 1dbc 571b 043d
000003b0: d1d4 b13d 190f 543d 36ef c4bd 5b0f a83d
000003c0: fb5e bf3c 10b2 ddbd ca08 08be 9f94 a23d
000003d0: 55a3 903b d98f 7ebd 761a 03bb 2108 cfbd
000003e0: 9a68 33bd f00e 343d 6116 c43d 88fe 42bd
000003f0: 7549 153d d97c 88bc ea60 c3bb c6da 62bc
-0.029149264 0.053290345 -0.053101994 0.021497885 -0.015060726 0.030455409 -0.008865842 -0.18701108
-0.017508043 0.010122762 0.12421049 0.17113659 0.15288334 0.06409457 -0.16095236 -0.110968366
0.004408348 0.06399259 0.15080312 0.13600998 0.035030212 -0.21958575 -0.17114618 -0.08471026
0.017821686 0.07345654 0.17244658 0.03710174 -0.17144276 -0.10253621 -0.011519358 -0.006872562
0.027952 0.07715143 0.052843563 -0.11183907 -0.09482856 0.032839954 0.015553471 0.086494334
0.0814761 0.10169214 -0.16385113 -0.12598042 -0.10182509 0.058635708 0.13047938 0.15106341
0.053829335 -0.12299074 -0.026761638 0.03819666 0.10149479 0.08160363 0.107382886 0.076731324
-0.0036336428 0.021903569 0.012507516 -0.041391585 0.07326543 0.023613852 -0.055524223 -0.09731534
-0.17022035 -0.18627556 -0.20432232 -0.23888338 -0.11221937 -0.09223803 -0.17761722 -0.12606527
-0.1316815 -0.11116062 -0.043818284 -0.09336816 -0.14309946 -0.11372588 -0.09057137 -0.090719245
-0.036243796 -0.053388145 -0.15439989 -0.20738837 -0.08582535 -0.059475567 -0.057750672 -0.13870119
-0.004436115 0.011492444 -0.09450172 -0.04549111 0.00070746493 -0.0036740985 0.0027274955 -0.02135648
-0.12244667 -0.14858037 -0.05008322 -0.054636646 -0.13989834 0.016284477 -0.10539826 -0.11030226
-0.12509711 -0.014606268 -0.0416472 0.001630587 -0.043840963 -0.07395891 -0.08534724 -0.09083518
0.11849022 -0.0038789927 -0.09737001 0.045666777 0.07145676 0.052757822 -0.09092533 0.11193709
0.15381937 0.03292014 0.0021549962 -0.0025279631 -0.06562832 -0.08891881 0.11426063 0.11046194
0.11455126 0.0020909093 -0.07839855 -0.01152611 -0.07840265 0.11683747 0.05179491 0.0535573
0.05630578 -0.11790888 -0.103939466 0.040044438 -0.052020524 -0.035084482 0.01598035 -0.0001671719
-0.085909925 -0.006167839 -0.008588014 -0.070904806 -0.0050930167 0.07649404 0.040132556 -0.06868953
-0.078215234 -0.017274661 -0.045097362 0.0070325863 0.04756639 0.03988023 -0.11179302 -0.13077773
-0.0072035976 0.047048923 0.032630134 0.022011492 0.021260511 -0.01361683 -0.023080517 0.019099616
-0.08437362 -0.025907291 0.024794606 0.12755783 0.09638509 -0.015165245 0.07755415 -0.12193969
-0.16610682 -0.2953834 -0.29785186 -0.15932791 -0.043084092 0.15929052 -0.033789042 -0.109716736
-0.20610882 -0.140113 -0.1758199 -0.12883866 0.0022900284 -0.10294753 -0.05979215 -0.105591886
-0.15457745 -0.1793496 -0.051621053 0.065377705 0.009080185 -0.14792442 -0.011491001 0.0045359093
-0.17496137 -0.10776458 0.08038482 0.072245166 0.0011203218 -0.12183694 0.02541237 -0.07663722
-0.10027569 -0.05245859 -0.0051227557 0.047999613 -0.027374083 -0.08133774 -0.007683341 -0.11705788
-0.027126648 -0.029298868 -0.036445014 0.052232645 0.080827385 -0.09079397 -0.033882566 0.038763348
-0.0035919962 0.008441062 -0.021652991 -0.06542628 -0.048065245 0.045353487 0.08128225 -0.027202072
0.023411673 -0.022279378 -0.009621599 0.032252636 0.0868317 0.05177221 -0.09615938 0.08206054
0.02336072 -0.10824978 -0.13284603 0.079385035 0.004414002 -0.062148903 -0.0020004786 -0.10108972
-0.043800928 0.043959558 0.09574581 -0.04760602 0.036447007 -0.016661095 -0.005962481 -0.013846105

cnn_encoder.0.bias f4 [32]
00000000: 9a3f c2bd ec82 313e be64 413d f70b f2bb
00000010: 0f6c cb3d 33dc 7e3c 6867 9ebd 7cd0 163e
00000020: 6251 f3bc 6e23 da3c 4625 dfbd 081d 3e3d
00000030: 138a eabd 969a ca3d 39c0 9e3c acc5 913d
00000040: 458e 2d3d 5e83 ae3d 26ea f33d 368c a63c
00000050: ede1 57bd 95de a63d 13d8 103e 5d52 30bc
00000060: e2eb e1bd 63bc f13b ae62 de3c 02a2 56bd
00000070: 1043 003d d00c 283d d4c9 993d bbda d63b
-0.09484787 0.17335099 0.047215216 -0.00738668 0.0993272 0.015555429 -0.07734567 0.14727968
-0.029701892 0.026628222 -0.10895781 0.046414405 -0.11452117 0.09892766 0.019378768 0.07117781
0.042372007 0.0852115 0.11909895 0.02033053 -0.052705694 0.08147923 0.14144926 -0.010761824
-0.11031319 0.007377194 0.027146664 -0.052400596 0.031313956 0.041027844 0.07509199 0.0065568364

cnn_encoder.1.weight f4 [32]
00000000: fc5d 7f3f f424 903f fbea 943f ed68 813f
00000010: 0d1f 773f f0ce 6e3f 9709 713f 7069 6e3f
00000020: 5930 7a3f 0310 813f 32bc 853f 411e 7c3f
00000030: 79c3 8a3f 4123 4d3f 5a55 583f cae3 803f
00000040: 22a9 973f a26f 7b3f 98a8 743f 177c 833f
00000050: ed4c 783f dcd5 663f c67a 813f 9676 6f3f
00000060: 56bb 863f 2f68 733f e688 563f c738 703f
00000070: dd93 823f c5ea 843f 72b6 753f 71a7 6d3f
0.99752784 1.1261277 1.163421 1.0110146 0.96531755 0.9328451 0.9415526 0.93129635
0.9773002 1.0083011 1.0448058 0.98483664 1.0840904 0.8013192 0.84505236 1.0069516
1.184849 0.98217213 0.95569754 1.0272244 0.9699238 0.90170074 1.0115592 0.9354032
1.052592 0.95080847 0.8380264 0.93836635 1.0201374 1.0384146 0.95981514 0.9283362

cnn_encoder.1.bias f4 [32]
00000000: 427c dfbd 891a 30be 18d9 df3c a634 98bd
00000010: e5ad c0bd ed83 59be a620 2cbe 4950 1bbe
00000020: 018c 07be 023c 55bb 0a3e 73be 020b f1bd
00000030: 58c8 c2bd 1f59 15be 8817 bcbd 7ac6 1abe
00000040: e389 27be 476b eebd d6b8 04bd 5034 5abe
00000050: e153 0cbe 9d9f 51be 4319 41be a3b8 13be
00000060: 590f e6bd 671b 2ebd 7339 c7be 9549 ebbd
00000070: 8243 cabd 04d7 023e 03c3 afbe f59d 8bbe
-0.10912372 -0.17197622 0.027325198 -0.07431917 -0.09408168 -0.21241732 -0.1680933 -0.15167345
-0.13237001 -0.0032536988 -0.23754135 -0.11769678 -0.09510869 -0.14584778 -0.09184176 -0.15114775
-0.16361193 -0.11641555 -0.032402836 -0.21309018 -0.13703872 -0.20471044 -0.18857293 -0.14425902
-0.11233396 -0.0425066 -0.38911018 -0.11488644 -0.09876157 0.12777334 -0.3432847 -0.2726895

cnn_encoder.1.running_mean f4 [32]
00000000: c283 13be d5e3 743e 7c71 d73b 6649 7b3d
00000010: bbf0 f43d ac81 0cbc e6b3 84bd 8c8f 3d3c
00000020: ccc4 28bb 73d7 063c 31d6 f5bd d96f 27ba
00000030: a7c4 88be 204a 193e 2003 ec3c b2e8 aebd
00000040: 4488 903d 4b2b 273e 14b3 19be 14bd d0bd
00000050: bf96 7fbe fc18 43be b109 7f3d 2e46 1abe
00000060: b1b2 55be b9f3 ce3d 60c8 f5bd a546 0ebc
00000070: d87d 383d f6f9 893c 278b aabd 39df 2fbe
-0.1440573 0.23915036 0.0065748077 0.061349295 0.11959978 -0.008575838 -0.064796254 0.011569869
-0.0025752066 0.008230078 -0.120037444 -0.0006387211 -0.26712534 0.14969683 0.028810084 -0.08540477
0.070572406 0.16325109 -0.15009719 -0.10192314 -0.24959849 -0.190525 0.0622651 -0.15065834
-0.20868947 0.1010508 -0.12001109 -0.008683835 0.04504189 0.016842823 -0.083273225 -0.17174996

cnn_encoder.1.running_var f4 [32]
00000000: b855 8d3b 370b 883b d2a4 503a 84ba 063b
00000010: f21e ae3b 0e80 143b 2eff 4b3b 169b 3f3b
00000020: eecc 4f3b 6ece c03a 9271 353b 887e 823b
00000030: 901f 863b 9d50 193b b849 963b cac5 333b
00000040: 1544 a73b f932 113b b026 ce3b 3ef5 523b
00000050: 13c6 5c3c 8f8e 023c fd98 063b 25d1 443b
00000060: 7c0e 113b b64e 6c3b 46c2 423b aecc 5a3b
00000070: 6923 5d3b a86f ae3b d1fa e53b 17f4 853b
0.004313197 0.0041517275 0.00079591305 0.002055795 0.0053137476 0.0022659334 0.003112744 0.0029236726
0.003170784 0.0014709958 0.0027686101 0.003982369 0.004093118 0.0023393997 0.0045864247 0.0027431124
0.0051045516 0.0022155626 0.006291233 0.0032189633 0.013474959 0.007968559 0.0020537965 0.0030031886
0.0022133878 0.0036057658 0.0029717847 0.0033386159 0.003374303 0.005323369 0.007018425 0.0040879357

cnn_encoder.4.weight f4 [64, 32, 5]
00000000: 3b33 9ebc a3bb 1b3d a202 ae3a 25f4 f53c
00000010: 272b 913c 9ffa 9fbc 7d01 6a3d 5140 953d
00000020: c16f b3bd 0465 54bd 9913 603d 5d6f 19be
00000030: f59b 08be ed53 6e3b 12e3 0cbc 529e 18ba
00000040: b73c 3dbd 0c7e 00bd 5f63 2d3c 6895 353d
00000050: e322 dd3c 2b77 163c ecb1 863d 32c8 40bd
00000060: 0e60 98bd aa58 7a3d e60e 80bb a890 ee3a
00000070: 47bb 1bbe 1655 de3c 7808 0f3d 707b 083e
00000080: 34a3 063e 3291 c13d ec92 75bd 39a7 d93d
00000090: 2646 2a3d 4560 0ebc 4672 63bc 91ac 02bd
000000a0: b028 dabc 1b21 d9bd 16f0 f3bd 82c8 2cbd
000000b0: e141 a7bd 0a3a e0bd ea8b 583c 13a9 cd3d
000000c0: f51b 8bbc c929 b93d 99ba 8c3d 06d5 97bc
000000d0: b822 abbd 1233 2b3d ecb5 f63d faaf cdba
000000e0: 0abb 3d3d d800 193e 7c1a b73d 92bd b0bb
000000f0: 0d2f e13c eb3e c6bd 65ff 76bd 21ed 5a3d
00000100: 1b06 193e 7203 b93c 9dad ca3d 7076 943d
00000110: ec36 8ebd d934 3a3d f4e9 cbba 5922 933c
00000120: cf9d 73bd 2736 043c 4e66 063d 3856 5c3d
00000130: d46d 03bd 1777 1abd 7dc6 4dbc 25e0 8a3d
00000140: d693 f03d 29dc 9f3d 2712 dd3d 62dd b9bd
00000150: 41b4 e8bc eb0d 8e3d a0ce f43c bc62 343d
00000160: 35ca 3abd fd3e 82bd d778 df3c 575a be3d
00000170: 8ff7 cd3d 5ea4 c03d b25d a03d 6d16 a33d
00000180: ad28 833d e083 10be c9d3 d5bc 5ddc 013c
00000190: 0adc 3f3d bf76 7a3d c265 5ebd 8e03 89bd
000001a0: ee1a 4cbd ecd1 573c a919 17bd 1aae 06bd
000001b0: 43bc 27bd befd 323d 1276 d03d d151 173e
000001c0: 690d 21bd d8e9 cebc 00ee 983c 19e9 d3bd
000001d0: 8781 6d3c 6d9b 23bd 9430 773d cbe4 14b9
000001e0: cbda 493c 26fc 3ebc 88ad b83c 19c7 203d
000001f0: fb72 093d 8daf 8cbb 98f5 a5bd 95df 13be
00000200: 4e76 50be 3358 f8bd 90f3 ae3d 9395 b53d
00000210: 1625 bb3d 2405 3abc 6a99 e43d 2c94 573d
00000220: b5d0 abbc e1cd fb3c eaf7 c63d ba94 2abd
00000230: f057 21bc 439c c6bc d1f4 82bd 57c1 a0bd
00000240: 52a4 a1bb cb07 c4bc 4890 a6bc e839 a23d
00000250: 5bd9 4f3b 2559 e4bd 0056 42bd 7606 9abd
00000260: 7352 c93a 8cbf 0b3e 6894 173e 3803 813d
00000270: f90f 2c3b 4bde b4bb 8908 01bc ae53 5bbc
00000280: d11f 50bd 8237 f839 7f18 83bc 2e7d 893c
00000290: 1043 f63c b582 d8bd 1e3a 05bc 8c48 7a3d
000002a0: 0703 863d 2f43 13bd bf15 3bbe 12be 1abe
000002b0: 919d fdbd 385d 87bc 8efa 2f3d 23ce 633d
000002c0: 2609 b3bd 869c 03be 6832 5bbd 8d20 e9ba
000002d0: 0a34 51bb 844f 6c3d 0ab6 9b3d f5a6 cf3d
000002e0: c30b 903c 451a 623d 939c 93bc b2ef 973d
000002f0: 43b6 a0bd c86e 163d 2c03 fbbb 9ac5 ac3b
00000300: 76e6 59bd eb36 ddbd 4698 9a3d f599 213d
00000310: 1235 31bd 2bea 90bd 70e0 1dbb ecb8 863d
00000320: cdbb 9dbc 87fe e2bd 56e6 3b3d 2f85 b7bd
00000330: 741b cc3d 36ef 753d 8cb1 06bd 10f4 18bc
00000340: 3c52 59bd 1621 75bd 0241 2c3d f89d 58bd
00000350: 9f8d c6bc aae1 843d 7fe9 973d 339c 47bd
00000360: 72f1 a23d 6ec7 813d 2d9a f63c 9ca1 09bc
00000370: 1492 5f3c 34a0 6e3d 9ac8 06bd 1655 c63d
00000380: 769e d93d 0a1a 9abb 24d1 e0bc 584b 4fbd
00000390: ace7 dc3c 384d 4a3d 0ee8 153d 8a3a 643c
000003a0: 1b3b 92bd e829 0f3c ec8f c53a ddcf 11be
000003b0: b7a9 b0bc 2ee8 913d 716c c1bd 9917 623d
000003c0: 0ce0 f53d 49e6 e83d 0ef2 a1bb abef 7abd
000003d0: 3509 3abc 4207 ae3c 969a 02be 756b 96bd
000003e0: da11 1f3b b47f 1e3e 79ae a1bc b795 25be
000003f0: dabd 9f3c ef2a 27bb dd6c 213d a6a1 cfbd
-0.019311538 0.03802074 0.0013275931 0.030023644 0.017720772 -0.019528685 0.057130326 0.07287658
-0.0876155 -0.05185415 0.05470619 -0.14983888 -0.13340743 0.0036365942 -0.00859906 -0.00058219314
-0.04620048 -0.031370208 0.010582774 0.044331938 0.026994174 0.009183685 0.06576905 -0.04706592
-0.07440196 0.061119713 -0.003908026 0.001820107 -0.1520816 0.027140182 0.034920186 0.13328338
0.13148195 0.09451522 -0.05995457 0.10627598 0.041570805 -0.008689945 -0.013882225 -0.031902853
-0.02663073 -0.106020175 -0.11911027 -0.042183407 -0.08166862 -0.1094857 0.013216952 0.10042014
-0.016981104 0.09041173 0.06871528 -0.018534195 -0.083562315 0.04179675 0.120464176 -0.0015692704
0.046320952 0.14941728 0.08940598 -0.0053936923 0.027488256 -0.096799694 -0.060302157 0.0534488
0.14943735 0.02258465 0.09896395 0.07249153 -0.06944069 0.045460556 -0.0015557394 0.017960714
-0.05947667 0.008069552 0.03281241 0.053793162 -0.032087162 -0.03771123 -0.01255953 0.067810334
0.117469475 0.07805664 0.10794478 -0.090754285 -0.028406264 0.069362484 0.029883683 0.044039473
-0.045602996 -0.0635967 0.0272793 0.09294575 0.10056984 0.094063506 0.07830371 0.07963262
0.06404243 -0.14112806 -0.026101964 0.007926074 0.046840705 0.0611484 -0.054296263 -0.06690131
-0.04983037 0.013172608 -0.036889706 -0.03288088 -0.040951025 0.04369902 0.1017877 0.14777304
-0.03931943 -0.02525799 0.018668175 -0.10347194 0.014496214 -0.039943147 0.060349062 -0.00014199612
0.012320231 -0.011656797 0.022543684 0.039252374 0.03355692 -0.004293388 -0.08103484 -0.14440759
-0.2035763 -0.12126198 0.085425496 0.0886642 0.09137933 -0.011353765 0.11162074 0.052631542
-0.020973543 0.03073782 0.097152546 -0.041645743 -0.009847626 -0.024244433 -0.06394351 -0.07849377
-0.0049329186 -0.023929497 -0.02033247 0.07921201 0.0031715247 -0.111498155 -0.047445297 -0.075207636
0.0015359655 0.13647288 0.14802706 0.06299442 0.0026254638 -0.0055196634 -0.00787557 -0.01338665
-0.050811592 0.00047343603 -0.016002892 0.016783323 0.030061275 -0.105718054 -0.008131532 0.061104342
0.06543546 -0.035952743 -0.18270014 -0.15111569 -0.12383569 -0.016523942 0.042963557 0.05561651
-0.08741979 -0.12852678 -0.053514868 -0.001778619 -0.0031921887 0.05769302 0.076030806 0.101392664
0.017583733 0.055200834 -0.018018996 0.07418765 -0.07847264 0.036726743 -0.00766029 0.0052725794
-0.0531983 -0.108014904 0.07548575 0.039453465 -0.043263502 -0.07075914 -0.0024090074 0.0657824
-0.01925459 -0.110837035 0.045873962 -0.0896095 0.09966174 0.060042582 -0.032884166 -0.009335533
-0.05305694 -0.059846006 0.042054184 -0.052885026 -0.024237452 0.064883545 0.07417583 -0.048732948
0.07956208 0.06336866 0.030102814 -0.008400347 0.013645668 0.05825825 -0.032906152 0.096841976
0.10625927 -0.004702811 -0.027443476 -0.050608963 0.026965939 0.049390048 0.036598258 0.013929972
-0.0714018 0.008738019 0.0015072799 -0.1423945 -0.021565301 0.07124363 -0.09444512 0.055198286
0.12005624 0.113720484 -0.0049421852 -0.06126372 -0.011354734 0.021243695 -0.12754282 -0.073447146
0.0024272115 0.15478402 -0.019736515 -0.16170393 0.019499708 -0.0025507768 0.03941046 -0.10138254

cnn_encoder.4.bias f4 [64]
00000000: dfcd 81bc a3e6 543d d065 313d e7e3 2f3d
00000010: cf79 5b3c a611 63bc 9271 aa3d 07b2 93bd
00000020: e506 ed3c f32c dc3c 0f50 333c 4d97 a4bc
00000030: c9bc 163d 6dd6 9b3c b7e1 883d a6d9 1c3c
00000040: f6da 853d 02e9 e6bb c274 933d fd61 8cbd
00000050: 6156 563d c407 fd3c 7a23 cd3c ca8f 5bbd
00000060: c9a2 7e3d acda 97bd a254 8bbd d2a1 0ebd
00000070: 5839 de3b 46b6 143d 0739 33bd a067 42bd
00000080: ce74 5b3b 343a 063d 1529 c73c 5140 f23c
00000090: b637 adbc 76ec 4f3d 2019 6cbd 80b5 243c
000000a0: 0b89 7d3d 8bb6 65bc 4654 b63c d912 41bd
000000b0: 72be 3a3c 2fb0 1a3d 7e49 233d d8f6 29bd
000000c0: 8b2a 4f3d 9404 c7bc a47a 47bd 1df1 8d3d
000000d0: 8583 eebc cd45 e13c cd8f d13c 6c8c c33c
000000e0: 3202 4d3d d2f5 9ebd 8698 643d c871 2d3d
000000f0: fea7 39bc 52fd 073d 7453 2dbc 95fe cdbb
-0.015845237 0.051977765 0.043309987 0.042941954 0.013395741 -0.013859188 0.08322443 -0.072116904
0.028933952 0.026876902 0.01094438 -0.020091677 0.036801133 0.019023145 0.06683677 0.009573376
0.06535904 -0.0070468197 0.07200004 -0.06854627 0.05232847 0.030887492 0.02504133 -0.053603925
0.062166963 -0.07414755 -0.06803252 -0.034822293 0.0067817383 0.036306642 -0.043755557 -0.047462106
0.003348637 0.03277035 0.024311582 0.029571684 -0.02114473 0.050762616 -0.05764115 0.010053039
0.061898272 -0.014020572 0.022256982 -0.047137115 0.011397945 0.037765678 0.03986501 -0.041495174
0.05057768 -0.024294175 -0.048700944 0.06930754 -0.029115448 0.027499104 0.025581265 0.02387067
0.05005092 -0.0776173 0.05580952 0.04234484 -0.011331556 0.03320057 -0.010578979 -0.006286452

cnn_encoder.5.weight f4 [64]
00000000: 80ca 7a3f 63bd 853f b5c6 633f 43a3 853f
00000010: 7e75 7f3f 6df4 843f 2aea 793f ff1e 853f
00000020: 2220 803f 8ac0 823f 351f 733f 14f8 803f
00000030: 4629 8b3f 650f 813f 9697 623f 9041 803f
00000040: 766e 873f f3c4 803f 3811 803f 81b2 7a3f
00000050: 2c0a 833f 34bd 8a3f 1a9d 743f da6e 7c3f
00000060: a605 853f d709 8b3f b3db 703f ccb0 8c3f
00000070: f3e6 8a3f 2039 7c3f 4ad1 7a3f 7f32 853f
00000080: e742 763f 6cae 7c3f 1c07 813f 9004 7c3f
00000090: 47b5 813f 1353 8a3f dee8 733f 76e0 763f
000000a0: 1fbb 7f3f 6f94 7d3f cd01 813f bb86 893f
000000b0: c4b0 873f 63f4 803f e9a9 7a3f 35ae 803f
000000c0: 776f 7f3f 4152 7e3f a54f 893f 6812 833f
000000d0: f3a2 833f ca5d 793f e040 763f fda2 793f
000000e0: 154e 6d3f 5ea3 633f 7313 7a3f 901e 8c3f
000000f0: 553a 7e3f 9051 773f a46c 833f da26 843f
0.9796524 1.0448421 0.8897508 1.0440449 0.99788654 1.0387093 0.9762293 1.0400084
1.0009806 1.0215008 0.94969493 1.0075707 1.0871971 1.0082823 0.8851255 1.0020008
1.0580585 1.0060104 1.0005255 0.97928625 1.0237479 1.083899 0.9555222 0.98606646
1.0392349 1.0862378 0.94085234 1.0991454 1.085173 0.98524666 0.979756 1.0406035
0.96195835 0.98703647 1.0080295 0.9844446 1.0133446 1.0806602 0.952772 0.9643625
0.998949 0.99054617 1.0078675 1.0744241 1.060082 1.0074581 0.9791551 1.0053164
0.99779457 0.9934426 1.072743 1.0239992 1.0284103 0.97408736 0.9619274 0.97514325
0.9269727 0.88921154 0.9768593 1.0946827 0.9930776 0.9660883 1.026753 1.0324357

cnn_encoder.5.bias f4 [64]
00000000: 677a 80bc b53d 0fbe 214b d1bd 3f24 e1bd
00000010: ad90 a0bc 21a7 53bd a7c9 8dbd 2722 c4bd
00000020: d615 b8bd 335f 2dbe d746 87bd 74c6 b3bd
00000030: e737 68be 9358 d6bd 75b0 0ebe 1bdb 35bd
00000040: 100d 1cbd eba4 12be 7532 78bd 6bc7 9dbd
00000050: b715 8cbd 50ae cb3c 6441 3abd ea82 2ebd
00000060: 013a 10be 6b40 19be 311a 9ebd 04eb b5bd
00000070: 9d7d 2cbe e9f3 20be e768 03be 5b85 e9bd
00000080: ae29 34bd 9bee aebd 8751 05bd c32a 06bd
00000090: 5aac b0bd 6fa9 e2bc 716e eabd 3098 2ebd
000000a0: f12d 37be c7db 05be 5be9 803c cbff 0fbd
000000b0: 6165 05be 98d8 113c b289 20be f9b9 cfbd
000000c0: a32f 21be 2233 1bbe 42fd 96bd 6e6d cfbd
000000d0: 7153 10be 98a7 b6bd bc39 b3bd bc89 34be
000000e0: 3558 cdbd 59eb 86bd 92ee 83bd 7661 58bd
000000f0: 2555 aebd 1f67 cabc b7b9 17be b90a 8ebd
-0.015683366 -0.13988383 -0.10219408 -0.109932415 -0.019600237 -0.05167306 -0.06923228 -0.095768265
-0.0898854 -0.16930847 -0.066053085 -0.08778086 -0.22677575 -0.10466113 -0.139345 -0.04439841
-0.038098395 -0.14320724 -0.060594995 -0.077040516 -0.06840079 0.024863392 -0.045472518 -0.042605318
-0.14084627 -0.1496598 -0.07719839 -0.08882716 -0.16844793 -0.15718044 -0.12832986 -0.11402389
-0.04398506 -0.08541604 -0.032548454 -0.032755625 -0.086266235 -0.027668683 -0.11446846 -0.042625606
-0.17888619 -0.1307212 0.015736273 -0.035156053 -0.13026954 0.008901738 -0.15677527 -0.10142893
-0.15740828 -0.15156224 -0.07372524 -0.10128294 -0.1409433 -0.08918685 -0.08751246 -0.17630666
-0.1002659 -0.06587858 -0.06441988 -0.05282732 -0.08512334 -0.024707375 -0.14816938 -0.06935639

cnn_encoder.5.running_mean f4 [64]
00000000: 503c fd3d b161 b6be 73e9 6bbd 19a5 c83e
00000010: d566 41bf 6d58 35bf b327 abbe a186 113f
00000020: 28d0 27be c3fe 683e 404f 613d dcd7 c93c
00000030: 59c0 163e 5975 c33e a26a 8d3f e5b0 5cbf
00000040: 097d 9dbe d901 a93f 17cc 01bf 289f d9bd
00000050: e17d cc3e 2a00 78bf b3b9 e13d ec0f 34bf
00000060: fd49 fc3e 044a 4ebf 264d 15be 36bd 99be
00000070: 78e5 493c 57bf c4bd 240b 19bf ca0d 40be
00000080: 07de 1ebf 0fda 3abe 917b 71be c8ad a5be
00000090: 8726 c3be bfcd 483e f59c d6bd 055d aa3e
000000a0: 3760 8a3f d47d 6a3d df6f 65be d1df a8be
000000b0: 5d57 02be 3972 40bf 5e91 0a3e 550e bfbd
000000c0: 7e0d 773e fd4a e33c ba21 26bf ef42 fb3e
000000d0: 2c14 4dbe 0ad7 15be 2f08 acbe b0b7 903e
000000e0: 352f ab3d 01b4 13bf 91d1 45bf 099d ddbe
000000f0: c0f3 63be e81c 08be 3480 ca3e 7d1e 90be
0.12365019 -0.35621408 -0.05759568 0.3918846 -0.75547534 -0.7083805 -0.33428726 0.5684605
-0.16387999 0.22753434 0.05500722 0.024639063 0.14721812 0.38175467 1.1048167 -0.8620742
-0.30759457 1.3203689 -0.5070204 -0.1062606 0.39939788 -0.9687525 0.110217474 -0.70336795
0.492752 -0.8058169 -0.14580211 -0.3002717 0.012322776 -0.09606808 -0.59782624 -0.1875526
-0.62057537 -0.18247245 -0.23582293 -0.32359147 -0.38115332 0.19609736 -0.10479156 0.33274093
1.0810612 0.057248905 -0.22405957 -0.32983258 -0.12728639 -0.7517429 0.13532016 -0.093289055
0.2412624 0.027745718 -0.6489521 0.49074504 -0.20027226 -0.14632812 -0.33599994 0.28265142
0.083586134 -0.5769654 -0.772729 -0.4328387 -0.22260952 -0.13292277 0.39550936 -0.2814826

cnn_encoder.5.running_var f4 [64]
00000000: 6fce bc3f efa1 6c3e 3eca 253f ad46 993e
00000010: e6e6 e93e e588 423f 287c 2f3f a4ce 043f
00000020: c753 993e 107b 093f ce97 593f 0d31 ec3e
00000030: 7f9a bb3e 3f2d 4a3f 068b e23e 50a2 da3e
00000040: f962 163f 7939 e93e c074 193f 73bc cd3e
00000050: 410a 1b3f 5470 1d3f 2036 e03e 26af b03e
00000060: c457 0b3f 8d6b f53e 228b 353f b120 bd3e
00000070: 06c6 803e c25c c73e 2b24 f83e c7b9 3a3e
00000080: 2b35 9e3f 9324 473f c322 633f 9bf0 803f
00000090: 97e0 ce3e 2d67 203f f929 a93e ad4f e03e
000000a0: 2b6c fa3e d4af e73e 9dbe 0f3f 8a29 173f
000000b0: 309d a33e 5da9 1c3f a440 f23e 6705 e13e
000000c0: 7893 d93e fe0c a83e ce3d d83e 1522 1f3f
000000d0: f807 b73e fa8e be3e c961 403f d8a1 723e
000000e0: 1432 c43e ec6d 233f 1f56 f63e 85b5 dc3e
000000f0: 4ac4 003f e483 733f 4a44 833e 1e9c ad3e
1.4750499 0.23108648 0.6476172 0.29936734 0.45683974 0.75990134 0.6854882 0.5187781
0.2994673 0.53703403 0.8499726 0.46131173 0.3664131 0.7897529 0.4424669 0.4270196
0.5874477 0.4555166 0.5994377 0.40182838 0.6056252 0.61499524 0.43791294 0.34508628
0.54430795 0.47933617 0.70915425 0.36939004 0.2515108 0.38937956 0.48465094 0.18234931
1.2359976 0.7779018 0.8872492 1.0073427 0.40405723 0.62657434 0.33039835 0.43810788
0.4891065 0.45251334 0.5615023 0.5904776 0.31955862 0.6119593 0.47314942 0.43949434
0.42495322 0.32822412 0.42234653 0.6216138 0.35748267 0.37218457 0.7514921 0.23694551
0.38319457 0.638396 0.4811258 0.43107238 0.50299513 0.95123124 0.25638038 0.3390817

lstm.weight_ih_l0 f4 [256, 64]
00000000: 256d 60bd a1cf 23bb 91da bf3d 56a3 ec3d
00000010: 91ad 453d 3496 06be bf3e 02be 7819 d3bd
00000020: b641 603d 15ec 65bb a212 09bd cf36 3cbe
00000030: ce4c e2bd 016b 56be 1302 443d 8f78 6e3d
00000040: dbcf 98be 60e3 e53c c975 64be c7d5 4abe
00000050: f805 3dbc bdc1 0e3e 4927 8f3d 8f2c f8bd
00000060: 9ae2 053e 312f ddbc cda1 14be 72ac 03be
00000070: b914 a73d 3d3b 7dbd 9fd9 fa3c cb09 283e
00000080: 9d3a b13c 407b 7fbc 5fdd fbbc dcf5 4c3e
00000090: c579 8ebe 9d08 913b f925 ef3d 8337 a9bd
000000a0: 6235 123e 2c50 503d b199 db3d 67b0 19bd
000000b0: f3ca e8bd ec90 d1bd 9fe1 24bd f2ea 113d
000000c0: 4e29 38bd 4f54 d23d f02d 023e e736 e8bd
000000d0: f15e bc3d 38c3 833d 09e2 9d3d 4b65 55bd
000000e0: 8fd1 c5bd 7c8e 8ebd 85ff 48bd b767 393b
000000f0: c65f 17be 5a95 9abe 529c c93d f565 07be
00000100: 304d 43bc d083 6abe 48f3 24be 9de1 19be
00000110: b80d 71be f0b3 33bd af54 c03c fe23 5d3d
00000120: bd19 a33d 5952 e03c 9730 ddbd 21c9 d1bd
00000130: 624f 1ebe bcb9 1e3e 9fb4 2c3d f937 72be
00000140: 90e6 dfbd 2699 0dbd 635b 39bd 6f88 2ebd
00000150: 9210 b6bd 18d2 31bc 5bdf a53d ec66 aabe
00000160: 3ea7 2bbe 20ff 013d e61f 543c aa61 6cbd
00000170: a9f0 123e 1767 b7bd 7dda 723e 68ab fc3c
00000180: c810 b1bc e97f a13c 1ab3 ca3d eb66 02be
00000190: 9297 19be 8215 8d3c 5b59 94bd 65d4 64be
000001a0: 94e0 46be eb5d 97bd f873 5bbe 06c8 86bd
000001b0: 6b03 f33c cf08 f1bd 8f7a d8bc ca5a 2cbd
000001c0: 4518 c13d 3db5 32be 7edb ebbd 197e 4cbc
000001d0: 52ce 323e c298 4d3e ab61 f4bd b88e 643e
000001e0: 8516 96bb ecb0 54bd c74a 99bd 3cb9 ccbc
000001f0: e5c5 883d df5d ae3d e438 df3c afc3 73bd
00000200: 143e a7bd df01 95bd 0001 acbd f57a e33c
00000210: c40b 343e 1e54 0a3e 0d4c abbe 6b6e 28be
00000220: bf7b 873d cd98 77bd 1621 083e 82f4 f9ba
00000230: 52a1 24bd 059b 12be bea3 913c d101 003e
00000240: b8a0 15be aad0 da3d 8b93 1bbd 88d6 a73d
00000250: c726 613e 4e21 aa3b ed9c a63d 51cf 53be
00000260: 683e c8bd 772b 073c 12eb 6dbd 4199 183e
00000270: 1b50 24be 8c18 9a3d c5bf 163e b107 773e
00000280: 1f82 513d 43d3 70bc e2f9 1dbe 2261 febd
00000290: 8351 2d3b 1373 6a3b 372a 423e e2b9 5d3e
000002a0: 6543 6f3e adf4 053d 915c 93bd 4ec2 093e
000002b0: 8e17 233d 5ed1 0fbd 634d e0bd e3b0 6f3d
000002c0: 1197 063e debd 783e 3a07 47be cc98 233d
000002d0: 1d96 f73c bc09 1a3e 7948 32be 5003 72bb
000002e0: e2b3 033e e481 8d3d b2a9 4ebc 7426 be3d
000002f0: 69b3 a0bd f59b 3dbd ca3c 243e ff60 2d3d
00000300: 7952 9dbd e296 bc3d cb0f 3bbe b943 313e
00000310: abe6 53bd 9a34 83be 95ab 783d 3689 41bd
00000320: 2116 b5bd 9663 373e 0ca0 cbbd dcc3 063e
00000330: 058e afbd 01b1 2e3e b304 703e bf20 e53d
00000340: f60b 19ba da21 e13d 8db6 923b 157c 803d
00000350: bcbc 6d3d 67c1 0bbd 057a 0dbe 41ba 35be
00000360: fb13 2f3e d5cd 48bd 0a91 49bd 6127 23be
00000370: ffaa a83d 11e1 f83d acef b6bc 08e1 edbd
00000380: 6112 bbbd 8090 a5bd 776d 213e 4e11 e039
00000390: 753a 21bd d602 a83d c261 a3bd 7e09 003e
000003a0: 4740 8a3d 497a 66bd 2889 bdbd c2a2 babd
000003b0: cbdb 8cbe 491b 63be 8cce 863d 7280 86bd
000003c0: f992 6b3d 7398 09bd f043 2a3e 9dbe 20be
000003d0: 1f90 efbd d8c3 3d3d 90c1 bf3d 240f fb3c
000003e0: d43e c9bc 887b 063e feac bd3d c131 cdbb
000003f0: 4717 f8bd 2e83 113c 59f0 8e3d ef00 4c3d
-0.05479159 -0.0024995583 0.0936786 0.11554591 0.04826123 -0.13143235 -0.12719248 -0.10307592
0.054750167 -0.0035083343 -0.033465035 -0.18380283 -0.110498056 -0.20939256 0.04785354 0.058220442
-0.2984608 0.028062522 -0.22310556 -0.19808112 -0.011537068 0.13941093 0.06989915 -0.12117874
0.13074723 -0.027000042 -0.14514847 -0.12858751 0.081582494 -0.061824072 0.030621348 0.16409986
0.021634394 -0.01559335 -0.030745206 0.20015663 -0.27827278 0.0044260756 0.116771646 -0.08262541
0.14278176 0.050857708 0.10722674 -0.037521746 -0.113668345 -0.1023272 -0.04025423 0.035624452
-0.044961266 0.10269987 0.12712836 -0.11338597 0.09197796 0.064337194 0.077091284 -0.052098554
-0.09659111 -0.069607705 -0.049071807 0.0028290579 -0.14782628 -0.3019207 0.09844269 -0.13222487
-0.011920258 -0.22901845 -0.1610843 -0.15027471 -0.2354039 -0.043872774 0.02347788 0.053989403
0.079638936 0.027383016 -0.108002834 -0.102434404 -0.1545997 0.1550054 0.04216444 -0.23654164
-0.10932648 -0.03456988 -0.04525317 -0.042610582 -0.08889879 -0.010853313 0.08099242 -0.33281648
-0.16763017 0.031737447 0.012947058 -0.057710327 0.14349617 -0.0895521 0.23716159 0.030843452
-0.021614447 0.019714313 0.09897442 -0.12734573 -0.14999226 0.01722217 -0.07243606 -0.22346647
-0.19421607 -0.0739096 -0.21430957 -0.0658112 0.029664716 -0.11769258 -0.026425628 -0.04207877
0.09428457 -0.1745195 -0.11516474 -0.012481236 0.17461517 0.20077804 -0.11932691 0.22320068
-0.0045803213 -0.05192654 -0.07484966 -0.02499067 0.066783704 0.08513998 0.027248807 -0.05951279
-0.08166137 -0.072757475 -0.08398628 0.027768591 0.17582613 0.1350865 -0.3345646 -0.16448371
0.066153996 -0.060448457 0.13293871 -0.0019070061 -0.04019291 -0.14316948 0.017778274 0.12500693
-0.1461209 0.10684331 -0.037982505 0.081952155 0.21987449 0.0051919585 0.081354 -0.20684554
-0.09777528 0.008250109 -0.05808551 0.14902212 -0.16046183 0.07524213 0.14721592 0.24124028
0.051149484 -0.014698806 -0.15427354 -0.1242087 0.002644629 0.0035774156 0.18961416 0.2165294
0.23365553 0.032704044 -0.0719539 0.13453028 0.039817385 -0.035111777 -0.1095226 0.0585183
0.13143565 0.24291179 -0.1943635 0.03994064 0.030222947 0.15042776 -0.17410459 -0.0036928244
0.12861589 0.0690954 -0.012613701 0.09284678 -0.0784672 -0.04629131 0.16038814 0.04232883
-0.07681746 0.09208466 -0.18267743 0.1731099 -0.051733654 -0.2562607 0.06071051 -0.047249995
-0.088421114 0.17909083 -0.09942636 0.13160652 -0.0857201 0.17059709 0.23439293 0.111878864
-0.0005838269 0.10992785 0.004477328 0.06273667 0.05804132 -0.03411999 -0.13816078 -0.17746831
0.17097466 -0.04902442 -0.049210586 -0.1593299 0.0823574 0.12152303 -0.022331081 -0.11615187
-0.09134365 -0.08084202 0.15764414 0.00042737502 -0.03936239 0.08203666 -0.0797763 0.12503621
0.06750541 -0.056268964 -0.09254676 -0.09113075 -0.2751144 -0.22178377 0.065823644 -0.06567468
0.05751321 -0.033592653 0.16627479 -0.15697713 -0.11697411 0.04632935 0.09363091 0.030646868
-0.024566092 0.13133061 0.09261511 -0.0062620346 -0.12113815 0.008881373 0.069794364 0.049805578

lstm.weight_hh_l0 f4 [256, 64]
00000000: 51dc af3d 4af6 c5be 5eb6 d93c 715c 81be
00000010: dcc1 3cbd 0994 ab3e dc53 323d 9498 5abe
00000020: 933e a5bd 00c5 cfbd be39 b43d 6667 3fbe
00000030: 5212 8f3e 1e3b 71be b393 5bbb e3bf 91bc
00000040: 65f4 0bbc caf7 89bd 483c 9a3c 0cce 263e
00000050: a853 89bd 6732 93bd e35a e73d 972d dfbd
00000060: cbe3 79be 3e8f c6be 5f78 95be 5ef4 53bd
00000070: e55c e5be d799 153d b5c3 3e3e 9b39 8a3d
00000080: 60fb 023e dbc7 f4bd 4583 6a3e 9acb 07be
00000090: 6e81 983d 79e3 57bd 1b96 4e3e fbf0 1a3e
000000a0: 339e cebe 6d4a 6c3d e0c4 3fbe 46ea a1bd
000000b0: b898 8b3d b4a9 94be 8f34 20be 0749 f0bd
000000c0: ee7c 0abc af86 1c3c 3b8a 853e d1e6 98be
000000d0: 15bd 1e3e 5d55 2f3d 2a18 093e a277 8c3e
000000e0: 57ee 81bd e199 32bd 8f84 bc3e 3e2a ab3d
000000f0: 9db2 8cbc dd21 a53c 5971 c23d 7abd e1bd
00000100: 1e32 123c 2943 ca3c fa6b e73d 5396 3b3e
00000110: 30dd a9bd 80f4 133e 5706 4cbe 4cf4 e33c
00000120: 0ca8 a83e 9f44 e3bd 3f3e 933d c634 debc
00000130: b3be 1fbd ea79 e03a cd9a 52be d3e6 a7bd
00000140: 497f 843c db99 fd3d d9e7 c53c 097e 473e
00000150: bb49 c7bc 0082 f03c 5c3a a8bc f65b 4ebd
00000160: 5da1 58bd 6422 ddbd ea91 ebbd 4a21 b3bd
00000170: 1507 b53e d512 8f3d 7a36 1e3e 6a36 d2bd
00000180: 2240 143d ecfb 013c dfe7 acbd adbd 503e
00000190: 56ac 58be 6314 e9bd 8fca 60bc 848c a0bd
000001a0: 2a0b 87bd c89c 033d 7571 963c 220c c4bd
000001b0: 44b5 3bbe 11e4 093e 81e2 f0ba 893e e63d
000001c0: bea5 d73d 21de 4c3e 29f6 8ebe c7c5 d4bc
000001d0: c6ff 8ebc 6e3c ffbd 50bf 15be fa12 05be
000001e0: 7083 8abd 4ba8 3cbe e2ce 4abd 7753 92be
000001f0: 51ff dc3d 3192 c5bb d0eb 0d3d 4fc5 403e
00000200: aa43 11be 8788 353e 1df0 203d 87f8 243d
00000210: 9bc3 503d d776 863d 6e37 033e 1961 b43e
00000220: 8a86 83be c711 cd3d d174 bb3d 0cab 483e
00000230: a9d0 b93d 215f 2fbe 74de b63d 994c cc3d
00000240: cbde 443e 8ecc 01be 948e e1bc 1b54 813e
00000250: 2a40 0c3e 0007 41bd 670c 81bd 0529 91bd
00000260: 7b79 a13c d2ca 11be 4f69 ea3d 15c2 2f3e
00000270: bcfd 35be 3f89 993d 9553 093e bd2d ce3d
00000280: 8920 f8bc d1a6 243d 44ca a33b 4cda 163e
00000290: 052d 1a3e 3f60 cd3d 33cb 67be f128 d1bd
000002a0: a785 d6bc 57a8 5d3e 0f2b 633e c133 84bd
000002b0: d028 6b3e 0a10 283d 5787 cfbd 1c63 a3bd
000002c0: 2daf 7d3e b92b f23c 4cf4 dbbd 6de8 4e3d
000002d0: 51eb 5e3d bcd1 f73d ec7b 76bc cc82 e4bd
000002e0: 362a 0cbe 8fda e3bd cc52 3bbd 30f5 833d
000002f0: 82dd 0fbc 02ea 9ebd b103 6ebe 6e6e 00ba
00000300: bc6c 6e3d bbf3 29be 9969 34be 4ab5 ba3d
00000310: 6f5c 9b3d b2b2 873d e828 85bd 4de6 1439
00000320: 9c4c f73d 62f1 bebd 8507 d83d 9e45 76be
00000330: 10aa 203e c9e2 5f3d a55d 6dbd 3c5f 863d
00000340: e806 b4bd 7977 57be d064 3b3e b6d1 5d3e
00000350: 2f86 323d 3ee0 dfbd bada 3e3e 944d 35be
00000360: 22dc bfbd 332a 0ebd b4d8 21be 56f3 8cbd
00000370: 8235 52bd b90a 403d 08f4 16bd 3383 4e3e
00000380: b5e1 b63e 8bbc 90bd 1329 553e 4996 8abc
00000390: dcb3 353e 1a6c 4fbe 7b68 15bd 2699 2f3e
000003a0: 7b64 8fbd 6386 98bd 7038 6f3e f6db d63d
000003b0: f27d a53e b373 de3c 8d7c 063c 0291 dfbd
000003c0: cc06 cd3d 8112 a4be c8f0 0bbd 228b 04be
000003d0: a716 6c3d 03d1 90bd a47e 203e cabc 44be
000003e0: a299 41be 5639 98bd cd10 dc3c 8515 27bd
000003f0: 63bb b03d 18bf 0bbd 6cbf 943e b09e 133d
0.08586944 -0.38664466 0.026576217 -0.2526584 -0.046083316 0.3351138 0.043537006 -0.21347266
-0.08068576 -0.10144997 0.08800076 -0.18691787 0.27943665 -0.23557708 -0.0033504784 -0.017791694
-0.008542155 -0.06736715 0.018827572 0.16289538 -0.06705409 -0.07187348 0.11296632 -0.108973674
-0.24403302 -0.3878116 -0.29193398 -0.05174672 -0.44797435 0.036523666 0.18629344 0.067492686
0.12791204 -0.11952182 0.22901638 -0.13261262 0.07446562 -0.05270717 0.20174448 0.15130989
-0.4035507 0.057688165 -0.18727446 -0.07906012 0.06816238 -0.29035723 -0.1564505 -0.11732679
-0.008452637 0.009553595 0.26082024 -0.298636 0.15501817 0.04280602 0.13388124 0.27435023
-0.06344288 -0.04360378 0.36819884 0.083576664 -0.017175013 0.020157749 0.094942756 -0.11022468
0.008923082 0.024690228 0.11299892 0.18319063 -0.08294141 0.14448738 -0.19924293 0.02782645
0.3294071 -0.11097073 0.07189607 -0.027124774 -0.039000224 0.0017126177 -0.20566864 -0.08198323
0.016173976 0.12382861 0.024158405 0.19481672 -0.02432715 0.029358864 -0.02053564 -0.05038067
-0.052888263 -0.10797575 -0.1150244 -0.08746584 0.35356966 0.06986014 0.15450469 -0.10264285
0.036193974 0.007933598 -0.084426634 0.20384856 -0.21159491 -0.113808416 -0.013720169 -0.07839301
-0.06593926 0.03213194 0.018364647 -0.09572627 -0.18330866 0.13465907 -0.001837805 0.112423964
0.1052966 0.2000661 -0.2792218 -0.025973214 -0.017455947 -0.12462698 -0.14623761 -0.1299552
-0.06763351 -0.18423574 -0.049513705 -0.28579304 0.10790885 -0.0060293903 0.034648716 0.18825267
-0.14185968 0.17727862 0.03929149 0.040276077 0.050967794 0.06565636 0.12814113 0.3523033
-0.25688583 0.100131564 0.0915314 0.19596499 0.09073002 -0.17126133 0.08929148 0.09975547
0.19225614 -0.12675688 -0.027533807 0.2525948 0.13696352 -0.047125816 -0.06301194 -0.07087902
0.019711247 -0.14237526 0.11445867 0.1716388 -0.17772573 0.07496881 0.1341079 0.10067318
-0.030288951 0.04019815 0.004998477 0.14731711 0.15056236 0.10028123 -0.22636108 -0.10212887
-0.026186777 0.21646248 0.22184394 -0.06455184 0.22964787 0.04103092 -0.10133236 -0.07977888
0.24773856 0.029561864 -0.10739955 0.050514627 0.054423634 0.121005505 -0.015044194 -0.1115776
-0.13687977 -0.11125671 -0.045733258 0.0644325 -0.008780839 -0.07759477 -0.23243596 -0.0004899268
0.058209166 -0.16596882 -0.17618407 0.091166094 0.0758599 0.0662588 -0.06501943 0.00014200174
0.12075159 -0.09323384 0.10548309 -0.24049994 0.15689874 0.05465964 -0.057950635 0.06561133
-0.0879038 -0.21041669 0.18300176 0.2166203 0.043585 -0.10931443 0.18638125 -0.17705375
-0.09368159 -0.034708213 -0.15805322 -0.0688235 -0.05132056 0.046885226 -0.03685382 0.20167236
0.35719076 -0.07067212 0.2081645 -0.016917365 0.17744392 -0.20256081 -0.036476593 0.17148265
-0.07001587 -0.07447507 0.23361373 0.10491173 0.3232265 0.027154779 0.008208406 -0.1091633
0.10011062 -0.32045367 -0.034165174 -0.129437 0.05763879 -0.07071116 0.1567331 -0.19212642
-0.18906263 -0.07432811 0.02686348 -0.040792007 0.08629491 -0.034117788 0.29052293 0.036040008

lstm.bias_ih_l0 f4 [256]
00000000: e7b1 a8bd 72df 91bc 5e12 933d 477e f53c
00000010: afdf 3a3c f091 03bd 0c87 d43c 2132 16bd
00000020: 8f7b 1cbe 67b3 d9bc 9b76 06be dd8f b1bc
00000030: 07bf 0bbe 6f6a 14be 6a50 873c 255a a73d
00000040: 5de4 b3bd df26 a7bd fbc9 2a3d 58e2 05bb
00000050: 389e f4bd 75e6 073d a27d 9a3c 1c86 7ebd
00000060: f5e3 7c3d c222 17be 9b88 8e3c 8f20 5ebc
00000070: 5ea8 8bbd 41b3 7e3c 6127 f63c c932 85bd
00000080: ebc2 6fbd 4668 07bd 336f c83c 63bf 7dbd
00000090: 9a0d 173e 2aad 953d 1750 353c 7677 943d
000000a0: 6626 ecbc 0a6b cc3c 6988 eabc 78f9 03bd
000000b0: 4368 233d 1efa e23d fe0e cdbd 5612 463d
000000c0: 5651 1d3d 3017 bebc a0b0 90bd 2993 993d
000000d0: 547e 6a3d fc26 b73d f884 cf3d 2e2e c6bd
000000e0: c470 df3d 1364 963b 2373 483e 7577 74bd
000000f0: 1884 283d 023b 0cbe 06cb 8abd 001c f1bc
00000100: b143 c83d 6ebf 253e e6df 2dbd b1ca 08ba
00000110: 09d6 353e 05e0 8b3d 15fc 083d b206 b0bc
00000120: 05a6 8e3c 3502 093e 35b8 983d 47c3 003e
00000130: 2619 f0bd c43d 013e 26d0 983d 233b 733d
00000140: 066d afbc 2c49 8a3d 1e31 ce3d 9ab1 963d
00000150: ada8 093e dc18 15bd 86d6 bc3d eeee a7bd
00000160: ea14 613d 746b 01bd 2109 eb3d 9175 893d
00000170: 5d37 353b 32a9 1d3e 62fa 463c 374b 803d
00000180: 7cf6 5d3c f7d1 c03c 1748 703d 50db cd3c
00000190: 0d5b 54bd 0bcd 553c 86bf 9e3d 4ef6 373e
000001a0: 6c38 be3d 10eb 433c 9cf7 4dbd 71ab b83d
000001b0: 1b2c 563b 5618 f33d 89f3 4c3d d78b 1a3e
000001c0: 4be5 103d be8f 5a3d eb05 c4bc c5b0 963d
000001d0: 168a 293e 1a7c e03d 6d08 013e 3e8b 173e
000001e0: ce17 063d f9cc 2d3e 12cd a83d 4aa2 77bd
000001f0: 797f 723d 33cd 943c fefa 0b3e 63f8 47bd
00000200: 03db d5bc cb8c 923d 85d5 5bbd dcc6 92bd
00000210: 8c3f 7bbd 355c ac3d c6e0 e4bd a05a 48bc
00000220: 0d3b f93c 1ca5 6ebd 0b5f 573d 94e8 9e3d
00000230: 63a7 06bb 8ad2 dd3d d639 433d 2881 66bc
00000240: 199a b3bd 5bbb fb3d 7274 c43c 07b6 f2bd
00000250: b74e 733d 3381 0a3e 4b95 493d c476 f23c
00000260: fef3 613c 2087 533d 9e05 893c a87d c73c
00000270: ef1a debd 09ea f8bb 041e 3cbd e8ef f53d
00000280: 16fe 2a3d 9503 81bd a5ad 96bd dc11 143d
00000290: be88 f33d ad77 c23d 6c39 41bd 8285 c63d
000002a0: 1d3d a5bc 35c3 a9bd accb 683b db8b 0bbe
000002b0: 3b71 83bd c0a2 cdbd 0e8b 023d b154 153e
000002c0: 2cfa 85bd 4c0b 5e3d 2668 c3bd 9c2a f7bd
000002d0: 2f13 adbd aa73 ab3d a702 d8bd ea26 93bd
000002e0: a9c4 c1bd 48bd e4bd 5947 b7bd d29d 863d
000002f0: 550e a4bd 2f19 833d 7a26 5e3c bb58 b4ba
00000300: 3a92 6cbd 0aaf 7bbd 9335 343d 1ad0 3dbd
00000310: 2596 e43d a70a babd 86c5 a03a 17a4 1f3e
00000320: 8ac2 21bd adf9 bc3d c2fd 22bd b742 b43d
00000330: 96d7 87bd b5f1 febd 55d0 3bbc cfbb 08bd
00000340: 48d3 1e3e 23fa 0dbd f2f4 ac3d 4ba5 073d
00000350: 271d 5f3c 1121 463e 1ceb 79bd eea0 33bd
00000360: 9fb2 163e e44a 063e 4e70 673c 7964 efbc
00000370: 9058 873d b538 0dbd 0d36 633e e74b 4b3d
00000380: f0f4 493d 13c7 023d e59d dcbc 8558 303d
00000390: ffac e2bd aabc c9bc 4dbc 4cbd cd74 313d
000003a0: 236f 81bc 8722 d03c bba9 0f3e dbd1 9abc
000003b0: 16a8 afbc 944c 00be d0a6 24bd c2e6 b73d
000003c0: c5ed 093e 13ed 523d ae32 6abd 3232 ca3d
000003d0: be7c 413d 0c3f 18bd 8490 d73d 175d 713d
000003e0: 651f 963b 629b 0c3e 5b50 d33d a14f 99bd
000003f0: 9b7b a23b e911 f1bc 5dad 173e 6f8e 1cbd
-0.08237057 -0.017806742 0.07181238 0.02996744 0.011405869 -0.0321216 0.025943302 -0.0366689
-0.15281509 -0.026574804 -0.13131182 -0.021675045 -0.1364709 -0.14493726 0.016517837 0.081714906
-0.08783791 -0.08161711 0.04169653 -0.00204291 -0.1194424 0.033178765 0.018858735 -0.062139615
0.061740834 -0.14759353 0.017399123 -0.013557567 -0.06819223 0.015545667 0.030048074 -0.06503827
-0.058535498 -0.033058427 0.024467086 -0.0619501 0.14751282 0.07308419 0.011066458 0.07249348
-0.028826904 0.024953384 -0.028629499 -0.032220334 0.039894354 0.11082862 -0.10012625 0.04835733
0.038407646 -0.023204416 -0.070649385 0.07498772 0.057249382 0.089429826 0.10132784 -0.09676777
0.1091018 0.0045895665 0.19575171 -0.059684236 0.0411416 -0.13694385 -0.06777005 -0.029432297
0.09778536 0.16186306 -0.042449854 -0.00052181917 0.17757429 0.06829838 0.03344353 -0.021487568
0.017413149 0.13379748 0.0745701 0.12574492 -0.11723547 0.12621218 0.07461576 0.05938257
-0.021414291 0.06752238 0.10067962 0.073580936 0.13443251 -0.03640066 0.092206046 -0.08199869
0.054951586 -0.031596616 0.114763506 0.06711877 0.0027651407 0.15396574 0.012144657 0.06264346
0.013547536 0.023537619 0.0586625 0.02512899 -0.051844645 0.013049374 0.07751374 0.17965052
0.09288105 0.011957899 -0.050284967 0.09017075 0.0032680098 0.11869876 0.05003694 0.15092407
0.03537492 0.05335974 -0.023928603 0.07357935 0.16556582 0.109611705 0.1260087 0.1479921
0.032737546 0.16972722 0.08242239 -0.060457505 0.0592036 0.018164253 0.13669965 -0.048820864
-0.02610541 0.071557604 -0.053670425 -0.07166836 -0.0613399 0.084160246 -0.11175685 -0.012228638
0.030423665 -0.05826293 0.052580874 0.077592045 -0.0020546548 0.10831173 0.04766258 -0.014068879
-0.08769626 0.122915946 0.023981307 -0.11851125 0.05940124 0.13525848 0.049214642 0.029597647
0.013791082 0.051642537 0.016726311 0.02435191 -0.10844981 -0.0075962585 -0.045927063 0.12008649
0.04174622 -0.06299511 -0.07357339 0.036149845 0.11891316 0.094954826 -0.047173902 0.09693433
-0.020170743 -0.08289186 0.0035521789 -0.1362757 -0.064180814 -0.10040808 0.031870894 0.14583088
-0.06541857 0.054209992 -0.09541349 -0.12068674 -0.084509246 0.083716705 -0.10547381 -0.07185157
-0.09461338 -0.11168915 -0.08949155 0.065730706 -0.08010546 0.06401288 0.013558978 -0.0013759354
-0.05775664 -0.061446227 0.043996405 -0.04634104 0.1116145 -0.09084063 0.0012265898 0.15589939
-0.039492168 0.092273094 -0.039792784 0.08801787 -0.06632917 -0.12448446 -0.011463244 -0.033382233
0.15510285 -0.034662377 0.08445157 0.03311662 0.01361779 0.19348551 -0.061015233 -0.043854646
0.14716576 0.13114506 0.014125897 -0.029222714 0.06608689 -0.03447791 0.22188587 0.049632933
0.049305856 0.031928133 -0.026930759 0.04305317 -0.11068153 -0.024626095 -0.049984265 0.04332428
-0.015800064 0.025407089 0.14029591 -0.018898895 -0.021442454 -0.12529212 -0.040198147 0.089795604
0.13469608 0.051495623 -0.05717724 0.09872855 0.047238104 -0.0371695 0.10525611 0.058926668
0.0045813792 0.13731149 0.10318061 -0.07485891 0.0049585826 -0.029427486 0.14812227 -0.038221773

lstm.bias_hh_l0 f4 [256]
00000000: 7606 8f3d 02dc adbb 98ef 99bd d6ab 293d
00000010: edb5 223c e8a0 d53c 5b11 d93c 12b4 d5bc
00000020: ddde b3bd 2596 8cbc 7b15 b8bc 1c05 5fbd
00000030: 6890 23be e1e7 11bd 1494 81bc 0145 e7bc
00000040: 3029 7cb8 d095 82bd 93f7 c6bd 44d3 bdbd
00000050: 5fcf ba3d 130e 94bc 9e54 2dbe ed72 81bd
00000060: c9c6 473c f8c0 7c3c 06e6 50bd 9310 40be
00000070: e499 efbd 0e36 c33c 62cf 6abd 2c65 c6bc
00000080: 5a9e 023d 5ffa 9ebc e5cb a43d 9997 92bd
00000090: c8aa 0bbd a8f2 bc3d 8a30 90bd eadc 5fbd
000000a0: 24be 26be 1096 fd3c 2cf7 013d 939c 123d
000000b0: 3804 653d d442 7fbc 222e f23b 7248 7f3d
000000c0: 9cfb 763d ef32 ca3c 086f 0fbc 8e41 173d
000000d0: 6b2d 9abd 2288 bc3d 9fb1 293c 31fe 84bc
000000e0: 26b5 07bd 5a99 513d c16a de3d 627b 613d
000000f0: 01b1 e73d 871a e13c 8ab5 b5bc 6127 29bd
00000100: 2427 6e3d 16c0 6b3d 346b 233d 1689 ae3d
00000110: b457 c63d 0bc4 cb3c a3f7 1a3c 4eb8 f73d
00000120: 75f1 533d 9a0b 023e 319a 56bd 26ee 12bd
00000130: 51db 793c 8b8e 75bd 63b2 0d3e ce3c 343e
00000140: efad 6b3d 5623 50bd 5398 6bbd 7c8b 0d3e
00000150: bf38 173e 2232 16bd 334f 97bc 22b6 9e3d
00000160: c911 1d3e 570a 063e bc75 343e 5fd6 d5bc
00000170: e061 f53d 7f0d 5abc 2df4 82bc a0f7 053e
00000180: de81 6c3d cbff f2bc f93d 9a3d 83aa 75bd
00000190: 76f6 123e 065b 243e 868b be3c 8090 de3c
000001a0: ce35 a4bc 4f17 f93c 5a34 263e 0665 033d
000001b0: da26 993d 4ef1 fbbb e908 12bd 21ae 203e
000001c0: 30f1 06bd 7bdc 153e ef55 833d cd2d 89bc
000001d0: e7b9 ae3c 3a9a 9abc 72d9 2b3e cd61 e73d
000001e0: 49e7 ad3d 34a5 8e3d a421 c63d dbc3 333d
000001f0: 38c2 253e 8130 ac3d b4a4 c13d 1dc1 7f3b
00000200: 7557 e73c a8c1 be3a 1c0d 903d 89c6 74bc
00000210: b567 df3b 02ee 81bd 6216 bcbd 6d6d b5bd
00000220: 9f45 893d 521e c9bd ea44 91bd 5100 1e3d
00000230: 5894 513b 844c ef3c 5361 aa3c 903e 003e
00000240: a101 61bd 64cb 00bc dbf1 b2bd dcc0 d83c
00000250: dc39 4b3d 1b5c 73bd 0a86 af3d b394 afbd
00000260: a7ca a7bd 204d dc39 0205 8a3d 1cfb c6bd
00000270: 2eff 8abd 3240 bebd b797 99bc 3f98 dcba
00000280: be65 3fbd eeeb bdbd 87f9 98bd b24d fe3d
00000290: 4bf5 b73d 8dff b7bd 50de 3cbc 10f9 cdbd
000002a0: 5eef a13c c9cf 3dbd d440 823d b1cf b8bc
000002b0: 95e6 a03d ad6c 693c 87ce c6bd 93d5 fa3d
000002c0: 808c 0dbd 89bd dcbd 656c 48bd cab8 8c3b
000002d0: f502 efbd 2eae edbd 472c c4bd f74f a2bd
000002e0: 33bc c13d 0ee7 f33c b9c4 033e fb97 22be
000002f0: 4624 5b3a e050 5e3d d158 09bd e241 91bc
00000300: 32af b939 94cd 4d3c 4ae3 b8bc 9e5a d9bd
00000310: adfe 9bbd 8e41 38bc b25d e43d ef69 5e3d
00000320: 8a1f 063e 0350 003d 73f4 3bbd 098e b0bb
00000330: d5ac bcbc 937e 87bd b8cd 093e a888 b23d
00000340: eb14 063e 9739 fb3d c580 8abd 33a1 d33d
00000350: 7df0 2fbd 899e 88bc eadf 033e 863c af3c
00000360: 4c44 c83d 1f7d ab3c a7c1 5f3d 819a 40bd
00000370: cac2 e23d 69ff 813d 999e db3c 5423 903d
00000380: d3ae 243e 5926 683c 2bfa 9fbc c659 26bd
00000390: b051 e03c 6d60 f53c 0ea4 253d 8764 95bb
000003a0: b130 773d 020e ff3d eb15 af3d 97a4 593d
000003b0: e815 e43d f638 5f3d 2dc6 81b9 e196 ebbc
000003c0: fddb 2c3e 0bb0 943d 8130 2f3d ad9f 563d
000003d0: a7ff 15bd 4721 f03d 2bb1 223e 7ff1 c5bc
000003e0: 7f57 62bd 830d 833c f509 0b3e cb33 123e
000003f0: f173 24bd 2e2b 75bd eeec 9fbc b740 ccbc
0.06983654 -0.005305768 -0.07516402 0.04142364 0.00993107 0.026077703 0.026497534 -0.02608684
-0.08782742 -0.017161438 -0.02247118 -0.054448232 -0.15973055 -0.035621528 -0.01581768 -0.028231146
-6.011984e-05 -0.06376231 -0.0971519 -0.09268811 0.09121584 -0.018073117 -0.1692681 -0.063207485
0.01219339 0.015426867 -0.051000617 -0.18756323 -0.11699274 0.023829486 -0.057326682 -0.024218164
0.031889297 -0.019406496 0.08046702 -0.07157821 -0.034098417 0.092259705 -0.07040508 -0.05465404
-0.1628347 0.030955344 0.031729862 0.035793852 0.055912226 -0.015579898 0.0073907534 0.06232495
0.060298547 0.02468249 -0.008754499 0.036927752 -0.07528194 0.09205653 0.01035729 -0.01623449
-0.03313174 0.051171638 0.108602054 0.055049308 0.11313058 0.02747847 -0.022181291 -0.04129732
0.058142796 0.057556234 0.03989716 0.08522241 0.09684697 0.024873754 0.009458455 0.120957
0.051743943 0.12699738 -0.052393142 -0.035871647 0.015250043 -0.059950393 0.1383758 0.1760132
0.057538923 -0.05081495 -0.057518315 0.1382274 0.1476774 -0.036668904 -0.018470382 0.07749583
0.15338816 0.13089882 0.17623037 -0.026103197 0.11981559 -0.013308882 -0.015985573 0.13082743
0.05774104 -0.029662987 0.075313516 -0.059977066 0.1435183 0.16050348 0.02325989 0.027168512
-0.020045187 0.030406622 0.16230908 0.032078765 0.074781135 -0.007688678 -0.03565303 0.15691425
-0.032944858 0.14634888 0.06412875 -0.016745472 0.02132888 -0.01887237 0.16782168 0.11297951
0.0849138 0.06965104 0.09674385 0.043887954 0.1618737 0.08407689 0.09455243 0.0039025017
0.028239945 0.0014553564 0.070337504 -0.014939913 0.0068177828 -0.063442245 -0.09183957 -0.08858762
0.06702732 -0.09820236 -0.070932224 0.03857452 0.003197929 0.02921129 0.02079836 0.12523866
-0.054933194 -0.007860992 -0.087375365 0.02645915 0.049615726 -0.05941401 0.08570488 -0.08573284
-0.0819295 0.00042019133 0.067392364 -0.09715864 -0.06786953 -0.09289588 -0.018749101 -0.0016830041
-0.04672789 -0.09273516 -0.074694686 0.12417163 0.08982333 -0.08984289 -0.011527613 -0.100572705
0.01976746 -0.046340737 0.06360021 -0.022559972 0.0785648 0.014247102 -0.09707361 0.12247767
-0.03455782 -0.107783385 -0.048931498 0.0042944895 -0.11670486 -0.11605488 -0.09578758 -0.07925408
0.09459724 0.029773261 0.12868012 -0.15878288 0.0008359592 0.054276347 -0.033531968 -0.01773161
0.0003541648 0.012561221 -0.022569317 -0.10612987 -0.07616935 -0.011246098 0.111506835 0.054300245
0.13097969 0.031326305 -0.04588742 -0.0053880257 -0.023031631 -0.06615939 0.13457382 0.08717471
0.13093917 0.12266844 -0.06762842 0.10333481 -0.042953957 -0.016677158 0.12878385 0.021391165
0.097786516 0.020933686 0.05462804 -0.047022346 0.11072309 0.06347544 0.026809024 0.07037988
0.16082315 0.014169299 -0.01952847 -0.04061296 0.027382702 0.029953206 0.040439658 -0.004559103
0.06034917 0.12453844 0.085491024 0.05313548 0.11136991 0.05449768 -0.0002475245 -0.028758468
0.16880794 0.0726014 0.042770866 0.052398372 -0.036620762 0.11725097 0.15887897 -0.024163006
-0.055259224 0.015997654 0.13578017 0.1427757 -0.040149633 -0.059855632 -0.019522157 -0.024933202
