src/bidmc_generation/models/ha_cnn_bilstm_withWST/20260207_114110/fold_3/best_lightweight_hybrid.pth (torch, 430093 bytes, 23 tensors)

cnn_encoder.0.weight f4 [32, 16, 7]
000000 ec cf 17 bd cb 0a 83 3d a4 fc 26 bd de 2d 39 bd
       -0.037063524 0.06398543 -0.04076828 -0.045209758
000010 6d aa 40 3b 82 50 c0 bb f3 04 b5 3c 79 54 ad bd
       0.0029398457 -0.0058689723 0.022097087 -0.084633775
000020 5c d1 0f 3d 07 bd 6a bd 3e 71 cc 3c 7f 35 eb bc
       0.03511177 -0.057309177 0.024956342 -0.028712032
000030 68 85 ac 3d a6 58 7d 3d e7 33 bc 3b 23 3b 08 3c
       0.08423883 0.06185212 0.005743492 0.008314881
000040 b5 64 9a 3d 1b e6 6e bd 30 fa 93 3d 12 f0 d1 3d
       0.075387396 -0.058324914 0.07225454 0.10250868
000050 cc 70 54 3d 79 5d 93 bc 5d 1d cc bc eb 8a 40 bd
       0.051865384 -0.017988907 -0.024916345 -0.047007482
000060 3c 27 43 3d 8d 30 7b bc ed 72 9a 3d 63 74 c4 3d
       0.04764484 -0.0153314 0.075414516 0.095925115
000070 13 03 57 3b 54 01 4c bd 9a 6b 94 bd 16 4d 08 bd
       0.003280823 -0.049805954 -0.07247086 -0.03327664
000080 dd e2 ae 3d ba f3 10 bd 3b db ef 3d 25 9b da bd
       0.085393645 -0.035388686 0.11711737 -0.10674123
000090 16 67 95 bd 1e 73 a3 3c 2c f5 ba 3d 54 27 b1 3d
       -0.07295053 0.019952353 0.09128794 0.08650079
0000a0 f0 e7 89 bc 66 e9 7f 3d 21 1a 8a 3c e0 d8 a7 3c
       -0.01683423 0.062478445 0.016858162 0.020489156
0000b0 c6 af 45 bc 22 78 7f bd 07 a5 ea 3d a9 6b a4 bc
       -0.012065833 -0.062370427 0.11457258 -0.020070868
0000c0 f8 33 84 3d 35 e6 e1 3c 79 8e 8a 3d 58 84 69 3d
       0.06455225 0.027575592 0.06765456 0.05701098
0000d0 31 ec a3 3c 1a c1 e4 bc 39 02 92 3d a2 cc 5d 3d
       0.020010086 -0.02792411 0.0712933 0.05415023
0000e0 c7 db c4 bd 91 da 1f bd fa 44 c0 ba c4 dd 02 bd
       -0.09612232 -0.0390268 -0.0014668994 -0.031949773
0000f0 e4 80 e2 3d b8 ad 1c 39 0b e2 d6 3c f3 db 3f 3d
       0.1105974 0.00014942035 0.026230833 0.04684062
000100 22 8f 9b bd cb f8 83 3c cf a2 ba bc e8 80 de bc
       -0.0759566 0.016109845 -0.022782711 -0.027161077
000110 9c 4e da 3c 04 ff 18 bd 5c e6 b3 bd c8 95 8c 3c
       0.026648812 -0.037352577 -0.08784172 0.017161265
000120 5b 15 99 bd 83 a2 27 3d 4c 91 8f 3d bb f4 ee 3b
       -0.07474776 0.040926468 0.07010135 0.0072923577
000130 f5 3e be 3d 0c a9 02 3d 7b bc d6 3c 88 13 47 bd
       0.09289352 0.031899497 0.026212921 -0.04860261
000140 86 31 1c 3c 64 77 8e bd a6 8f 2f bc ab ef c0 bc
       0.009533292 -0.06956366 -0.010715401 -0.023551783
000150 25 ad 95 3d cb 74 c9 3c f0 c8 03 3c 00 0b 54 bd
       0.07308415 0.024591824 0.008043513 -0.051768303
000160 0a 1a 1d 3c 6c ef a0 3d 05 9b c0 3d aa 8b 59 bd
       0.009588728 0.07858166 0.09404568 -0.05311171
000170 06 8a 33 3c 8d 8b 53 3c e7 99 9c bd 73 79 20 3d
       0.0109582 0.0129116895 -0.07646542 0.039178323
000180 76 bc 5f bd 0f e4 79 bd cf 15 8d 3d 1e ee 9e bc
       -0.05462309 -0.06100851 0.06888925 -0.019400652
000190 63 5c b1 bd 65 73 9b 3c b7 44 87 bd 10 9e a6 bc
       -0.086601995 0.018975923 -0.06604903 -0.020339042
0001a0 83 9b cd 3d 66 39 ce 3b d8 96 b0 bc c0 38 b9 3c
       0.10039427 0.0062934635 -0.021556303 0.022610068
0001b0 50 19 ae bd 55 01 a3 3c 8a e0 71 bd c2 ef ef 3a
       -0.08500922 0.019898096 -0.059052028 0.0018305706
0001c0 c4 31 58 3b 93 6a 25 bd 69 70 9b 3d 54 b8 b2 bc
       0.0032988647 -0.04038484 0.075898 -0.02181641
0001d0 eb 40 a1 bc 86 3c b2 3d 85 9d 8b bd 47 48 3d bb
       -0.019684276 0.0870295 -0.06817154 -0.0028882192
0001e0 0f b7 aa 3d 58 39 5e bc 26 ce b2 bc 75 20 5a 3d
       0.08335697 -0.0135634765 -0.021826815 0.05325361
0001f0 a3 cb 50 bd c1 cc c1 bc c8 f4 a5 3d 8d f7 c2 3d
       -0.050975453 -0.023657205 0.08103329 0.09519873
000200 e5 7a 91 3c 5a 1b 46 3d 82 89 13 3d ff a7 71 3d
       0.017758796 0.04836593 0.03601981 0.058998104
000210 a5 8e 0d bd 73 1d c4 bb 5d a5 06 bd 9f 7b a5 bd
       -0.034559865 -0.005984956 -0.032872546 -0.080802195
000220 03 86 9b bd 02 d2 5f bd f7 90 91 3d bf 66 c0 3d
       -0.0759392 -0.05464364 0.07107728 0.09394597
000230 a0 fd a8 3d f7 17 26 3d 88 bb 86 bd 31 74 7b 3d
       0.082515 0.0405502 -0.065787375 0.061390106
000240 8a 19 a0 bc 95 cb ac 3d d5 63 2c bd 57 2a 25 3d
       -0.019543428 0.08437268 -0.042087395 0.04032358
000250 83 a9 14 bd 8a 19 26 3d e1 b9 68 3c 08 24 7c bd
       -0.03629447 0.0405517 0.014204473 -0.0615578
000260 a0 3e e6 bc 70 f5 5b 3d 51 aa 90 bd f3 c9 74 bd
       -0.028106034 0.053700864 -0.07063735 -0.059762906
000270 13 76 be bc b2 a0 8a bc 87 73 0d bd 97 fe 66 3d
       -0.023249662 -0.016922329 -0.034534004 0.05639514
000280 ac 82 9c 3d a5 2b 89 3d 89 a2 a3 bc 2f 1e b8 3c
       0.07642111 0.06697778 -0.019974964 0.02247533
000290 39 9d ad 3d 9c e6 a6 3d 11 65 5e bd c4 13 8d 3d
       0.084772535 0.08149454 -0.054295603 0.068885356
0002a0 69 2c 8c bd ca 1f a6 3d eb 43 a2 3d 37 e6 06 3c
       -0.06844408 0.08111532 0.079231106 0.008233598
0002b0 b2 4c 8a 3c 77 3d bf bb 7a fb dd 3d 71 a3 c5 3d
       0.016882274 -0.0058361846 0.10838981 0.096503146
0002c0 74 a8 30 bd b4 63 b7 bc 8a ad 6c bd b0 60 7f 3c
       -0.0431294 -0.02238641 -0.057782687 0.015587017
0002d0 18 c6 cc bd 79 ad 95 bd f0 66 8f 3d e5 69 f9 3d
       -0.09998721 -0.07308478 0.07002056 0.12178401
0002e0 ad e4 6b bd 3b be d1 3d 38 28 08 bd 70 39 5f bd
       -0.05759113 0.10241362 -0.03324148 -0.054498136
0002f0 13 b4 5d bd 41 e7 67 bd f9 cc 4e 3d d3 72 de 3c
       -0.05412681 -0.056617025 0.050488446 0.027154362
000300 cb 25 3d 3d 7b 05 90 3d 20 9f 63 3d 60 6f fc 3c
       0.04617862 0.07032295 0.055571675 0.030814826
000310 8a a7 89 3d 96 e2 59 3d 15 d5 15 3d d6 3f e7 3c
       0.06721409 0.053194605 0.036580164 0.028228682
000320 39 6f 41 bd 22 c6 e0 3a 0b 78 e1 bd 47 bf dd 3d
       -0.04722521 0.0017148892 -0.110092245 0.10827499
000330 b5 c3 3f 3d 41 b2 88 3d b6 54 8c bc 32 0b 27 3d
       0.0468175 0.06674624 -0.017130237 0.04078216
000340 07 fc 9f bd 8d d6 91 bd 6b c5 6d bc 6c 20 5c bd
       -0.07811742 -0.071210004 -0.0145124 -0.053741857
000350 dc ca e6 3d 40 8d 5b bd 07 95 ae 3d 97 c1 e4 bd
       0.11269161 -0.053601503 0.085245185 -0.11169737
000360 80 e3 23 bd cf eb 21 bd 3a 64 49 bd 01 cf 6d bd
       -0.040011883 -0.039531525 -0.04916785 -0.058058742
000370 7b e2 cd 3d 2c a7 c0 bd 17 4f 2d bd 05 fb f7 bb
       0.10052963 -0.094068855 -0.042311754 -0.0075677657
000380 5f 65 7a bc 3e e8 c9 3d d6 a2 a3 bd 69 7d df 3b
       -0.015282958 0.0985875 -0.07990043 0.00682037
000390 ad 8f cc bb 68 dd 0a 3d ea 47 db 3d 4c d8 cb 3a
       -0.0062427134 0.033902556 0.10707076 0.0015552132
0003a0 49 b7 a2 bc 4a 25 45 3d c8 17 9e bd d6 96 eb 3c
       -0.019862788 0.048131265 -0.0771938 0.028758448
0003b0 66 52 ef 3c 44 e9 94 3d 31 0e 4d bb 8f 27 d2 3c
       0.029214095 0.072710544 -0.0031288976 0.025653629
0003c0 1a 97 80 3b 5c 01 af 3d ee 85 cd 3c a6 88 f1 3b
       0.0039242627 0.08545181 0.025088277 0.007371026
0003d0 63 f2 0a 3d 31 c4 f7 3c 1a e7 ba bd 76 30 68 bd
       0.033922564 0.030244919 -0.091261104 -0.05668684
0003e0 ed 4c 8e bc 8e 30 9b 3d 56 6c d0 bd 0c 62 ad 3c
       -0.017370665 0.075776204 -0.101769134 0.021164916
0003f0 6f 3f 61 bd a9 2c 60 3d a3 c5 e5 bc 62 21 a2 bd
       -0.054992136 0.05473009 -0.028048342 -0.079165235

cnn_encoder.0.bias f4 [32]
000000 c3 1f a9 3d a5 46 d3 bc fa b0 9c bc 89 8d 4f 3d
       0.08258011 -0.025790522 -0.019127358 0.050672088
000010 43 d3 c0 3d df 1e a1 bd 93 3b 47 3d bc 1a 44 bd
       0.09415295 -0.07867216 0.0486408 -0.04787706
000020 67 86 26 3d a5 3f 0d bd f8 b0 60 3d 44 2b a4 3c
       0.04065552 -0.034484524 0.05485627 0.020040162
000030 d7 8c 9d bc 86 fb 09 bd 54 ce 9c 3d 00 8a b3 3c
       -0.019232197 -0.033687137 0.076565415 0.02191639
000040 fc ff 24 bc 65 2f 8f 3d de f3 83 bc 53 2e b6 bd
       -0.010070797 0.06991462 -0.016107496 -0.088955544
000050 01 df 85 3d b5 42 92 bc d8 38 cd 3c d3 57 60 bd
       0.06536675 -0.017854074 0.02505152 -0.054771256
000060 6c 80 f9 3c 45 f2 46 bd 92 fe 64 bd 5b b4 6d 3d
       0.030456744 -0.04857089 -0.05590684 0.05803333
000070 1f 43 a7 bd 0f 59 00 bc f1 ad a3 bc fe 47 5e 3d
       -0.08167099 -0.007833733 -0.019980403 0.054267876

cnn_encoder.1.weight f4 [32]
000000 5d 30 80 3f f8 3b 7e 3f fa 1e 7e 3f 27 6d 80 3f
       1.0014759 0.99310255 0.99266016 1.0033311
000010 26 d9 7d 3f 03 64 81 3f db 75 7a 3f 47 e3 83 3f
       0.9915947 1.0108646 0.97836083 1.0303735
000020 1b 20 88 3f c6 04 82 3f 28 d5 79 3f 0b 56 7d 3f
       1.0634798 1.0157707 0.97590876 0.98959416
000030 b7 88 7f 3f 72 a8 7d 3f 3e f5 82 3f 18 f7 7a 3f
       0.99817985 0.9908515 1.0231092 0.98033285
000040 a9 76 76 3f 92 0e 7e 3f 20 1d 83 3f a8 53 85 3f
       0.9627481 0.9924098 1.0243263 1.0416155
000050 37 e8 7e 3f b4 90 7e 3f 8e 00 77 3f 9c 1e 7a 3f
       0.9957308 0.9943955 0.9648522 0.97702956
000060 87 a8 84 3f 2c 0d 7e 3f cc 19 7c 3f be e8 7f 3f
       1.036393 0.9923885 0.9847686 0.9996451
000070 26 c9 84 3f 1b 69 7d 3f 82 86 7b 3f 92 07 78 3f
       1.0373886 0.98988503 0.9825212 0.9688655

cnn_encoder.1.bias f4 [32]
000000 4c d6 84 bd 46 38 68 bd 0d 54 fe bb b9 6a e0 bc
       -0.064861864 -0.05669429 -0.0077614845 -0.02739464
000010 c1 7e 0a bd eb e3 22 bd db 68 f1 b9 14 c1 08 bd
       -0.03381229 -0.03976814 -0.00046045225 -0.03338726
000020 0d ef 0b 3c 4a ff 9b bc 50 32 31 bd 57 58 60 bc
       0.008540881 -0.01904263 -0.043260872 -0.013692937
000030 5f 1d 55 bc 83 2b 76 3b 4d 53 3b 3d 0e 97 7b bc
       -0.013007491 0.0037562556 0.04573374 -0.015355838
000040 42 af 45 bd ea fc e3 3c cf c0 d0 bc f9 41 e5 3c
       -0.048262842 0.02783056 -0.025482563 0.02798556
000050 49 f2 59 bd a5 1b 96 b9 57 c9 0a bd 65 34 2a bd
       -0.053209577 -0.00028630826 -0.03388342 -0.041553874
000060 76 7a c2 3c a1 70 10 3c a1 4f 92 bb 74 05 29 bd
       0.023740035 0.008815915 -0.004465059 -0.041264966
000070 ed 38 9b 3c 76 47 11 bd 64 a8 29 bd 96 29 3f bd
       0.018948043 -0.03546854 -0.041420355 -0.04667052

cnn_encoder.1.running_mean f4 [32]
000000 1e db af 3d f3 a4 aa 3d a4 25 e6 bd 69 2a 4c 3d
       0.08586715 0.08332243 -0.11237648 0.049845133
000010 b5 c0 a6 3b 55 05 2e be 88 85 8d 3c f5 3d 2f be
       0.0050888904 -0.16994222 0.017275587 -0.17113478
000020 41 da 0f 3e 24 fb 3f 3c 25 21 2c be 17 e6 e5 3d
       0.14048101 0.011717591 -0.16809519 0.11225527
000030 d1 83 83 bd 3c 07 6e 3d 1a 84 9d 3d 3e d2 ad 3d
       -0.06421626 0.058112368 0.07691212 0.08487366
000040 c3 f0 8d bc 7d 71 13 3e 2c ce 0b bd 49 a4 c8 bd
       -0.017326718 0.14398761 -0.034132168 -0.0979696
000050 d8 4d ec 3c 18 00 f9 bc 58 eb 12 bc 84 82 1e bd
       0.028845713 -0.030395553 -0.008967243 -0.03869869
000060 ac 2b 70 3b fb 7c 5a 3d 17 24 14 be 74 75 9b bd
       0.0036647124 0.053341847 -0.14466892 -0.07590762
000070 3a a1 bd bd 36 9c 4b bc 32 01 74 be da 14 bf 3d
       -0.09259267 -0.01242738 -0.23828581 0.09330149

cnn_encoder.1.running_var f4 [32]
000000 4a 44 50 3a 6c 5a 6e 3a be fa 73 3b c2 97 81 3a
       0.0007944746 0.00090924534 0.0037228311 0.0009887146
000010 28 3a 93 3a ec b8 06 3a cd 48 b6 3a 76 22 ef 3a
       0.0011232542 0.000513925 0.0013907194 0.0018244523
000020 4e 65 98 3a e6 4a 3a 3a ca c5 4d 3b c8 4a 63 3b
       0.0011626871 0.00071064977 0.003139841 0.0034682024
000030 d4 14 28 3a c6 8c be 3a fa 4a ba 39 8d 77 83 3a
       0.0006411795 0.0014537803 0.00035532546 0.0010030136
000040 0c ff 41 3a e5 c2 2e 3a 19 24 24 3a 42 0c 86 3a
       0.00074003707 0.0006666615 0.00062614825 0.0010227042
000050 a2 fd 3e 3a e7 81 5d 3a 52 fb 90 3a f9 04 48 3a
       0.0007285719 0.0008449838 0.0011061227 0.00076301355
000060 71 a4 7b 3a c2 1a 05 3b a1 a2 2e 3b 30 53 ed 3a
       0.0009599394 0.0020310138 0.0026647227 0.0018106457
000070 fb 2b 94 3a 92 12 aa 3a 1c 6f 46 3b be 7b 5c 3b
       0.0011304611 0.0012975505 0.0030278629 0.0033643092

cnn_encoder.4.weight f4 [64, 32, 5]
000000 4d e5 54 bd a6 62 1d 3c d2 15 85 bc 17 0a 86 bd
       -0.05197649 0.009606039 -0.016245756 -0.06544893
000010 fb d8 a3 bc 85 e2 e4 bc 0e 19 8a bd b2 13 35 bc
       -0.020000925 -0.027940044 -0.0674306 -0.011052059
000020 8e f9 80 bd c6 d3 cf bc 86 f6 af bc 98 2d 20 3d
       -0.06297599 -0.025369536 -0.021479856 0.03910598
000030 6b 13 d0 3d 5e b4 9b bc 79 a6 d7 bc 78 92 93 bd
       0.10159954 -0.019006904 -0.026324498 -0.07205671
000040 bb 1f 1f 3d d5 73 e8 bc b5 8d 96 bd 21 f3 d1 3c
       0.03884862 -0.028375546 -0.07351247 0.025628628
000050 03 1e 3d bd 82 a7 1a 3d 5e a7 0f 3d 48 aa c4 3c
       -0.0461712 0.037757404 0.035071723 0.024006978
000060 54 a4 2c 3d 3f 29 3a bd 30 d7 0f 39 b8 1f 9a 3d
       0.042148903 -0.04544949 0.00013717706 0.07525581
000070 17 e6 c7 ba 82 b4 28 bd e9 37 ab 3b 4c e0 6e bd
       -0.0015251067 -0.04118777 0.005225171 -0.058319375
000080 92 d6 2a bc e9 02 d0 bd 97 25 94 3c e3 b1 57 3d
       -0.010427134 -0.10156805 0.01808433 0.05265988
000090 ad 09 47 bc 1b a7 13 3c 11 12 95 bc 35 b2 10 3b
       -0.012148303 0.009012009 -0.018197091 0.0022078876
0000a0 2a e1 77 3c dd fa 8c bd 41 41 51 3d 37 ef 1b 3d
       0.015129367 -0.06883786 0.05108762 0.03806993
0000b0 bd 06 4e 3c 49 b7 74 bd 10 2d 9f 3d b9 b7 46 3d
       0.012574849 -0.059745107 0.07772267 0.048515055
0000c0 06 0c 93 3d 7c 1e 7a bd 7b 01 21 bb db 82 a1 3d
       0.07180028 -0.06106423 -0.0024567533 0.07886287
0000d0 14 e7 42 3d 4f bc 38 3d 30 fd f5 3c 76 ef 83 bc
       0.047583655 0.04510146 0.030027956 -0.016105395
0000e0 2a d5 03 3d 7d 92 79 bd b7 7d 48 3d 25 7a 64 3d
       0.03218571 -0.060930718 0.048948016 0.05578055
0000f0 e2 c8 18 bc 55 af 91 bd f8 c1 f6 3c 60 7a 82 3d
       -0.009325238 -0.0711352 0.030121788 0.063709974
000100 ec 8a 7c 3c 89 13 01 3d ed e5 2e bd b2 d0 a6 3d
       0.015413981 0.03151277 -0.042699743 0.08145274
000110 80 3c 47 3d 00 c6 03 bd cb f6 d9 bc b5 57 8b bc
       0.04864168 -0.03217125 -0.026606938 -0.017009595
000120 b6 86 d3 3b 4c fa bb bd 7c 78 11 bd da b0 ca 3c
       0.006455268 -0.091786 -0.035515293 0.024742533
000130 1f d4 56 bd 75 4d 92 bd e4 98 3b 3d c6 2b d3 3d
       -0.05244839 -0.0714368 0.045800105 0.103110835
000140 d5 08 9b bd 66 56 50 bd 29 5c 2f 3c 25 cc 6b 3d
       -0.07570044 -0.050863646 0.010703125 0.057567734
000150 70 da bd bc dd 97 3a bb 63 6c a2 bc 73 c9 37 3d
       -0.023175448 -0.0028471865 -0.019827073 0.04486985
000160 bb 5a 13 bd dc 28 c1 3b fb bc 26 bd 1a e7 fb bc
       -0.0359752 0.0058947634 -0.04070757 -0.030749846
000170 7e f1 b7 3d 83 8d 4d bb d4 04 74 3d 93 bd 05 bc
       0.08981608 -0.0031364865 0.059574917 -0.008162874
000180 02 e0 43 3d 3d 22 7f bc e6 d6 15 bd ad 9a 9e 3c
       0.047821052 -0.015572128 -0.036581896 0.019360865
000190 f3 9c 59 bc a8 9d 84 3c b6 71 e7 bc 40 66 05 3d
       -0.0132820485 0.016188458 -0.028252464 0.032568216
0001a0 81 2d 19 3d 35 68 c2 bc 5e 2d db 3c ea f3 19 bd
       0.03739691 -0.02373133 0.026755031 -0.03758613
0001b0 1b 2f 95 ba 0b 61 02 bc 8e 9a a3 3c 73 57 66 3d
       -0.0011381836 -0.007957707 0.019971158 0.05623574
0001c0 84 38 a3 3d 54 33 81 3d f2 53 07 bd ba 68 86 bd
       0.07969764 0.06308618 -0.03303904 -0.06562944
0001d0 45 a2 b3 bc 87 9f 95 3c 50 ca 17 3c 8a cf 52 3d
       -0.021927962 0.018264545 0.009264544 0.051467456
0001e0 66 40 86 3d 27 5b 84 3d 1b 5c 82 3d ce 3a e6 bc
       0.06555252 0.064626984 0.06365224 -0.028104212
0001f0 bc c4 3d bd 4e ed 7e bd 51 c7 7e 3c 76 72 e3 bc
       -0.0463302 -0.06223803 0.01555045 -0.02776454
000200 17 e0 c8 3d f4 8b 70 3d ed 1f 93 3d ee f0 05 bd
       0.09808367 0.05872722 0.07183824 -0.03270047
000210 84 21 2a 3d 24 e8 a8 3b ee 0a 7d 3c 25 b2 db 3c
       0.04153587 0.0051546264 0.0154445 0.026818344
000220 97 b6 c0 3c 53 8d e2 bc 4c 0f 80 bd 48 07 90 3d
       0.023524566 -0.02765528 -0.06252918 0.07032639
000230 4a 16 9b bd f2 f3 86 3c 0d 6c b2 3c 67 23 14 3c
       -0.07572611 0.016473744 0.021780038 0.009041644
000240 4e 5a aa 3d 9f f7 8e bd 2d 2e 78 3a cb 60 69 bd
       0.083180055 -0.06980824 0.000946733 -0.056977075
000250 30 c3 31 bd 0e 44 4e bd 21 c8 8c 3d 1b 2b 27 3d
       -0.043399036 -0.05035787 0.06874109 0.040812593
000260 1c 1c 66 3d b6 76 64 3c 36 69 da 3c c1 47 5c bc
       0.05617915 0.0139443185 0.026661497 -0.013444842
000270 1a 2d be 3b 7f b0 62 3d 10 c0 40 3d 91 9e 55 3d
       0.0058037164 0.0553441 0.047058165 0.052153174
000280 6e 43 79 3d 71 52 e9 bc d8 9d 87 3c da 46 13 3d
       0.06085532 -0.028481694 0.016554758 0.03595624
000290 18 96 d1 bd fa 19 f1 3c b0 fd 83 3d 5d c4 ee bb
       -0.10233706 0.029431332 0.064448714 -0.007286592
0002a0 9f a4 6a 3d cc ac ad bc 5c 4d 60 bc 9d f7 b4 3d
       0.0572859 -0.02120056 -0.013690319 0.08836291
0002b0 8d de 29 3c 1c 53 42 3d 3a 84 38 3d 60 5c 11 bd
       0.010368002 0.04744254 0.045047976 -0.035488486
0002c0 1c 1f 4e 3d e6 5f 59 bd 53 9f 25 3a 1b 52 ce bc
       0.050322637 -0.05306997 0.00063179916 -0.025185635
0002d0 02 d4 cf bb 17 d7 3d 3d 1c 5a 62 bd 13 9e 42 bb
       -0.006342412 0.046347704 -0.055261716 -0.002969627
0002e0 b9 90 62 3d 47 23 8d bd 02 e7 db 3c 33 92 6f bc
       0.0553138 -0.06891494 0.026843552 -0.014622259
0002f0 5e 06 f8 3c b9 24 3c bd 68 19 b2 3c 5f 94 0a bd
       0.030276474 -0.04593346 0.02174063 -0.033832904
000300 80 f6 5a 3d 3e 79 c3 bc 3c 14 b8 3c ee be c8 bd
       0.053457737 -0.023861524 0.022470586 -0.09802042
000310 cb d9 b9 bd 2a c7 59 3c f4 63 8c bc f5 56 2f bd
       -0.09074744 0.013292113 -0.017137505 -0.042807538
000320 13 b2 4d 3d 94 ef 6f 3d 8b 80 75 bc 4d 61 3d 3c
       0.050218653 0.05857809 -0.01498426 0.011558843
000330 bc 4b 2e 3d ec 83 bc 3d cc f2 43 3b e9 9b 9f 3d
       0.042552695 0.092048496 0.0029899357 0.077934094
000340 d5 5a 56 bd 9d 82 9a bb a2 42 96 bc f7 a6 e4 3c
       -0.052332718 -0.0047152773 -0.01834232 0.027911646
000350 65 ef 47 bc fd 63 5f 3d 5e 54 9e bc e7 a2 a8 bd
       -0.012203072 0.054538716 -0.019327339 -0.08234196
000360 76 5f b2 bb f6 40 92 3a 06 0c 74 bd e7 8f 9f bd
       -0.0054435087 0.0011158276 -0.05958178 -0.07791119
000370 35 2d d6 bc 2b f1 3a bd 54 cb b0 bd 02 2b d1 3d
       -0.026144603 -0.045640152 -0.08632532 0.10213281
000380 85 7a a6 3d 9a ec f6 ba 47 a0 f1 3c 69 2a df bc
       0.081288375 -0.0018838823 0.029495372 -0.027241902
000390 bf 5b 96 bc 42 b1 b1 3d 93 d3 66 3d 07 26 07 bd
       -0.018354295 0.08676387 0.056354117 -0.03299525
0003a0 20 57 81 3d 60 94 82 3d b0 3b ab 3d 23 8e c4 bd
       0.06315446 0.063759565 0.08360994 -0.09597423
0003b0 a9 92 f0 bc e2 c4 3b bd a2 a6 90 3d d2 05 82 bd
       -0.029366808 -0.04584206 0.07063033 -0.063487664
0003c0 aa 28 7c bd 92 76 6c 3d 56 27 b8 bc a8 d7 7e bd
       -0.061562218 0.057730265 -0.022479694 -0.062217385
0003d0 42 a1 04 3d 6c 1f 8d bd d5 20 19 bd a3 e2 a4 bd
       0.03238035 -0.06890759 -0.037384827 -0.0805104
0003e0 57 8e 76 bd be e2 85 3d 27 4a 21 bb c6 38 e0 3b
       -0.06019434 0.06537388 -0.0024610849 0.0068427054
0003f0 3a a8 2a 3d 3f f7 cd bd f2 8a 7e 3d 7d ae a7 bd
       0.04166434 -0.10056924 0.062144227 -0.08187578

cnn_encoder.4.bias f4 [64]
000000 60 d8 60 bd d5 ca 00 3d ca d0 87 3d 88 ae 6d 3c
       -0.05489385 0.031443436 0.0663162 0.0145069435
000010 f0 f3 8d bc 23 f1 cd 3c 15 17 bd bc 74 ad 48 3d
       -0.017328233 0.025139397 -0.023082295 0.048993543
000020 2c e9 af 3a e9 c5 83 bd 42 d7 55 3d bd 71 1f bc
       0.0013420931 -0.06434233 0.05220724 -0.009731707
000030 77 7d 01 bd fb aa 82 bd 32 07 6f bc f7 66 89 bd
       -0.031613793 -0.06380268 -0.014589118 -0.06709092
000040 57 a8 a0 bd b0 ef 61 bd ae 4b 5e bd 88 13 9e 39
       -0.07844608 -0.055160224 -0.054271393 0.0003015066
000050 7c 2c 33 bd fb 4d 35 3d 22 30 8b 3d b2 c5 51 3d
       -0.043743595 0.04426382 0.0679629 0.051213928
000060 c5 50 d3 3c a5 94 92 bc 05 d5 a4 3c 89 b9 82 bd
       0.02579535 -0.017893145 0.020121107 -0.06383044
000070 d3 6a 21 3d 11 e0 25 3d 83 9d 23 bd 2d 45 f6 bc
       0.039408516 0.04049689 -0.039945137 -0.030062282
000080 53 08 36 3c 80 e9 41 bd 6a 74 74 3c 57 76 18 bd
       0.011110383 -0.047341824 0.014920333 -0.037222233
000090 ec a5 0b 3d 59 20 9b 3c 54 07 46 3c 5c 9b 9d ba
       0.034093782 0.018936323 0.012086708 -0.001202445
0000a0 d1 fc 2b 3c c9 60 61 bc 6a 58 49 bd 16 9c a2 3b
       0.010497288 -0.013755986 -0.049156584 0.0049624545
0000b0 a0 f8 8b 3d 73 af 4c 3d 03 b9 9a bc a2 77 dc 3b
       0.06834531 0.04997201 -0.018887049 0.0067281285
0000c0 50 79 d1 bb 43 1b 30 bd 30 6d 7d bd b4 77 56 3c
       -0.0063926354 -0.04299475 -0.061871707 0.013090063
0000d0 ea 88 b7 3c 16 86 8f bd 84 05 94 3d db 74 f6 3b
       0.022404153 -0.07007997 0.072276145 0.0075212545
0000e0 ad 4e 83 3d 1b 35 81 3c c9 28 52 3d 3f 7e 58 3d
       0.064114906 0.015772393 0.051308427 0.052854773
0000f0 65 64 b2 bc 2e 6f 94 bd 95 07 c7 3c 76 be 0c 39
       -0.021776387 -0.07247768 0.024295608 0.00013422393

cnn_encoder.5.weight f4 [64]
000000 bc 92 7b 3f fd c4 81 3f a2 ac 81 3f 14 0b 7f 3f
       0.98270774 1.0138241 1.0130808 0.9962628
000010 24 89 7f 3f 5a e9 80 3f 9e bb 80 3f a5 04 7b 3f
       0.99818635 1.0071213 1.0057256 0.9805396
000020 8d da 85 3f 12 19 81 3f 7c c1 78 3f 6a 44 84 3f
       1.0457321 1.0085776 0.97170234 1.0333378
000030 08 45 83 3f 45 20 7d 3f e0 43 85 3f 4c d6 7f 3f
       1.0255442 0.98877364 1.0411339 0.99936366
000040 5c 07 82 3f 33 3d 82 3f ec 08 84 3f b6 6c 81 3f
       1.0158496 1.0174927 1.0315223 1.0111301
000050 a3 bd 84 3f bf ab 7c 3f eb 71 82 3f 14 34 82 3f
       1.0370373 0.98699564 1.0191015 1.0172143
000060 ec 6d 80 3f bc 20 84 3f 08 67 7f 3f de 6a 7d 3f
       1.0033545 1.032249 0.9976659 0.9899119
000070 3b 1f 80 3f 30 c6 80 3f e5 02 7f 3f 25 e0 72 3f
       1.0009531 1.0060482 0.9961379 0.9487327
000080 e0 1b 7d 3f 3f 47 82 3f f2 07 83 3f 30 99 86 3f
       0.9887066 1.0177993 1.02368 1.0515499
000090 5e ab 80 3f 40 26 7f 3f 48 0f 7f 3f f1 e0 7f 3f
       1.0052297 0.9966774 0.9963269 0.9995261
0000a0 36 08 7f 3f b9 a4 80 3f bf d8 79 3f 4d f3 80 3f
       0.99621904 1.0050269 0.97596353 1.007425
0000b0 e6 1e 81 3f bc d9 7a 3f 05 17 7d 3f 39 28 81 3f
       1.0087554 0.97988486 0.9886325 1.00904
0000c0 0d 9e 7f 3f ea 9b 81 3f 4f 54 7a 3f 5d 60 82 3f
       0.9985054 1.0125706 0.97784895 1.0185658
0000d0 ba 42 7d 3f 89 3d 77 3f e6 83 81 3f 91 e3 7e 3f
       0.9892994 0.9657827 1.0118377 0.9956599
0000e0 ee a5 81 3f 42 dd 7e 3f bd 36 7b 3f 27 f5 82 3f
       1.0128763 0.9955636 0.981304 1.0231065
0000f0 bb 4c 7b 3f ec 56 73 3f 40 4e 7e 3f d2 d6 80 3f
       0.98163956 0.9505451 0.9933815 1.0065558

cnn_encoder.5.bias f4 [64]
000000 88 27 77 bd df 3c bb 3b 9c 14 94 3c 8c b0 4f bc
       -0.060340434 0.0057140435 0.018076234 -0.012676369
000010 55 5a 68 bc 5f e9 b6 3c 66 ba 72 3b 52 21 2f bd
       -0.014181693 0.022328077 0.0037037372 -0.042756386
000020 41 dc 63 3c 52 d2 88 3b 50 80 0c bc bc 07 8d bc
       0.013907493 0.0041754628 -0.008575514 -0.017215602
000030 a1 d5 6a bc 18 4c 4e bc 82 21 a8 bb 1c 60 bc bc
       -0.01433316 -0.012591384 -0.0051309476 -0.022995047
000040 bd f6 e9 bb a2 cb cf bc 84 fc 7c 3b 8f 22 d8 ba
       -0.007140009 -0.025365654 0.003860266 -0.0016489791
000050 0a 24 a6 bc 23 f9 d8 bc d4 ba 15 bd ad f5 4e 3b
       -0.020280857 -0.026485985 -0.036555126 0.003157954
000060 8f 74 6b bc d6 81 fa bc 3b ec d3 ba f8 1e 0e 39
       -0.014371051 -0.030579489 -0.0016168425 0.00013553712
000070 cf 37 0b bb 3e e5 b5 bb 3c 8f 53 39 f1 88 9b bc
       -0.0021242981 -0.0055510094 0.00020175887 -0.018986197
000080 c8 bb 9b bc 67 fe f4 3b c5 15 a9 bb 29 f8 c5 ba
       -0.01901044 0.007476616 -0.005160066 -0.0015103865
000090 11 3d 14 bd 38 7e d5 b9 70 0c ac bc f3 37 f2 bb
       -0.03619105 -0.00040720566 -0.021002024 -0.0073919236
0000a0 27 59 bf bb 97 96 37 ba 09 bd cb bc 61 db 05 bd
       -0.005839485 -0.00070033356 -0.024870412 -0.03267992
0000b0 93 59 6b bc 24 76 53 bc ac 65 c2 bc 51 ec 86 bc
       -0.014364618 -0.012906585 -0.023730122 -0.016470106
0000c0 0b a2 f8 bb 3d 3c 0b 3c ef 31 d5 bc 9f 1c 5c bc
       -0.0075876764 0.008498249 -0.026024787 -0.013434558
0000d0 d0 9f 7b bc 37 d6 98 bc 82 29 96 bc b8 84 10 3d
       -0.0153579265 -0.018656833 -0.01833034 0.03528282
0000e0 a9 ff b1 3b a7 d4 78 3b ee 47 07 bc 79 9a c9 3c
       0.0054320884 0.0037968548 -0.0082568955 0.024609791
0000f0 3a ea ca bc a4 81 17 bd 95 1c 48 bc 1c 8b 00 bc
       -0.024769891 -0.03698887 -0.012213846 -0.007845666

cnn_encoder.5.running_mean f4 [64]
000000 a1 82 69 3e 66 4e 3a 3d 13 55 10 bd 5e 7a 44 3e
       0.22803737 0.045484923 -0.035237383 0.19187304
000010 ea e6 b4 be fd 55 29 be 54 d9 01 bf cf f5 a7 3e
       -0.35332423 -0.16536708 -0.5072224 0.32804725
000020 7a 17 2f bf 3e 22 34 bf b5 f6 50 be ec b9 0a 3e
       -0.683952 -0.7036475 -0.20406611 0.13547486
000030 34 0d 56 bd 32 9a b1 bd ad 43 dc be 59 8e 12 3d
       -0.052258685 -0.086719885 -0.43020383 0.035780285
000040 f7 fa 18 be ac cf 87 3e 71 50 52 3d a0 ca 7a 3e
       -0.14939485 0.2652563 0.051346246 0.24491358
000050 8c a4 c8 3e ae 7e b6 be 36 d3 ec 3d 4d d4 ac be
       0.3918804 -0.35643524 0.11563723 -0.33755723
000060 79 68 12 be 83 92 92 3e 48 7b b5 bc 9a 49 5e be
       -0.14297666 0.28627405 -0.022153512 -0.21707764
000070 8f 84 96 bd 4a b7 2a be 7e 63 b0 bd cf 52 0e bf
       -0.07349502 -0.16671482 -0.08612727 -0.55595106
000080 9f 26 29 be 7f d1 3c be 34 da 83 3e e6 ff 70 bd
       -0.16518639 -0.18439291 0.25752413 -0.058837794
000090 98 c8 3b 3f ba fb 1e be 61 4d 95 3e 3c 0c df bc
       0.73352957 -0.15525714 0.29160598 -0.027227513
0000a0 c6 46 af bb f1 0c 3e be ff e6 0e 3e 69 f7 9e 3e
       -0.005349013 -0.18559624 0.13955306 0.31048134
0000b0 5c e2 fc 3e ee ba 0e 3f c1 b3 43 3f 14 38 fc 3e
       0.49391448 0.5575398 0.7644616 0.49261534
0000c0 4f 7a 4d 3f 12 26 fa be 3c 43 c5 3e bb d0 a8 3e
       0.80264753 -0.4885717 0.38527858 0.3297175
0000d0 06 46 d8 be b0 09 a2 3e 77 e9 4b 3f 2c 84 69 be
       -0.42240924 0.31648016 0.79653114 -0.22804326
0000e0 e9 8c 25 3c 1b 52 95 be 6a 1a 4e 3e 89 a4 ed be
       0.010104396 -0.29164204 0.20127264 -0.46414593
0000f0 82 cd 53 3e 4c d0 35 bf 65 04 3a 3e 14 20 f0 3e
       0.20683864 -0.7102096 0.18165739 0.46899474

cnn_encoder.5.running_var f4 [64]
000000 98 e8 7f 3e 10 91 43 3e e7 10 5b 3e 29 06 86 3e
       0.24991071 0.19098306 0.21393166 0.26176575
000010 b7 05 30 3e 62 3b 38 3e b2 dc 8e 3e 37 14 80 3e
       0.1718968 0.17991403 0.27902752 0.25015423
000020 a2 9d 80 3e 9a 3e 9e 3e 18 a6 99 3e 31 fb 58 3e
       0.25120264 0.30907136 0.30009532 0.21189572
000030 ac 05 77 3e 41 48 f9 3e c3 9d 44 3e 90 67 f4 3d
       0.24123257 0.48687938 0.19200806 0.119338155
000040 68 d3 80 3e f9 8f a5 3e c2 25 fb 3d 06 90 bb 3e
       0.2516129 0.32336405 0.12263061 0.3663332
000050 b3 ef 5d 3e a1 43 b0 3e 3a c3 72 3e 9d 12 a7 3e
       0.21673469 0.34426597 0.23707286 0.32631388
000060 a3 62 98 3e 7b 76 7c 3e 11 8f 04 3f 79 f8 d0 3e
       0.29762754 0.24654572 0.517808 0.4081457
000070 d1 db 77 3e a7 c5 89 3e d5 f5 b0 3e 53 ee 39 3e
       0.24204947 0.2690861 0.34562555 0.1815732
000080 e3 d5 44 3e c1 fb 44 3e 69 bd 72 3e 5e 2a 2f 3e
       0.19222216 0.19236661 0.23705067 0.17106006
000090 0a 94 48 3e 9c 5c a1 3e e0 15 dd 3e c0 59 d2 3e
       0.19587722 0.31515968 0.43180752 0.410841
0000a0 16 a5 08 3f f2 66 8d 3e 49 25 24 3f 4c 5b 6e 3e
       0.533769 0.27617604 0.6411939 0.23277014
0000b0 9f 6c 96 3e 78 14 7e 3e 0a b7 cf 3e 57 85 c8 3e
       0.29379746 0.24812496 0.40569335 0.3916423
0000c0 dc b3 90 3e 90 64 8e 3e f6 f2 7c 3e 30 9b a0 3e
       0.28262222 0.27811098 0.24702057 0.313684
0000d0 c6 19 93 3e ea 5b dc 3e 43 1e d2 3e 4e d5 27 3f
       0.287306 0.43038875 0.41038713 0.6555985
0000e0 23 f0 1c 3f 9b e0 8d 3e 27 32 3d 3e 56 08 80 3e
       0.6130392 0.27710423 0.18476163 0.2500636
0000f0 d0 5a 79 3e 22 dd b3 3e 08 ee 93 3e 7e 6d ad 3e
       0.24351048 0.35129648 0.2889254 0.33872598

lstm.weight_ih_l0 f4 [256, 64]
000000 60 31 99 bd f5 ce 5d bc 73 6a 89 bc d7 1f eb 3d
       -0.07480121 -0.013538112 -0.016774392 0.11480682
000010 71 b9 79 3d 17 e3 cb bd 00 0e 4e bd fc c8 d1 3d
       0.060967866 -0.09955423 -0.05030632 0.10243413
000020 4b 43 9b 3d 0b cf 99 bd 00 97 92 3d 30 8c 4b bd
       0.075811945 -0.075101934 0.07157707 -0.04969424
000030 44 13 bd bd 35 a3 74 3c 22 51 53 3d 46 2f 77 3c
       -0.0923219 0.01493149 0.051591046 0.015086954
000040 49 8f 7a bd 22 df f1 bc bb ed c6 bd e3 57 a7 3d
       -0.061171804 -0.029525343 -0.09713312 0.0817106
000050 20 df be 3b b7 06 44 bc b9 9c 96 bc 02 a8 d9 3d
       0.0058249384 -0.011964492 -0.018385278 0.10627748
000060 4a b2 ed bb 1b 5f c0 3a 9c e2 ac bc 35 36 ad bd
       -0.0072539197 0.0014676781 -0.02110415 -0.08457605
000070 15 dc d6 bd 57 57 9e 3a 3f 67 de bd 9a 92 03 3d
       -0.10491196 0.0012080473 -0.108595364 0.032122232
000080 73 59 b2 3c b3 53 e9 bb 01 44 d4 bc 62 72 8b bd
       0.021771168 -0.0071205734 -0.025911333 -0.06808926
000090 72 dc f7 3d c0 e3 a8 3b 77 70 d3 bd b4 40 d6 bc
       0.121025935 0.005154103 -0.10324185 -0.0261539
0000a0 74 77 85 3d 5f e0 96 3d 08 b3 f6 3d 5b 90 d9 3b
       0.065169245 0.07367014 0.12045866 0.006639523
0000b0 52 34 54 3d be 66 91 3d c0 c5 c1 bd fc 3c 4f 3d
       0.05180771 0.07099675 -0.09461546 0.05059527
0000c0 fd 68 cd 3c f4 33 b6 3d 23 87 2b bd ed e4 fb bd
       0.025074476 0.08896628 -0.041876923 -0.122995235
0000d0 b2 21 b4 bd 67 e3 a6 3d e1 92 a7 3d 32 e8 7e bd
       -0.08795489 0.08148842 0.08182312 -0.062233157
0000e0 fb 22 d0 3d a3 90 d4 bd 8b 24 e2 3d 2c 65 17 bd
       0.10162922 -0.1037915 0.11042126 -0.03696172
0000f0 97 78 22 3c ce 10 35 bd 88 3d 1a 3d 64 43 33 3d
       0.009916446 -0.04420548 0.037656337 0.04376544
000100 31 d5 be bd 88 11 a5 bc fb cb 3d bd 7d c5 a3 3d
       -0.09318007 -0.020149961 -0.04633711 0.07996652
000110 35 e5 06 ba d3 80 b1 bd 88 ca 12 bd a2 ce f1 bd
       -0.0005145849 -0.086671494 -0.03583768 -0.1180699
000120 7b bd 89 bd 25 60 c7 bd 70 ee 34 bd 70 9e 88 3d
       -0.06725594 -0.09735135 -0.044172704 0.066708446
000130 97 28 9e bd 98 af c6 bd cd 97 93 bd 19 4c 95 bd
       -0.07722586 -0.097014606 -0.07206688 -0.07289905
000140 ed f2 ca bd 0e d1 af 3d 4a 91 ef bd da c4 94 3c
       -0.09909616 0.08584796 -0.116976336 0.018160272
000150 96 32 07 3d 36 db 77 3d 67 2a 08 3d 9c 4d b3 bc
       0.033007227 0.06051179 0.033243563 -0.021887593
000160 4b e1 ae bd ef ac 15 3c 10 79 a6 3d 1a 17 9b 3c
       -0.08539065 0.009135469 0.081285596 0.018931914
000170 4c 0d 5b 3c 3e 49 3f bd 44 bb 55 3b ce e6 72 bb
       0.013369869 -0.04670071 0.003261284 -0.003706384
000180 11 b0 8e bd 75 61 f4 bc 3b 6d aa bd a9 0f 20 bd
       -0.06967176 -0.029831627 -0.08321615 -0.039077435
000190 8c 14 de bc 5f 16 ba bd dc b7 86 bc ba b8 74 bd
       -0.027109407 -0.09086298 -0.016445093 -0.05974648
0001a0 5d 48 9b 3c db c5 4a 3d fd e5 21 3d 44 79 ca 3d
       0.018955404 0.049505096 0.039525975 0.09886411
0001b0 22 3a 14 bc 63 ec 86 3c 81 51 16 3d dc a4 c0 3d
       -0.009047063 0.01647014 0.036698822 0.094064444
0001c0 e0 15 d2 ba 40 3c f4 3d 6f 40 60 3d 62 27 c0 3d
       -0.0016028248 0.11925554 0.05474895 0.09382512
0001d0 7c c2 b5 bd e7 eb a9 3d b6 dc e6 bd 2f af 84 bd
       -0.088749856 0.08296948 -0.11272566 -0.06478726
0001e0 e9 1c a7 3d 11 07 f0 bd 47 df fd bd 95 aa 90 bc
       0.08159811 -0.11720098 -0.123961024 -0.017659465
0001f0 b9 b2 c6 bd 13 5b 37 bd 43 f0 fe 3d 73 53 bf bd
       -0.097020574 -0.04476459 0.1244817 -0.093420886
000200 f2 ee a7 3c 44 19 cc 3d 2a 14 c0 bd 0f 61 b5 3c
       0.02049968 0.099657565 -0.09378846 0.022141008
000210 7e 98 ba 3d a0 02 62 bd db cc 98 3d 60 5f 73 bd
       0.09111117 -0.055178285 0.07460948 -0.05941713
000220 7c 80 9e 3d f7 38 86 3d b5 d2 da 3b fe 33 25 3d
       0.0773935 0.06553834 0.0066779503 0.040332787
000230 6f 94 1c bc 5b 16 91 bd fb a7 8a bd e2 3e b7 3d
       -0.009556874 -0.07084342 -0.06770321 0.08947541
000240 c0 8e fb bc 09 84 d1 bd de af b0 bd b6 22 75 3d
       -0.030707717 -0.10230262 -0.08627294 0.059847556
000250 66 b1 82 bd 1a c2 5d 3b 04 c2 0e bc aa 62 03 3e
       -0.06381492 0.0033837617 -0.008713249 0.12830606
000260 34 29 a4 3b 98 70 c0 bd c1 ca cf bd 89 82 eb bd
       0.0050097946 -0.093964756 -0.10146094 -0.11499507
000270 69 55 00 bd 35 c3 ed 3d 11 9c 0d 3e a0 3a 88 bd
       -0.031331453 0.116094984 0.13829066 -0.06651807
000280 89 f9 b1 3d ce 6f 41 bd d4 72 96 3d 4a 60 0b 3e
       0.08690173 -0.047225766 0.073461205 0.1361095
000290 5a 6a 75 3d 9e 8d d8 bd 4e 72 c6 bd f0 0f 22 3c
       0.059915878 -0.10573886 -0.09689771 0.009891495
0002a0 91 68 95 3d b0 5b 81 bc 09 30 d0 3d 42 d2 f8 3d
       0.07295335 -0.01579079 0.10165412 0.121494785
0002b0 6c ab ea 3c 6a 8f 0a 3e 51 31 aa 3d 99 b9 dc bc
       0.028646193 0.1353127 0.083101876 -0.026943969
0002c0 dd 01 de bd 63 f7 d7 bd 8f 4c 01 3e 63 9b 39 bd
       -0.10840199 -0.10545232 0.12626861 -0.045314204
0002d0 1f 13 16 3e 5c 30 be 3d a7 42 20 3e 02 57 e7 3d
       0.14655732 0.092865676 0.15650426 0.11295892
0002e0 e0 76 f1 3d 4b 58 fd 3d b9 d7 a1 3d f3 64 a1 3d
       0.11790252 0.12370356 0.07902474 0.07880583
0002f0 da 6a 6d bc 94 9f d1 3d 39 c0 16 bd 6a 6d f5 3d
       -0.014490807 0.10235515 -0.03680441 0.1198376
000300 9b 0f 79 3c be 6d 43 bd e0 96 d1 bd bd 22 a3 3c
       0.015201475 -0.04771208 -0.10233855 0.019914025
000310 4a 35 ee bc 79 49 e5 3c 3d 51 aa bd 95 36 a2 3b
       -0.029078145 0.027989136 -0.08316276 0.0049503543
000320 f4 b1 7e bd 2e 31 d9 3d dc 76 e6 bd 3e 30 4f bd
       -0.062181428 0.106050834 -0.112531394 -0.050583117
000330 54 53 7b bd cc 46 d6 3c f1 3b 23 bc 9f 31 95 bd
       -0.061358765 0.026156805 -0.009963022 -0.07284855
000340 86 6f dd 3d 78 a9 95 bd 83 d2 ad 3d 88 bd b3 bd
       0.10812287 -0.07307714 0.084874175 -0.087763846
000350 ff 3a 3d bd 42 0b ff 3d 61 36 b9 bd 47 5e 0e 3d
       -0.04619884 0.12453319 -0.09043575 0.03475788
000360 54 00 0e 3e 80 39 89 bc 50 a0 2d bd 54 aa 8a 3d
       0.13867313 -0.016751051 -0.042389214 0.06770769
000370 87 cd ad 3c da 6c c8 3d de 17 09 3e db 58 a0 3d
       0.021216167 0.09786387 0.13388011 0.07829448
000380 c1 68 32 bd fc cd e8 3d b5 22 c8 bd fe c0 81 bd
       -0.043556932 0.113674134 -0.09772245 -0.063356385
000390 2e 5e 37 3d 53 05 73 3d 53 1c 5b 3d 90 45 45 bd
       0.04476755 0.05933125 0.05349381 -0.048162043
0003a0 18 eb 7a 3d 59 35 8b 3d 26 f6 81 3c 56 ef 1d bd
       0.06125936 0.06797285 0.015864443 -0.038558327
0003b0 f9 52 91 bd b6 97 42 bd f6 e6 b7 3d 67 d9 cb 3c
       -0.07095904 -0.047507964 0.08979599 0.024883939
0003c0 b1 93 31 bb 77 4d d4 bd 55 49 f7 bd be 7c 94 bd
       -0.0027096088 -0.10366338 -0.12074534 -0.07250355
0003d0 3c f6 39 bd 19 21 b8 3d 26 9e 69 bd ce 24 07 3d
       -0.045400843 0.08990688 -0.057035588 0.032994084
0003e0 0d 65 5a bd fb 76 52 bd b9 bf 47 3b 59 b3 73 bd
       -0.053319026 -0.051383 0.0030479266 -0.05949721
0003f0 dc 5f df bd 6e 81 d4 bd 4f 9c e1 bd a8 e1 b1 3d
       -0.109069556 -0.10376249 -0.110161416 0.08685619

lstm.weight_hh_l0 f4 [256, 64]
000000 df cd fa bb 2a 92 9b bd 28 0a 81 b9 11 e4 ac 3d
       -0.0076539363 -0.07596238 -0.00024612364 0.08441938
000010 21 fe d6 bc 0c 83 a0 bd 11 dc e3 bd 58 3a 8e 3d
       -0.026244225 -0.07837495 -0.11125959 0.06944722
000020 41 d9 83 bd a2 53 94 bc ed 43 b1 3d 2d fc 35 3d
       -0.06437922 -0.018106285 0.08655534 0.044429947
000030 27 c6 7a 3d 41 cc 75 bd a7 6b d4 3b 44 2f 51 3d
       0.06122413 -0.060009245 0.0064825597 0.051070467
000040 f9 56 be 3c a8 fc 8e 3d 09 8f 03 3e de 7c 01 3e
       0.023234831 0.06981784 0.12847532 0.1264529
000050 e7 44 01 bd 62 d1 ef bd 09 67 c8 bd 7c ad 01 3e
       -0.03155985 -0.117098585 -0.097852774 0.12663835
000060 db ba 78 bd 4e a1 c3 3c 10 b9 a3 3d 7a 59 63 bd
       -0.060725074 0.023880627 0.07994282 -0.055505253
000070 e6 4b e3 3d 62 01 b8 3d be 1f 80 bd 42 b5 d2 3d
       0.11098461 0.08984639 -0.06256054 0.102884784
000080 d4 ec 08 be 58 35 ff bd 2b fb 8f bd 71 f9 bb bd
       -0.13371593 -0.124613464 -0.07030328 -0.091784365
000090 75 a5 17 3d 73 53 7e bd e0 31 b4 bd be 12 ac 3c
       0.037023026 -0.062091302 -0.087985754 0.02100503
0000a0 43 9c 90 3d 8b 4b 96 3d 57 55 15 be ad 0b ac bd
       0.070610546 0.073386274 -0.14583336 -0.084006645
0000b0 da 16 56 bd b1 9e ca 3d 56 b1 8c 3d 69 53 40 3d
       -0.052267887 0.09893549 0.06869762 0.046954546
0000c0 e0 65 24 bc d0 51 11 be 44 0c 24 bd 89 d5 92 bd
       -0.0100340545 -0.14191365 -0.04005076 -0.07169635
0000d0 09 31 88 3d 8d 43 1b ba 93 49 3c 3d 44 10 92 bc
       0.06649978 -0.00059228466 0.045968603 -0.017830022
0000e0 6e dc f7 3d 43 fa 41 bd 1c 88 2a 3c ec a1 0a 3b
       0.121025905 -0.04735781 0.010408428 0.0021153642
0000f0 25 bd a8 bd 7d fc c0 3d a0 72 89 3c 3f 50 95 bd
       -0.082392015 0.09423158 0.01677829 -0.07290696
000100 4b 27 f4 3d 82 a4 ad 3d e8 30 18 bd 3e 01 a3 3d
       0.11921557 0.08478643 -0.037156016 0.07959221
000110 99 9f 33 3c d8 16 a0 3b 0d 7f 4b 3b 16 7d 16 3d
       0.010963344 0.0048855357 0.003105107 0.036740385
000120 5f 32 cd bd dc 7d ba bd 5a 5a 56 3d ef 5b b3 3d
       -0.10019373 -0.09106037 0.05233226 0.08757769
000130 1d 0d 1f bd c3 a6 a3 3d cb e8 0c 3e 32 9e bb 3c
       -0.038830865 0.07990792 0.13760678 0.022902582
000140 62 93 ac 3d e8 2e d0 3d 5f 8f 50 3d 5c 2b 64 bc
       0.084265485 0.10165197 0.05091798 -0.013926353
000150 25 e7 51 3d 6d 83 08 bd a6 50 a6 3d bd 3e d7 bd
       0.051245827 -0.033328462 0.08120851 -0.10510013
000160 a5 aa e4 3c 41 c3 2e bc 34 d9 fe 3c c5 02 cb bd
       0.0279134 -0.010666669 0.03110943 -0.099126376
000170 74 05 ff bc e4 f9 25 3c 12 e8 3c 3d d8 26 b1 3d
       -0.03113053 0.010130379 0.046119757 0.08649987
000180 d8 27 e1 3d e9 7a 83 3d 58 b4 8f bd a2 f2 4d bd
       0.10993928 0.064199276 -0.0701682 -0.05028022
000190 6f 9c c0 3d 32 54 f5 3c 66 eb 83 bc a7 3e 4e bd
       0.09404837 0.029947374 -0.016103458 -0.05035272
0001a0 e5 c0 1b bd 88 aa 27 3e 0f dc 53 3d 84 cc 00 be
       -0.038025755 0.16373646 0.051723536 -0.12578017
0001b0 97 1d 1b 3d ce 48 61 3d 30 0b 6c 3d 31 5a 88 3c
       0.037870016 0.055001073 0.057627857 0.01664457
0001c0 39 ea 9f bc 05 98 d6 3d 0d 29 a7 3d a6 27 cc 3d
       -0.019520866 0.10478214 0.08162127 0.099685
0001d0 f0 91 ed 3d 48 bb ca ba d2 07 80 bd 20 57 e1 bc
       0.11600101 -0.0015467191 -0.062514916 -0.027507365
0001e0 16 80 d9 ba 31 ee d8 3c 46 fe 3c bc 7a 15 6d 3c
       -0.0016593959 0.026480766 -0.011535233 0.014470452
0001f0 ae 76 a9 bc ca 01 ea bd 3e da 63 bd 03 32 c7 3d
       -0.020686474 -0.114261225 -0.055628054 0.09726336
000200 e2 72 04 bd 25 ea c0 3c 62 e3 46 bd 1d 19 f2 bc
       -0.032336123 0.023549149 -0.048556693 -0.02955299
000210 e4 8e bc 3d df 3d d1 bd ea c7 e8 3c f5 d1 b4 3d
       0.09206942 -0.10216879 0.028415639 0.088291086
000220 05 b7 e9 3d b0 12 27 bd 01 f6 c3 bd a9 4a db 3a
       0.11411861 -0.040789306 -0.09568406 0.0016730624
000230 74 75 07 3d 65 ce ae bc 15 b1 b6 3d 96 3a a6 3d
       0.033070996 -0.021338651 0.089204945 0.08116643
000240 69 f8 96 3d 56 c4 e5 3c 6d 9b 03 3e 28 02 0d bd
       0.07371599 0.028047722 0.12852259 -0.034425884
000250 d8 3f 50 3d 11 be f6 bd 3c 8c 6e bd b2 27 65 3c
       0.050842136 -0.12047971 -0.058239207 0.013986515
000260 b0 e7 07 be d5 65 8c bd 6d c3 21 3d 76 2a 9e 3d
       -0.13271976 -0.068553604 0.039493013 0.077229425
000270 2d 52 18 3d 39 95 8d 3c f9 f8 16 3d 67 b8 da 3d
       0.037187744 0.017283069 0.036858533 0.10679703
000280 b6 ee 9c bd bd 45 8d bd 05 5d 0c bd 6e a2 13 3b
       -0.07662718 -0.06898067 -0.034268398 0.0022527236
000290 fe 51 8b 3d 9d e6 96 3c 5c ee b8 bc 76 32 40 bd
       0.06802748 0.018420512 -0.022574596 -0.046923123
0002a0 99 b8 a0 3c 6c a3 8a bd fa 7a 9e 3d e5 4d b2 bd
       0.019619273 -0.067694515 0.077383 -0.087062635
0002b0 f2 e5 ae bd 3f a2 b0 bd 7b 60 34 bd e1 a5 9d bd
       -0.08539952 -0.08624696 -0.044037323 -0.076976545
0002c0 a8 cf 19 bc a7 5d 5b bd 20 86 e5 bd 81 15 ac 3d
       -0.009387888 -0.05355611 -0.11207223 0.08402539
0002d0 c3 7a 8d bd 73 b3 d2 bc 07 54 6a bc 51 da e7 bd
       -0.069081806 -0.025720334 -0.01430226 -0.113209374
0002e0 a2 8c 51 3c a3 f5 98 3d d6 c5 a2 3d 1f 65 56 bd
       0.012789877 0.074687265 0.079478905 -0.05234253
0002f0 5d 70 62 bd af 24 cf 3d fd a1 e7 bd b9 ab 9e bb
       -0.05528294 0.10114419 -0.11310194 -0.0048422483
000300 0e ec f8 bd 3e 92 9b 3c dc 13 ef bd 0b c3 c6 3d
       -0.12154399 0.018990632 -0.1167371 0.0970517
000310 9c 8b 9f bd 75 f4 cf bc 2e 4a a3 3c a9 96 4b bd
       -0.077903 -0.02538512 0.019932833 -0.049704228
000320 65 d0 b4 bc 52 8e 25 3d ac bb 42 bc ff 72 79 3d
       -0.022072027 0.04041893 -0.011885565 0.060900684
000330 54 79 89 bd 26 41 b2 3d c4 51 83 3d 4d 9a a1 3d
       -0.06712595 0.08703832 0.0641208 0.07890759
000340 a7 9c 6f 3b de 8c 0c 3d 83 1c 75 bc 2b a0 67 3c
       0.0036561878 0.03431403 -0.014960411 0.014137308
000350 45 50 b6 3c 59 8d cf bd eb 54 c5 bc ac 65 87 bd
       0.022255072 -0.10134382 -0.024088344 -0.06611189
000360 38 97 2f bd b3 cc e5 3d c6 a1 a0 bd 4b dd f2 bd
       -0.042868823 0.11220684 -0.07843356 -0.118586145
000370 87 3d 07 be 3f 2f f1 3d 3d 79 bf 3d ad da ff bd
       -0.13207065 0.117765896 0.09349296 -0.12492881
000380 bd 88 ca 3d ba 65 b6 bd 6f a6 bd ba fb 5f f4 3b
       0.09889362 -0.089061216 -0.0014469157 0.007457731
000390 be 52 81 bd 04 79 c3 bd 2e c0 92 3d 4b 91 76 bd
       -0.0631461 -0.09544566 0.071655616 -0.060197156
0003a0 54 ba 82 3d 1a f6 03 be 66 c8 a2 bd 95 bb a6 3c
       0.063831955 -0.12886849 -0.07948379 0.020353118
0003b0 ba 27 f4 bc af 3e 78 3d 4d cf 12 bc 4f 28 6a bd
       -0.0298041 0.060606655 -0.008960557 -0.057167348
0003c0 5e 91 eb bc f6 e0 b5 bd 3a 90 fa bd 11 ca 0e 3d
       -0.02875584 -0.088807985 -0.1223454 0.034860674
0003d0 b9 5e e2 3c 94 1e 4e 3d 67 7a fc 3d 57 49 63 bd
       0.027633058 0.05032213 0.12328034 -0.055489864
0003e0 09 a8 a0 bd 2f 67 b6 3c ef f7 ae bd 05 9c 30 bd
       -0.0784455 0.022265999 -0.08543383 -0.04311754
0003f0 ad 4c cc bd 76 be c7 3d c2 f9 3b 3d b6 c8 c5 3d
       -0.09975562 0.097531244 0.045892484 0.09657423

lstm.bias_ih_l0 f4 [256]
000000 55 85 fd 3d b6 cf f4 3c 8f a0 13 3e 34 b9 eb 3d
       0.12378947 0.0298842 0.14416717 0.11509934
000010 29 08 bf 3d a0 5a 0f 3d b8 f3 d9 bc 05 78 91 3d
       0.09327728 0.034998536 -0.026605472 0.0710297
000020 78 94 9a 3d fa 3b b6 bd ba 52 cc bd c8 09 0a 3d
       0.075478494 -0.08898158 -0.09976716 0.033700734
000030 d1 bb 8b bd 4e 7e 02 be 01 f3 e3 bd ce 0f 85 bc
       -0.068229325 -0.12743494 -0.11130334 -0.016242888
000040 87 a3 35 3a 23 32 10 bd 5b 23 1c bd 37 28 7d 3d
       0.00069289695 -0.035204064 -0.038119655 0.06180593
000050 3b 5b 8f bd 20 ac f2 bd 8e 52 c1 bb 7e 77 91 3d
       -0.06999823 -0.118492365 -0.005899734 0.071028695
000060 84 a8 da 3d b6 f2 54 3d de d2 e5 bc da 44 2c bd
       0.10676673 0.05198928 -0.02805465 -0.04205785
000070 f2 aa 8a bd 3c 11 91 bd e8 c7 32 3d f7 7d 81 3d
       -0.067708865 -0.07083365 0.043647677 0.06322854
000080 f0 33 86 3d db 14 6e bd 81 99 04 bd a4 1e c6 bc
       0.06552875 -0.058125358 -0.032372955 -0.024184532
000090 ca 4a dd 3d 84 f9 a5 3d a7 a3 83 bd 8e d2 81 3d
       0.108052805 0.08104232 -0.064276986 0.06338988
0000a0 47 ed f3 3d 35 1f 14 bd 7a c8 3a bd 69 bc 0a be
       0.119104914 -0.036162574 -0.045601346 -0.13548435
0000b0 1b 1f ba bd 51 8f 9f 3b 4e 06 80 bc 71 c5 bb bd
       -0.09087964 0.0048693796 -0.015628006 -0.09168518
0000c0 88 f0 cf bd 88 27 5c 3d 3a f7 59 3d c9 d6 42 3d
       -0.101532996 0.053748637 0.05321429 0.047568116
0000d0 45 20 aa 3d 73 1d 24 3c f7 71 aa 3d 09 c8 be bd
       0.08306936 0.010016787 0.08322518 -0.093154974
0000e0 82 d5 5c bd 3b 76 74 3c a6 54 0c 3e c6 99 e8 3d
       -0.053914554 0.014920766 0.13704166 0.11357455
0000f0 42 ef ce bd f9 e5 cb bb 06 42 2d bd 05 72 6b bc
       -0.101042286 -0.0062224832 -0.042299293 -0.014370446
000100 c4 56 f3 3d 6b c1 e0 3d a6 1a bf bd bf 1c ee bc
       0.118817836 0.109743915 -0.09331255 -0.029066442
000110 7b 1c 88 bd f9 08 ed ba f8 42 e0 bd c4 7e b9 bd
       -0.06646057 -0.0018084339 -0.10950273 -0.09057382
000120 56 22 c3 bd ae 9a f3 3d 16 2e 61 bc fa 90 a9 3c
       -0.095280334 0.11894737 -0.013743898 0.020699013
000130 78 74 c8 bc 56 52 e9 3d 1c 1c 3b bd 32 c6 88 3d
       -0.0244696 0.113926575 -0.045681104 0.06678428
000140 01 72 99 3d cf 67 ef 3d f4 d0 84 bd 75 89 48 bd
       0.07492448 0.11689722 -0.06485167 -0.048959214
000150 2e 91 cf bd 44 86 23 bc 5f 71 eb 3d 6b 66 9a bc
       -0.10135113 -0.009980742 0.11496233 -0.018847665
000160 2d ac 78 bd 8d 35 63 3a 0b 2e f2 bd da 4d a9 3c
       -0.060711075 0.00086673425 -0.11825188 0.020667005
000170 ac 36 df bb 28 6f 0b 3d 4f 2c f1 3d 1d 5d a7 3d
       -0.0068119373 0.034041554 0.11776029 0.08172057
000180 e1 12 bc 3b 52 62 d6 3d ee 01 2a 3d 4f 03 2e 3c
       0.005739555 0.10467972 0.041505747 0.010620906
000190 ea 7d 49 3d b3 03 51 3d 82 1a 1c 3d 3c ae 63 3d
       0.049192347 0.05102892 0.038111217 0.055586085
0001a0 63 67 d4 3d e4 22 ef 3c 45 05 df 3d f1 e4 0d bc
       0.10371282 0.029191442 0.10889677 -0.008660541
0001b0 8f 8a 16 3d 31 cd 55 3d 84 b8 d9 3c 67 de a6 bc
       0.036753234 0.05219764 0.026577242 -0.020369722
0001c0 ba 0b 1c 3d 9b 96 1a bd 35 45 67 3d 1c e7 57 bc
       0.03809712 -0.037741285 0.056462485 -0.013177659
0001d0 2d 3a b4 bd ed cb 6b 3d 73 41 b8 3d 8a 92 cf bd
       -0.08800159 0.057567526 0.089968584 -0.10135372
0001e0 47 40 11 3d 6d c5 eb 3d de a0 6a bd 65 fc 80 bd
       0.03546169 0.11512265 -0.05728232 -0.062981404
0001f0 82 61 4c bd 49 0d 8c bd 1a 13 b7 bd 63 d7 e9 3d
       -0.04989768 -0.068384714 -0.0893919 0.11418035
000200 00 ee 91 3d d0 ff 79 bc 39 23 89 bd 14 b0 a1 3b
       0.07125473 -0.015258744 -0.06696171 0.00493432
000210 ba 4a a9 3b 2e cc e9 3d e1 3c da 3c cc 43 16 3c
       0.005166379 0.11415897 0.026640357 0.0091714375
000220 ad e2 16 3d 35 27 8f 3d 74 47 51 39 d3 0b 40 3d
       0.03683727 0.069899 0.00019958412 0.046886276
000230 af d0 ab bd 20 aa 6e bd 58 70 c5 3c c9 ef 58 bd
       -0.083894126 -0.058267713 0.024101421 -0.052963052
000240 25 3c 83 bc 20 73 d1 bd b9 d9 09 3d 28 0c 65 bd
       -0.01601989 -0.102270365 0.033654902 -0.055919796
000250 99 ba 6c bb a6 7d a8 bd 3e a0 cb 3d ec c6 9a bd
       -0.0036121963 -0.082270905 0.09942673 -0.075574726
000260 b2 32 6b 3d e0 0a d7 bc 65 c0 f8 bc 14 4e 3f bd
       0.057421394 -0.026250303 -0.030365178 -0.04670532
000270 59 af db 3d 8d d4 b0 3d fd cb 9e 3d f6 65 eb 3d
       0.10726804 0.08634291 0.077537514 0.11494057
000280 d0 b0 ce 3d e8 5e 2b 3d ae fb 5b bc 82 c5 09 be
       0.10092318 0.041838557 -0.013426704 -0.1345425
000290 64 85 86 3d 1b 70 b8 3d 69 cd e9 bb 11 7e 8d bc
       0.06568411 0.090057574 -0.0071350825 -0.017272027
0002a0 0e 30 5c bd 35 1e 21 bd 64 15 34 bd 83 18 70 bc
       -0.053756766 -0.03933545 -0.043965712 -0.014654282
0002b0 3d 6d 86 3d d0 5a 85 bd bd 65 09 be 78 76 07 3d
       0.06563804 -0.06511462 -0.13417716 0.033071965
0002c0 8e 02 5e bc 44 c2 c5 3d d6 76 ea bd 5d 56 15 be
       -0.013550414 0.09656194 -0.114484474 -0.14583726
0002d0 4f 7c c0 bd 8b 80 8b 3c b5 62 06 3e f8 20 a2 bd
       -0.0939871 0.017029068 0.13123591 -0.079164445
0002e0 a0 fb 86 bd db ed 77 bd 9a 38 71 3d 31 b7 9a 3d
       -0.065909624 -0.06052957 0.05889187 0.07554472
0002f0 9a 10 ad bd c7 96 1c 3d 8e e0 c7 bd ae eb f1 bd
       -0.08450432 0.03822973 -0.09759627 -0.118125305
000300 4b f2 04 3c 22 1d d4 bb 99 de b0 bc 0d e5 5c bd
       0.008114408 -0.0064731995 -0.021590518 -0.053929377
000310 4e 6a f1 3c 67 20 30 bc f9 41 4c bd 01 b9 51 bd
       0.029469635 -0.010749913 -0.049867604 -0.051201824
000320 63 22 e4 bd 73 d9 4c bd 0f 00 09 3e 46 72 c3 bd
       -0.11139371 -0.050012063 0.13378929 -0.0954328
000330 ec a9 5d bb 2b d1 66 3d 83 29 0d be a8 68 0f bd
       -0.0033823205 0.056351822 -0.13785367 -0.035011917
000340 19 f5 98 bd 11 00 d7 3d 84 d9 97 bb cc ff d3 3d
       -0.07468624 0.104980595 -0.004634084 0.10351524
000350 37 c6 41 3c 3a 09 ac bd 25 ab 06 bd d9 e5 c8 3d
       0.011827043 -0.08400197 -0.03287806 0.09809465
000360 0b ae ce 3d ea f1 9a 3b 01 0f 7d 3d 11 1c 0a 3e
       0.1009179 0.0047285454 0.061781887 0.13487269
000370 27 fc b3 3d 04 ed 57 bd 25 fe 28 bd 17 38 f0 3d
       0.087883286 -0.05271627 -0.041257996 0.11729448
000380 ee 5e 90 bd 5a 17 6a bc 46 84 a3 bc b9 4c 91 bd
       -0.070493564 -0.014287794 -0.019960534 -0.07094712
000390 fe f0 90 3b 06 f9 78 3d 70 17 6e bd eb 6e 75 bd
       0.0044232598 0.060784362 -0.05812782 -0.059920233
0003a0 a9 a8 98 3d a5 02 e1 bd ec 02 6f bd 39 7e bd 3d
       0.07454044 -0.109868325 -0.058352396 0.09252591
0003b0 1d 63 43 bd f3 08 ec 3d b3 c6 9e 3c 09 f6 6b bd
       -0.047701944 0.115251444 0.019381857 -0.057607684
0003c0 e2 85 ca 3d ed 3b 5a 3d 9a a5 2f bd f4 a1 26 3d
       0.09888817 0.053279806 -0.04288254 0.040681794
0003d0 35 49 8d bd 80 0f af bd 7e 62 3b 3d bc 2b 6c 3d
       -0.06898729 -0.08547878 0.045748226 0.057658896
0003e0 cf e7 96 3c 94 72 18 3a 8e aa 9d 3d a4 38 a3 3d
       0.018421082 0.00058154133 0.07698546 0.07969788
0003f0 be ce 8e bc 36 34 56 bd 77 5a 59 bd 70 0c d9 bd
       -0.017432567 -0.052295886 -0.05306479 -0.105980754
