src/bidmc_generation/models/ha_cnn_bilstm_withWST/20260205_170611/lightweight_hybrid_final.pth (torch, 430116 bytes, 23 tensors)

cnn_encoder.0.weight f4 [32, 16, 7]
0	0xbdaf82cd	-0.0856987
1	0xbe0735a1	-0.13204052
2	0xba46aa70	-0.0007578498
3	0xbdba3d2d	-0.090936996
4	0xbe1830a5	-0.14862306
5	0xbe25af79	-0.16180219
6	0xbd541c4a	-0.05178479
7	0xbe36e67a	-0.17861357
8	0x3c36af69	0.0111502195
9	0x3c674617	0.014115832
10	0x3de590f3	0.112092875
11	0xbd0f8e10	-0.03504759
12	0x3b8f6672	0.004376226
13	0xbc0f6d3b	-0.00875407
14	0xbda24888	-0.079239905
15	0x3c18cbc6	0.009325927
16	0xbcb57389	-0.022149818
17	0xbc81c9e5	-0.015843341
18	0x3dc28666	0.09498291
19	0xbd8918f3	-0.06694212
20	0xbdbdecfa	-0.09273715
21	0xbd0a0d20	-0.033703923
22	0xbd6a4adf	-0.05720031
23	0x3d87c8c2	0.066300884
24	0xbd39439c	-0.045230493
25	0x3dbbb585	0.091654815
26	0x3bfddfad	0.0077476115
27	0xbd18fe08	-0.037351638
28	0x3a8322c6	0.001000487
29	0xbd7818ca	-0.060570516
30	0x3c1d6290	0.009606019
31	0xbc26c421	-0.010178597
32	0x3d720f56	0.059096657
33	0x3d06785f	0.03282964
34	0x3d678c05	0.056530017
35	0xbde1acea	-0.11019309
36	0x3c1c7e77	0.009551636
37	0xbc4ab0cf	-0.012371256
38	0x3db78ffc	0.0896301
39	0xbd1e07ba	-0.038581587
40	0xbd2067b2	-0.03916139
41	0x3d37f737	0.044913497
42	0xbc8aa890	-0.01692608
43	0xbd149a78	-0.036280125
44	0x3ccc3cdb	0.024931362
45	0x3d5d2925	0.053994317
46	0xbbcc3c9c	-0.006232811
47	0xbdab33f5	-0.083595194
48	0xbdc8e822	-0.09809901
49	0x3bf81806	0.007571223
50	0xbc92eab5	-0.017934183
51	0x3d391d35	0.04519387
52	0xbd5b874d	-0.05359583
53	0x3dd6d7a3	0.10490348
54	0x3cb62cf2	0.022238228
55	0xbd00050a	-0.031254806
56	0xbd1dd1ca	-0.03853015
57	0xbd2d830f	-0.042361315
58	0xbdd90e1c	-0.10598394
59	0xbd6d7a9c	-0.057978258
60	0x3c986d22	0.018606726
61	0x3d88ae45	0.06673864
62	0xbdf7ba1c	-0.120960444
63	0x3bcd02d9	0.006256443
64	0xbc9b39b3	-0.018948412
65	0xbe129056	-0.14312872
66	0x3cf74172	0.030182574
67	0x3c862be0	0.016378343
68	0xbd1b41f0	-0.03790468
69	0x3b7bc460	0.003841661
70	0xbd1fef38	-0.039046496
71	0xbb90f068	-0.00442319
72	0x3c954c98	0.018225
73	0xbcc3eb6e	-0.023915973
74	0xbc9a742f	-0.018854229
75	0xbc61ce8e	-0.013782157
76	0x3c874f9c	0.016517453
77	0xbdba40d7	-0.090943985
78	0xbdcb0ed5	-0.09914938
79	0xbe2d9f40	-0.1695528
80	0x3d198257	0.037477817
81	0xbd64d468	-0.05586663
82	0xbd012d94	-0.031537607
83	0xbdb8ff2d	-0.09033046
84	0xbd83ebfc	-0.06441495
85	0x3c55e33d	0.013054666
86	0xbe2397d7	-0.15975891
87	0xbc867039	-0.016410934
88	0x3d8e5bf6	0.06951134
89	0xbdeb3575	-0.114848055
90	0xbb5ab98b	-0.0033374752
91	0xbca1520d	-0.019692445
92	0xbd4e1609	-0.050313983
93	0xbda4fe89	-0.08056361
94	0x3cd3b703	0.025844103
95	0x3d7f59d0	0.06234151
96	0xbcaf8212	-0.021424327
97	0x3ce3748f	0.02776554
98	0xbd993c82	-0.07482244
99	0xbdcc84a8	-0.0998624
100	0xbdebce5f	-0.115139715
101	0xbb321e02	-0.002717853
102	0x3d605acb	0.054774087
103	0x3d137a27	0.036005165
104	0xbc1964ea	-0.009362439
105	0xbc6487ac	-0.013948362
106	0xbdd3aa54	-0.10335222
107	0xbdd34685	-0.10316185
108	0xbe132128	-0.14368117
109	0x3be3c3fd	0.006950854
110	0xbdb059a7	-0.0861085
111	0x3d9abf97	0.07556074
112	0x3e1b425b	0.15162031
113	0x3e0901f0	0.13379645
114	0x3d121c44	0.035671487
115	0x3d61f659	0.055166576
116	0xbd834317	-0.06409281
117	0xbd990071	-0.07470787
118	0xbd82647a	-0.06366821
119	0x3e68b3f9	0.22724904
120	0x3de7ea2d	0.11323962
121	0x3d80e12d	0.06292949
122	0x3d8ce853	0.0688025
123	0xbb901c09	-0.0043978733
124	0xbd89586e	-0.0670632
125	0xbe40c5e5	-0.18825491
126	0x3dafa623	0.0857661
127	0x3dfad1a7	0.12247019
128	0x3db5a72b	0.088697754
129	0xbdaaf14a	-0.083468035
130	0xbb3fd205	-0.0029269469
131	0xbde62e8c	-0.11239347
132	0xbd3af87f	-0.04564714
133	0x3dbba82f	0.09162938
134	0x3cec66a4	0.028857537
135	0xbb540de4	-0.0032356912
136	0xbcf3ff32	-0.029784773
137	0x3d51454b	0.051091474
138	0xbdeb8e00	-0.11501694
139	0xbda8b4f9	-0.08237643
140	0x3dc8af1d	0.09799025
141	0x3de69d6d	0.11260495
142	0x3d747e40	0.059690714
143	0xbd99862e	-0.07496296
144	0xbd1ee976	-0.038796864
145	0xbd919388	-0.071082175
146	0xbe09069e	-0.1338143
147	0x3e1257d1	0.14291312
148	0x3df570b1	0.11984385
149	0xbda2897f	-0.079363815
150	0xbd47dab3	-0.048792552
151	0x3d91fe5e	0.07128595
152	0xbd3542fd	-0.044253338
153	0xbdfa2507	-0.12214094
154	0x3e056d69	0.13030018
155	0x3c23a11d	0.009987143
156	0xbd1e0967	-0.038583186
157	0xbdbf4ea8	-0.09341174
158	0x3d4ce6c7	0.050024774
159	0xbd950320	-0.07275987
160	0xbe15ad3d	-0.14616866
161	0xbc296836	-0.010339787
162	0xbd503f19	-0.050841425
163	0x3cbcf4b6	0.023065906
164	0x3cbd5a39	0.02311431
165	0x3be627c5	0.007023784
166	0xbdd4030e	-0.10352145
167	0xbe28e711	-0.16494395
168	0xbc11577f	-0.008870958
169	0xbba9a413	-0.00517703
170	0x3d9efecc	0.077634424
171	0x3d520350	0.05127269
172	0xbd8365c8	-0.064158976
173	0xbdfdaeae	-0.12386833
174	0x3cf15c39	0.02946292
175	0xbc7ab5a2	-0.015302094
176	0xbdb5c51e	-0.08875488
177	0xbd7fcb3c	-0.06244968
178	0xbc265a4e	-0.010153366
179	0xbd2850f5	-0.04109283
180	0x3d63f766	0.05565586
181	0x3c8fe3cc	0.017564677
182	0xbde005c7	-0.10938602
183	0xbe03c60a	-0.12868515
184	0xbd8091ec	-0.062778324
185	0xbda5d6ea	-0.08097632
186	0xbc872727	-0.016498161
187	0xbcae4e25	-0.021277497
188	0xbd60ac1b	-0.054851633
189	0xbd21cbe1	-0.039501075
190	0xbdbb8cc4	-0.09157708
191	0x3ce951f2	0.028481457
192	0x3d56dc5c	0.052456245
193	0xbca3da5d	-0.020001585
194	0xbd373404	-0.04472734
195	0xbde8adce	-0.113612756
196	0xbd60d5c3	-0.05489136
197	0xbe012296	-0.1261085
198	0x3d6b473e	0.05744099
199	0x3d466c38	0.04844305
200	0x3ae667c1	0.0017578528
201	0xbc8359b7	-0.01603399
202	0xbd230588	-0.039800197
203	0x3d045a74	0.032312825
204	0xbd80fc88	-0.062981665
205	0xbbfee5ed	-0.007778874
206	0x3d69a171	0.05703873
207	0x3d7d6453	0.061863255
208	0xba860977	-0.0010226209
209	0x3d0f0e06	0.034925483
210	0xbdf846ae	-0.12122856
211	0xbce1ddfb	-0.027571669
212	0xbde6c15b	-0.112673484
213	0x3d8abdf7	0.06774514
214	0x3dc15c81	0.09441472
215	0xbc8a1ff2	-0.016860936
216	0xbdefc0bb	-0.11706682
217	0xbdcf593d	-0.10124443
218	0xbcd72ab7	-0.026265485
219	0xbdc16aa1	-0.09444166
220	0xbc423c22	-0.011855157
221	0xbb52a67c	-0.003214269
222	0xbd1bc3f8	-0.038028687
223	0x3c990fe1	0.01868433
224	0xbdaf21d5	-0.08551375
225	0x3d12c9c8	0.035836965
226	0xbdbf0de8	-0.09328824
227	0xbd7cae8b	-0.061689895
228	0xbc93daf8	-0.018048748
229	0xbdb5fcec	-0.08886132
230	0xbd8e56b0	-0.06950128
231	0xbe9b50f3	-0.30335197
232	0xbe7a5622	-0.2444692
233	0xbe9185db	-0.28422436
234	0xbd9b7e0a	-0.075923994
235	0xbe0b2628	-0.13588774
236	0xbdceffca	-0.10107382
237	0xbd23bd07	-0.039975192
238	0xbe7601e7	-0.24024163
239	0xbe6812e5	-0.22663458
240	0xbdb1f1e4	-0.08688715
241	0xbd5ecaa5	-0.054392476
242	0xbdaa829f	-0.08325695
243	0x3d5799bb	0.052636843
244	0x3cda18b2	0.026623104
245	0xbe61ef32	-0.22063902
246	0xbe887e44	-0.26658833
247	0xbe4b730c	-0.19868106
248	0xbb99203e	-0.004673033
249	0x3cdf1242	0.027230386
250	0xbc17257a	-0.009225244
251	0x3c9f1409	0.019418733
252	0xbe8dae80	-0.27672195
253	0xbe1c7da6	-0.15282306
254	0xbdd70791	-0.1049949
255	0xbdd4997a	-0.10380836

cnn_encoder.0.bias f4 [32]
0	0xbe628038	-0.22119224
1	0xbce4262a	-0.02785023
2	0xbd94debd	-0.072690465
3	0xbd6e77d3	-0.058219742
4	0x3e2abca8	0.16673529
5	0xbe0f84e9	-0.14015545
6	0x3d53d275	0.05171438
7	0xbc46c052	-0.012130814
8	0xbe16487c	-0.14676088
9	0x3cfa3fc4	0.030547984
10	0xbd03b18e	-0.03215175
11	0x3e0b5b16	0.13608965
12	0x3c2eaf19	0.010661864
13	0xbd2e9e3f	-0.042631384
14	0xbaad648a	-0.0013228816
15	0xbd3db5a8	-0.04631582
16	0xbc9000a4	-0.01757843
17	0xbdf38253	-0.11890092
18	0xbd15ecf2	-0.03660292
19	0xbd028e5e	-0.031874053
20	0xbdd5b218	-0.10434359
21	0xbdab4461	-0.083626516
22	0xbca2e005	-0.019882211
23	0x3e10b0ef	0.14129995
24	0xbcd25562	-0.02567548
25	0xbd3063d2	-0.043063946
26	0xbd9b03e7	-0.07569104
27	0xbdcc3eb6	-0.09972899
28	0x3d6a8928	0.05725971
29	0xbb144caa	-0.0022628703
30	0x3d52a919	0.051430795
31	0x3d89efcc	0.06735191

cnn_encoder.1.weight f4 [32]
0	0x3f491466	0.7854675
1	0x3f817d2a	1.0116322
2	0x3f824b27	1.0179185
3	0x3f872036	1.0556705
4	0x3f6f23b1	0.93413836
5	0x3f93aaf0	1.1536541
6	0x3f6601b6	0.8984636
7	0x3f771ff0	0.9653311
8	0x3f8023eb	1.0010961
9	0x3f8e11f1	1.1099225
10	0x3f910504	1.1329656
11	0x3f74c4a3	0.95612544
12	0x3f549857	0.8304495
13	0x3f85791c	1.0427585
14	0x3f9286ca	1.1447384
15	0x3f80a51a	1.0050385
16	0x3f90d72d	1.1315666
17	0x3f4c7002	0.7985841
18	0x3f606a7a	0.8766247
19	0x3f82cfd2	1.0219672
20	0x3f75a21c	0.95950484
21	0x3f5736d0	0.8406801
22	0x3f6a2f70	0.91478634
23	0x3f68d9e3	0.9095747
24	0x3f95db4a	1.1707547
25	0x3f8363c3	1.026482
26	0x3f8a0bc2	1.0784838
27	0x3f789d9c	0.9711549
28	0x3f8e456e	1.1114938
29	0x3f6244bd	0.88386136
30	0x3f73ede0	0.95284843
31	0x3f784ddb	0.969938

cnn_encoder.1.bias f4 [32]
0	0xbe6668ef	-0.22500966
1	0x3d2abaeb	0.041682165
2	0xbd942b35	-0.072348036
3	0xbe246b5e	-0.16056582
4	0xbc5e6dd4	-0.01357599
5	0xbd0dc55a	-0.034612037
6	0xbe1a8ed0	-0.15093541
7	0xbe9bfccb	-0.30466303
8	0x3bbc4f86	0.0057467846
9	0xbe25eda4	-0.16203934
10	0xbe1ba3a9	-0.1519915
11	0xbd88f890	-0.066880345
12	0x3d126803	0.035743725
13	0xbe4c6ef8	-0.19964206
14	0xbc31b73e	-0.010846911
15	0xbda8116a	-0.082064465
16	0xbe28ae30	-0.16472697
17	0xbe89b2b2	-0.26894146
18	0xbdc0cf20	-0.09414506
19	0xbe3e9660	-0.18612051
20	0xbe4ae976	-0.19815621
21	0xbe67ead9	-0.22648181
22	0xbe6ab65c	-0.22921127
23	0xbdab4988	-0.08363634
24	0xbd7230d4	-0.059128597
25	0xbcd36ba7	-0.025808169
26	0xbc095014	-0.0083809085
27	0xbe774d93	-0.24150686
28	0xbe39e7eb	-0.18154876
29	0xbdd85d19	-0.10564632
30	0xbe058998	-0.13040769
31	0xbe8e7c43	-0.2782918

cnn_encoder.1.running_mean f4 [32]
0	0xbf2973b4	-0.66192174
1	0x3b9ae8a1	0.0047274386
2	0xbebbcee7	-0.3668129
3	0xbdba4373	-0.09094896
4	0x3e875612	0.26432854
5	0xbe35205f	-0.1768813
6	0xbb0ce972	-0.002150145
7	0x3c11c2b7	0.008896521
8	0xbe0b8cc6	-0.1362792
9	0xbdd635a8	-0.10459453
10	0xbd809fd1	-0.062804826
11	0x3d776181	0.06039572
12	0x3e61d306	0.22053155
13	0x3c0b1868	0.008489706
14	0x3d93dee8	0.0722025
15	0xbd4c2dd5	-0.049848396
16	0xbe004dae	-0.12529632
17	0xbe60d958	-0.2195791
18	0x3c343bd8	0.011000596
19	0xbe1d36eb	-0.15352981
20	0xbe437f68	-0.1909157
21	0xbe7ac872	-0.24490526
22	0x3d110481	0.035404686
23	0x3e1420ec	0.14465684
24	0xbced3678	-0.028956637
25	0xbd613c57	-0.054989185
26	0xbdd7fcb6	-0.10546248
27	0xbe6622ae	-0.22474167
28	0xbbbe85ff	-0.0058143134
29	0x3dd30cf6	0.103052065
30	0x3e57e3f4	0.21083051
31	0x3b799b75	0.0038087044

cnn_encoder.1.running_var f4 [32]
0	0x3c317280	0.010830522
1	0x3bce7454	0.0063004885
2	0x3c783069	0.015148261
3	0x3af46429	0.0018645573
4	0x3acb9a07	0.0015533575
5	0x3b35b32e	0.0027725208
6	0x3b27b253	0.0025588467
7	0x3b9c1863	0.0047636493
8	0x3a02f595	0.0004995701
9	0x3b1f99da	0.0024353177
10	0x3b4c7042	0.003119484
11	0x3ae9cd49	0.0017837669
12	0x3bf3a14a	0.0074349986
13	0x3b359cef	0.0027711948
14	0x3ba6116a	0.005067994
15	0x3b90bce6	0.0044170497
16	0x3b55ec17	0.0032641941
17	0x3ba098db	0.0049010343
18	0x3b759a7b	0.003747611
19	0x3ad9a596	0.0016605135
20	0x3bd59b1b	0.006518734
21	0x3bbf56c3	0.0058392
22	0x3bb4fe9b	0.0055235154
23	0x3aa2817e	0.0012398211
24	0x3acedc6f	0.0015782247
25	0x3b100d49	0.0021980575
26	0x3ad9898d	0.001659678
27	0x3b07d6a4	0.00207273
28	0x3b22eb38	0.002485944
29	0x3b44307e	0.002993613
30	0x3bb52ccc	0.005529022
31	0x3ab6c4a6	0.0013944104

cnn_encoder.4.weight f4 [64, 32, 5]
0	0xbcda3204	-0.026635177
1	0xbdbd2828	-0.09236175
2	0x3c6c3a66	0.01441822
3	0xbd7c20f8	-0.06155488
4	0x3da013f1	0.078163035
5	0x3d84bd8d	0.064814664
6	0xbcd0b011	-0.02547458
7	0xbcf3e3d6	-0.029771727
8	0xbe003cfe	-0.12523267
9	0x3cd383a9	0.025819616
10	0xbd7106fe	-0.05884456
11	0xbb0ca77a	-0.0021462128
12	0xbd799456	-0.06093248
13	0x3dfc2fa4	0.12313774
14	0x3dceb15e	0.10092424
15	0xbb24a840	-0.00251247
16	0xbd1cae99	-0.038252447
17	0xbd01d63c	-0.03169845
18	0xbc2df4fc	-0.010617491
19	0x3df692d4	0.12039724
20	0xbdcfb96b	-0.101427875
21	0x3d455025	0.048172135
22	0x3ce9e493	0.028551375
23	0xbda6d20e	-0.081455335
24	0x3c9e773b	0.019343963
25	0x3ebfe2cb	0.37477717
26	0x3da64362	0.08118321
27	0x3cac4fec	0.021034203
28	0xbd2e30b6	-0.042526923
29	0x3cd1a17d	0.025589699
30	0x3d45df06	0.048308395
31	0x3d9886a8	0.07447559
32	0xbdbcda70	-0.09221351
33	0xbddde6bb	-0.10835024
34	0xbd9df018	-0.0771181
35	0x3e11fb4e	0.14256021
36	0x3c81f144	0.015862115
37	0xbcb8d06e	-0.022560325
38	0xbccc0524	-0.024904795
39	0x3d0e1f5a	0.034697868
40	0xbd789231	-0.060686294
41	0xbb282c8e	-0.0025661322
42	0xbcd7e33d	-0.026353473
43	0xbc07a816	-0.008279821
44	0x3db956c6	0.09049754
45	0xbd8d16bd	-0.068891026
46	0xbd2d8e29	-0.042371903
47	0xbda70d9d	-0.081568934
48	0xbdac308c	-0.08407697
49	0x3d823bf0	0.063590884
50	0x3d0be082	0.034149654
51	0x3deb37d8	0.11485261
52	0x3cfb323a	0.030663598
53	0xbc604f5e	-0.013690798
54	0x3cbc54b0	0.0229896
55	0xbd8911d5	-0.06692854
56	0x3d853ea9	0.06506092
57	0x3c8783f9	0.016542422
58	0xbd20699c	-0.039163217
59	0x3d812816	0.06306474
60	0x3de84d03	0.11342814
61	0x3d5d0d11	0.05396754
62	0xbe453425	-0.19258173
63	0xbd55f76d	-0.052237917
64	0x3d090813	0.033454966
65	0x3d311e75	0.043241937
66	0xbcfa956b	-0.030588826
67	0xbd8126be	-0.063062176
68	0xbd041cc6	-0.032254003
69	0x3dda2d57	0.10653179
70	0x3dd2ad10	0.10286915
71	0x3d2c7aa1	0.042109136
72	0x3cfbae21	0.03072268
73	0xbdd08ea7	-0.10183459
74	0x3ceb2af8	0.028707013
75	0xbd6a1082	-0.05714465
76	0xbc90b5f5	-0.017664889
77	0xbd2ae2de	-0.041720264
78	0xbd88d89e	-0.066819414
79	0x3bdc6b33	0.0067266463
80	0x3daaf69f	0.083478205
81	0xbd61d960	-0.055138946
82	0x3cfeb0c0	0.03109014
83	0xbd24e09c	-0.040253267
84	0x3d9826df	0.07429289
85	0xbb740a20	-0.003723748
86	0x3b174bfc	0.0023086062
87	0x3c3dfaa9	0.011595407
88	0xbc949928	-0.018139437
89	0x3d5e64e2	0.054295428
90	0x3cf67655	0.030085722
91	0x3d971af6	0.07378189
92	0x3d754fb8	0.05989048
93	0x3d46636e	0.048434667
94	0x3dd3bb23	0.10338428
95	0x3e00b665	0.12569578
96	0x3d48664f	0.048925694
97	0x3d4c9061	0.049942378
98	0x3ca71baf	0.020398943
99	0x3b8cb569	0.0042940867
100	0x3dd38f02	0.10330011
101	0xbc982325	-0.018571446
102	0x3d5515d8	0.052022785
103	0xbcfb4ce0	-0.030676305
104	0xbda9ddb7	-0.08294242
105	0x37d12cb9	2.4935567e-05
106	0x3dc0251b	0.09382077
107	0xbca3431d	-0.019929463
108	0x3d93c782	0.072157875
109	0xbd603168	-0.054734617
110	0xbd8c7062	-0.06857373
111	0xbdb5a7e6	-0.08869915
112	0x3cebbf15	0.028777638
113	0x3cd18aae	0.025578823
114	0x3c9a4295	0.018830577
115	0x3c35067d	0.01104891
116	0xbd2f273a	-0.04276202
117	0xbd9d0b1e	-0.07668136
118	0xbc953051	-0.018211516
119	0xbda36ab9	-0.0797934
120	0x3de45cf6	0.111505434
121	0xbe14e251	-0.14539458
122	0xbdee99e5	-0.11650447
123	0xbd4437f3	-0.04790492
124	0xbdf81262	-0.12112881
125	0xbcf37808	-0.029720321
126	0x3dbd25cc	0.09235725
127	0x3da9e0d8	0.08294839
128	0x3d4c73cb	0.049915116
129	0xbe1a99c4	-0.1509772
130	0xbe21988d	-0.1578085
131	0xbcdf2de3	-0.02724356
132	0xbd66d63e	-0.05635666
133	0xbde80280	-0.11328602
134	0x3d778caf	0.0604369
135	0x3e25b711	0.16183116
136	0x3d3b20aa	0.045685448
137	0x3e141908	0.14462674
138	0x3c21545b	0.009846772
139	0x3d8571a0	0.06515813
140	0x3cdf9967	0.027294828
141	0xbbf4599c	-0.0074569713
142	0xbca928fb	-0.020649424
143	0xbc3aaf8e	-0.011394395
144	0xbe39f483	-0.1815968
145	0x3c6c3532	0.01441698
146	0x3ce07acf	0.02740231
147	0xbd9bb652	-0.07603134
148	0xbc030969	-0.007997849
149	0x3d3d811f	0.046265718
150	0xbd381c2f	-0.044948753
151	0x3db1e249	0.086857386
152	0xbd1f10bd	-0.038834322
153	0xbce82530	-0.028338045
154	0xbc013b19	-0.007887625
155	0xbdc42afc	-0.09578511
156	0xbd82c491	-0.06385148
157	0x3cad45e2	0.021151487
158	0xbce81e9a	-0.028334904
159	0x3d72fc16	0.05932244
160	0xbb568ad8	-0.0032736566
161	0x3d7c174e	0.061545663
162	0x3d94f71a	0.072736934
163	0x3c93c953	0.018040335
164	0x3dc418d9	0.09575052
165	0x3d592c50	0.053020775
166	0x3ded7dc5	0.11596254
167	0xbd2fa03b	-0.042877417
168	0xbd29b7c2	-0.04143501
169	0xbcd1298d	-0.025532508
170	0xbe07d1e1	-0.13263656
171	0xbc499958	-0.012304626
172	0xbcbc1a98	-0.0229619
173	0x3ddad2cc	0.106847376
174	0x3dcee7bf	0.10102796
175	0xbcc403ac	-0.023927532
176	0x3ca870d2	0.02056161
177	0xbbe22ad3	-0.0069020777
178	0x3cabfdfe	0.020995136
179	0x3da6e8e4	0.08149889
180	0xbcb47acb	-0.022031209
181	0xbdd66247	-0.10467964
182	0x3d21fa24	0.039545193
183	0x3d9a3ba5	0.075309075
184	0xbd43ad25	-0.047772545
185	0x3d0ca3fa	0.034336068
186	0x3e0ddbdb	0.138534
187	0x3d593692	0.053030558
188	0x3b6d9222	0.0036250432
189	0x3da90cea	0.08254416
190	0xbca9c92c	-0.020725809
191	0x3e27c3f9	0.16383351
192	0x3dd26460	0.10273051
193	0xbdff869d	-0.12476847
194	0xbab920be	-0.0014124138
195	0x3c884b98	0.016637608
196	0x3ce93944	0.02846969
197	0x3d974bd4	0.0738751
198	0xbd5e3570	-0.05425018
199	0x3e00ee00	0.1259079
200	0x3e586d96	0.21135554
201	0x3d95ce2d	0.073147155
202	0xbd30d565	-0.04317226
203	0xbc1659ee	-0.009176714
204	0x3d7ad331	0.061236564
205	0xbe1bfa01	-0.15232088
206	0x3cc1afaa	0.023643333
207	0x3d79d97f	0.060998436
208	0xbe1104de	-0.14162013
209	0xbca4e24a	-0.020127434
210	0x3d55bdc1	0.052182917
211	0x3dcdb58e	0.100443944
212	0x3e268aad	0.16263838
213	0xbd41d4c6	-0.047322057
214	0xbd3fbb64	-0.04680957
215	0x3db5784f	0.08860838
216	0x3c3a06ac	0.01135413
217	0x3c2dd3d1	0.010609583
218	0xbdba9e7f	-0.09112262
219	0x3c2624c0	0.010140598
220	0x3c9ec094	0.019378938
221	0x3c397a34	0.011320639
222	0x3cc6427f	0.02420163
223	0xbe1daa63	-0.15397029
224	0xbd708afb	-0.058726292
225	0xbd9cab11	-0.07649816
226	0x3c3d7619	0.011563801
227	0x3c0b258b	0.008492838
228	0x3c9caccc	0.019125365
229	0xbc11df1e	-0.008903293
230	0x3c0c6b32	0.008570479
231	0x3dc226b1	0.09480036
232	0xbbc58efb	-0.0060290075
233	0xbd805977	-0.06267064
234	0xbd6c0a7e	-0.057627194
235	0x3d654f71	0.055983964
236	0x3d203527	0.03911319
237	0xbce24cb4	-0.027624466
238	0xbc56e422	-0.013115915
239	0x3d73c74a	0.05951623
240	0x3b4edd65	0.0031565067
241	0x3d273b4a	0.040828027
242	0x3e091715	0.13387711
243	0x3cbb9fc1	0.022903325
244	0x3d1d54d2	0.03841097
245	0x3ccdcfcd	0.025123501
246	0xbd205e42	-0.03915239
247	0x3c37a5db	0.011208977
248	0xbd950fcc	-0.07278404
249	0x3ddeac3d	0.108726956
250	0xbe064258	-0.13111246
251	0xbd98972c	-0.07450709
252	0x3c82517f	0.015908001
253	0x3d89a539	0.06720967
254	0xbe17c63f	-0.14821719
255	0xbd9f7a69	-0.0778702

cnn_encoder.4.bias f4 [64]
0	0x3d8546ad	0.06507621
1	0xba0245ac	-0.00049694884
2	0xbc52c58d	-0.012864483
3	0xbc828245	-0.015931258
4	0xbc94db90	-0.018171102
5	0xbc871292	-0.016488347
6	0x3cec9d6c	0.028883658
7	0xbd74e060	-0.059784293
8	0x3c85bd86	0.016325723
9	0x3d309bfb	0.043117505
10	0x3d7590d9	0.05995259
11	0xbd094e9d	-0.033522237
12	0x3da9ace1	0.08284927
13	0xbd5a4d08	-0.05329612
14	0xbdea0273	-0.114262484
15	0x3d98979e	0.07450794
16	0x3c055191	0.008137123
17	0x3d7655f8	0.06014058
18	0xbcfbad29	-0.030722218
19	0xbd4047e1	-0.04694355
20	0xbc820801	-0.015872957
21	0xbd99f95c	-0.07518265
22	0xbd6b5578	-0.057454556
23	0x3d78b29d	0.060717214
24	0xbd05c0a1	-0.03265441
25	0xbd3aaef0	-0.04557699
26	0x3d7971f1	0.06089968
27	0x3d689a85	0.056787986
28	0xbbc40acb	-0.005982732
29	0x3c97d76d	0.01853534
30	0x3d312d0e	0.043255858
31	0x3cfa17f2	0.030528996
32	0xbcd23c04	-0.025663383
33	0x3d8243a8	0.06360561
34	0xbd83bb5a	-0.06432219
35	0xbd06809f	-0.032837506
36	0x3bfb3b5c	0.0076669883
37	0xbcdb0e45	-0.026740203
38	0xbd08fe6b	-0.033445757
39	0x3d95f797	0.07322615
40	0xbd90cae2	-0.07069947
41	0xbd9395d1	-0.072063096
42	0x3d8dc4d5	0.06922308
43	0x3d1904cf	0.0373581
44	0xbd018068	-0.0316166
45	0x3d331ff9	0.043731663
46	0x3d89541c	0.06705496
47	0xbcd482b7	-0.025941236
48	0xbd0c90c0	-0.03431773
49	0x3d429e4a	0.047514237
50	0xbd9fe863	-0.07807996
51	0x3c880659	0.01660459
52	0x3d34e00d	0.044158984
53	0xbd0e3f8f	-0.034728583
54	0xbcdc7e45	-0.026915679
55	0xbdc1361a	-0.09434147
56	0xbd2b06ae	-0.041754417
57	0x3d21028a	0.039309062
58	0xbcf6785d	-0.03008669
59	0x3c690482	0.014222266
60	0xbc522035	-0.012825062
61	0xbdb3e04f	-0.08783018
62	0xbd061874	-0.032738164
63	0xbdfedd14	-0.12444511

cnn_encoder.5.weight f4 [64]
0	0x3f76b363	0.9636747
1	0x3f794011	0.9736338
2	0x3f7d4751	0.98936945
3	0x3f688316	0.9082502
4	0x3f82b7ee	1.0212381
5	0x3f76bac8	0.96378756
6	0x3f8272c0	1.0191269
7	0x3f82bdab	1.0214132
8	0x3f80c155	1.0059
9	0x3f885e20	1.0653725
10	0x3f6f1e90	0.9340601
11	0x3f621650	0.88315296
12	0x3f816a66	1.0110595
13	0x3f6a9653	0.91635627
14	0x3f70734b	0.93925923
15	0x3f780940	0.96889114
16	0x3f767746	0.96275747
17	0x3f6e4155	0.9306844
18	0x3f775d44	0.9662669
19	0x3f78b189	0.971459
20	0x3f7fd197	0.99929184
21	0x3f6ffea2	0.93747914
22	0x3f6c2fbf	0.92260355
23	0x3f7db408	0.9910283
24	0x3f7bb69c	0.98325515
25	0x3f6b167f	0.918312
26	0x3f7a1f12	0.9770366
27	0x3f76c261	0.9639035
28	0x3f746739	0.95470005
29	0x3f80116c	1.0005317
30	0x3f8184f9	1.0118705
31	0x3f7de3fb	0.99175996
32	0x3f8022e5	1.0010649
33	0x3f73f2c5	0.9529231
34	0x3f6dd98b	0.9291007
35	0x3f735ae9	0.9506059
36	0x3f878d31	1.0589963
37	0x3f8010d4	1.0005136
38	0x3f5eecf6	0.87080324
39	0x3f89795f	1.0740165
40	0x3f8417ef	1.0319804
41	0x3f8eb400	1.1148682
42	0x3f7c0c56	0.98456323
43	0x3f88ce97	1.0688046
44	0x3f8503f0	1.0391827
45	0x3f82fe93	1.023394
46	0x3f787502	0.9705354
47	0x3f6e3d7d	0.93062574
48	0x3f7f321c	0.99685836
49	0x3f774b9d	0.9659975
50	0x3f747ba7	0.9550118
51	0x3f74b836	0.95593584
52	0x3f9042ea	1.127042
53	0x3f5d7f3a	0.8652226
54	0x3f79472a	0.9737421
55	0x3f660f53	0.8986713
56	0x3f7c5bd4	0.9857762
57	0x3f817324	1.0113263
58	0x3f881429	1.0631152
59	0x3f7ebb94	0.9950497
60	0x3f82fc28	1.0233202
61	0x3f6f4992	0.93471634
62	0x3f82e3af	1.0225734
63	0x3f80f8ee	1.0075967

cnn_encoder.5.bias f4 [64]
0	0xbe5a42fb	-0.21314614
1	0xbe13dd89	-0.14439978
2	0xbe2926d1	-0.16518714
3	0xbdc7f068	-0.09762651
4	0xbd26ab0a	-0.04069046
5	0xbe13005a	-0.14355603
6	0xbe0938ab	-0.13400523
7	0xbdcc573a	-0.09977575
8	0xbdb2f831	-0.08738745
9	0xbd91cd88	-0.0711928
10	0xbe067b1f	-0.13132904
11	0xbe3de812	-0.18545559
12	0xbceb67a9	-0.028735952
13	0xbe296b58	-0.16544855
14	0xbdda148a	-0.10648449
15	0xbdfafd39	-0.1225533
16	0xbd40d879	-0.047081444
17	0xbcf6c103	-0.030121332
18	0xbc12f3ed	-0.008969289
19	0xbe00f126	-0.12591991
20	0xbd44bd72	-0.04803223
21	0xbe13a763	-0.14419322
22	0xbe42e927	-0.19034253
23	0xbd727b63	-0.059199702
24	0xbd66a1dd	-0.05630671
25	0xbe0aef44	-0.13567835
26	0xbdd2c736	-0.10291903
27	0xbdfad6db	-0.12248012
28	0xbe029b5d	-0.12754579
29	0xbdaac0a3	-0.08337524
30	0xbdf298c2	-0.118455425
31	0xbcff2581	-0.031145813
32	0xbd10b021	-0.03532422
33	0xbdb2c4fe	-0.087289795
34	0xbe444357	-0.19166313
35	0xbe482856	-0.19546637
36	0xbe1b41aa	-0.15161768
37	0xbcab3084	-0.020897157
38	0xbdb6f798	-0.089339435
39	0x3be3ac84	0.0069480557
40	0xbd8a3e7d	-0.067502
41	0xbd30f829	-0.043205414
42	0xbd1d1b90	-0.038356364
43	0xbe449d6e	-0.1920068
44	0xbe6bda10	-0.23032403
45	0xbd92bfec	-0.071655124
46	0xbd1e64b2	-0.03867025
47	0xbe3e726a	-0.18598333
48	0xbdc359be	-0.09538601
49	0xbdd8e0d0	-0.105897546
50	0xbda1e674	-0.079052836
51	0xbe03ab19	-0.12858237
52	0xbdf5df1f	-0.120054476
53	0xbe3542cb	-0.17701261
54	0xbde27801	-0.11058045
55	0xbe4630fd	-0.19354625
56	0xbd72ef42	-0.059310205
57	0xbdfc15a2	-0.12308814
58	0xbe02b6ee	-0.12765095
59	0xbde12844	-0.10994008
60	0xbdd10d07	-0.10207563
61	0xbdbd39ec	-0.09239563
62	0xbdd9c5bf	-0.1063342
63	0xbdb03931	-0.086046584

cnn_encoder.5.running_mean f4 [64]
0	0x3d939210	0.072055936
1	0x3f16431b	0.58696145
2	0x3f13015d	0.57423955
3	0xbf3af38b	-0.7302787
4	0xbf26ee30	-0.65207195
5	0xbf771e1a	-0.96530306
6	0x3f1a9290	0.60379887
7	0xbe82fae1	-0.2558203
8	0xbdfdc1be	-0.12390469
9	0x3f173d35	0.5907777
10	0xbf0fedc3	-0.5622217
11	0xbe349237	-0.17633902
12	0xbf4e368b	-0.80551976
13	0x3db118ee	0.08647333
14	0xbf81df7c	-1.0146327
15	0x3e7ed665	0.24886473
16	0xbfa1242e	-1.2589166
17	0xbeffbe23	-0.4994975
18	0xbf1ec95a	-0.6202599
19	0x3e03eba6	0.12882861
20	0xbe7ff715	-0.24996598
21	0xbf3ea7d6	-0.7447485
22	0x3e70d9d2	0.23520592
23	0xbf45dd99	-0.77291256
24	0xbe305cc2	-0.17222884
25	0x3eb203c0	0.34768486
26	0x3e8d3a7f	0.2758369
27	0xbf09a564	-0.5376799
28	0x3eb7dc0e	0.35910076
29	0x3dd4b3d0	0.10385859
30	0x3f091c7e	0.535591
31	0xbf1dc496	-0.6162809
32	0xbe2d5e71	-0.16930558
33	0xbea44a00	-0.32087708
34	0x3e051a3c	0.12998289
35	0x3d31a67b	0.04337166
36	0xbddd7c8c	-0.10814771
37	0xbe0f9a05	-0.14023598
38	0xbf7a7d7d	-0.9784773
39	0xbf2a13d3	-0.664365
40	0xbea10f54	-0.31457007
41	0xbe66646f	-0.2249925
42	0x3eb7584a	0.35809547
43	0x3f280a22	0.6564046
44	0xbf06ddce	-0.526822
45	0xbe31bfea	-0.17358366
46	0xbeb7e15b	-0.3591412
47	0x3f165619	0.58725125
48	0xbf70470b	-0.938584
49	0x3e90ec49	0.2830527
50	0x3e562b0e	0.20914862
51	0x3ecdbe90	0.4018445
52	0xbe54c2b1	-0.20777394
53	0xbe178087	-0.14795123
54	0xbf24f64c	-0.6443832
55	0xbf5487b6	-0.8301958
56	0xbf96a1b9	-1.1768104
57	0xbe6e8519	-0.2329296
58	0xbe00d40b	-0.12580888
59	0xbf60ff5a	-0.87889636
60	0xbf074144	-0.5283396
61	0xbed21020	-0.41027927
62	0xbeb6eedb	-0.35729107
63	0xbd8ece08	-0.06972891

cnn_encoder.5.running_var f4 [64]
0	0x3ef5e4c8	0.4802611
1	0x3f44c95e	0.7686976
2	0x3eb075ce	0.34464878
3	0x3f28fd7b	0.6601178
4	0x3f8f5b5e	1.1199758
5	0x3f1b9eba	0.6078907
6	0x3f3e49ac	0.74331164
7	0x3ec386e1	0.38188842
8	0x3f0e1139	0.5549503
9	0x3f746125	0.9546073
10	0x3f9b24a3	1.2120556
11	0x3f3225dc	0.6958902
12	0x3f8323e0	1.0245323
13	0x3ebfa142	0.37427717
14	0x3ef809ae	0.48444885
15	0x3ecf43ca	0.40481406
16	0x3f7807be	0.96886814
17	0x3f8f9929	1.1218616
18	0x3fdd6567	1.729657
19	0x3eb05b5b	0.344447
20	0x3fb747fd	1.4318844
21	0x3f090f81	0.5353928
22	0x3edc383f	0.43011662
23	0x3ef30b70	0.47469664
24	0x3f16128d	0.58622056
25	0x3f4840a1	0.78223616
26	0x3f1d366d	0.6141117
27	0x3ef61694	0.480641
28	0x3f79a499	0.9751678
29	0x3f2203a7	0.63286823
30	0x3ef43e75	0.477039
31	0x3fae2e6c	1.3607917
32	0x3f980ee1	1.1879541
33	0x3f1bcfea	0.60864127
34	0x3edb4797	0.42828056
35	0x3ecc0360	0.39846325
36	0x3ea8b2e6	0.3294899
37	0x3f201502	0.62532055
38	0x3f320fe7	0.69555515
39	0x3fa9a333	1.325293
40	0x3f510ee5	0.8166335
41	0x3f9900d8	1.1953382
42	0x3f81e583	1.0148166
43	0x3f03f257	0.51541656
44	0x3f03d97e	0.5150374
45	0x3f6419e9	0.89102036
46	0x3f8d0260	1.101635
47	0x3eb94f14	0.36193144
48	0x3ef350eb	0.47522673
49	0x3f0de0e4	0.5542128
50	0x3f6d7d5a	0.92769396
51	0x3f5e21f8	0.8677058
52	0x3f153e02	0.5829774
53	0x3f6befb5	0.9216264
54	0x3f81d15a	1.0142014
55	0x3f05fec3	0.5234186
56	0x3f03a8d3	0.5142948
57	0x3eaa9f80	0.33324814
58	0x3e977ebe	0.29588884
59	0x3ebb00bb	0.36523995
60	0x3f1546b2	0.58311
61	0x3f28d681	0.65952307
62	0x3ed2a680	0.41142654
63	0x3eb1e616	0.34745854

lstm.weight_ih_l0 f4 [256, 64]
0	0xbe785261	-0.24250175
1	0x3ea46c69	0.3211396
2	0x3e0085b3	0.12551002
3	0x3c97c466	0.018526267
4	0xbdaf9f69	-0.08575327
5	0x3e72d707	0.23714839
6	0x3e662e3f	0.22478579
7	0x3eb82257	0.359637
8	0x3d10b03b	0.035324316
9	0x3de2f526	0.110819146
10	0x3ea29a62	0.3175841
11	0x3dc18cbd	0.09450672
12	0xbd188ea2	-0.0372454
13	0x3daaceef	0.08340251
14	0xbdf69235	-0.120396055
15	0x3e70528c	0.23468989
16	0x3dd461d6	0.10370223
17	0xbdb0f70d	-0.08640871
18	0xbdafd803	-0.08586123
19	0x3e20f71e	0.15719268
20	0xbe1c663a	-0.15273371
21	0x3e1a8a1d	0.15091749
22	0x3e2271b0	0.15863681
23	0xbe03d277	-0.12873255
24	0xbe4f6fe0	-0.2025752
25	0x3c21d039	0.009876304
26	0x3e13bfe4	0.14428669
27	0x3e8952b7	0.2682092
28	0xbcc527cf	-0.024066834
29	0x3dbd8677	0.09254163
30	0x3e654a4c	0.22391623
31	0xbe3487eb	-0.17629974
32	0xbe0a26f6	-0.13491425
33	0x3e06336a	0.1310555
34	0x3cc19e7e	0.023635145
35	0x3d6a9893	0.057274412
36	0xbe18950f	-0.14900611
37	0xbe11dd5c	-0.14244598
38	0x3ee1cdf7	0.4410245
39	0xbe1b87cd	-0.15188523
40	0x3e05b901	0.13058855
41	0x3e12f0d9	0.14349689
42	0xbe0b03a6	-0.1357561
43	0xbe40abe4	-0.18815571
44	0x3d384910	0.044991553
45	0x3e31ffec	0.17382783
46	0x3e25dac5	0.16196735
47	0xbe630e7b	-0.22173493
48	0xbe4e7d88	-0.20165074
49	0x3e3cead5	0.18448956
50	0xbd7d01f0	-0.061769426
51	0xbe57e498	-0.21083295
52	0x3d927ba0	0.07152486
53	0x3c16ffc2	0.009216251
54	0x3d97e954	0.07417551
55	0x3ce4d0c5	0.02793158
56	0xbe4292d7	-0.19001327
57	0x3e73f270	0.23822951
58	0x3e9b5e5e	0.30345434
59	0x3e4728d3	0.19449167
60	0xbe029e47	-0.1275569
61	0x3db9286a	0.090409115
62	0xbdb1553d	-0.08658836
63	0xbe84f9bc	-0.25971782
64	0x3ddc3465	0.10752181
65	0x3de56afc	0.11202046
66	0x3b657500	0.0035012364
67	0xbda3de67	-0.08001404
68	0xbe1b5256	-0.15168127
69	0xbdadfc83	-0.084954284
70	0xbe3596bf	-0.17733286
71	0x3e359e86	0.17736253
72	0xbda7eb9a	-0.08199234
73	0xbd6b1217	-0.0573903
74	0x3e6ce446	0.23133954
75	0x3e36e03e	0.17858979
76	0xbe2c62ce	-0.16834566
77	0xbcb5672b	-0.02214392
78	0x3de5a0d7	0.112123184
79	0x3dbfc340	0.09363413
80	0x3e85597c	0.26044834
81	0x3dcdb112	0.10043539
82	0x3e6c3255	0.23066075
83	0xbe061fbd	-0.13098045
84	0xbde13e4e	-0.10998212
85	0xbe6ca326	-0.23109111
86	0x3e47bad5	0.19504865
87	0xbbcc1c8c	-0.006228989
88	0x3c40d160	0.011768669
89	0x3d976e77	0.07394116
90	0xbd19088f	-0.037361678
91	0x3d120fdb	0.035659652
92	0xbe63938c	-0.22224253
93	0xbe402f22	-0.1876798
94	0xbe5b315e	-0.21405551
95	0x3d85e879	0.06538481
96	0xbe912ecc	-0.28356016
97	0xbc98768d	-0.018611217
98	0xbc10a753	-0.008828956
99	0xbca9e4cf	-0.020738987
100	0xbdd33ede	-0.10314725
101	0xbd79c616	-0.060979925
102	0xbd9fd291	-0.07803834
103	0xbd7b4e7a	-0.061354138
104	0x3c8c6e92	0.017142568
105	0xbe12a631	-0.1432121
106	0xbcde80e6	-0.027161073
107	0xbe54a07c	-0.20764345
108	0x3db95c72	0.09050836
109	0x3e2d7f77	0.16943155
110	0x3e79b1d5	0.24384244
111	0x3e99c889	0.3003581
112	0xbe94c2e1	-0.2905493
113	0xbe10783d	-0.14108367
114	0xbd30a3ec	-0.043125078
115	0xbcdd7203	-0.027031904
116	0x3cb5f1ad	0.022209967
117	0x3e209455	0.15681584
118	0x3ddfde01	0.10931016
119	0x3e13fdc0	0.14452267
120	0x3bdd680e	0.006756789
121	0x3eb9a118	0.36255717
122	0xbda67cef	-0.08129298
123	0x3e646538	0.22304237
124	0xbdf196f4	-0.1179637
125	0xb9b7c284	-0.00035049405
126	0x3e20014e	0.15625498
127	0xbec7ba7b	-0.3900946
128	0x3db104cc	0.08643493
129	0x3e5f3792	0.21798542
130	0x3bfe7588	0.0077654757
131	0xbc88f567	-0.01671858
132	0xbc990a35	-0.018681625
133	0x3da5b252	0.080906525
134	0xbd32b957	-0.043633785
135	0xbd0306b2	-0.031988807
136	0x3cabc50f	0.020967988
137	0xbd47e95f	-0.048806544
138	0x3df39112	0.11892904
139	0x3e854bfb	0.2603453
140	0x3d411122	0.04713548
141	0x3dc62a5a	0.09676047
142	0x3e8aa0f5	0.27075925
143	0x3ec4ba9a	0.38423616
144	0x3e28c0e7	0.16479836
145	0xbc8a42e1	-0.016877593
146	0x3e1543d6	0.14576659
147	0xbe3bed6d	-0.1835229
148	0x3bed64ed	0.0072446973
149	0x3c0bc002	0.008529665
150	0x3ed9a2ef	0.4250712
151	0x3db8b8fb	0.09019657
152	0xbdf4991d	-0.119432665
153	0x3c80280f	0.015644101
154	0x3dbe0dcd	0.09279976
155	0xbe15387e	-0.14572331
156	0x3da48a29	0.080341645
157	0xbd29283e	-0.041298144
158	0xbe356dee	-0.17717716
159	0xbc5ecc2d	-0.013598484
160	0x3cf15157	0.029457731
161	0xbe816b1b	-0.25277027
162	0xbde1280e	-0.10993968
163	0xbe11e489	-0.14247335
164	0x3d56c528	0.052434117
165	0x3e6daa49	0.2320949
166	0x3d446837	0.04795095
167	0x3d850e71	0.06496895
168	0x3e18f9e3	0.14939074
169	0xbda67922	-0.08128573
170	0x3d2d5ff6	0.042327844
171	0x3d77ea04	0.06052591
172	0xbe0034e2	-0.12520173
173	0x3d0e3876	0.034721814
174	0x3ea2b3d7	0.31777832
175	0x3e67fd46	0.2265521
176	0xbe16e749	-0.14736666
177	0x3d935065	0.071930684
178	0xbe14b002	-0.14520267
179	0x3e7b2a5b	0.24527876
180	0x3e1dfa57	0.15427528
181	0x3dda369f	0.106549494
182	0x3dbb3c64	0.09142378
183	0x3e58963b	0.21151058
184	0xbbf52813	-0.007481584
185	0x3d5ef942	0.05443693
186	0x3de9f5bf	0.114238255
187	0xbe279065	-0.16363676
188	0x3d95c196	0.07312314
189	0x3d234c41	0.039867643
190	0xbcd10e28	-0.025519446
191	0xbe4b41ac	-0.1984927
192	0xbe31a5b0	-0.17348361
193	0xbe8a15b8	-0.26969695
194	0xbec530af	-0.38513705
195	0xbea9ee33	-0.33189544
196	0xbe52e03a	-0.20593348
197	0x3e6e89f9	0.2329482
198	0x3c94c522	0.018160407
199	0x3d42de24	0.04757513
200	0xbd179d4a	-0.037015237
201	0xbde083eb	-0.10962661
202	0xbd37dd4f	-0.04488879
203	0x3db98934	0.090593725
204	0x3da07f22	0.07836749
205	0xbd01dad7	-0.031702843
206	0xbe644cae	-0.22294876
207	0xbe245cf1	-0.1605108
208	0xbb865c98	-0.0041003935
209	0xbd702c2e	-0.058635883
210	0xbd2d24c8	-0.042271405
211	0xbd3e8361	-0.04651201
212	0xbd07a034	-0.033111766
213	0xbd91864d	-0.07105694
214	0xbdee036c	-0.116217464
215	0xbb4f5980	-0.003163904
216	0xbe1d61b9	-0.1536931
217	0x3b7ccec8	0.00385754
218	0xbd231c0e	-0.039821677
219	0x3c761726	0.015020167
220	0xbe54da64	-0.20786434
221	0xbe307b99	-0.17234649
222	0xbe71a790	-0.23599076
223	0xbd648d6c	-0.055798933
224	0xbe88f8e0	-0.26752377
225	0xbe6c88ba	-0.23099032
226	0x3ddf5fa1	0.10906912
227	0xbc98aede	-0.01863807
228	0xbe0319e4	-0.12802845
229	0xbdc92165	-0.098208226
230	0x3d7d29ad	0.061807323
231	0xbd558e5d	-0.05213772
232	0xbd8e33d7	-0.069434814
233	0xbdefc515	-0.11707512
234	0xbe85badc	-0.26119125
235	0xbedf70e0	-0.43640804
236	0xbe6dbc68	-0.23216403
237	0xbc9332ee	-0.017968621
238	0xbd3fcceb	-0.046826284
239	0x3d2eaace	0.04264336
240	0xbdb1bde0	-0.08678794
241	0xbdff61dc	-0.12469837
242	0xbe749758	-0.23885858
243	0xbd3eb06f	-0.04655498
244	0xbe0f0c73	-0.13969593
245	0xbe16b2de	-0.1471667
246	0xbdd39173	-0.103304766
247	0x3d30a153	0.0431226
248	0xbe1aeee6	-0.15130195
249	0x3db10ea8	0.086453736
250	0xbd796f80	-0.06089735
251	0x3dbfbbed	0.09362016
252	0xbd9b0b0f	-0.07570469
253	0xbe086f6f	-0.13323759
254	0xbe46149e	-0.19343802
255	0x3df8d821	0.12150598

lstm.weight_hh_l0 f4 [256, 64]
0	0x3e76debb	0.24108402
1	0xbb9a4e7e	-0.004709064
2	0x3dbd5353	0.092444085
3	0xbddc0106	-0.10742383
4	0xbe1a1adc	-0.15049309
5	0xbdd3ee9b	-0.10348245
6	0xbd44856d	-0.047978807
7	0x3da6d950	0.08146918
8	0x3eb5e90a	0.35529357
9	0xbe1d4778	-0.15359294
10	0xbdef6919	-0.11689968
11	0xbe299f59	-0.16564693
12	0x3d1fcea4	0.039015427
13	0x3e1778ab	0.14792125
14	0x3eaadeba	0.33373052
15	0xbe5f6536	-0.21815953
16	0xbdf95feb	-0.12176498
17	0x3d17a106	0.0370188
18	0x3e76a1a3	0.24085097
19	0xbe562a0f	-0.20914482
20	0x3e1f5696	0.15560374
21	0x3d7df091	0.061997
22	0xbdb67823	-0.08909633
23	0xbe0b46b1	-0.13601185
24	0x3e0fe08a	0.14050499
25	0xbb94a16c	-0.0045358445
26	0xbd591d97	-0.053006735
27	0x3f09b119	0.53785855
28	0x3d421c08	0.047390014
29	0xbd9bd1bc	-0.07608363
30	0xbde08107	-0.1096211
31	0xbee0820b	-0.43849215
32	0xbead691c	-0.33869255
33	0x3dbcd56a	0.09220393
34	0xbe109fae	-0.14123413
35	0xbe58de17	-0.2117847
36	0xbe1de22d	-0.1541831
37	0xbe92a9ff	-0.28645322
38	0x3e0ced83	0.13762479
39	0x3d507eed	0.050902296
40	0xbeda68df	-0.42658135
41	0xbe70c145	-0.23511226
42	0xbd371666	-0.044699095
43	0xbf011106	-0.504166
44	0xbf011e43	-0.504368
45	0xbd53ac40	-0.051677942
46	0x3e1983b5	0.14991648
47	0x3e0e7fc7	0.1391593
48	0x3f1b63d1	0.6069918
49	0xbe424b32	-0.18973997
50	0xbedac712	-0.42730004
51	0x3e00f08a	0.12591758
52	0x3d27a67a	0.04093025
53	0xbc2fe719	-0.01073625
54	0xbe19441c	-0.14967388
55	0x3e5cdeba	0.21569338
56	0xbb68e31a	-0.0035535754
57	0xbe6940a2	-0.22778562
58	0xbe8cd2e8	-0.2750466
59	0xbeda0821	-0.42584327
60	0xbc945197	-0.018105311
61	0xbe48bd0c	-0.19603366
62	0x3e226d73	0.15862064
63	0x3d0ae159	0.033906315
64	0xbdcf5a24	-0.10124615
65	0x3e502f7b	0.20330612
66	0xbe3f9f40	-0.18713093
67	0x3dce6ade	0.10078977
68	0xbe610eba	-0.21978274
69	0xbdcda464	-0.10041121
70	0xbe8afb6b	-0.27144942
71	0x3e355c5c	0.17711014
72	0x3ec72957	0.38898727
73	0x3a893874	0.0010469095
74	0x3cd1d3f3	0.02561376
75	0x3f00fc21	0.5038472
76	0x3be42655	0.0069625773
77	0x3e22e86b	0.15908973
78	0x3d97fba1	0.07421041
79	0xbddf246a	-0.10895617
80	0xbe18ca5c	-0.14920944
81	0xbec6a0e1	-0.38794616
82	0xbeafe556	-0.34354657
83	0x3c062ca0	0.00818935
84	0x3e7122c8	0.23548424
85	0xbde7283d	-0.11286972
86	0x3e9cd962	0.306346
87	0xbc860a15	-0.01636223
88	0x3d3fbffd	0.046813954
89	0x3e7f7c65	0.24949796
90	0x3df77732	0.120832816
91	0x3d5dde60	0.05416715
92	0xbdf4c84d	-0.11952267
93	0xbd0fcad4	-0.03510554
94	0x3da8ea06	0.082477614
95	0x3d864280	0.065556526
96	0x3e2ca150	0.16858411
97	0x3e33e2ba	0.17566958
98	0xbd9a1ed9	-0.07525415
99	0xbe3aaddb	-0.18230383
100	0x3d8c22b2	0.06842555
101	0x3dfeadc9	0.12435491
102	0x3d44af51	0.048018757
103	0x3d3ae24e	0.045625977
104	0xbdf3afa4	-0.11898735
105	0xbde8d1d1	-0.11368144
106	0xbe0f7d2b	-0.14012592
107	0xbe4a328c	-0.19745845
108	0xbe280eaf	-0.16411851
109	0xbe0a5274	-0.13508016
110	0xbe1a82d1	-0.15088965
111	0x3dc3acc2	0.09554435
112	0x3e90d158	0.28284717
113	0xbd9641c9	-0.07336766
114	0xbe63c7df	-0.22244214
115	0x3e163b2f	0.14671014
116	0xbdd9496d	-0.10609708
117	0xbddc468f	-0.107556455
118	0x3df17bda	0.11791201
119	0xbd9cb9d7	-0.07652634
120	0x3ab8125c	0.0014043557
121	0xbd95a431	-0.07306708
122	0x3d9058cd	0.070481874
123	0x3d96bb83	0.07359984
124	0xbe5fd871	-0.2185991
125	0x3be3ec28	0.0069556423
126	0x3de14785	0.109999694
127	0xbc87b7c7	-0.016567124
128	0x3d81dcf1	0.06340969
129	0xbe22c2eb	-0.15894668
130	0xbe047eb5	-0.1293896
131	0xbd862702	-0.06550409
132	0xbedb2d44	-0.42807972
133	0xbdb4e5ca	-0.08832891
134	0x3e3055ed	0.17220278
135	0xbe2f9572	-0.17146853
136	0xbd52e8c1	-0.051491503
137	0xbdbf6323	-0.09345081
138	0x3e555347	0.20832549
139	0x3e985c34	0.29757845
140	0x3e94de9c	0.29076087
141	0xbe05ebcd	-0.13078232
142	0x3e516e3a	0.20452204
143	0xbe32d0f0	-0.17462516
144	0xbc8f7a63	-0.017514413
145	0x3cc090f3	0.023506617
146	0x3e130075	0.14355643
147	0xbde1efd0	-0.11032069
148	0x3e4fcfa5	0.20294054
149	0xbe273dee	-0.16332218
150	0x3e957f23	0.2919856
151	0x3dd61fb7	0.10455268
152	0xbdf0d0dc	-0.11758587
153	0xbdfa5b13	-0.12224402
154	0xbe680f82	-0.22662166
155	0x3e7b65f6	0.24550614
156	0x3a6ae64f	0.000896071
157	0xbd266216	-0.040620886
158	0x3cf8ef89	0.030387657
159	0x3e89a452	0.2688318
160	0x3eb268fd	0.34845725
161	0x3b94b75c	0.0045384597
162	0x3e3e7360	0.185987
163	0xbdc4c060	-0.09607005
164	0xbe479a45	-0.19492443
165	0xbdffd05a	-0.12490912
166	0xbd4677df	-0.04845416
167	0xbd5d98bd	-0.05410074
168	0xbe3d27d8	-0.1847223
169	0xbd700f4e	-0.058608346
170	0xbe81afa7	-0.25329325
171	0xbd172f0e	-0.03691011
172	0x3c5bf596	0.0134252515
173	0xbea605e5	-0.32426372
174	0xbe4b5c3b	-0.19859402
175	0xbe280f6a	-0.1641213
176	0x3e4e66c5	0.20156391
177	0x3d7ea975	0.062173326
178	0xbe8c9968	-0.2746079
179	0xbdfdc8b1	-0.123917945
180	0x3e88710c	0.26648748
181	0xbe1d1520	-0.1534009
182	0x3c074907	0.008257157
183	0xbb37fd8e	-0.0028074714
184	0xbe0a90ef	-0.1353185
185	0xbd83c043	-0.064331554
186	0xbde353c9	-0.11099965
187	0xbe10ff85	-0.14159973
188	0xbb6a1211	-0.0035716335
189	0xbe3cd91d	-0.18442197
190	0x3e5666ea	0.20937696
191	0xbe877e17	-0.26463386
192	0x3da947a8	0.082656205
193	0x3e67a55e	0.22621676
194	0x3df960b5	0.121766485
195	0xbca5a15c	-0.020218544
196	0xbc680598	-0.01416149
197	0xbd5b098b	-0.053475898
198	0x3cd4586e	0.025921073
199	0x3d701696	0.05861529
200	0xbda9ab6e	-0.08284651
201	0x3d487f12	0.04894931
202	0xbc8a4ff7	-0.016883833
203	0xbe057ba5	-0.13035448
204	0xbe817c6e	-0.25290245
205	0x3e4c6a20	0.19962358
206	0x3e5fd621	0.21859027
207	0xbd51c805	-0.051216144
208	0x3cf2b74e	0.029628422
209	0xbd125710	-0.03572756
210	0xbebb6c72	-0.36606175
211	0x3e35bd0b	0.17747895
212	0xbe289d20	-0.16466188
213	0x3dd0bc38	0.1019215
214	0x3c481951	0.012213067
215	0x3d3b3833	0.045707893
216	0xbd8feecb	-0.07027968
217	0xbe91a209	-0.28443936
218	0x3e755a2c	0.23960179
219	0x3df6a902	0.120439544
220	0x3e81e378	0.25368857
221	0xbd09845f	-0.033573505
222	0xbe675d95	-0.22594292
223	0xbe16db76	-0.14732155
224	0xbe9339ce	-0.2875504
225	0xbe170665	-0.14748533
226	0x3cae73ca	0.021295447
227	0xbe2ad22a	-0.16681734
228	0xbe1f0a6d	-0.15531321
229	0x3e4a57da	0.19760075
230	0xbcb86659	-0.02250974
231	0xbe42699f	-0.18985604
232	0xbd95e613	-0.07319274
233	0x3dad535e	0.08463167
234	0xbe0bfe83	-0.13671307
235	0x3d87f452	0.06638397
236	0x3b6586d4	0.003502299
237	0xbd0173f2	-0.031604715
238	0x3e4f9a3f	0.20273684
239	0x3db716ce	0.089398965
240	0x3da14881	0.07875157
241	0x3ea0bd75	0.31394544
242	0x3e95997e	0.29218668
243	0xbdc59ce7	-0.09649067
244	0x3e137f79	0.14404096
245	0xbe2f419d	-0.17114873
246	0xbe24af20	-0.1608243
247	0xbd9f634e	-0.07782613
248	0xbc198b3b	-0.009371574
249	0xbda00eda	-0.07815333
250	0xbe505b38	-0.20347297
251	0xbe002e42	-0.12517646
252	0xbdd68e8b	-0.10476407
253	0xbe3083c1	-0.1723776
254	0x3de8a511	0.11359609
255	0xbb7be02a	-0.0038433173

lstm.bias_ih_l0 f4 [256]
0	0xbd3da09f	-0.04629576
1	0xbe13ecc2	-0.14445785
2	0xbd823717	-0.06358164
3	0xbe0e04b2	-0.13868979
4	0xbe2526e7	-0.16128121
5	0xbcbd86ce	-0.023135569
6	0x3d9a9cf5	0.075494684
7	0xbd4152b1	-0.047198
8	0xbcf536d6	-0.029933374
9	0xbd26f5a4	-0.040761605
10	0x3d8060fc	0.06268498
11	0xbc80cd83	-0.015722996
12	0xbe450677	-0.19240747
13	0xbe0e52dd	-0.13898797
14	0xbda4d69a	-0.080487445
15	0xbd02f179	-0.031968568
16	0xbdd91a11	-0.10600675
17	0xbd79f7bb	-0.06102727
18	0x3d5c50de	0.05378806
19	0xbc502592	-0.01270427
20	0xbe0c70e6	-0.13714942
21	0x3a3a7f79	0.0007114332
22	0xbd1cd47c	-0.03828858
23	0xbdfba8f8	-0.122880876
24	0x3e0c897f	0.13724326
25	0xbc28ec12	-0.01031019
26	0xbcb22dbd	-0.021750325
27	0x3d825b4c	0.0636507
28	0xbd7910fd	-0.060807217
29	0x3dcf2fdd	0.10116551
30	0xbd46e6bb	-0.048559885
31	0xbcef8123	-0.029236382
32	0x3c94b329	0.018151836
33	0xbd233924	-0.039849415
34	0xbd31487c	-0.043282017
35	0x3daad7e3	0.083419584
36	0xbe23921b	-0.15973704
37	0xbdf9bf30	-0.12194669
38	0xbb269234	-0.0025416734
39	0xbde5eff5	-0.11227409
40	0xbcd0bce6	-0.025480699
41	0xbd720d31	-0.05909461
42	0xbd55db1c	-0.052210912
43	0xbd8cff19	-0.068845935
44	0xbd68b5df	-0.05681407
45	0x3bde457c	0.0067831855
46	0xbdd8bb17	-0.105825596
47	0x3de71839	0.11283917
48	0xbd110cec	-0.035412714
49	0xbd9d2ac2	-0.07674171
50	0xbe1f617a	-0.15564528
51	0xbc103f93	-0.00880422
52	0xbd5011d5	-0.050798256
53	0x3d0df4e2	0.034657367
54	0xbe6b0f04	-0.22954947
55	0xbe123b4e	-0.14280435
56	0x3c415aaa	0.011801401
57	0x3cd83e88	0.026397005
58	0x3d4cd853	0.05001099
59	0xbdcd191b	-0.10014554
60	0x3d755a8a	0.059900798
61	0x3cdfdd3d	0.027327174
62	0x3ce5ce06	0.028052341
63	0x3d3342aa	0.043764748
64	0x3dbdaf1b	0.09261914
65	0x3de570be	0.112031445
66	0x3e03670a	0.12832275
67	0x3e36d925	0.17856272
68	0x3de89db5	0.11358205
69	0xbd848180	-0.06470013
70	0x3e6aa912	0.22916058
71	0x3e11dbc9	0.14243998
72	0xbc99310f	-0.01870015
73	0xbd07f4fa	-0.033192612
74	0xbbe69bb2	-0.0070376033
75	0x3e334980	0.17508507
76	0xbc33e07f	-0.010978817
77	0x3cbb5766	0.022868823
78	0x3e1002d0	0.14063573
79	0x3e1e0e0b	0.15435044
80	0x3d09f841	0.03368402
81	0x3dc686ec	0.09693703
82	0x3ddcdcb9	0.10784287
83	0xbc03b683	-0.00803912
84	0x3c2dc2e3	0.010605547
85	0x3d64d135	0.055863578
86	0x3b8ac4c6	0.004234883
87	0x3d59b5be	0.05315184
88	0x3dc7e001	0.09759522
89	0x3e176250	0.14783597
90	0xbd895baf	-0.067069404
91	0xbce3f5e4	-0.02782721
92	0xbc5b2fc8	-0.013378091
93	0x3d889c71	0.06670464
94	0x3c92f136	0.017937284
95	0x3da8d3d2	0.082435265
96	0x3b9e6728	0.0048340745
97	0xba765aff	-0.0009397715
98	0xbd94875b	-0.072523795
99	0xbc57dcb8	-0.013175182
100	0x3d9863d8	0.07440919
101	0xbce6db34	-0.028180696
102	0x3e0e5834	0.13900834
103	0x3d17fb66	0.037104987
104	0x3dde9606	0.108684584
105	0x3d841a5f	0.064503424
106	0xbcc6da96	-0.024274152
107	0xbe2a09d6	-0.16605315
108	0x3e0c9db7	0.13732038
109	0xbdbcc863	-0.09217908
110	0x39fb9b06	0.00047989952
111	0x3cf0e10e	0.02940419
112	0xbce995b5	-0.028513769
113	0xbcee0243	-0.029053813
114	0xbd143112	-0.03617961
115	0x3a99887c	0.0011713649
116	0x3da770dd	0.08175824
117	0x3cfdd51f	0.030985413
118	0x3cd1df32	0.025619123
119	0x3ce88538	0.028383836
120	0x3df17edb	0.11791774
121	0x3e38c605	0.18044288
122	0x3d3072e6	0.043078326
123	0x3e0c83bf	0.13722132
124	0x3e487f8e	0.19579908
125	0x3e09e4a4	0.13466126
126	0x3dc8061c	0.0976679
127	0x3da1a1f8	0.07892221
128	0xbcf764cc	-0.03019943
129	0xbdf629f0	-0.12019718
130	0x3de9a73a	0.11408849
131	0xbc21ec86	-0.009883052
132	0x3d26e186	0.04074242
133	0xbc82da7b	-0.01597332
134	0xbda99ecd	-0.08282242
135	0xbdecb4ae	-0.115578994
136	0x3d909a57	0.07060688
137	0x3ddef6a3	0.10886886
138	0x3db30518	0.08741206
139	0x3dc16599	0.09443206
140	0x3dcc8357	0.099859886
141	0x3dbdaf28	0.09261924
142	0x3de151bf	0.1100192
143	0xbc14b61b	-0.00907662
144	0xbcf47b16	-0.029843848
145	0xbda59ffb	-0.080871545
146	0x3dca38fd	0.09874151
147	0x3cd6e469	0.026231961
148	0xbdbf5b93	-0.09343638
149	0x3c839faf	0.016067354
150	0xbd41e2e1	-0.04733551
151	0x3c1c20d1	0.009529308
152	0xbd00e8e8	-0.031472117
153	0x3a50eb15	0.00079696
154	0x3e00186d	0.12509318
155	0xbcb2f649	-0.021845954
156	0xbdd9fa88	-0.10643488
157	0x3ce2ece0	0.027700841
158	0x3cdee609	0.027209299
159	0xbd34bb5b	-0.04412399
160	0xbda4247d	-0.08014772
161	0xbcf6785f	-0.030086694
162	0x3de29ad4	0.11064687
163	0xbdc4c17f	-0.09607219
164	0x3cf23420	0.02956587
165	0x3dc7817d	0.09741495
166	0x3d79ef67	0.061019327
167	0x3a8bc106	0.0010662384
168	0x3d0698d9	0.03286061
169	0xbdb354cc	-0.08756408
170	0x3e0a51c3	0.13507752
171	0x3dafd001	0.085845955
172	0xbd609db9	-0.054837916
173	0x3c4fee41	0.0126910815
174	0x3be413b9	0.006960359
175	0x3d84d41f	0.064857714
176	0x3c9ef216	0.019402545
177	0x3cbea927	0.023274017
178	0x3dbac43f	0.09119462
179	0xbdd2ddc4	-0.10296205
180	0x3d972094	0.07379261
181	0x3dc71bb1	0.097220786
182	0x3db0491b	0.08607694
183	0x3d047162	0.032334693
184	0x3d9c66b5	0.07636777
185	0xbdf9c47a	-0.12195678
186	0x3da195fb	0.07889935
187	0x3c43201e	0.011909513
188	0x3d1a85bf	0.037725206
189	0xbd3bef88	-0.04588273
190	0x3dbf2a58	0.09334248
191	0xbc15f145	-0.009151761
192	0xbd56464f	-0.052313145
193	0x3dd0bbf0	0.10192096
194	0xbd7c28cf	-0.061562356
195	0x3bb94bab	0.0056547723
196	0xbdf60ddc	-0.12014362
197	0x3de268cc	0.11055145
198	0xbd533aeb	-0.05156986
199	0xbc8be465	-0.01707668
200	0x3d9c6a16	0.07637422
201	0x3d307ad0	0.043085873
202	0x3dadaa85	0.0847979
203	0x3bf5bc45	0.00749925
204	0x3b59ef3a	0.0033254162
205	0x3db2317e	0.08700846
206	0xbc3fbae9	-0.011702278
207	0xbdc792ce	-0.09744798
208	0x3dad1543	0.08451321
209	0xbdef3126	-0.11679296
210	0xbd94b4e8	-0.07261068
211	0x3ce8713a	0.028374303
212	0xbd178ed2	-0.03700144
213	0x3d7f8492	0.06238229
214	0x3dc35cc1	0.09539176
215	0x3d6514a9	0.055927906
216	0x3d1bc4e3	0.038029563
217	0x3df0a4a7	0.11750155
218	0x3d4e9d12	0.050442763
219	0xbd019b2c	-0.031642124
220	0x3bfa1be2	0.0076327184
221	0xbd7f5445	-0.062336225
222	0x3d93b57d	0.072123505
223	0x3d0283c3	0.03186394
224	0x3b220796	0.002472376
225	0x3d48252d	0.04886358
226	0x3da29e01	0.07940293
227	0x3d059a65	0.032617945
228	0xbd1c69fc	-0.038187012
229	0xbd7ba359	-0.061435077
230	0xbda2a2c3	-0.079412006
231	0x3cb887d5	0.022525707
232	0x3e1b854f	0.15187572
233	0x3e1c892b	0.152867
234	0x3ddc9869	0.107712574
235	0xbe2cd6a3	-0.16878752
236	0xbb2177f8	-0.0024638157
237	0x3d42002e	0.047363453
238	0xbb9d7e89	-0.004806344
239	0x3c976117	0.018478913
240	0x3e10a38e	0.14124891
241	0xbce2c032	-0.027679536
242	0x3dd2aacd	0.10286484
243	0x3d78a686	0.060705684
244	0x3e25a75b	0.16177122
245	0xbdfb8431	-0.12281073
246	0x3d45c242	0.04828096
247	0x3dbab3ef	0.09116351
248	0x3dbd8641	0.092541225
249	0xbb3ab462	-0.0028488864
250	0xbdcd13a7	-0.10013514
251	0xbcd25a79	-0.025677906
252	0x3c5e4752	0.013566809
253	0x3d25054d	0.04028826
254	0x3d0d64d6	0.034519993
255	0xbd083187	-0.033250358
