src/bidmc_generation/models/ha_cnn_bilstm_withWST/20260205_175557/fold_1/best_lightweight_hybrid.pth (torch, 430093 bytes, 23 tensors)

cnn_encoder.0.weight f4 [32, 16, 7]
-0.029759642 -0.07094703 0.06267024 -0.04047642 -0.077717826 -0.08150997 0.022788327 -0.15083699
-0.001545438 -0.0040996782 0.071046375 -0.0751 0.0027264429 0.006195208 -0.061179046 -0.008950163
-0.04109836 -0.054249242 0.058091268 -0.065964 -0.07466524 -0.024996487 -0.080595896 0.046502825
-0.081538774 0.0574652 0.010679694 -0.016982915 0.0012125459 -0.088581316 -0.010946075 -0.044318296
0.026995184 0.037399914 0.07861042 -0.117055446 -0.02268696 -0.033497177 0.057126325 -0.069143504
-0.0338286 0.068165995 -0.02950936 -0.07156775 0.003431235 0.02282541 -0.035362337 -0.0777559
-0.07412877 -0.00921994 -0.055385444 0.023417916 -0.083741345 0.0764646 0.028111754 -0.0069992426
-0.06343946 -0.016165823 -0.067692444 -0.069153376 -0.021043122 0.07885466 -0.07493153 0.021668153
0.0009267017 -0.11842725 0.041738022 -0.00059241237 -0.033429224 -0.012092745 -0.026420457 0.014126433
0.044492535 -0.0088910125 -0.031329613 -0.006192341 0.005311697 -0.08124445 -0.08139254 -0.1409658
0.056871787 -0.06344854 -0.020791117 -0.09705144 -0.05757409 0.030460665 -0.1283495 0.008214377
0.067435555 -0.10082581 -0.0056879846 -0.015163994 -0.032657694 -0.045239743 0.056008127 0.06603574
-0.0043218 0.029446263 -0.07287989 -0.08220811 -0.07664077 0.032502364 0.06349054 0.05557454
-0.004670205 -0.014485308 -0.086054966 -0.062305585 -0.10468527 0.019282717 -0.06516058 0.082297854
-0.010411038 0.044988997 -0.010565474 0.02886778 -0.088613704 -0.071185715 -0.04667129 0.121058226
0.07248481 0.071124606 0.1097487 0.063283406 0.052918166 -0.03635229 -0.003439382 0.09091705
0.098874375 -0.046706334 0.055788808 -0.006891909 0.08789912 0.018751703 0.0062193424 0.0094051575
0.003259721 0.10126032 -0.02261554 0.034537293 0.041463546 0.098662496 0.074582346 -0.045323186
0.004018996 0.009971475 -0.030890608 0.10015049 0.11363955 -0.06268589 -0.021840928 0.10745585
0.02714548 -0.030983133 0.09885497 0.01013013 -0.019796176 -0.06880817 0.08087811 -0.009205843
-0.06439082 -0.033837475 -0.046224847 0.043232907 0.046337146 0.034462683 -0.0454122 -0.08944854
-0.067971036 -0.061719768 0.03354613 0.057539385 -0.012453402 -0.082228735 0.062312666 0.069909036
0.0011517523 0.004491138 0.029853037 -0.024941435 0.03154516 -0.024485065 -0.028333038 -0.04069107
0.0027552627 -0.042578448 -0.0012004103 -0.037434377 -0.07925046 0.03891089 -0.005025093 0.0930621
0.08807711 -0.0075752684 -0.055498905 -0.124670126 0.022726556 -0.039220374 0.121583395 0.08092829
0.009967968 -0.024230737 -0.040987607 0.11107447 0.024920804 0.05601737 0.08589721 0.064381406
-0.009222417 0.040250298 -0.040095516 0.062658824 -0.048545904 0.09335174 0.0912207 -0.026684692
-0.10794254 -0.017146768 0.06704719 -0.02964543 0.010919424 -0.012010729 -0.050791778 0.028661057
-0.07571055 0.032057326 -0.043185838 0.030447831 0.10052417 -0.061867386 -0.051659085 0.037717298
0.056682955 -0.047339402 0.05810003 -0.055793595 -0.08174671 -0.05208422 0.04249902 0.012406001
0.10560923 0.05790207 -0.011638651 0.07689777 0.026493179 0.009369273 -0.084575675 -0.048299834
0.08721236 0.09106603 0.019289622 0.02999415 -0.09272648 -0.021286784 0.006739934 -0.030147806
00000000: 7eca f3bc ad4c 91bd 4159 803d 9aca 25bd
00000010: 862a 9fbd b3ee a6bd 96ae ba3c 0375 1abe
00000020: 4b90 caba 9856 86bb c380 913d 07ce 99bd
00000030: 1fae 323b 2c01 cb3b e196 7abd b4a3 12bc
00000040: c156 28bd 7434 5ebd 1cf1 6d3d 2218 87bd
00000050: 17ea 98bd 6fc5 ccbc 760f a5bd bf79 3e3d
00000060: cdfd a6bd a160 6b3d e2f9 2e3c c11f 8bbc
00000070: 4aee 9e3a 1f6a b5bd 2b57 33bc 1a87 35bd
00000080: 0125 dd3c a730 193d 80fe a03d c4ba efbd
00000090: 01da b9bc 5634 09bd 4bfd 693d 1c9b 8dbd
000000a0: dc8f 0abd 9d9a 8b3d 9dbd f1bc 1d92 92bd
000000b0: 92de 603b 5bfc ba3c 19d8 10bd 7c3e 9fbd
000000c0: d3d0 97bd 3b0f 17bc d9db 62bd eed6 bf3c
000000d0: 9580 abbd 7999 9c3d 9f4a e63c e759 e5bb
000000e0: 8cec 81bd 306e 84bc 56a2 8abd 49a0 8dbd
000000f0: a062 acbc 8d7e a13d b475 99bd 6981 b13c
00000100: e6ed 723a fc89 f2bd 7df5 2a3d 1f4c 1bba
00000110: 15ed 08bd a620 46bc b76f d8bc 8e72 673c
00000120: ce3d 363d 9cab 11bc 7b53 00bd 1fe9 cabb
00000130: be0d ae3b 7d63 a6bd 22b1 a6bd 5759 10be
00000140: 64f2 683d 4ff1 81bd 2252 aabc e8c2 c6bd
00000150: cfd2 6bbd a588 f93c 0d6e 03be 9895 063c
00000160: a71b 8a3d c37d cebd 4662 babb 6772 78bc
00000170: 13c4 05bd 4f4d 39bd c768 653d bf3d 873d
00000180: e39d 8dbb 4a39 f13c 0d42 95bd ba5c a8bd
00000190: d6f5 9cbd 3321 053d 5407 823d 21a2 633d
000001a0: 8508 99bb c953 6dbc 963d b0bd 2434 7fbd
000001b0: 3b65 d6bd caf6 9d3c e972 85bd c78b a83d
000001c0: 0f93 2abc 6246 383d cf1a 2dbc 1f7c ec3c
000001d0: 1a7b b5bd d1c9 91bd 652a 3fbd 60ed f73d
000001e0: eb72 943d c7a9 913d edc3 e03d bb9a 813d
000001f0: b8c0 583d 24e6 14bd 4167 61bb b832 ba3d
00000200: a67e ca3d 244f 3fbd ce82 643d 86d5 e1bb
00000210: 7404 b43d 2c9d 993c a0cb cb3b 1718 1a3c
00000220: 0ba1 553b 9261 cf3d 3a44 b9bc fa76 0d3d
00000230: aed5 293d 900f ca3d a1be 983d cea4 39bd
00000240: c8b1 833b 665f 233c 4d0e fdbc b31b cd3d
00000250: dabb e83d 7661 80bd bfeb b2bc d011 dc3d
00000260: 3360 de3c 57d0 fdbc 7974 ca3d d8f8 253c
00000270: 972b a2bc 4ceb 8cbd 6ca3 a53d 1bd4 16bc
00000280: 56df 83bd 2a99 0abd 4456 3dbd fd14 313d
00000290: 05cc 3d3d be28 0d3d 2502 3abd cc30 b7bd
000002a0: 6634 8bbd decd 7cbd ab67 093d 6bae 6b3d
000002b0: 5b09 4cbc 8a67 a8bd 913b 7f3d 782c 8f3d
000002c0: 65f6 963a 652a 933b 5b8e f43c fb51 ccbc
000002d0: 7f35 013d e794 c8bc b01a e8bc aeab 26bd
000002e0: a391 343b bd66 2ebd 1657 9dba ca54 19bd
000002f0: 114e a2bd 0761 1f3d 89a9 a4bb 5897 be3d
00000300: c661 b43d f539 f8bb d252 63bd 0d53 ffbd
00000310: 0b2d ba3c 8ba5 20bd b700 f93d bbbd a53d
00000320: b050 233c 8a7f c6bc 9fe2 27bd 037b e33d
00000330: b726 cc3c 7872 653d e0ea af3d 66da 833d
00000340: 9f19 17bc 7fdd 243d 323b 24bd 4553 803d
00000350: 12d8 46bd 322f bf3d ebd1 ba3d db99 dabc
00000360: fa10 ddbd 6177 8cbc 0a50 893d f9da f2bc
00000370: 62e7 323c a6c8 44bc 0a0b 50bd 98ca ea3c
00000380: 220e 9bbd 8b4e 033d a2e3 30bd bb6d f93c
00000390: 9edf cd3d a868 7dbd 7a98 53bd 747d 1a3d
000003a0: 632c 683d f6e6 41bd 4cfa 6d3d d387 64bd
000003b0: d26a a7bd 4356 55bd 7413 2e3d 8a42 4b3c
000003c0: a749 d83d b92a 6d3d 0ab0 3ebc 947c 9d3d
000003d0: 3908 d93c 9481 193c 0336 adbd 0cd6 45bd
000003e0: 659c b23d d480 ba3d 4505 9e3c 4bb6 f53c
000003f0: 61e7 bdbd 9f61 aebc aada dc3b 88f8 f6bc

cnn_encoder.0.bias f4 [32]
-0.09355546 -0.08477767 -0.09192363 -0.06089282 0.09353869 -0.08683653 0.081766054 -0.028852928
-0.045983694 0.01922224 -0.07411475 0.095091686 -0.09664876 -0.025481774 -0.08331099 -0.07716415
-0.11912558 -0.025748149 0.029369099 0.06615801 0.009408369 -0.028341018 0.00464997 0.09784496
0.09905098 -0.064283006 -0.04581688 -0.017816022 -0.068826586 -0.08615298 -0.030185513 0.08222327
00000000: 019a bfbd ea9f adbd 7542 bcbd c06a 79bd
00000010: 3691 bf3d 5ad7 b1bd f674 a73d fa5c ecbc
00000020: 6659 3cbd f677 9d3c 79c9 97bd 6ebf c23d
00000030: c9ef c5bd 27bf d0bc f49e aabd 3d08 9ebd
00000040: 1df8 f3bd c8ed d2bc 7797 f03c da7d 873d
00000050: 8f25 1a3c 6c2b e8bc c75e 983b f062 c83d
00000060: 3ddb ca3d cfa6 83bd 7baa 3bbd e8f2 91bc
00000070: f4f4 8cbd f970 b0bd 9c47 f7bc ac64 a83d

cnn_encoder.1.weight f4 [32]
0.96154827 0.99952775 0.99015045 0.9985252 0.9545036 1.0446724 0.97780174 1.0592092
0.97887576 0.9909696 1.0058557 1.0388887 0.9810156 1.0286838 0.9708142 1.0415763
1.0152398 1.0171728 0.9624194 0.98846644 1.0432923 1.0021796 0.9368666 0.98710793
0.98333776 0.9871114 1.0104173 0.9709919 1.0363711 1.0550561 0.98823977 0.9670288
00000000: 0728 763f 0de1 7f3f 807a 7d3f 599f 7f3f
00000010: 595a 743f d3b7 853f 3751 7a3f 2b94 873f
00000020: 9a97 7a3f 2fb0 7d3f e1bf 803f 4efa 843f
00000030: d723 7b3f e9ab 833f 4887 783f 5f52 853f
00000040: 61f3 813f b832 823f 1e61 763f 230c 7d3f
00000050: 9a8a 853f 6c47 803f 7dd6 6f3f 1bb3 7c3f
00000060: 06bc 7b3f 55b3 7c3f 5b55 813f ed92 783f
00000070: cfa7 843f 140c 873f 48fd 7c3f 338f 773f

cnn_encoder.1.bias f4 [32]
-0.038889892 -0.059610568 -0.05265041 -0.035472732 0.033425156 0.012583165 -0.026938736 0.0214008
-0.049456343 -0.032424428 -0.035600524 -0.025952235 -0.013576161 0.008558118 -0.0012030156 0.0044887355
-0.0044572544 -0.02026079 -0.082540356 0.018359106 0.0133197345 -0.010110506 -0.016528118 -0.048897777
-0.03327637 -0.025468001 -0.033022705 -0.007900183 -0.00090516405 0.051841293 -0.058247026 -0.08539244
00000000: 024b 1fbd 362a 74bd f5a7 57bd db4b 11bd
00000010: d1e8 083d 9f29 4e3c a0ae dcbc bb50 af3c
00000020: bc92 4abd 7acf 04bd dbd1 11bd c899 d4bc
00000030: 8c6e 5ebc 5937 0c3c 81ae 9dba 3e16 933b
00000040: 290e 92bb f5f9 a5bc eb0a a9bd d665 963c
00000050: 043b 5a3c 89a6 25bc fa65 87bc 0949 48bd
00000060: ce4c 08bd 45a2 d0bc d142 07bd c56f 01bc
00000070: 8848 6dba 8957 543d 6f94 6ebd 3be2 aebd

cnn_encoder.1.running_mean f4 [32]
-0.31981122 -0.1306503 -0.10621743 -0.07313485 0.22266482 -0.1146022 0.02874158 -0.0052873027
-0.08369766 0.00024992327 0.019592788 0.002965962 0.019292321 -0.0020442607 -0.03867226 -0.12046715
-0.19831075 -0.124970146 -0.045805406 -0.06378426 0.053684287 -0.08876545 0.012774386 0.06632025
0.11844809 -0.06580275 -0.10861033 -0.13962784 -0.09692066 0.018833486 0.054870892 -0.054449905
00000000: 4cbe a3be 31c9 05be 8688 d9bd b9c7 95bd
00000010: 3f02 643e 8fb4 eabd 7673 eb3c 1c41 adbb
00000020: ae69 abbd 2208 8339 0e81 a03c 9660 423b
00000030: ee0a 9e3c 01f9 05bb ce66 1ebd 7bb7 f6bd
00000040: f911 4bbe 59f0 ffbd 739e 3bbd 52a1 82bd
00000050: 0ee4 5b3d a9ca b5bd a94b 513c e9d2 873d
00000060: ea94 f23d 98c3 86bd 186f debd 9afa 0ebe
00000070: 577e c6bd af48 9a3c 4dc0 603d dd06 5fbd

cnn_encoder.1.running_var f4 [32]
0.0025659676 0.0009754718 0.0005111211 0.0007821424 0.0026166427 0.0007898673 0.0029806902 0.0015929574
0.00023058163 0.0015572715 0.0026131598 0.0013219501 0.0017494868 0.001144543 0.00057911855 0.0010946357
0.0007336422 0.0010611829 0.0018627259 0.0012990406 0.001969054 0.00063071377 0.0012655434 0.00096712343
0.00068734365 0.0008089529 0.0005702774 0.0011408929 0.001090033 0.001187307 0.0018820178 0.001535046
00000000: cb29 283b ceb6 7f3a c2fc 053a b008 4d3a
00000010: fb7b 2b3b 190f 4f3a af57 433b c8ca d03a
00000020: 49c8 7139 5c1d cc3a 8c41 2b3b 4945 ad3a
00000030: 094f e53a 7e04 963a fdcf 173a e179 8f3a
00000040: e551 403a 6417 8b3a b626 f43a 9244 aa3a
00000050: 3f0b 013b 7c56 253a 97e0 a53a 8e86 7d3a
00000060: da2e 343a e90f 543a ab7e 153a 038a 953a
00000070: 70df 8e3a 699f 9b3a 0aae f63a 9933 c93a

cnn_encoder.4.weight f4 [64, 32, 5]
0.05395713 -0.03707365 0.019325728 -0.05342093 0.04541018 0.05501412 0.04706076 0.0062703523
-0.06823471 0.03992577 -0.0745114 -0.03763315 -0.07307825 0.067747414 0.07283763 0.04389608
-0.014036815 -0.066837214 -0.04973944 0.08407949 -0.04753559 0.04428337 0.014428279 -0.030372348
-0.0662441 0.0647777 0.033945777 -0.007873663 -0.018037772 0.03261777 0.011747359 0.044540625
-0.008195329 -0.046690352 -0.054047216 0.06618509 0.005684255 -0.04161118 -0.014282543 0.042245377
-0.056254324 -0.035546575 -0.007191603 -0.008811246 0.0904387 -0.041307744 -0.036658064 -0.06483351
-0.053182255 0.048561897 -0.05319995 0.04683243 0.040588114 -0.04291077 -0.050588038 -0.024092784
0.001684544 0.03963839 -0.022692295 0.078481495 -0.03323674 0.020341158 -0.10022133 -0.004810462
0.010009385 0.018073516 -0.024647158 -0.06494618 -0.07125811 0.052186336 0.0024035398 0.05691459
0.048945468 -0.08281735 0.08382433 0.10148947 -0.0058631133 -0.077916294 -0.04821441 0.016762333
0.07293903 0.011087067 0.063372806 -0.017013123 0.020359153 0.045290463 -0.008261216 -0.0032911145
-0.053563293 0.016631018 0.004806264 0.028037606 0.0031385869 0.017149646 0.082632035 0.10135463
0.044038866 -0.007820243 0.0033860498 -0.02597662 0.109605886 -0.065004095 0.017054364 -0.0012508048
0.010431789 -0.05969204 0.0391842 -0.04667675 0.06352664 -0.07809651 0.017927075 0.05804088
0.025285231 -0.031312224 0.0048059253 -0.010896061 0.012946913 -0.040645782 -0.03081686 -0.036842756
-0.0020000362 -0.05826975 -0.05885011 0.033545423 -0.024925673 -0.06614377 -0.0033132255 0.008233162
0.028265314 -0.044794124 -0.065152556 0.004011198 0.018562725 0.021948354 0.049776696 0.08308668
-0.02065669 0.07061562 -0.02364486 0.020918433 0.099914834 0.012718153 -0.06626937 -0.0045997477
-0.09281021 -0.08538171 0.024399323 0.059460606 0.045906402 0.026577106 -0.028042886 0.044149835
-0.067258894 -0.034123983 -0.011793955 -0.010357817 -0.036638975 0.0012134565 -0.024674723 -0.011434031
0.028198415 0.068260424 0.081126176 -0.011337585 0.021863904 0.036112424 0.03712831 -0.03643173
-0.035812125 -0.024033697 -0.021495199 0.007332141 -0.0684117 -0.006884922 0.0058430433 -0.094524145
-0.03149078 -0.035435356 0.015426464 -0.055582084 -0.026625352 -0.09307046 0.02382244 0.039217807
-0.055771377 0.018599296 0.095422655 -0.013098675 -0.029390892 0.07802718 -0.06996236 0.021285933
0.06096966 -0.0713566 0.06209211 0.037273593 -0.07195694 -0.014209263 -0.09627349 0.090236925
0.047906518 0.05314988 -0.07602384 -0.007742569 -0.05364875 -0.0010936935 0.02055718 0.05464271
-0.053716097 0.018070647 0.038636908 -0.032863107 0.06125578 -0.05381993 0.047178715 0.05218172
0.01691357 -0.010829582 -0.097618304 -0.025006 0.013381961 0.008902461 0.054925986 -0.06969823
0.029682102 -0.112392925 -0.029470367 -0.05729625 0.007604219 -0.01613606 -0.054846045 -0.005670235
-0.022877682 -0.05852133 -0.017544294 0.04659324 -0.038988683 -0.06379541 -0.020687364 0.08019332
0.026500762 -0.0584381 0.011831905 -0.057487234 -0.060928147 0.027438479 -0.059106786 -0.015628157
-0.014956822 0.087201566 -0.004195538 -0.026162094 0.022581767 0.048987877 -0.08912318 0.02647094
00000000: 2702 5d3d 8ada 17bd fd50 9e3c e8cf 5abd
00000010: 0600 3a3d 7c56 613d c9c2 403d 8777 cd3b
00000020: a4be 8bbd 3489 233d 6f99 98bd 3825 1abd
00000030: 0daa 95bd 28bf 8a3d e52b 953d 60cc 333d
00000040: abfa 65bc f3e1 88bd 95bb 4bbd de31 ac3d
00000050: aeb4 42bd 7b62 353d 9764 6c3c 6ecf f8bc
00000060: fdaa 87bd 2caa 843d ba0a 0b3d 8900 01bc
00000070: f3c3 93bc 369a 053d ff77 403c 3b70 363d
00000080: b445 06bc 623e 3fbd 9d60 5dbd 0c8c 873d
00000090: fd42 ba3b 7c70 2abd 5401 6abc 7d09 2d3d
000000a0: ef6a 66bd 4999 11bd 8aa7 ebbb 0b5d 10bc
000000b0: ed37 b93d 4f32 29bd c426 16bd 6ec7 84bd
000000c0: a3d5 59bd d7e8 463d 31e8 59bd 5dd3 3f3d
000000d0: b93f 263d 34c3 2fbd 6735 4fbd 3b5e c5bc
000000e0: ebcb dc3a dd5b 223d 31e5 b9bc e8ba a03d
000000f0: 3f23 08bd 80a2 a63c d740 cdbd 14a1 9dbb
00000100: 67fe 233c e90e 943c d6e8 c9bc 8102 85bd
00000110: c6ef 91bd 57c1 553d b584 1d3b 461f 693d
00000120: 0b7b 483d 259c a9bd 17ac ab3d b6d9 cf3d
00000130: 5c1f c0bb 9492 9fbd 797c 45bd 2951 893c
00000140: 0f61 953d 88a6 353c 9ac9 813d 1b5f 8bbc
00000150: 3dc8 a63c 7e82 393d 0d5a 07bc bdaf 57bb
00000160: 2f65 5bbd c63d 883c dd7d 9d3b 1faf e53c
00000170: c0b0 4d3b 6a7d 8c3c fc3a a93d 0493 cf3d
00000180: 1962 343d 7a20 00bc 7de8 5d3b eccc d4bc
00000190: 0d79 e03d de20 85bd 98b5 8b3c 0bf2 a3ba
000001a0: 18ea 2a3c a47f 74bd 9d7f 203d 1f30 3fbd
000001b0: 411a 823d 10f1 9fbd cddb 923c 46bc 6d3d
000001c0: f922 cf3c 3f41 00bd 067b 9d3b 6485 32bc
000001d0: 4a1f 543c 317c 26bd a473 fcbc 6ee8 16bd
000001e0: 0a13 03bb 43ac 6ebd d00c 71bd ed66 093d
000001f0: ed30 ccbc 6376 87bd b322 59bb 62e4 063c
00000200: a98c e73c 0b7a 37bd b46e 85bd 5e70 833b
00000210: db10 983c 09cd b33c a6e2 4b3d 5929 aa3d
00000220: 3838 a9bc ec9e 903d deb2 c1bc 225d ab3c
00000230: 26a0 cc3d cd5f 503c 3cb8 87bd 7bb9 96bb
00000240: 4813 bebd 9bdc aebd 17e1 c73c f78c 733d
00000250: 5a08 3c3d 3bb8 d93c 32ba e5bc 75d6 343d
00000260: 08bf 89bd 97c5 0bbd 6f3b 41bc d5b3 29bc
00000270: c012 16bd d80c 9f3a a522 cabc cd55 3bbc
00000280: 5d00 e73c 1fcc 8b3d 7b25 a63d 47c1 39bc
00000290: ee1b b33c 9fea 133d db13 183d 7039 15bd
000002a0: bcaf 12bd 51e2 c4bc b316 b0bc 7542 f03b
000002b0: 6f1b 8cbd e99a e1bb 0077 bf3b e095 c1bd
000002c0: 7afc 00bd aa24 11bd 48bf 7c3c 0aaa 63bd
000002d0: 691d dabc ba9b bebd 4727 c33c daa2 203d
000002e0: 8770 64bd 8d5d 983c f46c c33d d39b 56bc
000002f0: 2bc5 f0bc b7cc 9f3d 6d48 8fbd d65f ae3c
00000300: 52bb 793d 6923 92bd 4c54 7e3d 32ac 183d
00000310: 295e 93bd f8cd 68bc 092b c5bd 23ce b83d
00000320: a039 443d b0b3 593d 63b2 9bbd 60b5 fdbb
00000330: cbbe 5bbd 445a 8fba 8867 a83c 09d1 5f3d
00000340: 6905 5cbd e508 943c bc41 1e3d 779b 06bd
00000350: 57e7 7a3d 4972 5cbd 783e 413d 80bc 553d
00000360: 548e 8a3c 8f6e 31bc 1bec c7bd 62d9 ccbc
00000370: 0340 5b3c a1db 113c 12fa 603d f2bd 8ebd
00000380: e127 f33c 432e e6bd d76b f1bc 79af 6abd
00000390: d02c f93b c52f 84bc 3fa6 60bd 61cd b9bb
000003a0: fa69 bbbc 10b4 6fbd 0db9 8fbc 8ed8 3e3d
000003b0: 99b2 1fbd 2ba7 82bd 8c78 a9bc 653c a43d
000003c0: 2018 d93c ca5c 6fbd 9bda 413c bc77 6bbd
000003d0: cb8f 79bd a9c6 e03c f519 72bd 9f06 80bc
000003e0: 750d 75bc bc96 b23d b97a 89bb e351 d6bc
000003f0: 66fd b83c 83a7 483d 3786 b6bd 96d9 d83c

cnn_encoder.4.bias f4 [64]
0.07384317 -0.032242894 0.004486227 -0.011884118 -0.035659995 -0.004345496 0.015162072 -0.028372169
0.008525435 0.032106213 0.06266444 -0.021611353 0.07038831 -0.040198877 -0.075839095 0.07365249
0.019037219 0.06519638 -0.0016516175 -0.04366394 -0.0045294776 -0.043689124 -0.040410254 0.05805855
-0.022708416 -0.043556165 0.07186696 0.0487788 0.011461056 0.012998246 0.03382108 0.035185993
-0.021117954 0.07234668 -0.06249413 -0.041222133 0.028178267 -0.01646473 -0.010605032 0.04951716
-0.064741194 -0.054911207 0.07150456 0.07537403 -0.014533777 0.057569653 0.07662534 -0.050021306
-0.027556201 0.058815476 -0.06467489 0.023523353 0.061313625 -0.023954717 -0.01086536 -0.06802877
-0.043428227 0.055090338 -0.022282498 0.043814406 0.018631214 -0.06817642 -0.036577847 -0.061040964
00000000: 173b 973d 2011 04bd 3301 933b 9bb5 42bc
00000010: 3710 12bd aa64 8ebb 576a 783c c06c e8bc
00000020: 44ae 0b3c ce81 033d 3756 803d 4b0a b1bc
00000030: bf27 903d 94a7 24bd 8751 9bbd 1ed7 963d
00000040: f1f3 9b3c ae85 853d 167b d8ba f6d8 32bd
00000050: 036c 94bb 5ef3 32bd 3985 25bd cdce 6d3d
00000060: 0007 babc f367 32bd fc2e 933d 47cc 473d
00000070: 27c7 3b3c 98f6 543c f987 0a3d 301f 103d
00000080: 8fff acbc 7f2a 943d d8f9 7fbd 8ad8 28bd
00000090: 1cd6 e63c 0be1 86bc bac0 2dbc 81d2 4a3d
000000a0: 0897 84bd 93ea 60bd fc70 923d b35d 9a3d
000000b0: 141f 6ebc 28ce 6b3d bfed 9c3d 24e3 4cbd
000000c0: 8bbd e1bc 7fe8 703d 4574 84bd 0cb4 c03c
000000d0: ff23 7b3d af3c c4bc 9f04 32bc ab52 8bbd
000000e0: cce1 31bd 68a6 613d c989 b6bc bc76 333d
000000f0: 7da0 983c 14a0 8bbd a7d2 15bd 1706 7abd

cnn_encoder.5.weight f4 [64]
1.002769 1.0196322 1.0031818 1.004316 1.0322813 0.977484 1.0261254 0.9631239
0.9901538 0.995104 1.0296736 0.9829312 1.015373 0.9866132 0.9950158 1.0161273
1.0033002 1.009518 0.99418 1.0451888 1.0080467 1.0132738 1.0168966 1.0694107
0.97738636 1.0098344 1.0517312 0.99775773 1.0147142 1.0009602 0.9684071 1.0289729
0.9952248 1.0235392 1.0283232 1.0072129 1.0022439 0.99565107 1.0401593 1.0102543
1.0308605 1.0060829 0.98355407 0.9907797 1.0127515 1.0379572 1.0094215 1.0089246
0.97156644 0.9785087 0.96942466 1.0321884 0.9918049 1.0122987 0.9823099 0.9921841
0.9894939 0.99413455 1.0350121 1.0016606 0.9936405 1.0127181 1.017231 1.0138264
00000000: bc5a 803f 4f83 823f 4368 803f 6d8d 803f
00000010: cb21 843f 643c 7a3f 1458 833f 4a8f 763f
00000020: b87a 7d3f 23bf 7e3f 58cc 833f 61a1 7b3f
00000030: bef7 813f af92 7c3f 5bb9 7e3f 7610 823f
00000040: 246c 803f e337 813f 9582 7e3f bfc8 853f
00000050: ad07 813f f5b2 813f ab29 823f 73e2 883f
00000060: fe35 7a3f 4142 813f 219f 863f 0d6d 7f3f
00000070: 28e2 813f 771f 803f 87e9 773f 62b5 833f
00000080: 0dc7 7e3f 5503 833f 18a0 833f 5aec 803f
00000090: 8749 803f fde2 7e3f f123 853f 0350 813f
000000a0: 3df3 833f 53c7 803f 33ca 7b3f bda3 7d3f
000000b0: d7a1 813f c8db 843f b934 813f 7124 813f
000000c0: 94b8 783f 8c7f 7a3f 372c 783f c01e 843f
000000d0: ede6 7d3f 0193 813f a978 7b3f c7ff 7d3f
000000e0: 794f 7d3f 9a7f 7e3f 477b 843f 6a36 803f
000000f0: 395f 7e3f bfa0 813f a034 823f 10c5 813f

cnn_encoder.5.bias f4 [64]
-0.010415883 -0.022829514 0.013440115 -0.032894503 -0.010142133 -0.031622224 0.014232319 -0.03201077
0.014365415 -0.038311437 -0.0078534465 -0.030028127 0.020214392 -0.0029000468 -0.0014207911 -0.004343511
0.0039485996 -0.0051248767 -0.0012998951 0.005510556 -0.0070878523 0.009219753 0.01439929 0.026824454
-0.043711375 -0.019795246 -0.026098209 0.010471239 0.0032073713 -0.02030411 -0.07518615 -0.004819705
-0.025842177 0.0031984358 -0.01118516 -0.025681656 -0.013381933 0.012253864 0.01433694 -0.007547051
-0.004229822 -0.011162751 -0.02025222 -0.034221657 0.0076747 0.010954322 -0.03993632 -0.013336086
-0.036594525 -0.028247038 -0.046634443 0.023601167 -0.024657615 -0.038106557 -0.03067046 -0.050617706
0.0017634595 -0.027512077 0.026788987 -0.026835402 0.0006604319 0.009982232 0.0052930503 -0.012602559
00000000: 61a7 2abc f604 bbbc ee33 5c3c 63bc 06bd
00000010: 302b 26bc 4e86 01bd ac2e 693c ba1d 03bd
00000020: eb5c 6b3c 74ec 1cbd beab 00bc 8cfd f5bc
00000030: a798 a53c b60e 3ebb d739 baba 0354 8ebb
00000040: 4163 813b 95ee a7bb 3e61 aaba e591 b43b
00000050: 3741 e8bb 720e 173c 00eb 6b3c f5be db3c
00000060: b30a 33bd a429 a2bc e9cb d5bc 8f8f 2b3c
00000070: c332 523b ce54 a6bc 32fb 99bd 9eee 9dbb
00000080: f9b2 d3bc d99c 513b f641 37bc 5662 d2bc
00000090: e53f 5bbc 6ec4 483c 7ce5 6a3c 414d f7bb
000000a0: 529a 8abb f9e3 36bc fce7 a5bc 022c 0cbd
000000b0: 0d7c fb3b c279 333c 4494 23bd 997f 5abc
000000c0: 24e4 15bd 5566 e7bc c203 3fbd 3c57 c13c
000000d0: c4fe c9bc 9f15 1cbd 9e40 fbbc 8354 4fbd
000000e0: e223 e73a 0261 e1bc 9474 db3c ebd5 dbbc
000000f0: d620 2d3a 848c 233c 5371 ad3b f77a 4ebc

cnn_encoder.5.running_mean f4 [64]
0.05209227 -0.17398156 0.19955508 0.06976058 -0.106989734 -0.91674125 -0.4434592 -0.57987356
-0.71179295 0.69307876 -0.11280277 -0.059922297 -0.14754358 -0.61527497 -0.33589625 0.48364782
-0.027142515 -0.24148177 0.13393813 -0.09205764 -0.56891924 -0.44703287 -0.30732882 -0.3792926
0.6513393 -0.1496719 0.1079406 0.10782474 0.05706117 0.7065163 0.46281046 -0.09510315
-0.105757885 0.40059668 0.11364914 0.09867647 0.22403397 -0.33281144 -1.1293235 -0.007115998
-0.9064904 -0.3237143 0.35130993 0.39760834 -0.12022874 -0.4252245 0.7368466 0.395709
-0.79109347 0.11397041 -0.29135752 -0.089230746 -0.13967282 0.23336948 -0.2924131 0.41182587
-0.85714906 0.18825522 -0.46841776 0.07926812 -0.7417041 0.21222064 -0.18826431 -0.016968483
00000000: b45e 553d 3928 32be 2b58 4c3e a3de 8e3d
00000010: 6f1d dbbd 8eaf 6abf 160d e3be 9872 14bf
00000020: 1038 36bf 9c6d 313f 2405 e7bd 1571 75bd
00000030: aa15 17be a982 1dbf 98fa abbe b0a0 f73e
00000040: fb59 debc ff46 77be 1427 093e b788 bcbd
00000050: b1a4 11bf 7ee1 e4be 345a 9dbe a432 c2be
00000060: 2cbe 263f 9743 19be f60f dd3d 38d3 dc3d
00000070: f9b8 693d 41de 343f 7ef5 ec3e 71c5 c2bd
00000080: 9797 d8bd 021b cd3e e1c0 e83d e416 ca3d
00000090: 2969 653e 4366 aabe ac8d 90bf 512d e9bb
000000a0: c10f 68bf e1bd a5be e5de b33e 5293 cb3e
000000b0: 7c3a f6bd 07b7 d9be fba1 3c3f 5f9a ca3e
000000c0: 1a85 4abf 5169 e93d d02c 95be 9cbe b6bd
000000d0: 6406 0fbe 69f8 6e3e 2bb7 95be d7da d23e
000000e0: 1f6e 5bbf fac5 403e 74d4 efbe 5357 a23d
000000f0: 52e0 3dbf 5e50 593e 5cc8 40be 7d01 8bbc

cnn_encoder.5.running_var f4 [64]
0.367407 0.25519568 0.48835683 0.1354106 0.1872448 0.27953106 0.121536754 0.27846777
0.43345967 0.4196038 0.33873472 0.31275114 0.5231017 0.2000502 0.26486453 0.35071456
0.299789 0.34538144 0.303805 0.20544608 0.20480356 0.3105593 0.21124515 0.19720814
0.23924437 0.2661488 0.2541618 0.3119446 0.4805396 0.5366514 0.28104722 0.24587584
0.41928425 0.37688464 0.29261258 0.25706398 0.46081427 0.4741841 0.2622163 0.14955267
0.2963455 0.4405187 0.3750869 0.16530806 0.5830527 0.3597374 0.28637555 0.14926231
0.25751096 0.2898325 0.36768758 0.68964136 0.35842955 0.36029398 0.44393256 0.3474813
0.62910664 0.30877078 0.2828593 0.1379487 0.26487467 0.38428575 0.23887447 0.21947451
00000000: c51c bc3e 02a9 823e e809 fa3e 14a9 0a3e
00000010: 1abd 3f3e b21e 8f3e 43e8 f83d 5493 8e3e
00000020: 6dee dd3e 4fd6 d63e a36e ad3e eb20 a03e
00000030: fee9 053f f6d9 4c3e 539c 873e dc90 b33e
00000040: f27d 993e d6d5 b03e 548c 9b3e 7560 523e
00000050: 06b8 513e a101 9f3e a650 583e eef0 493e
00000060: 7afc 743e a844 883e 7f21 823e 34b7 9f3e
00000070: 4909 f63e fc61 093f 6ce5 8f3e e0c6 7b3e
00000080: 6dac d63e 06f7 c03e 51d1 953e e49d 833e
00000090: d9ef eb3e 42c8 f23e 3741 863e 5624 193e
000000a0: 99ba 973e ab8b e13e 640b c03e 8446 293e
000000b0: f142 153f 802f b83e d19f 923e 38d8 183e
000000c0: 7ad8 833e ed64 943e 8c41 bc3e 568c 303f
000000d0: 1484 b73e 7478 b83e 214b e33e 12e9 b13e
000000e0: 220d 213f 3417 9e3e efd2 903e 6d42 0d3e
000000f0: a79d 873e 1ac1 c43e 829b 743e edbd 603e

lstm.weight_ih_l0 f4 [256, 64]
-0.13380162 0.1776766 0.11752999 0.16049589 0.09717525 0.019269627 0.04076594 0.120322675
-0.07208888 0.14187178 0.07659383 -0.06851286 -0.110104784 0.094278276 -0.08186599 0.0719034
0.09667038 -0.16856937 -0.0071652858 0.091457784 -0.12605403 0.058557637 0.10328291 -0.09158788
0.03174572 -0.0171447 0.062707566 0.022431843 0.10577413 0.06269353 0.16808318 -0.033622906
0.023816355 -0.049199503 -0.061340466 0.06899545 -0.071939364 -0.061848927 0.011218577 -0.092294216
0.053029083 0.12369247 0.06281834 0.0098530445 0.0827332 -0.02107146 -0.0024392384 -0.06918822
0.01532685 0.017901147 0.09412836 -0.09561825 0.048231114 0.09675259 -0.08358577 -0.10350185
-0.0027147783 -0.049155924 0.024293084 0.0055277464 0.023457875 0.10325188 -0.06891513 -0.018639922
0.06821468 0.07346314 -0.10834091 -0.050535325 -0.11050559 -0.08430144 -0.121936776 0.07211929
-0.13486975 -0.12113441 0.09699525 0.06615951 -0.16283868 -0.07824724 0.004006546 -0.088283196
-0.0053693983 0.002631584 0.07523645 0.08094547 0.069029115 -0.11627602 -0.11708478 0.04175499
0.013120405 0.016095923 -0.04530506 0.11434226 -0.030639442 -0.057106026 -0.046840474 0.103759915
-0.10533625 0.09194967 -0.01741734 0.10173737 -0.05605567 -0.111919045 0.07914784 0.0051239124
0.09173291 -0.11868623 0.022679586 -0.025616247 0.122609235 0.056859497 -0.08628016 0.117762476
0.010592818 0.020316467 -0.040450267 -0.027086409 0.11628532 0.0851226 0.083148815 -0.1250543
0.0801489 -0.042555034 -0.048494436 0.04846717 0.048642263 -0.017707527 0.105454884 -0.108845755
-0.045152836 0.06218864 0.027432092 0.10104209 0.007745852 0.028250536 -0.028312162 -0.08049336
-0.005497044 -0.12825343 0.077481024 0.08237328 -0.029108187 -0.015577588 0.098627865 0.13112852
0.010454458 -0.1069433 0.09761766 -0.05788 0.034912866 -0.10129172 0.1479561 0.10103265
-0.089473255 0.06512202 0.07011976 -0.03021371 0.08237006 0.05529126 -0.11308805 -0.033483677
0.09713897 -0.115800716 -0.05703546 -0.030297244 0.025065364 0.106532894 0.03228995 0.015912717
-0.002964558 -0.12533717 0.01367252 0.08054745 -0.09040332 -0.06570489 0.07349705 0.107331455
-0.0011125478 0.015787689 -0.05058241 0.09369863 0.08281187 0.04454042 -0.06636619 0.018707015
0.12725599 0.050625067 -0.043346886 -0.12902066 -0.03422623 0.071719676 0.015885241 -0.10907932
-0.030985154 -0.09303433 -0.034494847 -0.10737884 -0.10982774 0.095863394 0.12870793 0.10092676
0.05327269 0.008215719 0.072438404 0.055066746 0.06606337 0.086526304 -0.043961 -0.088750124
0.09413169 -0.04850322 0.050223105 0.10837633 0.12558515 -0.022138808 -0.03771586 0.05580537
-0.04515042 0.093276866 -0.0165529 0.09990692 -0.118851356 0.07726965 0.068717994 -0.018063689
-0.08830393 0.020967586 0.05871299 -0.02705071 0.11393314 0.020436298 0.042241853 0.0055002044
-0.091968924 0.04349633 -0.09688844 -0.066713765 -0.05877751 0.060103543 -0.02602466 0.07046255
0.050444726 -0.02442543 -0.11055156 0.05154587 0.016071038 -0.06671397 0.046927832 -0.0016831539
-0.078514785 0.020272722 0.013858876 0.11053811 0.053772263 -0.009618233 -0.08810237 0.11391314
00000000: 4b03 09be dbf0 353e 90b3 f03d 0959 243e
00000010: d103 c73d 56db 9d3c 30fa 263d bc6b f63d
00000020: 56a3 93bd d646 113e 3add 9c3d 7850 8cbd
00000030: 9e7e e1bd f814 c13d 5ba9 a7bd 1742 933d
00000040: 1ffb c53d 739d 2cbe c6ca eabb 384e bb3d
00000050: 4f14 01be 22da 6f3d fe85 d33d 6d92 bbbd
00000060: cd07 023d 0b73 8cbc d36c 803d fcc2 b73c
00000070: 1ba0 d83d 7765 803d ff1d 2c3e 2cb8 09bd
00000080: 841a c33c 6b85 49bd 2440 7bbd 7d4d 8d3d
00000090: f254 93bd 4d55 7dbd 1fce 373c c004 bdbd
000000a0: 0635 593d 7a52 fd3d e7a6 803d aa6e 213c
000000b0: 0670 a93d 0e9e acbc a1db 1fbb 8eb2 8dbd
000000c0: 781d 7b3c 6da5 923c 5fc6 c03d 80d3 c3bd
000000d0: fd8d 453d 3926 c63d 042f abbd c7f8 d3bd
000000e0: 6cea 31bb b957 49bd 4a02 c73c 1922 b53b
000000f0: bb2a c03c b975 d33d 6023 8dbd c0b2 98bc
00000100: 23b4 8b3d d873 963d d7e1 ddbd 21fe 4ebd
00000110: c150 e2bd 3ca6 acbd fdb9 f9bd 47b3 933d
00000120: 4c1b 0abe 5115 f8bd 72a5 c63d a37e 873d
00000130: 2fbf 26be 1740 a0bd 5849 833b d2cd b4bd
00000140: c7f1 afbb a776 2c3b 9115 9a3d bdc6 a53d
00000150: 235f 8d3d 1f22 eebd 25ca efbd 4807 2b3d
00000160: f8f6 563c 99db 833c cc91 39bd 462c ea3d
00000170: 91ff fabc 02e8 69bd ccdb 3fbd 1480 d43d
00000180: 88ba d7bd 1c50 bc3d cfae 8ebc af5b d03d
00000190: a19a 65bd d035 e5bd 4318 a23d 7ee6 a73b
000001a0: 77de bb3d c411 f3bd 8aca b93c 2ad9 d1bc
000001b0: 8d1a fb3d 81e5 683d a7b3 b0bd 742d f13d
000001c0: 808d 2d3c b86e a63c 2eaf 25bd 51e4 ddbc
000001d0: ff26 ee3d c254 ae3d ed49 aa3d 3c0e 00be
000001e0: 1b25 a43d 304e 2ebd 1aa2 46bd 8385 463d
000001f0: 1c3d 473d 600f 91bc bbf8 d73d 86ea debd
00000200: 2ef2 38bd 84b9 7e3d 44b9 e03c 28ef ce3d
00000210: ebd0 fd3b ab6d e73c e8ee e7bc b4d9 a4bd
00000220: 8c20 b4bb de54 03be 5fae 9e3d 52b3 a83d
00000230: 4b74 eebc 2439 7fbc 68fd c93d 8e46 063e
00000240: 2d49 2b3c 1705 dbbd c5eb c73d 9413 6dbd
00000250: cb00 0f3d 0972 cfbd ce81 173e 35ea ce3d
00000260: c13d b7bd b25e 853d f39a 8f3d be82 f7bc
00000270: a2b1 a83d 1779 623d b59a e7bd 2e26 09bd
00000280: ccf0 c63d ed28 edbd 049e 69bd ed31 f8bc
00000290: e155 cd3c eb2d da3d 7742 043d 635b 823c
000002a0: 0849 42bb 6358 00be b502 603c 10f6 a43d
000002b0: 6025 b9bd 4990 86bd 9f85 963d 98d0 db3d
000002c0: e9d2 91ba 2f55 813c 802f 4fbd 11e5 bf3d
000002d0: 4599 a93d 0470 363d ffea 87bd 743f 993c
000002e0: 654f 023e 3b5c 4f3d 818c 31bd fe1d 04be
000002f0: ce30 0cbd c4e1 923d c421 823c fb64 dfbd
00000300: 94d4 fdbc c888 bebd 784a 0dbd 70e9 dbbd
00000310: 5eed e0bd 0754 c43d 03cc 033e b0b2 ce3d
00000320: 7734 5a3d 399b 063c 965a 943d ab8d 613d
00000330: 3b4c 873d b434 b13d 7310 34bd a0c2 b5bd
00000340: 1ec8 c03d 50ab 46bd beb6 4d3d 69f4 dd3d
00000350: 6599 003e 725c b5bc f27b 1abd 2c94 643d
00000360: a6ef 38bd f107 bf3d f399 87bc 009c cc3d
00000370: 5768 f3bd 8d3f 9e3d 05bc 8c3d 4dfa 93bc
00000380: b1d8 b4bd 37c4 ab3c 087d 703d 7399 ddbc
00000390: c755 e93d 066a a73c cb05 2d3d 0f3b b43b
000003a0: 345a bcbd 3529 323d 726d c6bd 3aa1 88bd
000003b0: b0c0 70bd 222f 763d ab31 d5bc ab4e 903d
000003c0: 219f 4e3d d717 c8bc db68 e2bd c321 533d
000003d0: 69a7 833c 55a1 88bd 6637 403d 469d dcba
000003e0: 5ccc a0bd fb12 a63c 5710 633c ce61 e23d
000003f0: 4e40 5c3d cb95 1dbc 046f b4bd 4b4b e93d

lstm.weight_hh_l0 f4 [256, 64]
0.052929524 0.1460941 0.04073666 0.04787083 -0.0850585 -0.107855536 0.11494015 0.09766832
0.05875154 -0.107433215 0.08407978 -0.12862979 -0.07064336 0.08818722 0.060522046 0.022715164
0.14969896 -0.06007172 0.064201176 -0.013983129 0.091039896 -0.049002394 0.10339201 -0.046653602
0.07578829 0.017339926 0.073818654 0.058447544 0.108761445 0.01851706 0.17234063 0.008346812
-0.048336495 0.10436469 0.05143523 -0.007088386 -0.1399557 0.07590013 -0.0020382358 -0.0092037385
0.06321108 -0.19346005 0.0391792 -0.124210425 -0.084762335 -0.04962496 -0.026101964 0.121860884
-0.020092456 0.003050198 -0.031200998 -0.04834217 -0.045741543 0.04626139 0.106412485 0.0941299
0.06836869 -0.07494298 -0.12981284 0.112673484 -0.03503218 -0.012744637 0.026579011 0.06802176
-0.10704784 -0.05469216 -0.056637336 -0.00059847446 0.048287798 -0.08263414 -0.10753431 0.0013841756
0.14174454 0.09262801 0.019209925 0.06325659 0.17354427 0.08500314 0.04781259 -0.040899906
0.12438613 -0.095013976 -0.06642482 0.06474689 0.007031266 -0.114531614 0.07527747 -0.14679863
-0.024663057 0.0949999 0.096847445 0.06273367 0.14472778 0.102985345 0.063300304 0.08992577
-0.015754163 -0.010442479 0.003500849 0.10806871 0.020305421 0.041176267 0.004687361 -0.0020646036
-0.051360354 -0.04337127 -0.06546969 -0.090558276 -0.06498075 -0.00624939 -0.13555516 0.086488366
0.045349434 0.096238375 -0.16025041 0.10690758 -0.07448306 0.0134981815 0.0029649464 0.047732618
0.019592289 -0.08474411 0.1192791 -0.056803633 -0.07964479 -0.078152396 0.014554579 -0.1342769
-0.13928142 -0.07345122 -0.09511161 -0.08834435 -0.09726438 0.106311016 0.098332 -0.033187386
0.14696915 0.13558856 0.05006395 0.09119236 0.16858906 -0.04639864 0.051577304 -0.11432418
0.05090848 0.027634652 0.020239115 0.019975914 0.011637387 0.09396218 0.15878657 0.026529832
0.0042594564 -0.12650238 -0.100383654 -0.0077141393 0.07096301 0.048040267 -0.023967806 0.037585072
0.10230225 -0.036682498 -0.018671941 -0.09472648 -0.095565416 -0.069545016 -0.10315369 -0.05334378
-0.05689757 0.08032644 -0.063198425 -0.04487204 0.070198365 0.02211674 -0.0896826 -0.14944392
0.003075969 -0.026873123 -0.053953275 0.021374647 0.06630591 -0.098045684 0.06887154 -0.026133718
0.092846386 0.06922621 -0.05365856 -0.12855777 0.056822266 -0.16332614 0.033167485 -0.114349514
-0.12391024 0.03619833 0.12360573 -0.11661877 -0.12933306 0.09243813 0.030834075 0.000641743
0.0789541 0.05997551 -0.023704506 0.09357456 -0.056337062 0.0021637667 0.080929935 0.06267137
-0.0010431156 0.041974146 -0.09025724 0.11385101 0.108421594 0.055395357 0.12559408 -0.027408196
-0.005983905 -0.08762692 0.020274311 0.06314124 0.074676365 0.010713649 -0.005549692 -0.0042146645
0.03638612 -0.05478341 -0.053146936 0.08847182 -0.011183861 0.0895411 0.1258086 -0.08820873
-0.0766269 0.019291218 -0.07997772 -0.0002996045 -0.037147954 0.14271846 0.10566044 0.048521444
0.063638315 0.050898734 0.09054323 0.02857827 0.12093762 -0.07342627 -0.021607742 -0.054176554
0.12714817 -0.1090143 -0.12683049 0.029469445 -0.11864288 -0.03439238 -0.019573916 0.005616602
00000000: a1cc 583d b199 153e 7cdb 263d 3414 443d
00000010: 2733 aebd 5de3 dcbd be65 eb3d 5406 c83d
00000020: 74a5 703d f205 dcbd 0532 ac3d 87b7 03be
00000030: 77ad 90bd 809b b43d f7e5 773d 2715 ba3c
00000040: af4a 193e c40d 76bd e87b 833d 7e19 65bc
00000050: 2073 ba3d bcb6 48bd 31bf d33d d917 3fbd
00000060: e436 9b3d 760c 8e3c 3c2e 973d b166 6f3d
00000070: 52be de3d 17b1 973c 107a 303e 11c1 083c
00000080: 7dfc 45bd 28bd d53d bfad 523d b145 e8bb
00000090: 8c50 0fbe 8771 9b3d ec93 05bb 47cb 16bc
000000a0: d074 813d 641a 46be 5e7a 203d 0962 febd
000000b0: e097 adbd 8b43 4bbd c9d3 d5bc 3392 f93d
000000c0: ef98 a4bc d5e5 473b 3c99 ffbc 7002 46bd
000000d0: 7c5b 3bbd 957c 3d3d caee d93d 2dc7 c03d
000000e0: e204 8c3d b57b 99bd a8ed 04be 5bc1 e63d
000000f0: e77d 0fbd e2ce 50bc 3abc d93c fe4e 8b3d
00000100: e63b dbbd e304 60bd 8dfc 67bd f1e2 1cba
00000110: 6dc9 453d 173c a9bd f33a dcbd 3a6d b53a
00000120: 7b25 113e c1b3 bd3d 225e 9d3c ac8c 813d
00000130: 97b5 313e 2016 ae3d 22d7 433d a986 27bd
00000140: 28be fe3d b096 c2bd bc09 88bd 049a 843d
00000150: 8966 e63b 8d8f eabd 132b 9a3d 6152 16be
00000160: 2e0a cabc 4f8f c23d f457 c63d 837a 803d
00000170: 8533 143e fbe9 d23d 97a3 813d 012b b83d
00000180: e00e 81bc ee16 2bbc 806e 653b 2153 dd3d
00000190: 8e57 a63c 72a8 283d 6f98 993b 4d4e 07bb
000001a0: 3c5f 52bd 13a6 31bd f914 86bd 9e76 b9bd
000001b0: a114 85bd afc7 ccbb f9ce 0abe d020 b13d
000001c0: 54c0 393d a018 c53d af18 24be 5cf2 da3d
000001d0: 938a 98bd 7a27 5d3c 8c4f 423b 4783 433d
000001e0: 0280 a03c 528e adbd 9a48 f43d edaa 68bd
000001f0: cf1c a3bd 5d0e a0bd 5476 6e3c e27f 09be
00000200: ca9f 0ebe 986d 96bd e0c9 c2bd e2ed b4bd
00000210: 8c32 c7bd 97b9 d93d 4a62 c93d 7fef 07bd
00000220: 157f 163e bad7 0a3e db0f 4d3d 0fc3 ba3d
00000230: 9ca2 2c3e 800c 3ebd b942 533d cc22 eabd
00000240: 6985 503d 1162 e23c 80cc a53c 87a4 a33c
00000250: bdaa 3e3c 3e6f c03d f298 223e 1755 d93c
00000260: e992 8b3b d789 01be f295 cdbd e4c6 fcbb
00000270: 0e55 913d dfc5 443d 2258 c4bc cef2 193d
00000280: d883 d13d 6340 16bd e6f5 98bc f5ff c1bd
00000290: cdb7 c3bd 9e6d 8ebd 3e42 d3bd 027f 5abd
000002a0: 6d0d 69bd 3082 a43d 2d6e 81bd bfcb 37bd
000002b0: 29c4 8f3d 2a2e b53c 83ab b7bd d407 19be
000002c0: 3296 493b 0625 dcbc 1cfe 5cbd e219 af3c
000002d0: 65cb 873d 2dcc c8bd 860c 8d3d 6116 d6bc
000002e0: 3f26 be3d 79c6 8d3d 14c9 5bbd a6a4 03be
000002f0: 77be 683d f83e 27be a1da 073d 1430 eabd
00000300: a7c4 fdbd b344 143d 0025 fd3d d2d5 eebd
00000310: e36f 04be 3450 bd3d be97 fc3c a53a 283a
00000320: b0b2 a13d e1a8 753d f42f c2bc 05a4 bf3d
00000330: b1c1 66bd fbcd 0d3b 98be a53d d959 803d
00000340: 27b9 88ba 15ed 2b3d cad8 b8bd b82a e93d
00000350: 240c de3d 3ee6 623d bc9b 003e 2787 e0bc
00000360: a214 c4bb be75 b3bd 5016 a63c 3250 813d
00000370: ecef 983d 4d88 2f3c 31da b5bb 2b1b 8abb
00000380: 9d09 153d 9264 60bd 9ab0 59bd b730 b53d
00000390: 833c 37bc 5361 b73d f8d3 003e c7a6 b4bd
000003a0: 90ee 9cbd 9e08 9e3c 5ccb a3bd 3c14 9db9
000003b0: 7428 18bd ca24 123e 8064 d83d 6cbe 463d
000003c0: ce54 823d 317b 503d bb6e b93d fa1c ea3c
000003d0: 25ae f73d 8360 96bd b802 b1bc 3ce8 5dbd
000003e0: 2133 023e e442 dfbd dadf 01be e869 f13c
000003f0: 0afb f2bd 06df 0cbd 7a59 a0bc 790b b83b

lstm.bias_ih_l0 f4 [256]
-0.01674622 -0.10187443 -0.06888502 0.013342357 -0.0828533 0.0472414 0.017605875 -0.09602727
0.061159 0.0298644 0.07895287 0.027684247 -0.07499031 -0.11731695 -0.024107402 0.0143206995
-0.016320663 -0.022785464 0.09358407 0.011485492 -0.065101184 0.013502923 -0.00878352 -0.1031717
0.071770385 -0.022089025 -0.001093602 0.12347729 -0.007778526 0.10184308 0.0106031215 0.101585954
-0.0185907 0.0036901485 0.015442749 0.13040039 -0.13126177 -0.09690465 -0.004418421 -0.107993014
-0.097447716 -0.012115583 -0.08040509 0.050013598 -0.0076417057 0.050212294 -0.0908111 0.13063967
-0.009600046 -0.04018538 -0.15255348 0.081706904 -0.024991281 0.07130923 -0.12217968 -0.13515048
0.06671384 0.06802311 0.109766036 -0.08579516 0.12421068 0.10919803 0.09428655 0.08223414
0.0735807 0.041692704 0.09277498 0.027408531 0.054530445 -0.11990305 0.12804836 0.055498354
-0.056233216 -0.028869303 -0.08383233 0.12304272 0.06647954 -0.012721049 0.15361544 0.12734365
0.052641112 0.121744305 0.071255274 -0.020820225 -0.03812038 0.016350333 -0.08146721 0.026933117
0.06448592 0.107780516 -0.052131984 -0.08021473 -0.027283002 0.035287786 0.015876208 0.08991265
0.020493673 -0.07959539 -0.06562146 0.027114853 0.0541735 -0.10383914 0.08017546 -0.004668869
0.058128774 0.039324895 -0.04945122 -0.10396784 0.08232551 -0.12048212 -0.05065689 0.057931114
-0.059884008 -0.05587959 -0.057687037 -0.037000313 0.056920756 -0.009240774 -0.11035649 0.0014427351
0.11528634 0.14374731 0.07474374 0.09518989 0.12962642 0.12548175 0.09532096 0.044086177
-0.03549334 -0.11895699 0.10785471 0.021112699 0.038847253 0.003945615 -0.068223424 -0.090613134
0.05459652 0.0896605 0.10151703 0.099999234 0.07497553 0.080922216 0.1280516 -0.03893116
-0.05865366 -0.0887638 0.10897526 0.07641519 -0.123215735 0.003993239 -0.048915032 0.0078096194
-0.008530087 0.0054702843 0.10521538 0.00093033304 -0.1093181 0.008446155 0.034646 -0.04372585
-0.09438028 -0.010974797 0.09568778 -0.09716709 0.005868182 0.046158724 0.042026427 0.0061454405
-0.014477111 -0.09449041 0.08656516 0.080828406 -0.06604874 0.025095407 0.02601196 0.07012819
0.06337082 0.010739961 0.10736312 -0.060059518 0.09226251 0.05268055 0.12231546 0.05554697
0.08572904 -0.113833405 0.08553405 0.012667046 0.029543169 -0.022104211 0.104341194 -0.013781975
-0.061476752 0.09879975 -0.08994054 -0.041809555 -0.11843149 0.055571258 -0.060983572 -0.064099506
0.12085268 0.04787408 0.06707618 -0.05085271 0.10813191 0.05168541 -0.054531377 -0.11665748
0.077176146 -0.085195355 -0.08278777 0.04361849 -0.05013407 -0.010142009 -0.024900224 0.016186757
0.0058608586 0.0067553325 0.059141383 -0.03683506 0.029568395 -0.09456905 0.1031384 0.033373695
-0.018633401 0.020386383 0.08062033 0.10438319 -0.06545404 -0.08763243 -0.1181883 0.01731168
0.112988055 0.08798194 0.08308533 -0.07553062 -0.094380215 0.035314053 -0.044358745 0.043340705
0.050921742 -0.04440542 0.030645957 0.061713513 0.13663451 -0.11730591 0.05888978 0.039299022
0.10863544 0.0196299 -0.077057116 -0.10074946 0.016718091 0.08322778 0.046457645 -0.031741288
00000000: 5e2f 89bc 8ba3 d0bd 9713 8dbd e799 5a3c
00000010: feae a9bd 3380 413d 323a 903c f2a9 c4bd
00000020: dc81 7a3d 30a6 f43c 0bb2 a13d 13ca e23c
00000030: 8594 99bd de43 f0bd e37c c5bc 5ea1 6a3c
00000040: e9b2 85bc 95a8 babc 01a9 bf3d a52d 3c3c
00000050: c553 85bd 5d3b 5d3c c1e8 0fbc af4b d3bd
00000060: 5afc 923d 0bf4 b4bc 3257 8fba a9e1 fc3d
00000070: 01e3 febb 1b93 d03d b7b8 2d3c 4c0c d03d
00000080: 864b 98bc 6bd6 713b 9503 7d3c ae87 053e
00000090: 7c69 06be f275 c6bd 67c8 90bb 712b ddbd
000000a0: ab92 c7bd 7080 46bc 6cab a4bd 0fdb 4c3d
000000b0: 4667 fabb 68ab 4d3d 2cfb b9bd 68c6 053e
000000c0: 8349 1dbc 6d99 24bd fb36 1cbe f355 a73d
000000d0: 84ba ccbc 930a 923d 5739 fabd e364 0abe
000000e0: 44a1 883d b34f 8b3d 04cd e03d 5fb5 afbd
000000f0: 2b62 fe3d 37a3 df3d 4f19 c13d 5f6a a83d
00000100: 7ab1 963d f8c5 2a3d cf00 be3d db87 e03c
00000110: 515b 5f3d bb8f f5bd 1c1f 033e 3e52 633d
00000120: cd54 66bd 517f ecbc 49b0 abbd d2fd fb3d
00000130: 6d26 883d f26b 50bc 5e4d 1d3e 6066 023e
00000140: 359e 573d 1455 f93d 49ee 913d 2d8f aabc
00000150: 1e24 1cbd 22f1 853c 48d8 a6bd d7a2 dc3c
00000160: 3211 843d 08bc dc3d 5988 55bd 9f47 a4bd
00000170: 9a80 dfbc ed89 103d d20e 823c 2024 b83d
00000180: 59e2 a73c e802 a3bd 8b64 86bd f81f de3c
00000190: 08e5 5d3d 9da9 d4bd 0833 a43d 50fd 98bb
000001a0: 7018 6e3d 2413 213d 5d8d 4abd 17ed d4bd
000001b0: 479a a83d 54bf f6bd 997d 4fbd 2d49 6d3d
000001c0: ef48 75bd ffe1 64bd 3e49 6cbd a48d 17bd
000001d0: bd25 693d 9e66 17bc 9502 e2bd 281a bd3a
000001e0: 3f1b ec3d 7f32 133e 3f13 993d ebf2 c23d
000001f0: cabc 043e 4a7e 003e a337 c33d b593 343d
00000200: 7761 11bd b99f f3bd eee2 dc3d 8af4 ac3c
00000210: 4c1e 1f3d 384a 813b b9b8 8bbd 6193 b9bd
00000220: 9aa0 5f3d ed9f b73d 29e8 cf3d 66cc cc3d
00000230: c58c 993d 8cba a53d f51f 033e 4876 1fbd
00000240: d23e 70bd ccc9 b5bd 6c2e df3d 917f 9c3d
00000250: 8858 fcbd b7d9 823b 215b 48bd d6e7 ff3b
00000260: c7c1 0bbc 1240 b33b 297b d73d 98e1 733a
00000270: 2be2 dfbd be61 0a3c f7e8 0d3d e019 33bd
00000280: 734a c1bd a3cf 33bc f4f7 c33d 8aff c6bd
00000290: e149 c03b ee10 3d3d e723 2c3d b15f c93b
000002a0: 6831 6dbc 3084 c1bd 1349 b13d 5d89 a53d
000002b0: 9044 87bd e294 cd3c 0917 d53c 5e9f 8f3d
000002c0: 8fc8 813d a9f6 2f3c 32e1 db3d f800 76bd
000002d0: 20f4 bc3d 8fc7 573d 8780 fa3d 3885 633d
000002e0: b592 af3d 7d21 e9bd 7a2c af3d 7189 4f3c
000002f0: 8404 f23c e413 b5bc d6b0 d53d cbcd 61bc
00000300: 0ccf 7bbd 8657 ca3d bf32 b8bd 7f40 2bbd
00000310: 368c f2bd b09e 633d e9c9 79bd 9a46 83bd
00000320: 9c81 f73d 9c17 443d 3c5f 893d ee4a 50bd
00000330: 4374 dd3d 15b4 533d 4b5c 5fbd 1eea eebd
00000340: 870e 9e3d e77a aebd a28c a9bd 4da9 323d
00000350: 6259 4dbd ab2a 26bc 8efb cbbc 179a 843c
00000360: 720c c03b d65b dd3b 3c3e 723d 5ce0 16bd
00000370: 6b39 f23c 6bad c1bd 3a3a d33d dbb2 083d
00000380: 13a5 98bc 5801 a73c 461c a53d dbc6 d53d
00000390: c50c 86bd a278 b3bd b50c f2bd 39d1 8d3c
000003a0: 4866 e73d e02f b43d a428 aa3d ccaf 9abd
000003b0: 6a4a c1bd 78a5 103d 84b1 35bd 0686 313d
000003c0: 5193 503d 75e2 35bd 3b0d fb3c 4fc7 7c3d
000003d0: ebe9 0b3e 153e f0bd 6936 713d 03f8 203d
000003e0: 427c de3d e2ce a03c 1fd0 9dbd bc55 cebd
000003f0: 61f4 883c 5473 aa3d 5f4a 3e3d 2703 02bd

lstm.bias_hh_l0 f4 [256]
-0.08577748 -0.033925906 -0.07650999 -0.07371704 -0.039783373 -0.12275232 0.049728863 0.10934016
0.043681685 0.059963576 0.06593319 -0.04084136 0.020627448 -0.09570558 0.07467431 -0.10844585
0.037246704 0.13681306 -0.0495894 0.0575732 -0.06252709 0.15813962 -0.021315536 0.007695652
-0.01384548 -0.07698384 0.045060847 -0.09422674 0.081973515 -0.032629 0.08559319 0.06123228
0.012884754 0.014418857 0.08542355 0.0393487 0.09560703 0.0646766 -0.11915619 -0.01749847
-0.01313123 -0.08874651 0.105582915 0.011130382 -0.13291927 0.12263641 0.09310736 0.06130051
-0.078608856 -0.02526854 0.089835845 -0.02445846 -0.0052401656 0.09479341 -0.023253795 -0.05135204
-0.112695806 -0.08517297 -0.05520589 0.109266885 -0.049024973 -0.065284885 -0.010259994 -0.053001806
0.09509544 0.037918426 -0.0076366 -0.121886715 -0.053440955 -0.054429267 -0.07351872 -0.09410508
0.10493842 0.069418915 0.097563945 -0.0024774545 0.08276301 0.11207076 0.031114247 -0.019620385
0.040536266 0.15015715 -0.090024956 0.13482422 -0.0028561947 0.15786795 -0.08866057 0.048402943
0.1108113 0.062380005 -0.11047605 0.029515145 -0.017385295 0.043720875 0.14525808 0.035963498
-0.043097235 -0.036293678 0.046756312 -0.093417615 -0.10206636 -0.004489057 -0.11118463 0.034102995
0.03643229 0.04301438 -0.040373635 -0.10334506 0.011794199 0.061190225 0.009954826 0.020208513
-0.03098728 0.07391857 0.034450803 -0.10361161 0.046841823 -0.05248773 -0.07417878 -0.10727486
0.02058815 -0.06912961 0.07198341 0.062868886 0.12269363 0.11540438 0.123350896 0.11701016
-0.059437975 -0.10462151 -0.0015696269 0.09730579 0.04668182 -0.008951365 0.084659286 -0.008277637
-0.13252074 -0.07930028 -0.016529145 0.08294028 -0.0016869565 0.103547305 0.13983351 0.07359331
-0.061303835 0.13949175 0.056939766 0.049711827 -0.0007920839 -0.12860893 0.11682624 -0.10666723
0.068016395 -0.015628183 -0.07534201 -0.027943466 0.075713985 0.094318904 0.04981002 -0.079083025
0.13197316 0.082010895 0.09228997 -0.06564606 -0.001658116 -0.012484245 -0.064503886 0.010441088
0.08874743 -0.029582698 -0.107189156 0.074812956 -0.020722276 0.07995259 0.04590377 0.12499413
0.04286652 -0.01967459 -0.001586717 0.0009388613 0.058934405 0.04460787 -0.08005176 -0.04155683
-0.049072213 -0.085616 -0.09433541 0.03254679 0.06152269 0.09314304 0.08266158 0.038245916
0.12652427 0.068447456 0.07045526 0.096299276 -0.04257319 0.03909459 -0.11458039 0.04166603
-0.03531745 -0.038287424 0.054466095 -0.020666068 0.056472585 0.04367258 -0.05212475 -0.07182458
0.03572347 0.07853056 0.11884171 -0.10753239 -0.04471344 0.048473477 0.024344824 0.11295963
0.01311706 -0.12622271 0.038689215 0.11551326 -0.08413022 -0.033708148 -0.07303165 0.102715634
-0.1347917 -0.06947524 0.054634154 0.094984956 -0.026134163 -0.031270932 -0.018289786 -0.058144957
-0.1152275 0.051223684 -0.06867963 0.0804982 -0.104012966 0.13141353 -0.0984939 -0.07191325
-0.0036612488 0.11598887 -0.09424939 0.10682624 -0.04416863 0.044943776 0.050458416 -0.027021224
-0.020022238 0.052937683 -0.098352425 -0.016308263 0.03893579 0.029806238 0.0005324924 0.090339944
00000000: 1aac afbd e4f5 0abd 45b1 9cbd f6f8 96bd
00000010: e4f3 22bd 9165 fbbd 7eb0 4b3d bced df3d
00000020: 91eb 323d 5e9c 753d fb07 873d 4549 27bd
00000030: e5fa a83c 4a01 c4bd d8ee 983d dc18 debd
00000040: 0090 183d b918 0c3e 411e 4bbd e0d1 6b3d
00000050: 340e 80bd 5aef 213e eb9d aebc cf2b fc3b
00000060: 27d8 62bc b4a9 9dbd b991 383d f3f9 c0bd
00000070: bbe1 a73d fca5 05bd 7b4b af3d b3ce 7a3d
00000080: 931a 533c 123d 6c3c 8bf2 ae3d 1a2c 213d
00000090: 9ecd c33d 2a75 843d 2908 f4bd f458 8fbc
000000a0: 5f24 57bc bbc0 b5bd db3b d83d 355c 363c
000000b0: fd1b 08be cc28 fb3d 12af be3d 3e16 7b3d
000000c0: aefd a0bd f8ff cebc dbfb b73d 1c5d c8bc
000000d0: b2b5 abbb 0c23 c23d be7e bebc 8456 52bd
000000e0: 0fcd e6bd 2b6f aebd 921f 62bd 51c7 df3d
000000f0: 69ce 48bd 15b4 85bd 8919 28bc 6c18 59bd
00000100: 66c1 c23d 5a50 1b3d 723c fabb be9f f9bd
00000110: e7e4 5abd 39f1 5ebd fc90 96bd 2aba c0bd
00000120: f4e9 d63d 812b 8e3d 9bcf c73d ca5c 22bb
00000130: a77f a93d 5b85 e53d 4ee3 fe3c eeba a0bc
00000140: 5b09 263d ccc2 193e 015f b8bd 5c0f 0a3e
00000150: ff2e 3bbb 23a8 213e ac93 b5bd 2a42 463d
00000160: 09f1 e23d 2d82 7f3d 4441 e2bd bfc9 f13c
00000170: 9b6b 8ebc a914 333d 89be 143e 764e 133d
00000180: ba86 30bd aea8 14bd 8c83 3f3d bc51 bfbd
00000190: 2b08 d1bd f118 93bb c4b4 e3bd 95af 0b3d
000001a0: 063a 153d d92f 303d d35e 25bd 93a6 d3bd
000001b0: 753c 413c 9aa2 7a3d 9119 233c 538c a53c
000001c0: 09d9 fdbc 9f62 973d 491c 0d3d 5332 d4bd
000001d0: 36dd 3f3d 60fd 56bd 0beb 97bd ecb2 dbbd
000001e0: 7ba8 a83c d393 8dbd 0a6c 933d 67c1 803d
000001f0: cc46 fb3d 2259 ec3d 659f fc3d 06a3 ef3d
00000200: 3c75 73bd cd43 d6bd f0bb cdba 4248 c73d
00000210: 7035 3f3d bfa8 12bc d961 ad3d ed9e 07bc
00000220: 84b3 07be 2f68 a2bd 2168 87bc 98dc a93d
00000230: de1c ddba 9c10 d43d 8430 0f3e 17b8 963d
00000240: bb19 7bbd edd6 0e3e ac39 693d a19e 4b3d
00000250: daa3 4fba 0fb2 03be 9942 ef3d 5974 dabd
00000260: 2e4c 8b3d ad06 80bc e94c 9abd b2e9 e4bc
00000270: ef0f 9b3d 452a c13d 9705 4c3d 48f6 a1bd
00000280: f923 073e 54f5 a73d 8602 bd3d 7171 86bd
00000290: 2455 d9ba b88a 4cbc 9d1a 84bd 1911 2b3c
000002a0: 36c1 b53d 6a57 f2bc fd85 dbbd 8937 993d
000002b0: c3c1 a9bc 2fbe a33d 9705 3c3d ecfc ff3d
000002c0: ce94 2f3d 9b2c a1bc 63f9 cfba ea1d 763a
000002d0: 3465 713d beb6 363d 2df2 a3bd 7f37 2abd
000002e0: f2ff 48bd 7157 afbd ec32 c1bd c84f 053d
000002f0: 37ff 7b3d c7c1 be3d 794a a93d c0a7 1c3d
00000300: 948f 013e 2e2e 8c3d d94a 903d 8e38 c53d
00000310: 3a61 2ebd a621 203d 20a9 eabd 00aa 2a3d
00000320: 08a9 10bd 46d3 1cbd d717 5f3d e34b a9bc
00000330: cc4f 673d 05e2 323d c380 55bd c418 93bd
00000340: c652 123d a1d4 a03d 4863 f33d f139 dcbd
00000350: 7125 37bd 208c 463d cc6e c73c 6157 e73d
00000360: f0e8 563c 8740 01be 9578 1e3d 3792 ec3d
00000370: 774c acbd 8e11 0abd 9e91 95bd 935c d23d
00000380: d606 0abe 0949 8ebd 10c8 5f3d 7987 c23d
00000390: 5017 d6bc f315 00bd 76d4 95bc 6829 6ebd
000003a0: 65fc ebbd edcf 513d e8a7 8cbd 3edc a43d
000003b0: c004 d5bd 4591 063e 2bb7 c9bd 4147 93bd
000003c0: 90f1 6fbb 938b ed3d d305 c1bd b7c7 da3d
000003d0: 2aea 34bd f716 383d 7cad 4e3d 9d5b ddbc
000003e0: ad05 a4bc 2fd5 583d ff6c c9bd e898 85bc
000003f0: 237b 1f3d 362c f43c f696 0b3a 2604 b93d
