src/bidmc_generation/models/ha_cnn_bilstm_withWST/20260205_170322/best_lightweight_hybrid.pth (torch, 430093 bytes, 23 tensors)

cnn_encoder.0.weight f4 [32, 16, 7]
000000 b9 5e db bc a0 c0 80 bd 37 1a 97 3d c0 52 33 bd
       -0.026778566 -0.0628674 0.07378047 -0.04378009
000010 e6 c3 e2 bd 5a aa 2a be 7a 2e 90 bd 8d fd 52 be
       -0.11072521 -0.16666546 -0.07040115 -0.20604534
000020 c6 74 0c bb 9e ba bf 3c 5a 60 dc 3d 4c 27 33 bd
       -0.0021431907 0.023404416 0.10760565 -0.04373865
000030 63 68 29 bc 4c eb 8f bc bd de e2 bd 33 a3 d2 bb
       -0.010339829 -0.017568253 -0.1107764 -0.0064281463
000040 9d ee 50 bc d5 28 97 bc 88 92 b3 3d 4d 3c a3 bd
       -0.012752202 -0.018452087 0.08768183 -0.07970486
000050 0a 74 ca bd f2 8e 8e bd 1f a5 9a bd cf 89 9a 3d
       -0.09885414 -0.069608584 -0.075510256 0.07545816
000060 ee bc 3e bd 3d de ae 3d 26 bd 70 bb e0 39 2a bd
       -0.046566896 0.08538482 -0.0036733835 -0.0415591
000070 33 2c 20 bd 7a a1 a6 bd 1d 35 96 3c a8 33 27 bc
       -0.03910465 -0.08136268 0.018335873 -0.010205187
000080 0c 47 5a 3d f6 46 b7 3c f6 9c 5b 3d f4 81 1d be
       0.05329041 0.022372704 0.053616486 -0.15381604
000090 70 84 61 bc 7b 65 45 bb b6 2d b9 3d d0 78 35 bd
       -0.013764486 -0.0030120302 0.09041922 -0.04430467
0000a0 d6 3e 4a bd fd 5a 2f 3d 10 f3 81 bd 0c 68 7b bd
       -0.04937633 0.042811383 -0.063451886 -0.061378524
0000b0 3f 7a 0b 3d 1e e1 62 3d b4 46 40 bc 3d 15 c0 bd
       0.03405213 0.05539047 -0.011735607 -0.09379051
0000c0 76 82 cc bd 23 ec 28 bd 59 c6 35 bd 2e 54 5d 3d
       -0.09985821 -0.041240823 -0.044378612 0.054035358
0000d0 e8 32 54 bd f6 08 cb 3d 40 40 3f 3c c5 30 07 bd
       -0.05180636 0.099138185 0.011673033 -0.033005495
0000e0 4b 46 76 bd cb da 90 bc 8b 62 68 bd 48 01 60 bd
       -0.06012563 -0.017682454 -0.056734603 -0.054688722
0000f0 ae 70 68 bc de 00 86 3d 3b 9e 84 bd bb 93 df 3d
       -0.014187021 0.06543134 -0.064754926 0.10916849
000100 a0 37 8a 3d 82 86 92 bd 42 51 68 3d 98 2c 3c bc
       0.06748891 -0.071545616 0.05671812 -0.011485241
000110 60 c3 75 bd 84 10 03 bd c2 88 59 3d ba 78 99 3d
       -0.060000777 -0.031998172 0.053108938 0.0749373
000120 60 3b b3 3d 48 76 7c 3b a7 cb 31 bd 40 a8 0a bd
       0.08751559 0.003852265 -0.04340711 -0.033851862
000130 33 9f 87 bc f6 bd 30 bc eb c8 e2 bc 31 d2 d3 bd
       -0.016555404 -0.010787478 -0.027683696 -0.10342825
000140 aa 47 86 3d 33 ec a0 bd 85 ea 50 bd b8 a5 f9 bd
       0.065566376 -0.078575514 -0.051004905 -0.121898115
000150 c6 8b 14 3b cd 25 9c 3d 78 fe c6 bd 16 05 42 3c
       0.002266632 0.076243974 -0.09716505 0.011842033
000160 8c 22 45 3d ff bf 09 be d4 6e 0b bd 96 c7 10 3d
       0.04812865 -0.13452147 -0.03404124 0.03534659
000170 04 5a 8d 3b 5e f0 a6 bc 0b e5 5e 3d b8 1e 2d 3d
       0.004313709 -0.020378288 0.05441765 0.042265624
000180 85 ec 2a bd 09 f1 1f bb 81 44 f9 bc e0 94 55 bd
       -0.04172947 -0.0024405143 -0.030428173 -0.05214393
000190 b8 55 6b bd d1 ab d5 3c 6e 67 11 3d 62 f9 6f 3c
       -0.057454795 0.026082905 0.03549903 0.01464686
0001a0 eb a3 22 bd 2a 9c b4 3c 7b 24 7a bd 74 02 42 bd
       -0.039707106 0.022047121 -0.061069947 -0.04736562
0001b0 c2 09 eb bd 7c 1a 45 bc 9f e0 de bd d5 14 38 3d
       -0.114764705 -0.01203024 -0.10882687 0.044941742
0001c0 0b 78 39 3d 9a b9 85 3d 3d 15 b1 bb d8 58 d0 3c
       0.045280498 0.06529541 -0.005404143 0.025432989
0001d0 01 78 b3 bd cd 18 ad bd ab cd 88 bd 66 19 6f 3e
       -0.08763123 -0.08451996 -0.06679853 0.23349532
0001e0 d6 92 03 3e f3 3e a2 3d bf 8e a2 3d 42 75 f4 3b
       0.12848982 0.07922163 0.07937383 0.0074602673
0001f0 00 d0 06 bd 6e 88 f9 bd 8e 09 c4 3d c0 c9 0c 3e
       -0.032913208 -0.12184225 0.09572135 0.13748837
000200 d7 4f d0 3d 4d 00 a0 bd 55 6b 35 3b 6f 8d b2 bd
       0.10171478 -0.07812557 0.0027682383 -0.087183826
000210 44 11 0b 3c 88 ac d7 3d 39 e4 33 3d 06 28 f2 3b
       0.008488003 0.105309546 0.043918822 0.007390025
000220 02 c5 ec bc 41 8f 50 3d e8 5f c8 bd c7 02 21 bd
       -0.028902534 0.050917868 -0.09783918 -0.03930929
000230 0c 65 ec 3d 17 5f 03 3e ec a2 8b 3d 66 1d a0 bd
       0.11542711 0.12829243 0.06818184 -0.07818107
000240 40 58 33 bd e9 9b 78 bd d5 73 cc bd 39 04 28 3e
       -0.043785334 -0.060695563 -0.09983031 0.16407861
000250 01 8b 0b 3e 02 09 95 bd f5 f8 61 bd 54 4f 7d 3d
       0.13627245 -0.07277109 -0.055169065 0.06184323
000260 a7 3d 22 bd f1 32 c4 bd d5 51 1e 3e 11 9f de 3c
       -0.039609578 -0.09580029 0.15460904 0.027175458
000270 f6 e0 06 bd 35 f6 d1 bd e6 a3 17 3d 5a 18 95 bd
       -0.032929383 -0.102520384 0.03702154 -0.07280035
000280 cb ff 00 be 01 91 85 3c 17 25 07 bd d9 2f e6 3c
       -0.12597577 0.016304495 -0.032994356 0.028098987
000290 ac 58 4a 3c 58 a7 07 bc c5 ef da bd b4 70 18 be
       0.012350243 -0.008279644 -0.10690264 -0.14886743
0002a0 fa ce 6c bd fe f1 6c bd a2 c4 26 3d e5 ec 67 3d
       -0.057814576 -0.05784797 0.040714867 0.056622405
0002b0 66 ee 5e bc d4 fe b6 bd e7 94 37 3d ec 55 20 bd
       -0.013606643 -0.08935323 0.04481974 -0.03914444
0002c0 a7 18 da bd b6 a0 96 bd 63 a2 ea bb b6 1f 6e bb
       -0.10649233 -0.07354872 -0.0071604713 -0.003633482
0002d0 e0 41 e3 3d 89 38 cf 3d d7 2e fe bd 9a eb 0e be
       0.11096549 0.10118205 -0.12411278 -0.13957062
0002e0 5b 51 95 bd 34 3d ab bd 67 bb 2b 3c 83 4b e1 3c
       -0.07290908 -0.08361283 0.010481692 0.027501827
0002f0 77 65 d1 3c 65 59 36 bd 92 0c c3 bd 60 ee a6 3c
       0.025561078 -0.044518847 -0.09523882 0.020377338
000300 1b e0 39 3d 4a 3b 6a bb 3d 79 62 bb 95 ad 1a bd
       0.04537974 -0.0035740905 -0.0034557127 -0.037763197
000310 e9 d0 4a bd 85 50 f8 bd e8 a9 55 3d 79 c1 15 3d
       -0.04951564 -0.12124733 0.05216399 0.036561463
000320 d0 f3 00 3c d8 d5 8c 3c 55 72 fb 3c b5 46 47 3d
       0.007870629 0.017191812 0.030694166 0.048651416
000330 ea 4c 4b bd 4d 89 25 bc ab b1 26 3d 2a b6 6c 3d
       -0.049633898 -0.010103536 0.04069678 0.057790913
000340 ea 96 c3 3c b8 f8 cb 3d 18 65 c1 bd 0b e3 b8 bb
       0.023875672 0.09959549 -0.0944311 -0.0056423
000350 bd ae e4 bd 49 eb 43 3d 0d db a6 3d 64 ab 67 39
       -0.11166141 0.047831807 0.08147249 0.00022093725
000360 74 d7 6d bd 3f ad 86 bd 27 67 55 3b 2e 6f b9 bd
       -0.0580668 -0.06576013 0.0032562704 -0.09054409
000370 fe d0 0d bd 66 35 c2 bc d6 06 e5 bc 9f 94 93 3d
       -0.03462314 -0.023707103 -0.027957361 0.072060816
000380 e4 9d d9 bd 52 eb 6a 3c d7 d4 a7 bd 2b 85 85 bc
       -0.10625818 0.014338331 -0.08194893 -0.016298851
000390 2a b3 fa 3c 61 46 e9 bd cc 29 db bd d8 1b d5 bd
       0.03060301 -0.11390377 -0.107013315 -0.104057014
0003a0 74 84 29 bd 4e 00 dd bd 3e ea 05 3d 95 1a 7f bd
       -0.041386083 -0.10791074 0.032694094 -0.06228121
0003b0 93 0d ad bd 85 d4 5c bd a4 8f ba bd 78 ad a2 bd
       -0.08449855 -0.053913612 -0.091094285 -0.07943243
0003c0 27 39 4e 3d 31 fa 17 3d b7 dd 5e bc db 99 9f 3d
       0.050347473 0.037103835 -0.013602666 0.077930175
0003d0 6f 55 e6 3c ac 2c ef bd 66 ec 2e be 88 89 ca bd
       0.02811691 -0.11678442 -0.17082366 -0.09889513
0003e0 ac 47 90 3d f6 c4 be 3d bf 60 c2 3c c7 40 0e 3d
       0.0704492 0.09314911 0.023727773 0.034729745
0003f0 fa 68 59 be 01 3f d2 bd 22 c3 22 bd e4 8d 31 bd
       -0.21231452 -0.10265923 -0.039736874 -0.043348208

cnn_encoder.0.bias f4 [32]
000000 7d a1 84 bd e3 73 b8 bd ae 59 e5 bd b2 31 ba bd
       -0.06476114 -0.09006479 -0.11198746 -0.0909151
000010 f4 11 a9 3d 72 17 04 be b3 41 86 3b 26 aa fb bc
       0.082553774 -0.12899569 0.0040971874 -0.030720782
000020 21 fd c5 bb 6a 8b 94 3d bf 98 8d bd 02 a6 da 3d
       -0.006042138 0.072531536 -0.069139 0.10676195
000030 ab 3d 20 bd d8 19 2b bd 4b a0 8c bd e5 cd e6 bd
       -0.03912131 -0.041772693 -0.06866511 -0.1126974
000040 05 89 28 bc a5 bc 3a bd a9 af c2 3c 51 d6 a7 3d
       -0.010286574 -0.04559006 0.023765402 0.081951745
000050 0b 36 bb 3c 6c 7c b5 3c 0f 5f fe bc 12 48 27 3d
       0.022852918 0.022154056 -0.031051187 0.040840216
000060 7f 43 17 3d 8b d4 2a bd 1d b9 6c bc 0e 18 df bd
       0.036929604 -0.041706603 -0.014448431 -0.1089326
000070 55 8a a6 bc b5 87 94 bd 33 58 7f bd f1 08 6d 3d
       -0.020329634 -0.072524466 -0.062339973 0.057869855

cnn_encoder.1.weight f4 [32]
000000 30 50 85 3f 84 a3 85 3f 21 83 7d 3f 4f 0f 5a 3f
       1.0415096 1.0440526 0.9902821 0.8517961
000010 7b c4 81 3f 20 61 85 3f 55 ae 6d 3f 6f 99 89 3f
       1.0138086 1.0420265 0.92844135 1.0749949
000020 85 9b 62 3f 3b 2d 82 3f b4 94 85 3f 9a f7 67 3f
       0.88518554 1.0170053 1.0436006 0.90612185
000030 68 1b 83 3f 72 91 85 3f 5f 4b 7e 3f 15 cd 7e 3f
       1.0242739 1.0435011 0.9933376 0.9953168
000040 db bf 88 3f 00 48 6f 3f 0f 1d 72 3f 44 af 78 3f
       1.068355 0.9346924 0.9457559 0.97142434
000050 08 7d 7a 3f 51 6e 5c 3f 9b fd 6e 3f 77 ba 78 3f
       0.9784703 0.8610583 0.9335572 0.9715952
000060 12 28 8c 3f 0f a4 8d 3f 3b f5 8c 3f 39 38 69 3f
       1.0949728 1.1065692 1.1012338 0.91101414
000070 e0 d3 8b 3f 65 2e 79 3f e3 e1 81 3f 96 41 87 3f
       1.0924034 0.9733642 1.014706 1.056689

cnn_encoder.1.bias f4 [32]
000000 d5 86 cd bd 9f cf 71 3d 46 da 9d bd 7f e5 13 be
       -0.10035483 0.059035894 -0.07707648 -0.14443015
000010 7d 2a 79 bd 39 af c6 bc c3 e9 cc bd 31 bb 00 be
       -0.060831536 -0.024253475 -0.10005524 -0.12571408
000020 0c 80 19 be 3a 94 66 bc 95 ea d2 3c f9 84 b2 bd
       -0.14990252 -0.014073426 0.025746623 -0.08716769
000030 ca 38 b5 bd 74 a0 c4 3c 4f b7 6b 3b 9e 82 91 bd
       -0.08848722 0.024002291 0.0035967415 -0.071049914
000040 37 a5 80 bd 40 14 16 bc 04 63 93 bd c7 6a 54 bd
       -0.06281512 -0.009160101 -0.0719662 -0.051859643
000050 56 4b b4 bd b4 50 2f be d2 06 b0 bd 06 73 9a bd
       -0.08803432 -0.1712063 -0.08595051 -0.0754147
000060 4b c0 70 bd 14 c5 3d bd 84 e7 83 bd b4 e0 e9 bd
       -0.058777135 -0.046330526 -0.064406425 -0.11419812
000070 9a b1 51 3d e4 b0 c9 bd 5e 86 60 3c 77 a6 1d be
       0.051194765 -0.09848192 0.013703911 -0.15395533

cnn_encoder.1.running_mean f4 [32]
000000 ea 26 b7 be 0e da 28 be 6c f0 c0 be 92 15 27 be
       -0.35771877 -0.16489431 -0.37683427 -0.16316822
000010 9e 3e b1 3d 54 08 58 be ee 1f 8d be de be 93 3d
       0.086545214 -0.21096927 -0.27563423 0.072141394
000020 66 47 40 3d 53 89 0f bd ad 22 c6 bd 4a c3 46 3e
       0.04694309 -0.035043072 -0.09674583 0.19410434
000030 b6 31 18 3e 94 f3 fc 3d ac 33 08 3e 4a 26 23 be
       0.14862713 0.12351146 0.13300961 -0.15932575
000040 8e a4 bb bd 30 ad 0a be 5b 29 9e bd f1 68 2e bc
       -0.09162246 -0.13542628 -0.07722732 -0.010645137
000050 40 d3 60 3e 83 e0 fb bc 7d 2c e0 bc bb 12 b7 3d
       0.21955585 -0.030746704 -0.027364964 0.089391194
000060 0d ad a8 3d ac 7f af bd 59 50 1e bd 43 99 28 be
       0.08236132 -0.08569273 -0.038650844 -0.16464715
000070 2a fc db bd 9a ac e8 3c dd 25 80 bd ff c8 64 be
       -0.10741456 0.028402615 -0.06257222 -0.22342299

cnn_encoder.1.running_var f4 [32]
000000 2a 74 ba 3b 39 a8 48 3b 0f 52 c9 3b b7 9d 4f 3b
       0.0056901174 0.0030617847 0.0061438153 0.0031679699
000010 e7 f3 d6 3a 86 0e 76 3b 2e 70 c9 3b c0 2c 92 3b
       0.0016399593 0.0037545278 0.006147406 0.004460901
000020 8d 2a dd 3a ca 88 40 3b 93 40 e8 3a a0 77 fd 3a
       0.0016873643 0.0029378408 0.001771944 0.0019338019
000030 39 8b 8d 3b 6f 00 8a 3b 4f 29 46 3b 87 89 f9 3a
       0.004319575 0.0042114775 0.0030237024 0.0019038179
000040 95 2d 4a 3b 85 b0 fc 3a 10 67 88 3b 97 0c 4b 3b
       0.0030849923 0.0019278681 0.0041626766 0.0030982846
000050 91 71 97 3b f7 dc 4b 3b f9 4c 3c 3b 51 dc 00 3b
       0.0046216925 0.0031107047 0.0028732403 0.0019662569
000060 32 d6 83 3a fc 07 53 3b c3 7e 91 3a 58 28 27 3b
       0.0010058342 0.0032200804 0.00111004 0.0025506224
000070 fe b6 65 3a f9 39 15 3b 31 a2 65 3b 81 ad d9 3b
       0.00087629247 0.002277015 0.00350393 0.0066429977

cnn_encoder.4.weight f4 [64, 32, 5]
000000 29 5b 2b 3d 67 b5 97 bd f4 0b 75 ba 40 e4 c1 3c
       0.041834984 -0.074076466 -0.00093477895 0.023668408
000010 db 1a 16 3d 13 03 e7 bc 7d 57 0d 3d 25 43 12 bc
       0.036646705 -0.028199708 0.034507263 -0.008927141
000020 22 21 0c be 2d 93 d5 bc 7d 12 f8 ba 0a 8f a3 bc
       -0.13684514 -0.026071155 -0.0018926408 -0.019965667
000030 ab e9 c4 bd 91 a4 7f 3d e5 b8 29 3d 1f 9f 24 3d
       -0.09614881 0.062412802 0.041436095 0.040190812
000040 b9 c6 43 bb bb 03 0b bd db c4 cd bc b2 fb c7 3d
       -0.0029873087 -0.033939105 -0.025118282 0.09764804
000050 a4 ae 81 bd 40 ec a4 3d 78 9a b3 3d 46 85 4f 3d
       -0.06332138 0.080528736 0.08769697 0.05066421
000060 87 ee 5a 3d 15 41 89 3d a0 a7 ce bb 13 c5 9a bd
       0.053450134 0.067018665 -0.0063066036 -0.0755712
000070 3f 69 86 bd 47 64 7b 3c 8d d7 94 3b 18 95 aa 3c
       -0.06563043 0.015343732 0.004542297 0.020823047
000080 f2 d8 df bc ca 7f 56 bb 78 43 9f bd c3 54 ed 3c
       -0.027325127 -0.0032729977 -0.077765405 0.028971082
000090 c7 48 44 bd 7a c0 bf bd 0b 40 41 bd f6 ee 82 3d
       -0.04792097 -0.09362884 -0.047180217 0.063932344
0000a0 c5 8d ad bd e2 8a 57 bd ff 14 38 bc 7a 6c 8f bb
       -0.08474306 -0.052622683 -0.011235475 -0.004376945
0000b0 18 74 d3 3d d3 19 56 bc 22 bb 73 bd cd 38 a6 bd
       0.103248775 -0.01306768 -0.059504636 -0.08116303
0000c0 dd 75 33 bd 6b 94 69 3d 7c ec 9b 3b 7a d0 d2 3d
       -0.043813575 0.057026308 0.0047584157 0.1029367
0000d0 1a 99 96 3d 46 31 92 bc 8b 96 b9 bc 36 c1 92 3b
       0.073534206 -0.017845761 -0.022654792 0.004478599
0000e0 7d 17 11 3d 22 ab 6d 3d 47 d5 8a bb 20 21 da 3d
       0.03542279 0.058024533 -0.0042368504 0.10650849
0000f0 23 ae aa bc b9 82 bc 3c e0 da 8c bd bf 83 5b 3d
       -0.020834988 0.023011552 -0.068776846 0.05359244
000100 50 03 7a 3d 6b fe 40 3c bb 2a 9a bc f8 ee 04 bd
       0.061038315 0.011779408 -0.018819204 -0.03245446
000110 20 00 31 bd 53 38 96 3d 41 7e 9b bd e5 09 0f 3d
       -0.04321301 0.07334962 -0.075924404 0.034921546
000120 44 33 94 3d 7b 65 89 bd 8b 97 bc 3d 48 71 8f 3d
       0.07236341 -0.06708809 0.09208592 0.070040286
000130 c8 c7 19 3d f4 43 67 bc 71 91 d0 bc 45 d4 aa bb
       0.037544042 -0.014115322 -0.025459977 -0.005213293
000140 60 b6 d6 3c fa 2f 47 bd 6f a1 dd ba 58 3c 93 bd
       0.02621001 -0.04862974 -0.0016909073 -0.07189244
000150 dc b1 59 3c 7f fc 22 bc 61 6d 45 bd 0f 7e 44 bd
       0.013287034 -0.009947895 -0.048200015 -0.04797178
000160 ed 11 c0 bd 58 56 c7 bc 49 c0 cb 3d 51 41 96 3d
       -0.09378419 -0.024333164 0.09948785 0.07336677
000170 a2 c8 48 3d 18 6a 81 3d 4a d6 a1 3d 3c b0 b6 3d
       0.049019463 0.06319064 0.079022005 0.08920333
000180 ee 64 b2 b9 03 5e 87 bd 0a df 98 bd 25 e7 6b bd
       -0.00034026004 -0.06609728 -0.07464416 -0.057593483
000190 13 76 39 3d cb f7 a8 bd ca 1d c7 3c 7b 17 52 3d
       0.04527862 -0.08250388 0.024306197 0.051291924
0001a0 5a 56 99 3d 83 4d 44 bd a5 96 e4 3c f1 d0 5b bd
       0.074871734 -0.047925483 0.027903864 -0.05366606
0001b0 6a bf 71 3d a4 91 42 bd 3d 26 3e 3d 66 6a 66 3d
       0.059020437 -0.047502175 0.046423186 0.056253813
0001c0 28 0a 94 3c 46 50 dc bc 43 b3 95 ba 1f 99 34 bd
       0.01807125 -0.026893746 -0.0011421222 -0.04409134
0001d0 09 6c cb bb fa 03 02 bd 3a 93 00 3d e3 2d d8 3c
       -0.006207947 -0.031742074 0.031390406 0.026389068
0001e0 10 06 14 3e fd c8 9a bc 12 16 b0 bd 43 76 f3 3c
       0.14455438 -0.018894667 -0.085979596 0.029719478
0001f0 ef 16 06 3c ba 7e 08 3d 30 cd 9d 3d 35 10 3a 3d
       0.008184179 0.03332398 0.07705152 0.045425612
000200 ac ee 2b bc c9 01 a0 bd 25 24 2d bd 37 51 3e 3d
       -0.0104939155 -0.078128405 -0.0422708 0.04646417
000210 20 a8 87 3d 6b e7 28 3e 01 e7 ff 3d 24 b8 9a 3d
       0.06623864 0.16494529 0.124952324 0.07554653
000220 96 30 8d bc bc 5a c1 3d f6 22 cc 3b de f4 fe 3c
       -0.017235082 0.09441134 0.0062297536 0.031122621
000230 95 1c 00 3d f0 c8 d5 bc a4 a4 8b bd eb a2 7d 3b
       0.031277258 -0.026096791 -0.06818512 0.0038701843
000240 89 e5 dc bd cb 9d 03 bd 87 d3 4b 3d 20 72 94 3d
       -0.10785968 -0.032132905 0.049762275 0.0724833
000250 97 e0 e1 3d e2 4e b8 3d cf da 64 3d f5 61 a1 3d
       0.11029165 0.08999421 0.055872735 0.07880012
000260 ea a7 71 bd 2e 04 e7 bc 9b 3d ee bc 89 77 c7 bc
       -0.058998026 -0.028200235 -0.02908211 -0.024348991
000270 f7 c5 c6 bd 43 17 d6 bc f0 f7 f0 3c 8c 9e 5a bd
       -0.097057275 -0.026134139 0.0294151 -0.05337386
000280 79 1c cc bb 46 ed 76 3d e4 2c e6 3d 03 f9 a1 3d
       -0.00622898 0.060284875 0.11239031 0.07908823
000290 01 11 ae 3d 2d aa 0e bc ce 85 f0 bc fe 99 91 bd
       0.08499337 -0.008707565 -0.029360678 -0.0710945
0002a0 3d c4 7c bd d9 44 0b bd c9 02 8b bd 1d 62 af 3c
       -0.061710585 -0.034001205 -0.067876406 0.021409089
0002b0 b9 f7 ff bc ad ea 3c 3d d0 02 70 3c 3a a5 17 bc
       -0.031246053 0.04612224 0.014649108 -0.009255702
0002c0 a2 77 20 3c 42 2d c6 bc 46 ea 5b 3b 02 87 51 bd
       0.009794148 -0.024191502 0.0033556386 -0.051154144
0002d0 f4 29 83 bd 04 d9 f9 bd 54 0a 45 3c bd 88 84 3d
       -0.06404486 -0.121995956 0.012026388 0.06471393
0002e0 8b 84 76 bd 3f ac 9e 3d 32 39 06 3e ea d1 88 bd
       -0.060184997 0.07747697 0.13107756 -0.06680663
0002f0 e4 68 be bd fa 8d c5 3c 0c 6f d7 bd a2 7b b4 3c
       -0.0929735 0.024115551 -0.105192274 0.022031609
000300 b7 4f b1 3d 83 8e b8 bc 4a 7e af 3d 4c cc d1 3d
       0.086577825 -0.022528892 0.085690096 0.10244045
000310 8e 6d 60 bd 4f d5 00 3c 61 d4 9c bd 8a 79 c9 3d
       -0.05479198 0.007863357 -0.076576956 0.09837635
000320 cd c0 54 3d 80 b1 94 3d f3 a3 f0 bc ea f9 bf 3b
       0.05194168 0.07260418 -0.029375052 0.0058586495
000330 80 7e 7e bd be a6 da bd 2a be 86 bd 0c ce ae 3c
       -0.06213236 -0.10676335 -0.0657924 0.021338485
000340 33 20 11 bd 77 f0 80 3d 45 03 9d 3c 6f a3 27 bd
       -0.0354311 0.06295865 0.019166598 -0.040927347
000350 46 53 c8 3d 91 46 ce bc 7a 21 02 3d 4b f9 20 3d
       0.09781508 -0.025180133 0.031770207 0.039300244
000360 8a 09 c8 bc bc a5 f4 bc 82 8d 95 bd 0d 74 03 3d
       -0.024418611 -0.029864185 -0.07302381 0.032093097
000370 0b 9a ce 3b 2d 4f 46 3d e4 81 c8 3d 90 9e da bc
       0.0063049844 0.04841535 0.097904 -0.026686937
000380 71 e3 6d 3d bb c8 42 bd 15 a0 ed ba 17 84 b4 bc
       0.058078233 -0.047554713 -0.0018129373 -0.022035642
000390 f8 e4 92 3c 9a 44 22 bd 89 d9 89 bd cf 16 27 bc
       0.017931446 -0.039616205 -0.06730945 -0.010198309
0003a0 ca d5 e5 bc d2 95 05 bd 24 98 17 3d 49 11 06 3d
       -0.028056044 -0.032613583 0.037010327 0.03273133
0003b0 49 e9 2f bd 46 d2 89 bd d7 e4 26 bd 5b 47 be 3d
       -0.042947087 -0.067295596 -0.040745582 0.09290954
0003c0 62 a2 ad 3c bd 1a 6f bd f2 4c 98 3c 32 8f b2 bd
       0.021195594 -0.05837511 0.018591378 -0.087187186
0003d0 34 78 09 be e4 3e 1e 3d 69 ca 62 bd 7a 94 8b bc
       -0.1342476 0.038634196 -0.055368815 -0.017038573
0003e0 ec b6 13 bd 8e be fb 3c 83 48 05 bd 9b 76 2d bd
       -0.03606312 0.030730512 -0.032539856 -0.04234944
0003f0 83 2e d8 3c 49 d8 9c 3d e4 d1 49 bc 27 17 df 3c
       0.026389366 0.076584406 -0.012318108 0.02723272

cnn_encoder.4.bias f4 [64]
000000 df a9 81 3d ec 5d 18 bd aa 69 18 3b 62 7e df bb
       0.063312285 -0.037198946 0.002325634 -0.006820486
000010 87 36 f2 bc 90 1e 70 bc da 2b 08 3c 18 f6 f8 bc
       -0.029567016 -0.014655724 0.008311236 -0.030390784
000020 f3 a1 d7 3b 1c 39 06 3d 7f d2 8c 3d 18 37 98 bc
       0.006580585 0.032769307 0.068760864 -0.018580958
000030 d1 20 80 3d 5e 24 3e bd 27 05 99 bd 29 c3 97 3d
       0.06256259 -0.0464214 -0.07471686 0.07410271
000040 5d 88 a2 3c 0a 9e 74 3d 90 45 89 bb e7 d8 24 bd
       0.019840414 0.05972103 -0.0041892007 -0.040245917
000050 99 c0 3d bc db 56 30 bd 37 96 3b bd 4d ee 74 3d
       -0.011581563 -0.04305158 -0.045797553 0.059797574
000060 75 29 34 bc a9 4b 38 bd 1e 91 80 3d f9 22 3a 3d
       -0.010996212 -0.04499403 0.06277679 0.04544351
000070 89 dd 75 3b 37 bf ff 3b c2 37 15 3d ab a5 19 3d
       0.0037516078 0.007804777 0.036430128 0.03751151
000080 7b e3 85 bc 10 ab 8e 3d 89 fb 82 bd 32 8a 42 bd
       -0.016343823 0.06966221 -0.06395633 -0.047495075
000090 d0 73 2b 3d e7 10 73 bc b9 67 56 bc 3b b6 6a 3d
       0.041858494 -0.014835573 -0.013086253 0.057302695
0000a0 03 80 93 bd f3 21 82 bd dd c7 6a 3d 44 8a 8a 3d
       -0.07202151 -0.063541315 0.05731951 0.06764653
0000b0 d1 b8 b4 bc d3 66 3b 3d ef 35 92 3d ae c9 52 bd
       -0.022060784 0.045752358 0.07139193 -0.051461868
0000c0 d0 0a de bc ab f0 6a 3d d1 8c 8e bd 58 26 a6 3c
       -0.027104765 0.057358425 -0.06960452 0.020281956
0000d0 ab 1b 82 3d 30 f6 ce bc 96 ce 73 bc af 23 7a bd
       0.063529335 -0.025263876 -0.014880797 -0.061069187
0000e0 81 37 3b bd 86 7b 58 3d f2 dd 02 bd 82 9d fc 3c
       -0.04570723 0.052852176 -0.031949945 0.030836824
0000f0 48 71 4a 3c 8e 0e 8f bd 9c fc 0f bd bf 69 99 bd
       0.01235611 -0.06985198 -0.035153016 -0.074908726

cnn_encoder.5.weight f4 [64]
000000 94 b2 83 3f ef 1b 78 3f fe 1e 78 3f 60 fd 81 3f
       1.0288873 0.96917623 0.9692229 1.0155449
000010 bc 04 89 3f 2c 7b 75 3f 3a 69 83 3f 86 7d 7b 3f
       1.070457 0.9589107 1.0266488 0.9823841
000020 01 95 6e 3f d4 83 83 3f e3 ef 7d 3f dd 9f 68 3f
       0.9319611 1.0274606 0.99194163 0.9086893
000030 26 9d 6a 3f 9f 11 80 3f ef 67 77 3f a8 05 84 3f
       0.9164604 1.0005378 0.96642965 1.0314226
000040 53 4b 7d 3f 86 b7 7c 3f 1d 84 7b 3f d7 f1 80 3f
       0.9894306 0.98717535 0.98248464 1.0073804
000050 9d 5c 7d 3f 58 6e 82 3f f2 c6 85 3f f9 80 76 3f
       0.9896944 1.0189924 1.0451338 0.96290547
000060 96 2c 76 3f d6 28 79 3f 7c 55 8e 3f 43 82 75 3f
       0.9616178 0.97327936 1.1119838 0.9590189
000070 b9 1b 83 3f 03 8e 7f 3f 16 4e 85 3f 38 a7 80 3f
       1.0242835 0.9982607 1.0414455 1.0051031
000080 71 ac 87 3f 07 a9 6f 3f c4 0a 87 3f 17 9d 88 3f
       1.05995 0.9361729 1.055016 1.067294
000090 cf 3f 7a 3f 81 0e 80 3f 6d 73 79 3f 13 12 88 3f
       0.97753614 1.0004426 0.9744175 1.0630516
0000a0 46 c5 83 3f c5 2d 72 3f 14 34 84 3f ec 97 82 3f
       1.0294578 0.9460109 1.0328393 1.0202613
0000b0 b7 82 80 3f 6a be 7c 3f ad a7 85 3f af e3 68 3f
       1.0039891 0.9872805 1.0441796 0.9097242
0000c0 55 3b 81 3f 4f 5a 82 3f f4 0c 7f 3f f5 02 74 3f
       1.0096232 1.018381 0.9962914 0.9531701
0000d0 13 ff 81 3f e5 ed 80 3f fa 19 7f 3f 81 6b 77 3f
       1.0155967 1.00726 0.9964901 0.9664841
0000e0 09 b4 83 3f 70 2e 82 3f 02 84 75 3f 16 96 7a 3f
       1.0289317 1.0170422 0.9590455 0.9788526
0000f0 70 b5 6d 3f f7 a8 79 3f e5 16 6e 3f 38 12 83 3f
       0.92854977 0.97523445 0.93003684 1.0239935

cnn_encoder.5.bias f4 [64]
000000 6e 96 80 bd 19 5c 8b bd 78 6b 70 bd f6 35 23 bd
       -0.06278692 -0.068046756 -0.05869624 -0.039846383
000010 1a 75 58 bb c0 14 3f bd e7 d1 28 bd 87 83 22 bd
       -0.0033028782 -0.046650648 -0.041215803 -0.039676215
000020 43 db 68 bd f4 29 1c bc 15 76 af bd f3 b8 c6 bd
       -0.05684973 -0.009531487 -0.08567444 -0.09703245
000030 4d 01 bf bd 13 d8 ed bd a6 97 99 bd 54 a1 0c bb
       -0.0932642 -0.116134785 -0.07499628 -0.0021458464
000040 41 e0 dd 3c 18 69 06 bd 9b 3d cd 3b 85 36 28 bd
       0.027084472 -0.03281507 0.0062634475 -0.04106762
000050 63 32 f4 bc 83 14 90 bd 54 ed f3 39 f1 28 4b bd
       -0.029809183 -0.07035162 0.00046525395 -0.04959959
000060 2b 5b 7e bd 94 f1 50 bd 67 bc 1c 3c 75 25 a7 bd
       -0.062098663 -0.051011637 0.009566403 -0.08161441
000070 74 e8 c9 bd 8e 67 83 bd f7 01 38 bd c5 ce 45 bd
       -0.0985879 -0.06416236 -0.04492375 -0.048292894
000080 ae b3 9f 3b 21 76 55 bd ea a1 0d 3a 8e 6a e2 bc
       0.0048737144 -0.05211461 0.000540285 -0.0276387
000090 e2 6e 72 bd 8b e8 01 bd 14 52 90 bd d5 99 67 bd
       -0.059187777 -0.03171591 -0.07046905 -0.05654319
0000a0 4c 0b 62 bd 03 5d bb bd 5d 7e b3 bb 9d bf 4a bc
       -0.055186555 -0.091486 -0.00547771 -0.012374786
0000b0 eb bd 90 bd 66 0b 7f bc 77 a7 d0 bc aa c5 35 bd
       -0.07067474 -0.015566682 -0.025470478 -0.04437796
0000c0 a7 3f 91 bd 55 a2 86 bd 2e df 2b bd d8 2d d1 bd
       -0.07092219 -0.06573931 -0.041960888 -0.10213822
0000d0 7e 11 70 bd a4 6e 54 bd ea 5b 57 bd 50 90 f3 bd
       -0.05861043 -0.051863328 -0.05257789 -0.1189276
0000e0 9e 3f aa 3b 8c 3e 96 bc ef 52 0b bd 34 20 fa bc
       0.005195572 -0.018340372 -0.03401464 -0.030532934
0000f0 fd 98 93 bd b3 1a 0a bd 6f 3a 7d bd e6 01 ad bd
       -0.072069146 -0.03371687 -0.061823305 -0.08447628

cnn_encoder.5.running_mean f4 [64]
000000 84 76 c5 3e 98 9e 16 3e b9 82 5a be b9 1d 20 bf
       0.38566983 0.14708936 -0.21338929 -0.62545353
000010 67 08 40 bf 5a de 03 bf a0 28 59 3e 32 b0 65 bf
       -0.7501282 -0.51511157 0.21206903 -0.8972198
000020 df ee b9 bf 21 95 86 be 60 4a 1b 3e b2 73 70 bf
       -1.4526023 -0.2628565 0.1516509 -0.9392654
000030 34 b7 f6 be 86 96 be be cc e7 cc 3d 6f a8 13 bf
       -0.48186648 -0.37224215 0.10005149 -0.57678884
000040 71 4b 88 bf 8b b1 8c be be cb b8 be 88 1a a8 be
       -1.0648023 -0.27479205 -0.36092943 -0.32832742
000050 d4 41 86 bf 93 9f b8 3e be cd 95 3d 8b c0 75 bf
       -1.0488839 0.36059245 0.07314633 -0.9599692
000060 d5 37 86 3f a8 24 02 3f 6e 4d aa 3e c8 db f8 3d
       1.0485789 0.50837183 0.332622 0.12151295
000070 36 04 5d 3f fb e5 29 3e 6e ce 52 bd 00 02 ff 3e
       0.8633455 0.16591637 -0.051466398 0.49806213
000080 51 71 15 bf 3d a6 f9 3e 0d e3 34 be 37 d1 0a 3f
       -0.5837603 0.48759642 -0.17664738 0.54225487
000090 30 2d 85 3e 17 b6 b4 be 02 a6 57 bd 7a de b4 3e
       0.26011038 -0.35295174 -0.05264855 0.35325986
0000a0 c5 c4 f0 3d f4 64 e5 3d 58 4a f0 3e 45 16 2f be
       0.11756281 0.11200896 0.4693172 -0.17098339
0000b0 f0 db c6 be 8c 44 88 bf 7c 4f da 3e 83 2d 54 bf
       -0.38839674 -1.0645919 0.42638767 -0.82881945
0000c0 a3 a4 c1 bf 1d d6 ba be 6f 01 c7 3e 54 3f a3 3e
       -1.5128368 -0.3649148 0.3886828 0.31884253
0000d0 34 fc 65 be 32 48 1d bd 97 1e e1 be c3 b4 23 3f
       -0.22459489 -0.03839893 -0.4396865 0.63947695
0000e0 89 ac 41 bf 12 b1 ea be e5 b7 4f bf 5f b4 32 be
       -0.7565389 -0.4583822 -0.81139976 -0.17451619
0000f0 12 d1 4e be 34 9b 82 be 99 81 3e bf 3c 1c a4 3d
       -0.20196941 -0.25509036 -0.744165 0.08013198

cnn_encoder.5.running_var f4 [64]
000000 0d 84 55 3f 17 0a 38 3f e0 ac 37 3f ca fb 0b 3f
       0.8340462 0.71890396 0.7174816 0.54681075
000010 6c 01 a8 3e ee a9 53 3f 37 14 25 3f 38 20 0a 3f
       0.32813585 0.8268117 0.6448397 0.5395541
000020 c8 bf 8d 3f ac 6b 26 3f c7 f8 51 3f 15 63 34 3f
       1.1074152 0.65008044 0.8202023 0.7046369
000030 c0 a7 2a 3f 07 e9 2d 3e 9d 5c d9 3e cd ed dd 3f
       0.66662216 0.16983424 0.4245347 1.7338196
000040 3b 25 d5 3f 65 30 96 3f b3 02 75 3f 12 14 57 3f
       1.6651987 1.1733519 0.95707244 0.84015
000050 78 02 0c 3f f0 f5 08 3f ee 0d 37 3f 3c 0d fb 3e
       0.54691267 0.5350027 0.7150563 0.49033535
000060 a7 41 f4 3e 89 51 f0 3e c2 08 2a 3f cf fb f6 3e
       0.4770634 0.46937206 0.66419613 0.4823899
000070 e8 42 0c 3f eb 4b 59 3f c1 42 4e 3f 13 67 86 3f
       0.5478959 0.84881467 0.8057061 1.0500206
000080 ac 69 04 3f 52 71 10 3f 24 51 67 3f e6 44 99 3e
       0.5172374 0.56422913 0.90358186 0.29935378
000090 7e ee 29 3f 04 87 5c 3f bf b7 9e 3f 90 4a 0e 3f
       0.66379535 0.8614352 1.2399825 0.55582523
0000a0 2f f6 5f 3f 3e 20 17 3f 9c 51 02 3f 65 ab ba 3f
       0.8748502 0.5903357 0.50905776 1.4583555
0000b0 8f 89 e7 3e 6e a9 57 3f 4a 75 a1 3e 0d b9 84 3f
       0.45222136 0.84242904 0.31534797 1.0368973
0000c0 96 b9 05 3f 6f 30 05 3f bf c0 4a 3f 80 ac 2e 3f
       0.52236307 0.5202703 0.7920036 0.68231964
0000d0 57 44 75 3f 13 d9 80 3f 51 aa 14 3f 46 02 9f 3e
       0.95807403 1.0066246 0.5807238 0.31056422
0000e0 10 c4 2b 3f 4b 18 b2 3e 99 8a 19 3f 1c 81 43 3f
       0.6709604 0.3478416 0.5997711 0.7636888
0000f0 4e 9b e0 3e 7a 51 8b 3f da ae 77 3f ac d5 b2 3e
       0.43868488 1.088424 0.9675118 0.34928644

lstm.weight_ih_l0 f4 [256, 64]
000000 89 04 cd bd 4e ea 75 3e cc 30 1b 3e 24 58 78 3e
       -0.10010631 0.24015161 0.15155333 0.24252373
000010 03 ce 79 3d 3a 32 61 bc bd f3 f0 3d 9e 95 06 3d
       0.060987484 -0.013744885 0.117652394 0.03285753
000020 ae a2 a8 bd 11 76 b9 3d da b2 4e 3d 40 d1 b9 bd
       -0.08234154 0.090557225 0.050463535 -0.090731144
000030 ac 62 ed bd 22 76 cd 3d e5 1c 37 3c 33 0a 01 3a
       -0.11591086 0.10032298 0.011176323 0.0004922479
000040 a9 d8 77 3d 83 56 2b be f9 4d f6 bc dc a4 10 3d
       0.060509358 -0.1673222 -0.030066477 0.035313472
000050 3b c5 8d bd 70 e7 8d 3d a0 d3 c7 3d 64 91 b5 bd
       -0.06922384 0.06928909 0.09757161 -0.08865622
000060 8f ce 4f 3d 59 a6 3f bd f0 d8 70 3d ab 45 2d 3e
       0.0507341 -0.0467895 0.058800638 0.16921107
000070 f6 ee 42 3e 28 2c c4 3c 2a 87 4f 3e 53 0f f3 bd
       0.19036469 0.023946837 0.20266405 -0.11868157
000080 d2 62 b5 3d 83 44 1b bd fb b3 ec bd 46 17 e6 3d
       0.08856739 -0.037907135 -0.11557766 0.11234908
000090 59 ab 42 bb 25 54 ab bd 79 60 13 3d 9b 95 96 bd
       -0.0029704182 -0.08365659 0.035980675 -0.07352754
0000a0 68 73 a4 3d 5a f3 05 3e 53 2b 2b 3d b4 cd 03 be
       0.080298245 0.13081113 0.041789364 -0.12871438
0000b0 ba 77 ef 3d 5a 5c 0c 3d 0d 2f a4 bd 43 a0 c8 bb
       0.11692758 0.03426776 -0.08016787 -0.0061226203
0000c0 65 55 39 bc 2a 3c a7 3d 31 c8 4c bb 80 e9 f9 bd
       -0.011311864 0.08165772 -0.0031247253 -0.1220274
0000d0 e3 ee 1c bd 2c cd af 3d 28 54 2a bd 29 6f 66 be
       -0.038313758 0.08584055 -0.041584164 -0.22503342
0000e0 82 d7 18 bd a6 5e 0c be 43 b0 34 bd be 9e 87 bd
       -0.0373149 -0.1370798 -0.04411341 -0.066220745
0000f0 16 4a 45 3e 15 63 f8 3d 0d 4b 6b 3c de d4 88 3d
       0.19266543 0.121282734 0.014361155 0.06681226
000100 28 10 e2 3d 9f a5 98 3d dc 9d 0a be 86 28 44 3c
       0.11038238 0.07453465 -0.13536781 0.011972552
000110 20 6c 81 bd a3 00 24 be bb ce 4f bd a4 6a d3 3d
       -0.06319451 -0.16015868 -0.050734263 0.103230745
000120 39 81 04 be 81 09 4e bd 23 23 86 3d c5 2b e2 3d
       -0.1293992 -0.050302032 0.065496705 0.110435046
000130 83 d4 01 be d8 dd 96 bd f0 67 3e 3d c7 c5 12 bd
       -0.12678723 -0.07366532 0.04648584 -0.035833146
000140 bd 9f 2f 3d 7c a1 7a bd ec 7c 2b 3e 2e 34 0d 3e
       0.042876948 -0.06118916 0.16746873 0.13789436
000150 dd 23 09 3e 73 8c 0a be 6e a4 b5 bd 5c 33 af 3d
       0.13392587 -0.1353014 -0.08869253 0.08554718
000160 67 67 32 3c c6 bc 05 bd 09 19 07 bd 2e 69 ea 3d
       0.010888911 -0.03265073 -0.03298286 0.11445843
000170 6e 63 02 ba da 91 40 bd 39 44 16 bd 15 e0 0e 3e
       -0.00049739226 -0.047014095 -0.036686156 0.13952668
000180 5c 26 e9 bd 0f 4f 21 bc 6a 6f 96 3d 39 53 9b 3d
       -0.113842696 -0.009845509 0.07345469 0.07584233
000190 ce 9a a2 bd df a6 9d bd d6 4f fc 3d 2f 5d 80 bb
       -0.07939683 -0.07697844 0.12319915 -0.0039173584
0001a0 51 45 c2 3d e6 6e cb bd 56 98 c2 bd 4c 32 74 ba
       0.09485877 -0.099332616 -0.09501712 -0.0009315356
0001b0 ab 60 d3 3d f9 90 48 3d b3 bb 9f bd e8 1e eb 3d
       0.10321172 0.04896638 -0.07799473 0.11480504
0001c0 23 63 c2 ba 57 80 46 bd 1c ec 6e bd 99 65 13 bc
       -0.001483057 -0.04846224 -0.05833064 -0.008996391
0001d0 99 e4 9c 3d d5 82 83 3d fa 2d ff 3d cf 0f 72 bd
       0.07660789 0.064214386 0.12459941 -0.059097107
0001e0 43 d2 49 3e 2c c9 11 bc 72 6e 35 3d 6f b4 cc 3d
       0.19709115 -0.008898061 0.044294782 0.099953525
0001f0 17 a6 6c 3d ba 34 36 bc f6 17 2a 3e fc 1d fc bd
       0.057775583 -0.011120969 0.16610703 -0.123104066
000200 38 4b 5b bd a9 9b bc 3c 06 c0 04 bd 6e 45 27 3e
       -0.05353853 0.023023443 -0.03240969 0.16335079
000210 a5 61 4b bc f0 2a e2 bc 59 b0 94 bc cb ab 41 bd
       -0.012413417 -0.027608365 -0.018150495 -0.047282975
000220 dd 5a fe bd 8a 95 03 be 87 6e 53 3d 79 48 2a 3d
       -0.124196745 -0.12850013 0.05161908 0.04157302
000230 bf da 3a be dc bb ec bd 1d b7 82 3d 4a 15 ba 3d
       -0.18247508 -0.11559269 0.06382582 0.09086092
000240 ed 57 08 be 66 71 1b be 43 a0 87 bd 9a 0d 09 be
       -0.13314791 -0.15179977 -0.06622364 -0.13384095
000250 9c 15 80 3d 52 98 04 be 8b 6c 7c bd 2c e6 2a 3e
       0.06254122 -0.1294873 -0.061626952 0.16689366
000260 22 84 e0 bd 0f 75 d9 3d e7 c8 73 bd da 8a 30 be
       -0.10962702 0.1061803 -0.059517767 -0.17240468
000270 73 b8 0e 3e 6e 43 38 3d 7f 7a ae bd f2 51 7d bd
       0.1393755 0.04498618 -0.08519458 -0.061845727
000280 b0 16 2e 3e c6 ee f6 bc 7c 1a d2 bd b4 bd b9 bd
       0.17000842 -0.030143153 -0.10258958 -0.09069386
000290 d7 67 5f bc be 48 13 3c e2 1d c6 3c e2 1c a5 bd
       -0.013635597 0.008989511 0.024184171 -0.080621496
0002a0 8c 67 0e 3d c1 d8 4a be 27 d2 33 3c d7 f1 9f 3d
       0.03476672 -0.19809248 0.010975397 0.07809799
0002b0 4e d2 2b be 36 b1 67 be 69 f1 ca 3d 1c 17 fa bc
       -0.16779444 -0.22626194 0.099093266 -0.030528598
0002c0 34 77 8a bb d6 30 a6 3c 34 38 19 3d 6e e1 9f bc
       -0.004225636 0.020286959 0.037407115 -0.019516673
0002d0 85 7e 9b 3d 9c 6b b8 3d 68 89 6c bd 8c 76 38 be
       0.07592491 0.090049 -0.05774823 -0.18013972
0002e0 6e b5 23 3e b8 f9 19 3e 41 31 42 be 1d 8d 02 be
       0.15987179 0.15036666 -0.18964101 -0.12749143
0002f0 a0 d5 f4 bd 1e 30 0f 3e 21 6e 07 bd c7 1e 0f be
       -0.11954808 0.13983199 -0.03306401 -0.13976584
000300 dd 48 8c bd 48 21 16 bd f5 57 a2 3b 40 a7 c3 bd
       -0.06849835 -0.036652833 0.004954333 -0.09553385
000310 c7 62 14 be 84 96 89 3d cd 64 f1 3d 2d 0b db 3d
       -0.14490806 0.06718162 0.11786804 0.10695491
000320 ac ec 61 3d 9d 9a d4 bb 71 99 b1 3d 21 04 da 3d
       0.05515735 -0.006488158 0.08671845 0.10645319
000330 92 72 3a 3c d1 b7 23 3e 75 45 c9 3c 17 d2 e6 bd
       0.011379855 0.15988089 0.024569253 -0.1127054
000340 4f 6d fb 3d 46 71 81 bd 8c 51 8c 3d 0e 85 18 3d
       0.12276708 -0.06320433 0.06851491 0.037236266
000350 34 b2 ab 3d 43 d1 54 bd 24 3e 81 bd 90 c7 34 bd
       0.08383599 -0.05195738 -0.063106805 -0.04413563
000360 a6 1e 8d 3d 8b 89 5d 3d 57 de 41 bc c0 b4 a1 3d
       0.06890611 0.05408625 -0.011832795 0.078958035
000370 11 fc 06 be b7 4c 96 3d 7f 56 89 3d d3 4f 9e bc
       -0.13182093 0.07338851 0.06705951 -0.019325173
000380 98 ea 41 bc dd 8f b4 3d 52 7f fb bb 9e 60 b1 bc
       -0.011835717 0.08816502 -0.00767509 -0.021652516
000390 4e 91 ec 3d ab 53 c9 3c a5 ac 2b 3d 57 2d 2f 3d
       0.11551152 0.024576029 0.041912694 0.04276785
0003a0 ae 87 8c bd 77 28 a7 3d 3d 81 a5 bd cb e2 ec bd
       -0.06861816 0.08162015 -0.08081291 -0.11566695
0003b0 b9 f1 f2 bd 61 fd e1 3d 53 71 6c bd d6 c2 ad 3d
       -0.11862511 0.11034656 -0.057725262 0.08484428
0003c0 e8 81 14 3d 81 b1 a4 3c 78 71 ac bd c5 16 d1 3c
       0.0362567 0.020104172 -0.0842008 0.025523553
0003d0 d7 0c b9 bb 40 41 96 bd b5 28 9e 3c aa 8b 13 3c
       -0.0056472826 -0.07336664 0.01930652 0.0090054665
0003e0 43 b3 10 be 5b 08 49 3d 2b 17 18 3d 60 fa da 3d
       -0.14130883 0.049080234 0.03713147 0.106922865
0003f0 94 43 a6 3d 78 fb a0 bc 87 b0 bf bd 11 76 03 3e
       0.08118358 -0.01965116 -0.09359842 0.12838008

lstm.weight_hh_l0 f4 [256, 64]
000000 6f db 44 3d 65 ed 08 3e 26 2e b7 bc 8b 59 f1 bc
       0.04806083 0.13371809 -0.022360872 -0.029461643
000010 d7 04 81 bd a1 e5 1a be e4 ad 2c 3d 8f 52 37 3e
       -0.06299751 -0.15126659 0.042158023 0.17902587
000020 a6 70 9a 3d eb 53 1d 3d 4f b4 a0 3d 18 1e e6 bd
       0.07541017 0.03841011 0.07846891 -0.11236209
000030 65 97 5e 3c 46 ef 3c 3e ba 3e 28 3d c6 b9 54 3c
       0.0135859 0.1845065 0.041075446 0.012983745
000040 a3 d5 28 3e a9 13 01 3b f4 6d 46 3e 24 d4 c3 bc
       0.16487746 0.0019695556 0.19377881 -0.023904867
000050 fa a0 91 3d 85 f3 ea bc ab a8 fc bc 95 1d 8b bd
       0.07110782 -0.028680572 -0.030842146 -0.06792752
000060 ca 69 15 3e d8 25 b7 bb b4 28 07 3e af a5 82 3c
       0.14591137 -0.005589228 0.13199121 0.015948145
000070 f7 c4 8d 3d be 54 38 3d 14 3d c8 3d 88 a3 45 bc
       0.06922334 0.04500269 0.09777275 -0.012062915
000080 66 dc 18 bd ec 7f 50 3e 72 6c 02 be eb 73 80 bd
       -0.037319563 0.20361298 -0.12736681 -0.062721096
000090 45 ba 72 be ed 1e 9c bc 86 8e 61 3d 16 b0 35 3d
       -0.23703869 -0.019057715 0.05506756 0.04435738
0000a0 62 2b 97 3d ff 8a 26 be c7 f9 bd 3d f2 24 a8 bd
       0.073813215 -0.1626396 0.09276157 -0.08210172
0000b0 44 d1 2a 3d 48 f5 8d bd 3c 92 03 3d 99 47 b9 3d
       0.041703478 -0.06931549 0.03212188 0.09046859
0000c0 13 82 13 be d6 06 4b 3c 03 cc c4 3a be 7d 0d ba
       -0.14405088 0.0123917665 0.0015014414 -0.000539746
0000d0 c2 ce d4 3c 37 9b 80 bd b9 e9 97 3d 14 7d c5 b9
       0.025977496 -0.06279605 0.07417626 -0.00037667959
0000e0 04 26 8a bc 0e 72 23 be 46 8b ba bd 3d 1c 2d 3c
       -0.01686383 -0.15961477 -0.091085956 0.010565815
0000f0 9f 01 c7 bd d5 7b 7c 3d 69 0e f4 bb a7 da 0d 3e
       -0.09717106 0.061641533 -0.007448007 0.1385294
000100 c9 c8 e7 bd d4 08 ec bc 46 db 4d be 7a 30 9e bb
       -0.113175936 -0.028812803 -0.20103177 -0.004827556
000110 ae b8 01 3d 73 71 ae bd 36 88 da bd 00 36 bc bc
       0.031670265 -0.085177325 -0.106705114 -0.022974968
000120 f4 0d ed 3c ba 3c 02 3e ce 7c a1 3c 5e 63 1f 3d
       0.028937317 0.12718478 0.019712832 0.038913123
000130 75 d7 05 3e 3b a7 0e 3e ab bd dd 3d d6 e9 7a bd
       0.13070472 0.13930981 0.10827192 -0.06125816
000140 dd 4f 11 3e 3b 19 d4 bd 34 ba 8c bd 2f 04 0a 3d
       0.14190622 -0.10356375 -0.06871453 0.033695396
000150 63 46 02 3d b1 e0 d1 3a 0e 1d 57 3c f4 51 21 bd
       0.031805407 0.0016012398 0.013129486 -0.039384797
000160 56 c2 92 bc 5c 96 9c 3d 2a 41 8a 3d 85 72 cb bc
       -0.017914932 0.07645866 0.0675071 -0.02483488
000170 ae 71 1f 3d da 26 a6 3d 25 a7 ca 3d 4f 32 d6 3d
       0.038926773 0.08112879 0.098951615 0.10458814
000180 93 12 b2 bc 26 b0 c1 3c 63 7e e8 bd 32 d2 3d 3e
       -0.021737373 0.023643564 -0.11352231 0.18537214
000190 58 c4 2a bd b2 04 39 3c 54 04 27 bc 2d 02 53 bd
       -0.041691154 0.011292623 -0.010193903 -0.051515747
0001a0 aa 46 ee bd 2d ee 6e bd 59 db bb bd e6 2b cb 3b
       -0.11634572 -0.05833261 -0.091726966 0.0062003015
0001b0 fe 9d e2 bd 0e 90 f3 3c 02 72 d9 bd 9e 2f 0f 3e
       -0.11065291 0.029731777 -0.106174484 0.13983008
0001c0 8b 0b bd bd ee e7 ec 3c 91 ae 3c be e6 2c dd 3d
       -0.09230717 0.028919186 -0.18425967 0.10799579
0001d0 74 62 c9 bd b1 a4 aa bd 53 18 8c bc 02 be ae 3d
       -0.098332316 -0.08332194 -0.017101442 0.08532335
0001e0 94 2d 45 bc 66 cf 1e 3d 0e d2 4b bd 6e ba de bd
       -0.012034792 0.03877201 -0.04976087 -0.108754024
0001f0 39 2e df bc 59 5c 47 39 04 cf 6b 3c 6c 38 cc bd
       -0.02724372 0.00019012521 0.014392618 -0.09971699
000200 bf d8 f2 bd 9d c2 88 bd 17 77 00 be 99 2f 10 be
       -0.11857747 -0.066777445 -0.12545429 -0.14080657
000210 ce bd d2 bd 25 08 ee bd ee 6a a6 bb ca 39 a4 3d
       -0.102901086 -0.11622647 -0.005078665 0.08018835
000220 02 19 1b 3e d3 8f 02 3e d1 a4 d4 3d e5 70 1b 3d
       0.15146258 0.12750177 0.10382999 0.03794946
000230 95 a6 4a 3e 9b 57 1a bd 5f 04 42 3d ae a0 f7 bd
       0.19790109 -0.037681203 0.04736745 -0.12091194
000240 52 c4 8e 3d 4c 68 c5 3d 13 dc ac bd 35 0c 76 bd
       0.06971039 0.09639034 -0.08440413 -0.060070235
000250 05 03 36 3e 66 33 8f 3a 2d 4a 8b 3d c5 7c 68 3c
       0.1777459 0.0010925352 0.06801257 0.014189904
000260 d0 61 40 3d 16 57 50 bc e5 6c d8 3d cf 56 a1 3d
       0.04696828 -0.012716075 0.10567645 0.078778856
000270 c7 c0 59 bd 3c cb 3b 3d 72 92 c4 3c b3 14 25 3c
       -0.053162362 0.045848116 0.023995612 0.010075736
000280 bc 63 f2 bd a5 1a 84 3d 20 c5 d0 bd 40 86 06 be
       -0.11835429 0.064503945 -0.101938486 -0.1313715
000290 e2 1b 3d be 08 e7 50 3d 97 86 5f bd bc 84 e0 3d
       -0.18467668 0.05100158 -0.054571714 0.10962817
0002a0 e2 f5 cd bd 8d 22 9b 3c 6b 50 8e bd 26 55 0c be
       -0.10056664 0.018937374 -0.06948932 -0.13704357
0002b0 99 d0 14 3e 7d a1 0e 3c 0e e2 7f be b4 f7 10 be
       0.14532699 0.008705494 -0.24988577 -0.14156991
0002c0 46 e4 df bd d9 ac 9f bd 33 9d e4 bd 7e 4e 20 3c
       -0.109322116 -0.0779664 -0.11162796 0.009784339
0002d0 6a c1 78 3e 8a 03 31 be 9a 5b 17 3d 21 63 31 bd
       0.24292532 -0.17286506 0.036952592 -0.043307427
0002e0 0a ca e1 3b 76 a7 73 3a ef 7d 2f bc 70 98 b9 bd
       0.00689054 0.0009294668 -0.010711177 -0.09062278
0002f0 fa 90 07 3d 1a d1 e8 bd de 06 17 bd 84 49 9f bd
       0.033097245 -0.11368008 -0.036871783 -0.07777694
000300 59 de 04 bb 4e 57 91 3c 41 83 fc 3d d1 df 06 be
       -0.002027413 0.017741825 0.12329722 -0.13171317
000310 57 4a 79 be 32 82 21 3d 1c 07 bf ba 69 21 1d 3c
       -0.24344765 0.039430805 -0.0014574262 0.009590485
000320 c4 24 9e 3d 7d 0c 20 3d 37 4c aa 3d 4e e0 fe 3c
       0.07721856 0.03907441 0.08315318 0.031112816
000330 06 e2 d4 bd 0c 21 73 3d e9 59 1d 3e 04 6e 60 3e
       -0.10394673 0.059357688 0.15366329 0.21916968
000340 5e 55 ca bc 95 41 c2 3d 31 6b 0c be ab d1 04 3e
       -0.02469891 0.09485165 -0.13712765 0.12970607
000350 1a 3b 0a 3e e9 8c 6a bb c8 3e c4 3d 61 9a 6d bd
       0.13499108 -0.0035789555 0.09582287 -0.058008555
000360 82 5a be bd 1b 62 b4 bd 08 42 a1 3d 58 10 ae 3d
       -0.09294607 -0.08807775 0.078739226 0.08499211
000370 21 c7 e2 bd 50 09 cf 3d 41 4e 2c 3d 68 c5 1c 3e
       -0.11073137 0.10109198 0.042066816 0.1530968
000380 d7 1e 20 3d 8c 82 21 3c e2 13 0a 3d 38 ea 52 3c
       0.03909191 0.009857785 0.033710368 0.012873225
000390 d2 90 b6 bc 0a 64 7b 3c 88 06 d4 3d f5 f7 e0 bd
       -0.022285853 0.015343675 0.10352808 -0.10984794
0003a0 99 5e dc bd 6b f1 36 3d 4f 11 ac bd 22 20 e0 bd
       -0.107602306 0.044663828 -0.08401739 -0.10943629
0003b0 0d 0e f6 bc 44 2b 8a bd a2 17 2d 3e 97 03 38 3d
       -0.030035997 -0.067465335 0.16903546 0.0449253
0003c0 59 24 09 3e 15 0b ba 3c 73 ad 30 3e 5b c2 dc bc
       0.13392772 0.022710362 0.17253666 -0.026948145
0003d0 a0 1a 1d 3e 52 80 a6 3c 51 0a 90 bc f5 9d 0b be
       0.15342188 0.02032486 -0.017583044 -0.13634475
0003e0 5d 76 e9 bc b4 91 59 be 1b 35 56 be 09 86 60 3c
       -0.028498823 -0.21246988 -0.20918696 0.0137038315
0003f0 70 45 1b be a6 0d f8 3c 68 1c 02 3e 7a a5 ac bd
       -0.15163207 0.030279946 0.12706149 -0.0843

lstm.bias_ih_l0 f4 [256]
000000 62 70 15 bd 17 51 a0 bd c9 ed c6 bd 03 51 10 bc
       -0.03648413 -0.07827967 -0.09713323 -0.008808377
000010 e5 55 e8 bd c2 d2 78 3d 3b a6 89 bc 45 f3 bb bd
       -0.11344508 0.06074787 -0.016802898 -0.09177259
000020 7a 62 94 3d 4f ba 26 bc 1c 44 18 3d 6d 86 83 3c
       0.072453454 -0.010176255 0.03717433 0.01605531
000030 ad c9 af bd 76 00 e1 bd 42 fe 8a bd ac 36 97 bc
       -0.085833885 -0.10986416 -0.06786777 -0.018458687
000040 a2 c6 3b bd db 5b dc bc ba e7 63 3d 52 6b 9d 3c
       -0.045843728 -0.026899269 0.055640914 0.019216213
000050 d8 6e 92 bd 11 e3 f9 bc 39 3c f6 bb 38 da 24 be
       -0.07150048 -0.030503782 -0.0075145033 -0.16098869
000060 b3 c3 5b 3d 61 91 c1 bb 43 33 c7 3c 2e 5c c7 3d
       0.05365343 -0.005907223 0.024316436 0.09734379
000070 c6 ee cf bc 76 04 d7 3d 20 db 3c 3c 25 13 17 3d
       -0.02538241 0.10498898 0.011526853 0.036883492
000080 55 66 00 bd ea e1 d0 3b 2b a1 b6 3b 83 20 90 3d
       -0.03134759 0.0063745873 0.005573412 0.07037451
000090 f6 a3 f9 bd dd 28 0e be 96 28 06 b9 25 54 db bd
       -0.12189476 -0.13882776 -0.00012794355 -0.10709409
0000a0 6e e4 ce bd b1 34 3e bd e3 4c a9 bd c2 86 b3 3a
       -0.10102163 -0.04643697 -0.08266618 0.0013696777
0000b0 5b 2b 8e bc 50 bc 15 3b ee 74 f4 bd 71 50 91 3d
       -0.017354658 0.0022847839 -0.11936365 0.07095421
0000c0 a4 40 c1 3b 6e 03 87 bd c6 f1 81 bd f7 08 ab 3d
       0.0058975983 -0.06592451 -0.06344943 0.08351319
0000d0 e7 ad 73 bd a0 a8 eb 3c 4b 24 f3 bd 01 5b 1a be
       -0.059492018 0.02876693 -0.11872157 -0.15073778
0000e0 83 47 8d 3d 94 eb ea 3d ce 42 52 3d 15 84 bb bd
       0.068984054 0.11470714 0.05133324 -0.09156052
0000f0 a7 e9 ee 3d 86 ab 63 3d cb 12 88 3d 90 e5 49 3d
       0.116656594 0.0555835 0.066442095 0.049291193
000100 b8 73 44 3d 1e 71 c8 3c e9 90 c0 3d 62 2a 6c 3b
       0.04796192 0.024468001 0.094026394 0.0036036004
000110 d4 6e 93 3d 76 f8 8c bd 70 d0 2c 3e e1 02 37 3d
       0.07198873 -0.06883328 0.16876388 0.04468048
000120 a9 ca 39 bd 9d 84 06 3c 06 e1 a7 3a ba bd 19 3e
       -0.045359287 0.008210328 0.0012808151 0.15013781
000130 08 ab 68 bc 64 31 4e 3b a3 39 07 3e a7 ee 15 3e
       -0.014200933 0.0031462545 0.1320558 0.1464182
000140 c5 43 35 3d d4 8f 24 3e 08 47 1a 3e 4f 2b ce 3c
       0.044254083 0.16070491 0.15066159 0.025167136
000150 77 7f 09 3d 1e 97 28 3c ad 2d e1 bd b2 8c d3 3c
       0.033568826 0.010289935 -0.1099504 0.025823925
000160 53 45 a3 3d ba ec fa 3d da 8c 79 bd 42 bc 9d bd
       0.07972207 0.12252183 -0.060925342 -0.07701923
000170 ae 27 c8 bb 91 93 27 3d 8a 0b 85 3c 14 36 bb 3d
       -0.006108246 0.040912215 0.016240854 0.09141174
000180 21 75 a0 3d b2 3c 43 bc 72 53 01 bd 26 a2 fd 3c
       0.078348406 -0.011916326 -0.03157372 0.030961107
000190 f7 8f 50 3d 29 62 a0 bd 29 2b c3 3d 5a 15 2e 3d
       0.050918546 -0.078312226 0.095297165 0.04250083
0001a0 56 d7 43 3d 46 53 92 3d c8 5e 2e bd 59 15 f8 bd
       0.047812782 0.071447894 -0.04257086 -0.12113447
0001b0 1b 21 f6 3d b7 21 1d bd 0c ed 1f bd 7d 41 92 3d
       0.12018033 -0.03836223 -0.039044425 0.07141397
0001c0 18 66 7c bd 2c 54 ae bd 35 9b cd bb b1 fb bb bc
       -0.0616208 -0.08512148 -0.0062746056 -0.022947164
0001d0 7b 24 fe 3d 8d 1a 00 3d 95 02 1e be 0e b1 05 3e
       0.12409302 0.03127532 -0.15430672 0.13055822
0001e0 84 21 3c 3e a2 fe 2a 3e fe 2d de 3d 19 88 07 3e
       0.1837216 0.16698697 0.10848616 0.13235511
0001f0 cd 69 3c 3e df d6 f4 3d 1c 24 ba 3d 59 8a ff 3d
       0.18399735 0.11955046 0.090889186 0.124775596
000200 f8 3f 42 bd f3 8e ea bd 3e 1c 01 3e 9b 2f dc 3c
       -0.047424287 -0.11453047 0.1260843 0.026878169
000210 f5 16 37 3d f7 55 a5 3b 20 a3 9d bd 63 12 e4 bd
       0.044699628 0.005045648 -0.07697129 -0.111363195
000220 9e f6 76 3d bc 4d af 3d 21 5e ce 3d 25 c2 f7 3d
       0.060293786 0.085597485 0.100765474 0.12097577
000230 7d 02 cf 3d 2e 92 c5 3d c7 ba 02 3e ff 8e 03 bd
       0.101078965 0.09647022 0.12766562 -0.032118794
000240 65 38 30 bd db a5 f4 bd 06 c8 6e 3d bc 2d a2 3d
       -0.043022532 -0.11945697 0.058296226 0.079188794
000250 a6 54 ef bd 52 69 03 3d 10 6f 5b bd 6c 83 52 3a
       -0.11686067 0.032082863 -0.053572714 0.00080304476
000260 8e f9 ad bc 81 38 b3 3c f3 7a cf 3d e7 c0 fa 3c
       -0.021237161 0.02187753 0.101308726 0.030609561
000270 3e 2c b0 bd 27 c4 e4 bc 7e ff 48 3d e7 04 1c bd
       -0.086021885 -0.027925564 0.04907178 -0.038090613
000280 6a cb ac bd 56 a7 44 bd b4 64 be 3d 87 fd cb bd
       -0.08437236 -0.048011146 0.09296551 -0.09960466
000290 ab 62 b5 3c a7 0d 31 3d de 81 2b 3c cc 48 7d bb
       0.022141775 0.04322591 0.0104679745 -0.0038648127
0002a0 c5 7e 38 3c cd 84 bc bd 39 8d b1 3d b0 49 80 3d
       0.011260693 -0.09205017 0.08669514 0.06264055
0002b0 9b f5 60 bd 0e 9a c9 3c ec d0 95 3c 1e b2 40 3d
       -0.054921728 0.024609592 0.018288098 0.047044866
0002c0 f0 e1 83 3d 07 6a ad bb db 8a 9f 3d 2c 89 8c bd
       0.064395785 -0.0052921805 0.077901565 -0.06862101
0002d0 80 ba 84 3d 57 d3 c8 3d 8c 37 d3 3d c4 d2 42 3d
       0.064808846 0.09805935 0.10313329 0.047564283
0002e0 ca 20 dc 3d c3 0f 02 be c0 36 b4 3d a9 b5 90 3c
       0.107484415 -0.12701325 0.08799505 0.017664747
0002f0 43 db de 3c 79 93 a5 bc 21 37 d0 3d f3 06 c2 bb
       0.027204162 -0.020211922 0.10166765 -0.0059212386
000300 f6 ff 62 bd 3d de c4 3d 7d e7 9c bd 02 5f a4 bd
       -0.055419885 0.09612701 -0.076613404 -0.08025934
000310 0f 1c a3 bd 91 e7 b6 3d 3c 5e 83 bd 2d cc 41 bd
       -0.07964336 0.089308865 -0.06414458 -0.047313858
000320 9c 6a 0e 3e 82 69 04 3d ce 91 d9 3d 9b b6 bd bb
       0.13907856 0.032327183 0.10623513 -0.0057895905
000330 a3 1c 97 3d 74 9f 8e 3d 65 48 66 bd 8f bb d0 bd
       0.07378509 0.06964007 -0.056221385 -0.10192024
000340 3c 2e a1 3d 30 37 be bd 6a 09 13 ba 64 d1 1b 3d
       0.07870147 -0.0928787 -0.0005609008 0.038041487
000350 f0 00 bd bc 0d 82 01 bd 49 98 2d bd 51 f4 9f 3c
       -0.023071736 -0.031618167 -0.04238156 0.019525679
000360 de f1 35 3d 69 04 64 3c 10 9e 9d 3d 1e 8f e8 bc
       0.044420116 0.013917067 0.07696164 -0.028388556
000370 84 12 d0 3c d6 03 e4 bd a9 2c cd 3d eb 5c 2b 3d
       0.025399454 -0.11133544 0.10018284 0.04183666
000380 8b 36 84 3c e0 28 9a 3d 68 09 f2 3d 52 ba 6e 3d
       0.01613929 0.075273275 0.118182 0.058283158
000390 53 30 78 bd 7f bf a9 bd 75 63 dc bd 5f 0f 77 3d
       -0.06059296 -0.08288478 -0.107611574 0.060317393
0003a0 70 e1 f6 3d 96 9b a3 3d 27 3c be 3d 4b 67 cc bd
       0.120547175 0.0798866 0.09288817 -0.09980639
0003b0 0b 02 01 bc e0 48 81 3d 24 7f 0e bd 52 6a d0 3c
       -0.007874022 0.06312728 -0.03478922 0.025441322
0003c0 3f 3e ca 3d ad 7e 65 bd a2 e0 de 3d 6a 2d f1 3d
       0.09875154 -0.05602901 0.10882689 0.1177624
0003d0 c5 fe 4d 3e e6 cc ba bd 07 c7 30 3d 8c 5d ae 3d
       0.20116718 -0.091211125 0.043158557 0.085139364
0003e0 f7 20 18 3e ca 98 b4 3d 1d 75 6d bd b4 b7 b6 bd
       0.14856325 0.08818205 -0.057973016 -0.08921757
0003f0 2e 52 62 3d 24 52 d1 3d 1e 9d 9a 3d e6 61 92 3c
       0.055254154 0.10220745 0.07549499 0.017868947
