src/bidmc_generation/models/ha_cnn_bilstm_withWST/20260205_180406/fold_4/best_lightweight_hybrid.pth (torch, 430093 bytes, 23 tensors)

cnn_encoder.0.weight f4 [32, 16, 7]
00000000: 4ed3 80bc c8f6 cbbd 41ad 16bd ec3c b3bd
00000010: 1f92 81bc 23d6 5fbc 274c b73d 5740 123e
00000020: 346b 063e 0f47 13bd 85bc d43c 5764 2ebd
00000030: 8fde 57bd 583a e23d 925f 0fbd f0ec 393c
00000040: bb63 053d 2401 073c 613a ff3d 87e7 1e3b
00000050: 1bb3 9b3d 713b fa3c 28e9 43bc 72c4 db3d
00000060: 7ac4 6c3d 67d4 1cbb c636 1a3d 0057 cfbc
00000070: 17ec 793d e734 0e3d a625 1d3d 9679 2dbd
00000080: f012 913d 9283 3f3d 1367 693d f4de c53b
00000090: 9817 c1bc 6110 7b3c 0583 b43c 1cfc 213d
000000a0: eacd cc3d 2cd1 51ba 01c0 8bbb 8eeb 8cbc
000000b0: a6a6 c03d fc8b 3bbd 4dc6 c3bc 36fe 4e3d
000000c0: 8d09 e73d 2a3c 0c3d d5dd c2bc 3657 3d3c
000000d0: 29e1 893d 3c83 e4bc 18f4 77bd eea3 c83d
000000e0: a7c6 b13c d1a9 c6bd a05e d43c b2f2 4abd
000000f0: 13c1 853d e37f 103e 4800 3b3e 906e 18bd
00000100: a9a3 943b 6bb9 b5bd e42d b33d 3ad1 12bd
00000110: cc4f 403d 1d7e 1bbd a0ac afbd 96aa 393d
00000120: 9978 8bbd 794f 2c3d 4344 7e3d 7bc3 9f3d
00000130: f46e 943d a67f 0b3d 6b41 84bd 6ebe eabc
00000140: a50c 5a3d 1d29 b3bc 3626 e7bb 2152 0cbd
00000150: eac4 9b3d 21cf d5bd ce5a a9bc 87fa a7bd
00000160: c77b 8c3b d642 9b3d 5120 723d 45cd 5fbc
00000170: 68cd 42bd afb9 7a3d 4155 033d 698a eabc
00000180: b623 57bd 37bf 8c3c 2dc3 403d 118c 36bd
00000190: ca24 7ebb 1ba3 9c3c 18fb c4bb 66e5 bbbd
000001a0: 9b33 1c3d 0167 383d 8eb4 97bd 4cdb 98bd
000001b0: 3eb2 0ebd ba5b eebd 163d 64bd 1b5a 943d
000001c0: 8c29 c73b 68af 633a fffa d53d 1ea2 a6bc
000001d0: 5fe3 643d 2b27 dbbd dc8d 4e3d 0c60 8c3d
000001e0: 784b 4fbd b3be be3d 6dc2 b33d 5646 523d
000001f0: b968 eebd 40d5 e9bb 26ec c73d 5ea8 87bc
00000200: bc0c 95bc 5c8d d23d b055 bcbb 6e41 753d
00000210: fa2c 99bc a170 b8bb a0a4 21bd 1155 90bd
00000220: e03d 61bd 4e58 b93d 4eab 9fbd f87a b3bd
00000230: bc47 ce3d 7a8a 89bc ad7f 643d 7028 c1bb
00000240: 92cb 36bd a2b8 02bc 209f d6bd 4bba a73c
00000250: 32d2 9fbd 99c0 80bd 6c16 1e3d 1ff4 17bd
00000260: d4a6 07bd af02 85bc b18e fa3d 1897 203b
00000270: 3f4d afbd 24fe b8bc 2794 3b3d 09c2 0c3d
00000280: cae3 7cbd 2633 163d 8357 96bd f32a d53b
00000290: da11 31bc 9c83 ecba 9737 2cbd a0db 17bd
000002a0: ed43 84bd d08e 85bc b842 7bbd c4bb 99bd
000002b0: be0e a73d d757 333d 83d5 843d 9e6e 0ebd
000002c0: 7bc8 88bd 82d6 cdbd bff1 efbd 4401 6fbe
000002d0: c9ac 40be c12b 52be dd41 e7bd af60 ebbd
000002e0: 10fb a3bd d250 0cbe 5c03 94bd 7125 83bd
000002f0: d544 26be a733 8a3d c1dc 543d fb4e 453d
00000300: 9e8c 5bbd 2096 33be 6582 87bd b27b 10be
00000310: 7aa7 9fbb 0250 173d 157e 95bd 7729 3abd
00000320: 141e ccbd 933f fabd a3f3 9abd e568 34bd
00000330: 6bb7 4f3d 1002 ad3d 1de1 8c3d de0d 93bd
00000340: 7c8f 32bc 5c5c 00bd 6d81 803d 8d2a 2cbc
00000350: 026f bf3d 7495 013e 3e81 be3d de34 c4bd
00000360: 62c5 32bc c724 1f3e ff62 2a3e ed13 073e
00000370: 1e23 243e 8f35 c03d c251 0ebd b14e 93bc
00000380: bfe6 ddbd 035e a1bc 460d f63c eead abbd
00000390: e670 d33d 0d19 fe3d 7b38 3dbd a36e ed3c
000003a0: 38dd 033e 9e78 43bd 1443 cb3d b63f 633c
000003b0: d8bf 913d 8be3 b4bd dfbe 923d c2f4 dd3d
000003c0: 10aa aa3d a4f6 c23d d33c cb3d c8e6 3a3d
000003d0: ff82 293d b608 0a3e 587c 003e 397f 533d
000003e0: 22c5 c13d 093c abbd 66a9 b83d 37b6 94bd
000003f0: dff2 cb3a 3040 c93b 5222 a63d 7e54 a3bd
-0.015725758 -0.09959179 -0.03678632 -0.08751854 -0.015816746 -0.013661894 0.08950072 0.14282356
0.13126832 -0.03595644 0.0259688 -0.04257616 -0.052702483 0.110462844 -0.035003252 0.011347994
0.032565814 0.008240018 0.12462307 0.0024246888 0.07602521 0.030545922 -0.011957444 0.10730828
0.057804562 -0.0023930313 0.037649892 -0.02531004 0.06101617 0.03471842 0.038365982 -0.04235228
0.0708369 0.046756335 0.056983065 0.006038541 -0.02357082 0.015323729 0.022035131 0.03954707
0.100002125 -0.00080038863 -0.004264832 -0.017202165 0.09406786 -0.045787796 -0.023898268 0.050535403
0.112811185 0.034237064 -0.023787418 0.011556437 0.06732399 -0.027894609 -0.06053552 0.09796892
0.02170117 -0.09700359 0.025924027 -0.04954786 0.065309666 0.14111285 0.18261826 -0.037214816
0.0045361114 -0.08873256 0.08748987 -0.035844065 0.0469511 -0.037962068 -0.085778475 0.0453287
-0.068101116 0.04206798 0.06207682 0.07800957 0.07247725 0.034057282 -0.0645779 -0.028655257
0.053234715 -0.02187019 -0.0070541156 -0.03425801 0.07605918 -0.10439897 -0.020673182 -0.08202081
0.0042872163 0.07581107 0.05911285 -0.01365978 -0.047559172 0.061212238 0.032063726 -0.028630452
-0.05252429 0.017181022 0.047061134 -0.04456717 -0.0038779252 0.019120743 -0.006011378 -0.09174614
0.038135152 0.045020107 -0.07407485 -0.074637026 -0.034837954 -0.11638589 -0.05572232 0.07243749
0.006077951 0.00086855004 0.10448264 -0.020340975 0.0558809 -0.1070083 0.050428256 0.06854257
-0.050609082 0.09313717 0.08777318 0.05133661 -0.11641068 -0.007136017 0.097618386 -0.016559776
-0.018194549 0.102808684 -0.0057475194 0.05987685 -0.018698204 -0.005628661 -0.03946364 -0.07047475
-0.05499065 0.09050046 -0.07796346 -0.08763689 0.10072276 -0.016789664 0.055785824 -0.005894713
-0.044627734 -0.00797859 -0.104795694 0.020474574 -0.078037634 -0.06286735 0.038595602 -0.037098046
-0.033118084 -0.016236631 0.122342475 0.0024504121 -0.085596554 -0.022582121 0.045795586 0.034364734
-0.061740674 0.036669873 -0.0734091 0.006505364 -0.010807479 -0.0018044594 -0.042045202 -0.037074685
-0.06458268 -0.01630345 -0.061342925 -0.075065166 0.08157109 0.043784942 0.06486037 -0.03477346
-0.066788636 -0.1005068 -0.11716031 -0.23340327 -0.18815912 -0.20524503 -0.11291859 -0.1149305
-0.08006871 -0.13702706 -0.07227203 -0.06403626 -0.16237195 0.06748133 0.05196834 0.048171025
-0.0536009 -0.17537737 -0.06616668 -0.14109686 -0.0048722597 0.036941536 -0.07299439 -0.0454497
-0.099666744 -0.12219157 -0.07566001 -0.044045348 0.05071203 0.08447659 0.068788745 -0.07180379
-0.010898467 -0.03133808 0.06274686 -0.010508192 0.09347345 0.12654668 0.09301995 -0.09580396
-0.010911318 0.15541373 0.16639327 0.13191195 0.16029021 0.093852155 -0.03474594 -0.017981859
-0.10835027 -0.019698149 0.030035626 -0.08382784 0.10324268 0.12407122 -0.046196442 0.02898342
0.12877357 -0.04772245 0.099249035 0.01387017 0.071166694 -0.08832463 0.07165312 0.108376995
0.08333218 0.09519699 0.09923711 0.045630246 0.041384693 0.13479885 0.12547433 0.051635
0.09461428 -0.0836106 0.09016685 -0.07261317 0.0015560052 0.006141685 0.08112015 -0.079751

cnn_encoder.0.bias f4 [32]
00000000: 1729 8b3c 9b08 563e 03f9 0cbc 1b26 aebd
00000010: a1bf e93c c4a8 e63b b913 a83d ff56 8f3d
00000020: 3d3e a83d c988 debd 7b64 83bd 0e72 163c
00000030: 3b13 a3bd 01aa 153d 2ae4 f23c a988 c2bc
00000040: 2c2c 70bd ef11 01be 2cf0 88bd 41de 52bd
00000050: 7354 153d cf1f 303d 9849 babd 9607 453d
00000060: 675d 303d 9e7f 913b b5da 7e3d 8318 24bc
00000070: 5eab 06bc 7c7b 2a3d 34a0 853d 1c05 79bc
0.016987367 0.2090172 -0.008604291 -0.08503362 0.028533759 0.0070391614 0.08206887 0.06999015
0.08214996 -0.108659334 -0.064156495 0.009182466 -0.07962652 0.03653908 0.029649813 -0.023746805
-0.058635876 -0.12604497 -0.06686434 -0.05148149 0.03645749 0.042999085 -0.09096068 0.048102938
0.043057825 0.004440262 0.062220294 -0.01001561 -0.008219568 0.04162167 0.06524697 -0.015198972

cnn_encoder.1.weight f4 [32]
00000000: 3988 6b3f 3994 873f fc52 733f 280a 573f
00000010: f39b 803f 48de 823f b488 823f 0000 863f
00000020: 279d 683f 1760 8a3f df68 843f d259 863f
00000030: ec40 793f f43c 4f3f e1cc 753f 6525 6b3f
00000040: 8ee2 803f ac37 683f a46b 8f3f 7f8d 883f
00000050: 93c6 873f 176c 833f a3dc 953f 3c40 5d3f
00000060: 06f1 793f f069 7f3f 8aef 8d3f 603b 643f
00000070: 277e 7f3f 19ad 723f b1b8 523f 7428 8c3f
0.92004734 1.0592109 0.950485 0.8399987 1.0047592 1.0224085 1.0197968 1.046875
0.90864795 1.0810574 1.0344504 1.0496161 0.9736469 0.8095238 0.96015745 0.91853935
1.0069139 0.9070995 1.1204724 1.0668181 1.0607475 1.0267361 1.1707958 0.8642614
0.976334 0.9977102 1.1088727 0.891531 0.9980187 0.94795376 0.82313067 1.0949845

cnn_encoder.1.bias f4 [32]
00000000: 4233 aabd dcb2 96bd 77e6 e83b 00b6 58be
00000010: 2327 21be 78d2 90bd 3c83 c7bc 9ab5 36bd
00000020: 32d4 14be 6f3e 00be 95ec 21be ef0f 88bb
00000030: 6536 3ebe ada5 f5bc dd14 37bd c908 f3bd
00000040: 0013 e4bd ad2a fdbc 7740 2cbe 0fb8 a1bd
00000050: f958 c0bd 0dc2 bfbd c2d9 97bd cb4d 5abe
00000060: 556a 0e3e 7978 64bc a517 28be efa0 e8bd
00000070: 9986 b4bd cda5 26be a019 2cbd 9e54 e43c
-0.08310558 -0.073583335 0.0071075517 -0.21163177 -0.15737586 -0.07071394 -0.02435457 -0.044606782
-0.14534071 -0.12523817 -0.15812905 -0.00415229 -0.18575437 -0.029986227 -0.04469763 -0.1186691
-0.111364365 -0.030904138 -0.16821466 -0.078964345 -0.0939197 -0.09363184 -0.07414581 -0.21318738
0.1390775 -0.013944739 -0.1641527 -0.11358821 -0.08814735 -0.16274185 -0.042016625 0.02787238

cnn_encoder.1.running_mean f4 [32]
00000000: 81db b73d b645 543e c1d5 dcbc 281e 47be
00000010: 8c19 aabd 5e20 d9bd 223e e43c e655 a43d
00000020: 9e1a 473e e3cb 4abe 95a7 eebd ea1f 47bd
00000030: 6681 42be 614c e73d c158 233c e996 3dbe
00000040: 2742 3abe 2b7c 883d fa2a 3cbd 2676 cabd
00000050: 52ee 7b3b 1071 513d 1979 98bd e9c5 31be
00000060: 95a8 6b3c 426a fcbc 7e2a 2cbb 3b16 c93d
00000070: 501e 823c b2a3 ce3d 636f 593e ba84 29bd
0.08977414 0.20729718 -0.026957395 -0.19445097 -0.08305654 -0.10601877 0.027861658 0.08024196
0.19443747 -0.19804339 -0.116530575 -0.04861442 -0.18994674 0.11293865 0.009969891 -0.18514599
-0.18189298 0.06664308 -0.045939423 -0.09885816 0.003844161 0.051133215 -0.074449725 -0.17360653
0.014383455 -0.030812386 -0.0026270445 0.09818693 0.015883595 0.10089816 0.21233897 -0.041386344

cnn_encoder.1.running_var f4 [32]
00000000: 2508 913b 9e4f 8f3a 969c 513b cfee 4d3b
00000010: 080b b63a c5ca 3f3b c837 123a 8e5e 383b
00000020: dc1a 3e3b 52f6 ac3a 6896 f43a 9292 0a3b
00000030: 4169 fc3a 782e 103b b5a2 933a d182 b73b
00000040: c67c 813b 11c7 9c3b a443 ff3a 2e6c 433b
00000050: b7fb 3b3a 7fb4 b13a 8e3c d93a ac30 af3b
00000060: f76d 6b3b b93c a23a 9069 943a 3159 3a3b
00000070: bace 0d3b 2716 f23a 5aa3 153b e8b0 9d3a
0.0044260197 0.0010933762 0.0031984202 0.0031422859 0.0013888786 0.0029265147 0.000557777 0.002813253
0.0029007709 0.0013195968 0.0018660547 0.0021144492 0.0019257442 0.0022000354 0.00112637 0.0056003113
0.0039516417 0.0047844728 0.0019475115 0.0029819119 0.00071709923 0.001355782 0.0016573833 0.0053463783
0.0035923698 0.0012377716 0.0011322964 0.002843451 0.0021638111 0.0018469737 0.002283296 0.0012030872

cnn_encoder.4.weight f4 [64, 32, 5]
00000000: 932b 79bd 7470 af3c ad2b d13c 48e8 473d
00000010: a8b6 edbd 03a3 d1ba c060 eebd 6a49 82bd
00000020: 0627 99bd 6778 493d bf75 91bd a3c5 bdbd
00000030: 13a5 69bd c142 a4bd 4211 4b3d 3c61 2ebd
00000040: 89b3 7b3d 6cd2 273d 01a0 0ebc 5b2a fa3b
00000050: ecef 4fbc 2dbc 263d 4c22 c83b 4869 153c
00000060: fca0 743d 0cf3 a9bd 5312 5ebc 826b 683d
00000070: 2bb8 d4bc 6c9a 0cbd 47dc cb3d 5722 74bd
00000080: 4d5c 29bd 1647 acbd 305b b03c de43 983d
00000090: 39c8 0e3d 6dd9 ccbd 1452 e0bd 4567 273d
000000a0: b5d4 d5bd 8db9 c1bd 688e 1c3d 25b7 74bd
000000b0: b924 dcbd a2ae e9bc 1fcc 203d 7a62 3abb
000000c0: 46e2 a43c ebdd f53c 2738 953d 6b3f 92bd
000000d0: 0ace dfbd 7065 dcbd 1629 3f3d 0b0b 22bd
000000e0: 5885 33bd 3f5a f23b 150e 30be db7a 73bd
000000f0: b601 773c 403c 603d b195 943d 276e e0bd
00000100: a2dd eebd e43f 2a3d aac5 793d 3049 e2bc
00000110: cd3e 42bc 8e6a 9d3d 4569 70bd b268 fb3c
00000120: 6f8b 383d 6df0 53bb 83d8 afbd e408 663b
00000130: e095 9839 0c08 a13d e394 a13c 07ec 74bd
00000140: 5dc8 3dbc 336b b93d b88c 9fbd a54b 37bd
00000150: a9b1 303d 1820 d1bd ec7e 3fbd 6416 09be
00000160: 0922 a73b b01e 45bd 58ce 39bd 9d8a 79bd
00000170: aa59 27bd a634 54bd e1d5 513d 46ab d93c
00000180: c50e abbc 2f56 9bbd 7ed9 88be 6f45 e8bd
00000190: e5d5 f03b 5692 d43b ede9 1dbd 6a15 83bd
000001a0: 6261 13bc f33a 12be 175f b3bc 2a32 d93c
000001b0: 2d40 963d 2ff9 93bc 40b2 223e 9216 c6bb
000001c0: 204d 57be f0da c1bd 4f34 7f3d 3d5c f2bb
000001d0: f387 6bbd 12d3 cbbc de1d 873c dd13 003d
000001e0: 0e3b 8fbc 698d cbbd 36cc 37bd f9f5 6a3c
000001f0: c3d6 a23d 24cb fb3c df04 653d 5b53 7f3c
00000200: ad45 40bc cf55 8d3d 487e e4bc 4ddd 343c
00000210: e1d2 d93c 6e6f 4ebd c638 94bd dba5 a5bd
00000220: 9050 4fbd 6103 03bd 7c91 68bd b457 06bd
00000230: bf8e 313d 95ed 8a3d 4cdf 84bd 1630 bc3b
00000240: d3ea c03c c65e c93c 0c9f ebbb 0d10 44bc
00000250: 9304 383d ffe5 8e3c 1725 f2bb ea4f 373d
00000260: 4680 3bbc 1e25 fe3b 7b48 85bd 677a 6fbd
00000270: 2198 373b df10 62bd 92b8 9c3d f780 f3bc
00000280: a465 0a3e 499f 503e 1c3f da3d ffcd 813d
00000290: 9b3f d03c 1bdb 833d 7f31 3cbd a1b0 863d
000002a0: 4f0e bfbd c900 b23c 189f cb3c e5a5 ca3b
000002b0: 160f 7b3d f7e1 8fbb 9fe9 d7bd 59bf 07bd
000002c0: 3811 ba3c caf2 09be b328 79bd 3091 36bd
000002d0: 19a9 e1bc 8f6d 23bd 1b1d 01bd a62d 66bd
000002e0: 862e 8fbc 2861 763c 6d08 8d3c 9bd9 a2bb
000002f0: 6fa1 ea3c a968 843d 337d b3bc 9e3f 2ebc
00000300: 8653 443d d393 6abd b1c3 41be 13e6 3fbd
00000310: fe11 18bd 709f 3b3d ab1b b33c b50c b23d
00000320: f055 403d 452f cf3d 6826 9e3d 712c 683d
00000330: 0638 1a3d 300c 5c3d b173 da3d d837 293e
00000340: 422a e4bd 0608 663c 128a 0bbe 3821 40bd
00000350: c5a3 47ba 276a a738 2d9f f1bd e6bc cb3c
00000360: 2beb 823d b893 423d 5db7 08bd c846 edbc
00000370: 5ff5 69bc 2160 ac3c 562c 273d 980a 8b3d
00000380: fdd3 36bd c1ab 8ebc 37ed c7bd ad80 a43c
00000390: 41bb 2b3c 35ec bdbc bc85 9bbb ab12 35bc
000003a0: b1c3 33be 4db5 19be fae7 193c b71e a1bc
000003b0: 3213 b73d e2d8 69bd 39c5 87bd 3176 133b
000003c0: 2af5 16be 618b 91bd 1cff efbd 4a89 acbd
000003d0: a03f 973c 0d56 71bd ddff 4fbb 4f1c c6bb
000003e0: 62d7 443d b0f5 b43d 28d7 42bd 4b67 4f3d
000003f0: 4839 763d a354 e0ba 0064 0cbe bc7d 3b3c
-0.06083257 0.021415927 0.025533522 0.048805505 -0.116071045 -0.0015994016 -0.11639547 -0.06361659
-0.07478146 0.04918709 -0.071025364 -0.09266212 -0.057042193 -0.08020545 0.049577005 -0.0425732
0.061450515 0.04097216 -0.00870514 0.0076344437 -0.012691479 0.040706802 0.006107604 0.009119339
0.05972384 -0.08298311 -0.0135541735 0.056743152 -0.025966724 -0.034326956 0.09954124 -0.05960306
-0.04134779 -0.08411996 0.021527857 0.0743482 0.034858916 -0.10002408 -0.10953155 0.04086997
-0.10440961 -0.09459219 0.038221747 -0.059744973 -0.10749192 -0.028525654 0.039257165 -0.0028440044
0.020127427 0.030013045 0.07286101 -0.07141002 -0.10927971 -0.10761535 0.046670042 -0.039561313
-0.04382834 0.007396012 -0.17192872 -0.059443336 0.0150760915 0.05474496 0.07255114 -0.1095851
-0.11663367 0.041564837 0.060979523 -0.02762279 -0.011855793 0.07686339 -0.058694143 0.030689571
0.04505485 -0.003233935 -0.08586218 0.0035100514 0.00029103365 0.07862863 0.019724315 -0.059795406
-0.011583415 0.0905365 -0.07790512 -0.044749875 0.04313818 -0.102111995 -0.0467519 -0.13387448
0.005100493 -0.04812497 -0.0453628 -0.060923208 -0.040856995 -0.051808022 0.05122936 0.026570927
-0.020881066 -0.075847976 -0.26728433 -0.113413684 0.007349717 0.006487171 -0.038553167 -0.06400569
-0.008995386 -0.142803 -0.021895928 0.026513178 0.07336459 -0.018063156 0.1588831 -0.006045171
-0.21025515 -0.09465587 0.062305745 -0.0073962496 -0.0575027 -0.02488092 0.016493734 0.031268943
-0.017484214 -0.09939081 -0.044872485 0.014340871 0.07951119 0.030736513 0.05591285 0.015583838
-0.011735362 0.06901132 -0.027892247 0.01103909 0.026589813 -0.050399236 -0.07237391 -0.08088275
-0.05061394 -0.031985644 -0.05677937 -0.032798484 0.043349024 0.067835964 -0.06487903 0.005743037
0.023549473 0.024581324 -0.0071905907 -0.011966717 0.044926237 0.017443655 -0.0073896754 0.044753946
-0.011444157 0.0077558896 -0.06507965 -0.05846634 0.002801426 -0.05519187 0.076523915 -0.029724581
0.13515335 0.20373262 0.106565684 0.06338119 0.025420954 0.064382754 -0.04594564 0.06576658
-0.09328901 0.02172889 0.024856135 0.006184327 0.061293684 -0.004390951 -0.105426066 -0.033141468
0.022713289 -0.13471523 -0.06082983 -0.044572055 -0.027546452 -0.039899405 -0.031521898 -0.056195877
-0.017478239 0.015037812 0.017215932 -0.0049697882 0.02864143 0.06465275 -0.021910286 -0.010635285
0.047931217 -0.057269882 -0.18922307 -0.046850275 -0.037126534 0.04580635 0.021863779 0.0869383
0.046956956 0.10116438 0.07722169 0.056683008 0.037651084 0.05372256 0.10666598 0.16525209
-0.111408725 0.014039999 -0.13626888 -0.04690668 -0.0007615651 7.982953e-05 -0.117979385 0.024870347
0.06392511 0.047504157 -0.033377994 -0.028964415 -0.014279692 0.021041932 0.040813766 0.0678913
-0.04463576 -0.017415883 -0.09762042 0.020080889 0.0104816565 -0.023183921 -0.004746167 -0.011051814
-0.17555119 -0.15010567 0.009393686 -0.019667966 0.08939208 -0.0570916 -0.06629414 0.0022500867
-0.1474196 -0.071066625 -0.1171858 -0.08424623 0.018462956 -0.058919955 -0.00317382 -0.006045855
0.048056968 0.08835924 -0.04756847 0.050635617 0.06011322 -0.0017115067 -0.13710022 0.011443552

cnn_encoder.4.bias f4 [64]
00000000: 3224 9cbc 46d5 083d 7658 bd3c b9ee dc3b
00000010: 8df7 fe3c 6294 90bb b155 b8bb 4bcb be3c
00000020: 9d98 93bd 7709 60bd dfa4 1f3b 0343 8d3d
00000030: de96 83bb bf89 823d 5b60 913c 5e5a c7bb
00000040: 6f48 89bd af73 103d 988d 9abd 9476 103d
00000050: 241a 28bd 8191 273d 333e 873c 6a6f 72bd
00000060: 9836 ab3b fd0a 9f3d 95b2 9ebc a4c9 7bbd
00000070: cc69 43bd 063e 39bd ccfd 2cbd ced1 a63c
00000080: d361 7f3d 485f 87bd 7e81 9fbd b591 d3ba
00000090: 4b45 b7bc 9a40 6b3d a0ec bc3c f3f2 78bd
000000a0: 7eb8 27bd c227 d03d 05f0 a1bd 62e0 84bc
000000b0: db7b b0bc 3c94 26bd ab96 36bc 0e1d 85bd
000000c0: 2d68 6bbd 0fcb 153d b918 22bc 0adc 82bc
000000d0: 94d2 5a3d 4499 f23c a4e4 743d 0761 a13d
000000e0: 0a16 493d 2534 b53c c2b8 5ebb 55af 563d
000000f0: 8864 4abd b19f d83c fd0a 42bd 63b2 01bd
-0.019060228 0.03340652 0.02311347 0.006742325 0.0311239 -0.00441222 -0.0056254496 0.023290297
-0.07206843 -0.054696526 0.0024359745 0.06897547 -0.0040157875 0.06373929 0.017746141 -0.0060837707
-0.06703269 0.035266574 -0.07546538 0.035269335 -0.041040555 0.040910248 0.016509151 -0.059188284
0.005225014 0.07765768 -0.019372264 -0.061471596 -0.047708318 -0.045225166 -0.042234227 0.020363715
0.06234915 -0.0660997 -0.077883705 -0.0016141447 -0.022371909 0.057434656 0.02306205 -0.06077857
-0.04094743 0.10163833 -0.07907108 -0.016220275 -0.021543434 -0.04066871 -0.0111443205 -0.06499682
-0.057472397 0.036570605 -0.00989359 -0.015974063 0.05342348 0.029614098 0.05978836 0.078798346
0.049093284 0.022119591 -0.0033984636 0.052413303 -0.04941228 0.026443334 -0.04737376 -0.031664263

cnn_encoder.5.weight f4 [64]
00000000: 2bca 843f 28fe 743f 6b23 7a3f f7ca 793f
00000010: 922f 783f a974 7e3f 5f88 863f 9805 7d3f
00000020: 6489 853f eeae 7c3f 9a40 813f 204d 7b3f
00000030: 5522 7c3f 672d 7a3f 51d5 803f 557c 813f
00000040: bef5 7f3f 40dc 783f 774c 7a3f e296 863f
00000050: da19 7b3f 75cf 813f aca8 763f a7cc 793f
00000060: 786b 793f bf4e 703f ea23 763f 0b80 763f
00000070: d8c2 7c3f 8a0e 7e3f 2790 833f 1872 793f
00000080: 7348 7c3f 04a2 7e3f f7df 7f3f 6c70 803f
00000090: 082b 813f 9ba8 7d3f d52c 7d3f 6e90 803f
000000a0: ee76 743f 945f 7d3f d081 813f b255 833f
000000b0: d346 7e3f 4d49 883f 0658 7a3f a143 7b3f
000000c0: 8860 6c3f 63b8 7d3f 6db7 653f c970 7f3f
000000d0: 28ec 803f 1837 783f 1bad 863f 7630 7c3f
000000e0: 2a7f 753f fa1e 763f 5ec7 743f b94e 793f
000000f0: 7655 833f b1bb 803f 20e8 843f 889f 833f
1.0374197 0.9570031 0.97710294 0.97575325 0.96947587 0.9939676 1.0510367 0.9883666
1.0432553 0.9870442 1.009784 0.9816456 0.98489887 0.9772553 1.0065099 1.0116068
0.9998435 0.97211075 0.97772926 1.0514796 0.9808632 1.0141436 0.9635112 0.975779
0.9742961 0.93870157 0.9614855 0.9628913 0.9873481 0.99240935 1.0278367 0.9743972
0.9854805 0.99465966 0.9995112 1.0034308 1.0091257 0.99085397 0.98896533 1.0044076
0.9549397 0.98973966 1.0117741 1.0260527 0.9932682 1.064737 0.97790563 0.9815007
0.92334795 0.99109477 0.8973301 0.9978147 1.0072069 0.96959066 1.0521578 0.98511446
0.9589716 0.96141016 0.9561671 0.97385746 1.0260456 1.0057279 1.0383339 1.028306

cnn_encoder.5.bias f4 [64]
00000000: a1a9 063c ad49 73bd f4df 1cbd 8b1a a9bd
00000010: 300e c0bc 18fd ddbd a5f3 e7bc ecf0 32bd
00000020: 80b1 e4bb 9b37 e8bc d254 08bd 9641 7cbd
00000030: 21c5 ffbd a0a6 c3bd 2ecc acbc d53f 9bbd
00000040: 1cf6 9cbd 7d5b 1ebd e4c7 b6bd 4065 14bd
00000050: 8579 a0bd c6ff babd 0e3e e5bd ba99 cabd
00000060: 613f 9cbd a89b 56bd 11b9 83bd ab79 14be
00000070: a2e3 8bbb 4f80 44bc 30e7 23bc 2dca 67bd
00000080: c9e0 15be 5389 bcbc 511e e7bd af8a 2dbd
00000090: bbfc 75bc c3ef 82bc 78af cf3c e15c 10bd
000000a0: 49d5 76bd 90ff f8bc 0792 cbbd 81a2 9dbd
000000b0: 655e 16bd c1b6 96bd b4e8 c3bd f6ff ebbc
000000c0: dfec b2bd 348c 89bd e4bb f4bd c1b2 d1bb
000000d0: a04e ceba d147 0abd 5ec9 8a3c 666e 0fbc
000000e0: 4df1 7fbd 6444 ecbc 5565 adbd 8de7 b4bd
000000f0: 6c60 d73c 9850 96bd 6526 f4bd 5604 a2bd
0.008219154 -0.059396435 -0.038299516 -0.08257016 -0.023444265 -0.108392894 -0.028314421 -0.043686792
-0.0069791675 -0.028346827 -0.033284016 -0.061585985 -0.12488771 -0.095532656 -0.021093454 -0.07580534
-0.07664129 -0.03866147 -0.08924845 -0.036229372 -0.07835678 -0.09130816 -0.111934766 -0.09892602
-0.07629276 -0.05239454 -0.06431783 -0.14499538 -0.0042690793 -0.011993482 -0.01000385 -0.056589294
-0.1463653 -0.0230147 -0.11285079 -0.042368587 -0.015013869 -0.015983468 0.025352225 -0.035244826
-0.060262 -0.0303953 -0.09939962 -0.07697011 -0.036711115 -0.07359076 -0.09565869 -0.028808575
-0.08736586 -0.06716195 -0.119499 -0.006399483 -0.0015739985 -0.033759896 0.016941722 -0.008754348
-0.06248598 -0.028841205 -0.08466593 -0.08833227 0.026291095 -0.07339591 -0.11921386 -0.07910983

cnn_encoder.5.running_mean f4 [64]
00000000: 114f 86bf 0a2b 273e 9b98 71be a3e2 a9be
00000010: 4425 053e d5b7 763f 538b b4be ee1a f7bb
00000020: b6aa a1bf 7451 8bbd eb33 fabe fbbc a03d
00000030: 004d 8a3e f836 cf3d 142f 25bd 832f 04bd
00000040: 2794 323f d13b 62bf ec0e c33e 605a 6fbe
00000050: 164a 21be 4b07 863e b849 8fbe 8a82 303e
00000060: 0cde 25be b46a f0be d516 0cbf f31d 29bf
00000070: 42e8 37bf 9055 603e 82ac d8be 51a9 49bf
00000080: f74c 333e c396 58bf d4ef f53e e877 38be
00000090: 840e 01be f564 713e 4224 7a3d dc0e 7dbf
000000a0: 1232 eebe 76c2 c03e 3aac 99be ae40 923e
000000b0: 5678 afbe 6771 b03e 64e3 0e3e 2972 313e
000000c0: c994 b2be 9887 0f3f 259d 9b3f 4734 1ebf
000000d0: e231 95be 311e afbe 2560 83be 3c2e 1b3d
000000e0: f599 7d3e 883d 27bf f826 a1be 5182 a73e
000000f0: 1c80 e0be aa38 813d c729 3d3f af16 69bd
-1.0492879 0.16325012 -0.2359337 -0.33180723 0.13002497 0.96374255 -0.35262546 -0.007541052
-1.2630222 -0.06802645 -0.48867735 0.07848545 0.2701187 0.10117906 -0.0403281 -0.032271873
0.6975731 -0.8837252 0.38097322 -0.23374319 -0.15750918 0.2617744 -0.2798593 0.17237297
-0.16197985 -0.46956408 -0.5472234 -0.66061324 -0.7183877 0.2190764 -0.42319113 -0.7877398
0.17509829 -0.84605044 0.48034537 -0.1801449 -0.12603194 0.23573668 0.061069734 -0.988508
-0.46522576 0.37648362 -0.3001421 0.28564972 -0.34271497 0.3446152 0.1395393 0.17328705
-0.3487914 0.56066275 1.2157332 -0.6179852 -0.2913962 -0.34202722 -0.2565929 0.03788589
0.24765761 -0.65328264 -0.31475043 0.3271661 -0.4384774 0.06309636 0.7389187 -0.0569064

cnn_encoder.5.running_var f4 [64]
00000000: 9222 2e3f 3ea2 1f3f 9dd7 243f a927 af3e
00000010: 6b44 f93e 81b2 e93e 9ed9 993e 8d40 af3e
00000020: 984e 253f 5e10 0a3f 4b5a 953e 4111 0c3f
00000030: d86d c83e 9e19 1f3f a93a 843f ad8b 7d3e
00000040: 8f59 253f 1628 2a3f 6434 293f f6be c13e
00000050: b163 8c3e f1f7 023f 28f0 383f 0d72 313f
00000060: 1d3f e73e 0ff0 763f 3236 ae3e 82e9 e33e
00000070: 1590 043f ef71 c53e 8711 ca3e bfe9 a23e
00000080: e95d 863e e4b4 fe3e fe2c a53e 02ca 983e
00000090: 36cc 5e3f b58b 4c3f 63bb 5b3f 383d 0a3f
000000a0: 81f9 5a3f 25b2 963e 6c21 ba3e 2fe8 1f3e
000000b0: 0d74 c93e c303 c53e 6eac e23e 44ad 923e
000000c0: a8d9 5a3f fc04 973e 3ca9 093f 4381 e23e
000000d0: 2b33 7d3e e8d1 dd3e a2b4 0f3f e84e 193f
000000e0: 53b8 ab3e 4a8f 0c3f 31c6 7e3e 93eb bb3e
000000f0: aa6d 4a3f ba5e b03e d6fe 853e 531e 043f
0.680215 0.62356937 0.643915 0.34209946 0.4868501 0.45644 0.3004884 0.34228936
0.6457305 0.53931224 0.2917045 0.5471383 0.39146304 0.62148464 1.0330402 0.24760313
0.6458978 0.66467416 0.66095567 0.37841004 0.27419809 0.5115958 0.7224145 0.6931465
0.4516534 0.9646005 0.34025723 0.4451409 0.5178235 0.38563487 0.39466497 0.3181896
0.26243523 0.49747384 0.3226089 0.2984162 0.8703035 0.79900676 0.85832804 0.5399966
0.8553696 0.29432788 0.36353624 0.15615915 0.39346352 0.38479432 0.44272178 0.28647816
0.8548837 0.2949599 0.53773856 0.44239244 0.2472655 0.43324208 0.56135 0.59886026
0.33539066 0.5490614 0.24880292 0.36703166 0.79073584 0.3444727 0.26170987 0.5160877

lstm.weight_ih_l0 f4 [256, 64]
00000000: 0c5a 5f3d 2326 1bbe ad49 39bc 7cd3 d53c
00000010: ac95 01bd 1db4 0bbe 1ec2 62be 54c9 2bbe
00000020: 87da f83d dc95 f6bd 2b6f 2abe b671 9ebd
00000030: f9e3 9bbb 5140 893d 37df 033e f891 243d
00000040: da38 973d bd17 0dbc 6c61 2bbe afc9 45be
00000050: fbce 063e 0c84 86bc 2793 14bd 4f16 a53c
00000060: 905f e5bd a863 163c 2461 a3bb 4818 22bb
00000070: c5d0 dcbd b00e 0fbe f99a 78bd d6d2 c7bd
00000080: 16d0 4dbe bded 68bd 3aaa df3d 205e 1ebe
00000090: 3d4f fe3c c9fe 91bd 84a1 6abe 9da1 223d
000000a0: 9349 63bd e916 523d 3ab0 56be 0d2b 13bd
000000b0: c45d 8bbd 323a 74bd 2646 e5bd f5e2 953d
000000c0: 229c 03bd b0de debd ddc1 393d 7aeb 0bbd
000000d0: 5461 623e f860 34be 2287 a33b 0072 da3d
000000e0: 6a34 debd dcec 17be 72da 82bc 09d1 ad3d
000000f0: 38a3 ad3d c6c8 b5bc 4e47 043e 56ff 35bd
00000100: e885 073e dce5 363c a067 dc3d 4d67 db3d
00000110: b85d 9cba 10a8 063e 1521 55bd f891 95bb
00000120: 00c7 afbc 6934 5f3c 632c e3bd 931c fabd
00000130: 7330 4f3c 307c df3d 4b84 ef3c f7e0 43be
00000140: 6486 a33c 53a0 43bd 3b50 123d 08e2 0a3e
00000150: 8bcb 87bd a7e3 ce3d 1fcf a1bd 7204 55bd
00000160: 204d 043e ace0 81bc 9326 683d 557f b23d
00000170: d2d1 d93d d753 053b 4cb2 3ebe 9340 e03c
00000180: a4c1 02be ffe1 b43b 916f 933d dd0b c3bd
00000190: bc30 8ebc 50c7 8ebc cca8 d3bd 6442 e4bd
000001a0: 0753 a2bd 5ce9 aabd ad41 203d aa9a 853e
000001b0: adce c4bd f700 33be 5321 6fbd 5c40 d53d
000001c0: 0e8a aa3d 1fa2 3e3e 934b 2e3e 69e1 0e3e
000001d0: 4d6d 13be 0356 2dbd 4acd 9ebb 46a0 c6bc
000001e0: 2a7c 4cbd 02d8 073d 365c 913d d79d 09bd
000001f0: ca7e ebbc 9585 d53d 6e0d b8bc e1ff 253d
00000200: 9592 913c 1b66 ca3d 2343 ccbd 0899 6bbd
00000210: 6ecd 18be 946b 613d 9a5f 9ebd bffe a73d
00000220: 1623 583c a838 b1bd 1f21 0f3d 6576 bf3d
00000230: 5ab0 653d 2f9e 043c 64d2 2cbd a2b9 a8be
00000240: 7d71 e4bd d807 eb3d 601a 19bb 2cba 473e
00000250: 187b bb3d c0ac a7bc 15f2 343d d886 4fbe
00000260: 62f3 c3bd 2ec2 47be 9b73 e4bd 1f9a 00be
00000270: afa8 ffbd 0171 30bd fe38 c43a 227d de3c
00000280: 9480 abbd 3159 b33d 7f26 a3bd d55c 54bd
00000290: 8a8b acbd 1d1a 8c3d 204d d53c a9ce 8fbd
000002a0: 0dca 8e3d be62 243e 67d0 19bd 5c65 fd3d
000002b0: 974f 1fbe 75ad ea3d 9851 3abd 2d86 94bd
000002c0: 6e9f 023c 3031 b6bd e985 b8bc e5ac 78be
000002d0: b6cb 0a3d 2e36 18bc a7ea b6bd 06ac 633c
000002e0: 1bc3 b03d cc26 9fbc 628b 8abd a6a4 c3bd
000002f0: ec5f da3d 8143 c13d 374c 45be 72f1 7f3d
00000300: 9674 8f3d c7b2 c83c 316a abbc 53cd 8f3c
00000310: 3be6 93bc 1dda 69be 4478 16bd 1aa7 3b3e
00000320: 2e48 16bd 7d85 f33e 77c5 2cbd 63f6 f4bd
00000330: be61 e93d a1f2 97bc fe90 bc3d d8a0 e3bb
00000340: 2d12 8ebe 1a04 e6bd 16a0 1d3e 6ef5 953d
00000350: 17ba e13c de4e 8fbd 86fc 633d 1c0f 94bd
00000360: 8cbc d63b 2fb3 d3bc 73de 0f3e e268 80bb
00000370: fd42 afbd 6ea2 eabb 0314 1abd 640c 17be
00000380: 30b7 1c3c d330 473e b5a6 663e 6ed8 a93e
00000390: 8370 07bd a9ee 513d c668 41bd a47b a0bd
000003a0: e3a4 e9bc feaf 09be 283e 893d 10ed a53d
000003b0: b720 1c3e e3a8 88bd fb5c 15be d5aa 953d
000003c0: 3222 61bd c65b 703d ef02 bcbc 870c d43d
000003d0: e8e8 623d 966d 3bbb 6b83 b7bd c402 293e
000003e0: acd8 acbd af10 e63d f56f 99bd cf19 2abd
000003f0: 6964 a83d b572 adbe 3bd4 e73d f26c 833e
0.054529235 -0.15151267 -0.01130907 0.02610182 -0.03163688 -0.13642927 -0.22144362 -0.1677602
0.12151056 -0.12040302 -0.1664397 -0.077365324 -0.004757401 0.067017205 0.12878118 0.04017827
0.073838905 -0.008611617 -0.16736382 -0.19315217 0.13164894 -0.016420387 -0.036273148 0.02015224
-0.11199868 0.009179033 -0.0049859453 -0.002473371 -0.10782007 -0.13970447 -0.06069467 -0.09757011
-0.2009891 -0.05686735 0.1092114 -0.15465593 0.031043643 -0.071286745 -0.22913176 0.039704908
-0.055490088 0.05129138 -0.20965663 -0.03592973 -0.06804994 -0.059625812 -0.111950204 0.07318679
-0.03213132 -0.10882318 0.045350898 -0.034160115 0.2210744 -0.17615116 0.0049904743 0.10666275
-0.10849841 -0.14836448 -0.015973303 0.08487136 0.08478397 -0.022190463 0.12917826 -0.04443296
0.13234675 0.011163201 0.107619524 0.107130624 -0.0011929786 0.13150048 -0.052033503 -0.00456452
-0.021457195 0.013623335 -0.110924505 -0.12212481 0.012645829 0.10912359 0.029237887 -0.19128786
0.019961543 -0.04776032 0.035721045 0.13562787 -0.066306196 0.10102015 -0.07900833 -0.052006193
0.12920046 -0.015854202 0.056677412 0.08715693 0.10635723 0.0020344162 -0.18622702 0.027374541
-0.1276918 0.005520105 0.07199014 -0.09523747 -0.017357223 -0.017429024 -0.1033493 -0.111454755
-0.079259925 -0.08345291 0.039125133 0.26094562 -0.09609733 -0.17480837 -0.05838139 0.10412666
0.08327113 0.18616532 0.17021017 0.13953175 -0.14397164 -0.042318355 -0.0048462497 -0.024246346
-0.0499231 0.033164985 0.07097666 -0.033597793 -0.028746981 0.104258694 -0.022467341 0.04052723
0.017770091 0.09882756 -0.09973743 -0.05751899 -0.14922115 0.055034235 -0.07733078 0.08202886
0.013191959 -0.086533844 0.034943696 0.09348754 0.056076385 0.0080943545 -0.04219283 -0.32954127
-0.11154459 0.114761055 -0.0023361668 0.19504613 0.09154338 -0.020468116 0.04417618 -0.20266283
-0.09567906 -0.19507667 -0.111548625 -0.12558793 -0.12483346 -0.04307652 0.0014970598 0.027159277
-0.08374134 0.08757246 -0.07966327 -0.051846344 -0.084250525 0.06840918 0.026037753 -0.07021839
0.06972132 0.16053292 -0.037552264 0.123728484 -0.15557705 0.114588656 -0.04548797 -0.072521545
0.007972581 -0.088961005 -0.02252479 -0.24284704 0.03388568 -0.009290261 -0.08931475 0.013895994
0.086309634 -0.01942768 -0.067648664 -0.095528886 0.10662827 0.094367035 -0.19267355 0.06248612
0.07004659 0.02449931 -0.02092466 0.01755396 -0.018054118 -0.2283711 -0.036735788 0.18325463
-0.03668993 0.4756278 -0.042180505 -0.11961057 0.11395596 -0.018548312 0.092073426 -0.0069466643
-0.27748242 -0.11231251 0.15393099 0.073222026 0.027554555 -0.069974646 0.055660747 -0.072294444
0.0065532383 -0.025842277 0.14049701 -0.003918753 -0.08557699 -0.0071604764 -0.03761674 -0.1475082
0.00956516 0.19452219 0.22524531 0.33172935 -0.033066284 0.051252995 -0.04721906 -0.078360826
-0.028521007 -0.13446042 0.067013085 0.08101857 0.15246855 -0.066728376 -0.1458625 0.07307974
-0.05496425 0.058681272 -0.022950618 0.10353952 0.055397898 -0.0028599254 -0.08960613 0.16504961
-0.084397644 0.11233651 -0.07492057 -0.04152852 0.08222277 -0.33876577 0.113197766 0.25669056

lstm.weight_hh_l0 f4 [256, 64]
00000000: f4b2 333c 4db2 053e c628 88bd be87 d5bd
00000010: 2a62 73bc 55a5 703e 16a8 013e bc9d 8fbd
00000020: 8217 36bd 20f5 1dbe b8ca a7bd 1762 753d
00000030: c588 2e3e c02f 0cbe 3ce9 073e 056f 05be
00000040: 5741 2bbe 1c31 c3bd e31c aa3d 52f2 143e
00000050: aa9e 223e 11eb aa3e fdae 2abe 74dc 25be
00000060: e469 c33d 468a 00bc f2ac 37bd 5529 42bd
00000070: c378 57be cbcd 04be 2439 13bd e6db adbd
00000080: 1c83 6fbe 9e58 aa3b d84a 903c 559b 8fbe
00000090: 9075 a13c b7bd 11be 2d14 243c 0028 fdbd
000000a0: b074 25be 882a 66be 6554 08bd 30e6 0a3e
000000b0: 5485 0a3c 0eda 283e 4e9b 813e f73e eabd
000000c0: e98f 6dbe 600e 373e 087d 153e 19a9 7f3d
000000d0: c1be 61bd c7b5 5b3e 870b 4fbe 4a68 c03d
000000e0: ca61 ff3b d402 95bd 2a01 3b3e 7c55 7fbe
000000f0: 47c4 58bc 5d16 cf3c e4c4 4abe d340 063c
00000100: bc30 843d a97b 003e 9cac b9be 047f 803e
00000110: 96ba 58be f864 e03c fdbf 893e bd58 acbd
00000120: b429 8cbe e766 453c 191e c4bd b97c 00be
00000130: b7b8 143e 9231 1fbe 5331 96bd 8972 6b3e
00000140: a081 34bd 573a a9bc 697d c33d 693a ec3b
00000150: 60f3 263d a1a3 cbbd b779 4cbd 35eb 1cbe
00000160: d4f7 053d cb8f 8d3e a7b6 cf38 44d1 10be
00000170: 84ff bdbd 3fe6 293e 4312 6f3e 27d0 8fbd
00000180: 3d6e 213d c0f9 c3bd 1f0e d03b 33e4 4b3e
00000190: 7ea0 533e 7b93 17be 9484 5fbd d58b 953e
000001a0: 8796 653e 7e6f 13bd dc76 983c dd2f d1bc
000001b0: 2475 283e be2e 01bd 962e 07be 2267 413d
000001c0: 1ab1 0ebe 98dc ebbd 04c4 6a3e cb01 8e3d
000001d0: eb24 5b3c 9700 e53b 50cd 43be ae39 f9bc
000001e0: f324 a43b 4846 bcbd 24a5 c33d 2535 9bbd
000001f0: 7187 433d fe25 283e e34d 91bd 8a88 3d3e
00000200: a86e d73d 94ec 9e3c ad71 003e e7e4 ddbc
00000210: 9f8b ec3b 5936 aebd 0bdf 053e 5c31 46bc
00000220: 5181 d3bd 1125 42be 913b 8a3d a983 c7bc
00000230: 9b57 b03e 80b3 d7bb f6c9 7cbe b79b 2a3e
00000240: 998b c6be c8c4 b03d 009c 143e 238b 93bd
00000250: e6dd a63d 54a0 a63e e2cf 2dbc 3c5e a7be
00000260: b3bb b5bb 8ec9 e23b fad3 aa3c 4ccc b83d
00000270: 33d2 b23e 36bc fbbb f7be 3a3c 55f7 3abd
00000280: e955 2d3d a45c ed3c 0ad8 123e e756 933d
00000290: 7b74 a93e 80a3 14be 6637 0f3d b9d1 ffbc
000002a0: 5e60 1ebd ff37 bfbd 61eb b2be 378f 1d3e
000002b0: d21c 5d3d 8535 d93c bd2d 30be e84e b53d
000002c0: a4f0 b7bc 78c3 e6bc acb1 043d cf4d 07be
000002d0: 0574 d33d 98fe c8bd bc98 ccbd b7dc 41bd
000002e0: bb69 2cbe 7c8d f03d d751 c93d 7fe7 14bc
000002f0: 050b 59be 9ed3 2d3b 6c83 c53b 84fd 6f3e
00000300: fef1 8abe e09f b4bc f816 b13b be9f 723b
00000310: 188c 413e 3ed3 ab3c 4573 eabd 9702 39bd
00000320: 6abb 8ebe 4a05 fabd dd58 b0bd 5d07 d83d
00000330: 33de f0bd de57 c6bd 1ab4 68be 120a 06bd
00000340: a81b b2be 9a24 613d 3ca4 38be 00ec cd3d
00000350: 74cd d43e af74 873d fd94 23be 4d84 b83d
00000360: 5512 cdbc 6ef0 173d 651e 153e 74ec f53c
00000370: 0af5 c1bd ada4 bfbd ffe1 a93e 9a02 d4bd
00000380: c830 913e df6a 2ebe e190 0fbe 7de7 6cbe
00000390: 959f b7bd d2cd 793e 7f7d d6bd 23be 113c
000003a0: bc1e 813d 1449 f1bd 3535 80bc 7a3e 03bd
000003b0: 3e01 6d3e 419f c73c d0f3 e63d 661d b2bd
000003c0: b192 a63d 353d 043f b0da 323e 3d26 95be
000003d0: b689 17bd 964c 09bc f7fb 0dbe e89f c73d
000003e0: 57b0 6e3e fe02 aebe 07cc 083c 5060 4d3d
000003f0: e4fb 263e 17f7 12bd ab7f 4fbe 906e 023e
0.010967959 0.13056298 -0.06648402 -0.104262814 -0.014854947 0.23500569 0.12661776 -0.07012507
-0.044456013 -0.15425539 -0.081929624 0.059908 0.17044361 -0.1369009 0.13272566 -0.13030632
-0.16724144 -0.09530851 0.08306291 0.14545563 0.15880838 0.33382466 -0.16668315 -0.16197377
0.095416814 -0.007845467 -0.044842668 -0.0474027 -0.2104216 -0.12969129 -0.035943165 -0.08489208
-0.23389858 0.0051985523 0.017613813 -0.28048196 0.019709378 -0.14232527 0.010014576 -0.12361145
-0.16157794 -0.22477162 -0.03328361 0.13564372 0.008454639 0.16489431 0.253138 -0.11437791
-0.23199429 0.17876577 0.14598477 0.062417123 -0.055113558 0.21456061 -0.20219241 0.093948916
0.00779364 -0.0727593 0.18262163 -0.24934953 -0.01323039 0.025279218 -0.1980167 0.008194166
0.06454608 0.12547173 -0.36264503 0.25096905 -0.21164927 0.027391896 0.26904288 -0.08415363
-0.27375567 0.01204846 -0.09576053 -0.12547578 0.14523588 -0.15546253 -0.073336266 0.2299291
-0.044068933 -0.020657701 0.095454045 0.0072091115 0.040759444 -0.09943319 -0.049920764 -0.153241
0.03270705 0.27648768 9.904551e-05 -0.14142329 -0.09277251 0.16591738 0.2334681 -0.07022124
0.039411772 -0.095691204 0.0063493396 0.1991127 0.20666692 -0.14802353 -0.054569796 0.29208246
0.22420703 -0.035995 0.018611364 -0.025535518 0.16450936 -0.031538717 -0.13201365 0.047217496
-0.13934746 -0.11516684 0.22926337 0.06933936 0.013375501 0.0069885957 -0.19121289 -0.030423012
0.0050092875 -0.091930926 0.095529824 -0.07578496 0.04773659 0.16420743 -0.07094934 0.18509117
0.10519153 0.019399919 0.12543364 -0.027086688 0.0072187926 -0.0850646 0.13073365 -0.012096729
-0.103273995 -0.18959452 0.06749643 -0.024354773 0.34441838 -0.0065826774 -0.24686417 0.16660963
-0.3877838 0.08631283 0.14512634 -0.072042726 0.081477925 0.32544196 -0.010608645 -0.32689083
-0.005546057 0.006921 0.020853031 0.090233415 0.34925994 -0.0076823486 0.011398069 -0.04564603
0.04231826 0.028974839 0.14340225 0.0719431 0.3309668 -0.14515495 0.03496494 -0.031227933
-0.03866612 -0.09336852 -0.34945205 0.15386663 0.053982563 0.026514778 -0.17204948 0.08852941
-0.022453614 -0.028169379 0.032396004 -0.13213275 0.10324863 -0.09814185 -0.09990069 -0.04732963
-0.16837208 0.11745736 0.09830063 -0.009088396 -0.2119561 0.0026523839 0.0060276296 0.23436552
-0.2713775 -0.02204889 0.0054043494 0.0037021483 0.18901098 0.020974752 -0.11447767 -0.045168485
-0.2787736 -0.1220804 -0.08610699 0.105482794 -0.11761131 -0.09684728 -0.22724953 -0.032724448
-0.34786725 0.054966547 -0.180314 0.10054779 0.41562998 0.066140525 -0.15974803 0.09009609
-0.025033155 0.037094526 0.14562376 0.030019976 -0.094705656 -0.09357581 0.33180234 -0.10352059
0.2835753 -0.17032956 -0.1402011 -0.23135181 -0.08965985 0.2439492 -0.10473155 0.00889543
0.0630469 -0.11781517 -0.015650371 -0.032042004 0.23145005 0.02436793 0.11276972 -0.086970136
0.08133448 0.51655895 0.17466235 -0.29130736 -0.036996566 -0.008380076 -0.13865648 0.097472966
0.23309456 -0.33986658 0.008349425 0.05014068 0.16307026 -0.035880174 -0.20263545 0.12737489

lstm.bias_ih_l0 f4 [256]
00000000: d5ba b3bc 308e 95bd 5478 b5bd da2c 953d
00000010: ac52 7fbb 3d0d 0bbe cb01 0dbe 48cf 5bbc
00000020: a92f e8bd 5272 6f3d d6c3 6e3d bcea 55be
00000030: 9906 1fbc ecc1 303d ed01 123e ab55 11be
00000040: f50b 4b3d 4111 8f3d 76bc 2cbe 0db3 5a3d
00000050: 0d0e 8e3c e6f0 d7bc f2ab ce3c ac22 a93d
00000060: e86d 3bbd 9f97 773d c392 18be c127 aa38
00000070: 2c5e 813d 8984 8e3d 38cc 553c 4b03 f2bd
00000080: 149d d6bc b220 5f3c da30 323d a7b5 813c
00000090: 6cd6 a23b 6461 0f3d bd20 b83b 83f7 0abe
000000a0: c1c7 443d d6e6 8bbb f2bb c6bd cdba 5a3d
000000b0: a20e d13d 63b6 26bd b0a3 243d 0357 6a3c
000000c0: 3337 ecbc f7d4 07bd 730e 2a3d cd73 353d
000000d0: baf7 c4bd 6d81 963d 12bb 8a3c 1468 e0bd
000000e0: e44a 88bd 061a 5a3d 0859 0e3e a25f 5dbd
000000f0: 2f3f 83bb b7a1 073d f4d1 61bb 20a8 10be
00000100: b173 8b3d 9a7d f93d 5c55 f63b 8ed8 c63d
00000110: 3064 cb3c fa52 3ebd 2b2a fbba 96b3 093c
00000120: 200b 7fbc 1c5d bc3d 9f8e c13c 9c0f a33c
00000130: 0f11 3d3e c973 34bd ec2e a03d 2ae7 76bd
00000140: 343a e43b bf8d 87bc f600 a0bd 86af 683d
00000150: 6d46 f03d ee38 c03d 6842 d33d d603 163e
00000160: 37aa cc3d ac18 18bd db8d cc3d 66fa 2cbd
00000170: 0e22 20bc f322 c43c 8595 753d e494 96bd
00000180: defd a73d 86f0 ae3d 8298 1b3e 5009 7abd
00000190: 16f9 0f3e db18 82bd fbcd 983d f70a e83d
000001a0: e47d 0a3e 84e2 d23d c64c 07bc 652a e13b
000001b0: 4994 353e 7b54 27bc 9145 c93d 206a 823d
000001c0: abd7 fa3c 02a6 773d 0cdc cb3d 8c1f ff3d
000001d0: e421 6c3d 6a33 da3b f450 1a3e 07ea 903d
000001e0: 1c04 393e 94d0 95bc e8d7 c13d f473 98bd
000001f0: 58f7 043d d47a a03d c756 e6bc e297 fb3d
00000200: d7fd a0bd a96d 53bd 8f06 f23b 930d 12be
00000210: ff3a 1abd deb9 9bbc a50e f1bd b7d7 b03d
00000220: 7247 843d 70a1 b2b8 75be 993d d07a c0bd
00000230: e47d 853d db76 e2bd 5810 c33d 7064 b53c
00000240: 9492 b5bd 59e5 dcbd eb77 6ebc 87f6 06be
00000250: c6de ecbd 9ba8 0cbe 184e 073d c9e4 f23c
00000260: d8df 7cbd 6f50 b9bd d797 813c 9d10 763d
00000270: 5505 033d 50ec 01be 3038 b2bb 5c16 c93d
00000280: 0a93 b8bd 49ad d13d 7357 ecbd 4fcc cc3d
00000290: 0623 83bd eb6b e03c ef14 883d ff82 e6bd
000002a0: 6930 e1bd 5e42 92bd f9b9 373d 5e33 953d
000002b0: 2012 f5bd 6546 2b3d 6975 87bc baa2 d439
000002c0: aa78 d3bd 440a 3a3d 9b18 57bd 83a9 9fbd
000002d0: bbf8 13bc b42d ae3d 2dc2 853d 2ca5 e3bc
000002e0: 0a8a da3d 2f54 b23b 22a6 af3b 1089 b73d
000002f0: 846a cfbc 3888 bf3d d8ad 22bd 7c29 f8bd
00000300: a4e3 bd3d 8b6c da3d 797a 97ba fefa 533c
00000310: 354b 98bd 832d fb3d ef34 2cbd 5094 b23d
00000320: 7443 5b3c bcd6 f0bc 2a77 e23d 514c b5bd
00000330: 5831 b93d 1d1d 083e e72b ee3d 4b06 f2bd
00000340: eb4f ca3d a440 92bc 4366 503d 008c dbbc
00000350: 2334 913d 176c d3bd 5ac4 253e 6236 48bd
00000360: 8252 89bd 6701 4dbc 49b4 a13c e398 b93d
00000370: fcf6 133e 38df 873c bf8b 133e 192b 63bd
00000380: c8df c93d 6580 9c3d 3ca9 b83d 68c7 03bd
00000390: a7c5 ec3d 1282 c93c 4807 96bd e09c 4dbd
000003a0: 9f7e 91bd e48d af3d 877e 56bc 36ae 153e
000003b0: 7cad d43d cfc5 993d a66b 693c 6e0b 1b3e
000003c0: 0380 b23d 8f96 c73d 9bda d13d 35ef 863d
000003d0: babf 41bc d409 743d 146f 9d3d 2458 3a3e
000003e0: 479d f73d 3f01 6a3d cce2 28bd 66f2 613d
000003f0: 90bc ac3d f64d 57bd 0406 1f3e 87bf b83b
-0.021939674 -0.07302511 -0.088608414 0.072839454 -0.0038959188 -0.13579269 -0.13770215 -0.013416119
-0.113372155 0.058458634 0.058292232 -0.20890325 -0.009706163 0.04315369 0.14258547 -0.14192836
0.04957195 0.06985713 -0.16868767 0.053393412 0.017340684 -0.026359987 0.025228474 0.08258566
-0.04575911 0.06044733 -0.14899735 8.1136364e-05 0.0631679 0.06958873 0.013049178 -0.11817034
-0.026197948 0.013618635 0.04350362 0.015833689 0.0049694087 0.03500499 0.005619137 -0.1357098
0.048042063 -0.004269461 -0.097038165 0.053400803 0.10207869 -0.04070128 0.040195167 0.014302972
-0.028834915 -0.033162083 0.041517686 0.04429989 -0.096175626 0.07348905 0.016934905 -0.10957351
-0.06654909 0.053247474 0.1390115 -0.05404628 -0.004005335 0.033113208 -0.0034457417 -0.14126635
0.06809176 0.1218216 0.0075175 0.09709273 0.024828047 -0.04646585 -0.0019162347 0.008404633
-0.015566617 0.09197447 0.023627577 0.019904904 0.18463539 -0.044055734 0.0782145 -0.06027905
0.006964946 -0.016547082 -0.07812683 0.056808017 0.11732183 0.093858585 0.103154 0.14649901
0.099934034 -0.037132904 0.09987994 -0.042230986 -0.009773744 0.023942446 0.059957046 -0.073526174
0.08202718 0.0854197 0.15194896 -0.061044037 0.14059862 -0.06352397 0.07461163 0.113302164
0.13524586 0.10297111 -0.00825805 0.006871509 0.17732348 -0.010213013 0.09827722 0.06367898
0.030620417 0.06046105 0.0995408 0.12457189 0.057649508 0.006658961 0.15069944 0.07075887
0.18067974 -0.018287934 0.09465009 -0.07443991 0.032462448 0.078359276 -0.02811755 0.12284829
-0.07860916 -0.051618252 0.0073860358 -0.1426299 -0.03765392 -0.019009527 -0.11770371 0.08634894
0.064589396 -8.5177715e-05 0.0750703 -0.093984246 0.06518152 -0.11057826 0.09524602 0.022142619
-0.08865848 -0.10785932 -0.014554958 -0.1317998 -0.11565928 -0.13736193 0.03303346 0.029650109
-0.06173691 -0.090485446 0.015819473 0.060074437 0.031987507 -0.12687802 -0.005438827 0.09818718
-0.090124205 0.1023813 -0.11540117 0.09999906 -0.064031646 0.02739521 0.06644618 -0.11255454
-0.10995562 -0.07141565 0.04485509 0.07285188 -0.11966348 0.04181518 -0.016535478 0.00040557032
-0.10325749 0.045419946 -0.0525137 -0.07796004 -0.00903147 0.08504811 0.06531177 -0.027788721
0.1067086 0.0054421644 0.0053603807 0.089616895 -0.025319345 0.093521535 -0.03971657 -0.121172875
0.09271935 0.10665234 -0.0011556885 0.012938259 -0.074362196 0.1226454 -0.04204267 0.087196946
0.013382781 -0.029399268 0.11057885 -0.08852447 0.09042615 0.13292356 0.116294675 -0.118176065
0.098785244 -0.017853089 0.050878774 -0.026800156 0.070900224 -0.10323351 0.16188183 -0.04887999
-0.0670519 -0.012512541 0.019739287 0.09062364 0.14449686 0.016585931 0.14408778 -0.055461023
0.09857136 0.07641677 0.09016654 -0.03217259 0.11561137 0.024598155 -0.073256075 -0.050198436
-0.07104229 0.08571985 -0.01309169 0.14617237 0.10384652 0.07508432 0.014246857 0.15141079
0.087158225 0.09745514 0.10246774 0.06588594 -0.011825496 0.059579685 0.07687202 0.18197685
0.12090545 0.057130095 -0.041231915 0.05516281 0.08434403 -0.052564584 0.15529639 0.005638066

lstm.bias_hh_l0 f4 [256]
00000000: 4257 4dbd 25ae 07be e1ee 8bbc fe0d 8f3d
00000010: 62bb 36bd 698a 8a3d 643a edbd 8385 0dbe
00000020: 2ec2 31bd 3484 1a3d db96 a6bd a92f 39bd
00000030: b932 88bc 7bcf 73bd 8485 3fbd bbfd 5cbd
00000040: eb77 a6bd 2a8d 3d3d b329 93bd a944 7ebd
00000050: e0c5 52bd ebc6 063b fceb 0bbe aa37 86bc
00000060: 1e8f 923c 2e6f 10be 110b 7ebd efdd 45bc
00000070: 19e1 0c3d 583a edbd cec6 96bd 7862 b4bd
00000080: d235 08be e25f 17be 7282 943d b01f c53d
00000090: 9f09 92bd 449d ddbd b868 41bc 7eb5 ffbd
000000a0: 6d4e 6cbc 56b4 6bbc 86f7 ddbb afde 0d3d
000000b0: f0b4 693c 5074 e83d 83c6 c7bd 0a21 15be
000000c0: 5134 3a3d a1c0 a3bd e7d1 afbb fb35 de3c
000000d0: 7e73 a1bd b6fe bb3d 03c5 86bd 1477 0e3d
000000e0: 07f9 4abb b4ce 373d 267d 043e 3559 8d3d
000000f0: aff0 4d3c 76f6 cf3c 5623 d23d c7b8 10be
00000100: 1323 853d 4d10 833d a7a6 283e 30b3 3dbd
00000110: 29dc 27bd eaa3 6ebc f008 c73d 6582 cb3d
00000120: 16e2 373e d2b2 073e dc87 183c d2e9 253e
00000130: db4d 3d3d fda2 083d fa3f fb3c 0ead adbd
00000140: f5b5 6c3d 2d57 133d 2f7a cd3c fdf0 853d
00000150: a70b 80bd c675 04be b49a 2d3e 8a13 203d
00000160: 4b9e 0fbd 7f6e a73c bb70 3fbd a965 abbc
00000170: d94e 54bd dee5 023e 4a55 043e 659e 71bc
00000180: 2434 65bd 9a9c 45bd 2566 ac3d a48e d43d
00000190: 83a2 3a3e f2e2 48bd 975a 9fbc 332c 583c
000001a0: 3078 9f3c 3f0e f2bc 00d4 4ebd ac8c a13d
000001b0: 1196 31bd e47e a23d c50e a03b 4109 e03d
000001c0: 14b7 053e 374c 883d bbbb bd3d 36aa 66bc
000001d0: 18ca ad3d 87e8 293e 8158 b53d fb46 9bbb
000001e0: b781 debc 7c38 a83d dc14 f53c d3ff 663d
000001f0: 5c53 9a3c 24e3 2c38 9a16 753d c7b2 663d
00000200: 0051 69bc 77a1 eabd 4d74 483d 19eb a3bd
00000210: e9fa 91bd 3263 a43d d93d b4bd db1d 1bbe
00000220: f690 a53d 9441 8e3d 5c00 a23d f927 c8bc
00000230: 12f7 d43d 2cad f839 d0a3 b6bd c151 8c3d
00000240: e124 e83d ab48 953d b387 45bd 5887 81bc
00000250: ee14 923d 6be1 d23c 1803 813d d4e7 50bd
00000260: cd26 6bbd 2e07 ddbd 3ad3 b5bd af0b f73d
00000270: ee43 bb3d a219 473c 7f95 3e3c 52e1 9bbd
00000280: df40 473c f3f4 0fbe 06c5 b1bd f741 d33d
00000290: 7f88 d5bd 6714 473d 5c2c d9bb a889 fcbd
000002a0: c925 b6bd 36eb 16bd 41e4 af3d 8ef1 c63d
000002b0: 339d 683d 6e8a 9cbd f609 96bd d9cf ab3c
000002c0: 4299 a63d c932 a7bc e008 d43c 5125 be3d
000002d0: 535c 133d eddf bcbc 6648 a13d d7c9 c03c
000002e0: 539c c23d 51f4 67bd 3aee d43d 66c8 7f3b
000002f0: a845 9d3d c495 1a3d e5d8 97bd f807 9dbd
00000300: 8f69 093c dbde d33d 82ea a63c adc1 a6bc
00000310: a0f5 ea3d 87f4 ed3d af14 30bd 836d 023e
00000320: 30fe ecbc dd7f a7bd a6f0 f53d 50f1 74bd
00000330: a6d3 13bd 645a ea3c fd85 193d d3c8 eebd
00000340: 9067 293d 003c ae3d cbae 6fbd e138 5dbd
00000350: 8861 87bd 4465 89bd 0d8c c83c 1f7d dd3d
00000360: 84ba cb3d 1e18 9d3d 4bda 6ebd 6b5e cc3d
00000370: 22aa b93d 5255 843d 2c3c 943d 583c b2bc
00000380: 897c 723d 6174 00be 292a 9dbc f58a fe3d
00000390: 066d 4a3d b719 953d e907 4f3d b249 2e3e
000003a0: 59bd df3d 8d51 943d e65e 483d d380 863d
000003b0: d25b 673d a76b 9ebc 5f7e 423d 3823 8dbd
000003c0: 6c57 2d3c 6f00 943d 3bbd 81bd f0db 64bc
000003d0: ac29 773d c90d 10bd 5495 013e 31ec 173d
000003e0: 3a23 86bd 8296 10bd 5465 87bc 23f2 a7bd
000003f0: 1cf5 bb3d 2e05 133e c5db 913d 50cd 293d
-0.050132044 -0.13250025 -0.01708168 0.06985091 -0.044612296 0.06764681 -0.11583403 -0.13820462
-0.043398075 0.037723735 -0.08134242 -0.045211468 -0.016625749 -0.05952404 -0.04675819 -0.053952914
-0.08128341 0.046277203 -0.07185688 -0.0620772 -0.05145824 0.0020565342 -0.1366424 -0.016383965
0.01789051 -0.14104912 -0.062022272 -0.012076839 0.034394357 -0.11583394 -0.07362138 -0.08807844
-0.13301781 -0.1478267 0.07251443 0.096251845 -0.07130741 -0.10821012 -0.011804752 -0.12485789
-0.014422995 -0.014386257 -0.006773892 0.034636196 0.01426433 0.1135031 -0.0975466 -0.14563385
0.04546005 -0.079957254 -0.0053655985 0.02712535 -0.078833565 0.09179442 -0.06580546 0.03478153
-0.0030971186 0.04487486 0.12938365 0.069017805 0.0125695905 0.025386076 0.10260646 -0.14132987
0.065008305 0.063995935 0.16469823 -0.046313465 -0.040981445 -0.014565447 0.097185016 0.0993698
0.17957339 0.13251808 0.009309735 0.16202477 0.046216827 0.033358563 0.030670155 -0.08480273
0.057790715 0.03597181 0.025082676 0.065401055 -0.062522225 -0.12935552 0.16953546 0.039081134
-0.03506307 0.02043843 -0.046738368 -0.020922499 -0.051833007 0.12783 0.1292316 -0.014747237
-0.05595793 -0.04824505 0.0841792 0.10378769 0.18226056 -0.049044557 -0.019452376 0.013194132
0.01946649 -0.029547809 -0.050495148 0.07888159 -0.043356005 0.07934359 0.004884573 0.10939265
0.1305812 0.06655162 0.09264322 -0.014078667 0.08485812 0.16592608 0.088547714 -0.004738686
-0.027161462 0.082138985 0.029917173 0.056396317 0.018838577 4.1219537e-05 0.059836008 0.05632284
-0.014240503 -0.11456578 0.048939038 -0.08003826 -0.071279354 0.080267325 -0.08800859 -0.15148108
0.0808429 0.06946102 0.07910225 -0.024433123 0.103986874 0.0004743127 -0.089179635 0.06851531
0.11335159 0.07289251 -0.048225116 -0.015811607 0.07132898 0.025742253 0.06299418 -0.05100234
-0.05741005 -0.10792385 -0.08878179 0.12062775 0.09143816 0.012152107 0.011632322 -0.07611336
0.012161463 -0.14058284 -0.08680157 0.10315316 -0.10426425 0.04860344 -0.0066276025 -0.12330943
-0.08893926 -0.03684541 0.08588458 0.09714042 0.05679054 -0.07643591 -0.07326119 0.020973133
0.081347 -0.020409958 0.025883138 0.09284461 0.03597672 -0.023055995 0.07875137 0.023533745
0.09502473 -0.056629483 0.103970006 0.003902936 0.076793015 0.037740484 -0.07414416 -0.076675355
0.008386984 0.10345241 0.020375494 -0.020356024 0.114726305 0.116189055 -0.042988475 0.12737088
-0.0289298 -0.08178685 0.12008791 -0.059800446 -0.036090516 0.028607555 0.037481297 -0.11659398
0.04135853 0.08507538 -0.058516305 -0.054009322 -0.066103995 -0.06708768 0.024480844 0.108148806
0.099476844 0.076706156 -0.05831365 0.09978946 0.090656534 0.06461586 0.072380394 -0.02175729
0.059200797 -0.12544395 -0.019185143 0.12428848 0.04942038 0.07280295 0.050544653 0.170203
0.10924787 0.07242117 0.048918627 0.0656754 0.05648405 -0.019338442 0.047483798 -0.06891483
0.010579925 0.07226645 -0.06334921 -0.013968453 0.060342476 -0.035169397 0.1265462 0.037090484
-0.06549688 -0.035299785 -0.01652781 -0.08200481 0.0917761 0.14357445 0.07121996 0.041455567
